model/dqn_policy_net_episode_2590.pt (torch, 334295 bytes, 6 tensors)

net.0.weight f4 [128, 336]
0.12324277 -0.22541109 0.048372287 0.06971372 -0.17355825 -0.23740856 -0.036319572 -0.015656805
0.10606726 -0.028435593 -0.1908257 0.03449507 0.091195285 -0.24379823 0.0036632766 0.06530252
-0.16554797 -0.091383345 -0.022002898 -0.051033076 -0.051127635 0.08714482 -0.11494426 0.08281095
-0.15011947 -0.10009087 -0.02174239 -0.027315246 -0.11570918 -0.03728962 0.08332192 0.05685045
-0.20490728 0.017932553 0.01437939 -0.10862083 -0.02180834 -0.103866845 -0.08895606 -0.018826127
0.030945705 -0.17843032 0.14117916 -0.11516905 0.04570827 -0.22116539 0.0702681 -0.022024307
-0.0022163203 0.08171575 -0.060341015 -0.08194985 -0.037979405 -0.024482122 0.047740553 0.2105549
0.15385838 -0.27428246 -0.16669811 -0.058542598 0.07148522 -0.0044204975 0.000158252 -0.046527505
-0.052280862 0.03717116 -0.22836116 -0.011538023 -0.16028331 0.05532874 -0.19833219 0.11693404
-0.15627806 -0.030888781 -0.072964355 0.15422833 0.024835585 0.052955613 -0.042901978 0.071122654
0.16650581 0.112312146 0.09031764 -0.10692921 -0.08921148 -0.061828796 -0.040556997 0.10013382
-0.035575036 -0.088149294 0.033882525 0.074869126 0.0066566616 -0.10836028 -0.019192452 0.006425784
0.22518942 -0.23695238 0.04657109 -0.029741926 0.06267234 -0.029939556 0.06200662 0.03869746
-0.8051394 0.08986535 0.10318751 0.18474936 0.33671078 0.043817107 -0.11947665 0.1368168
0.044352245 -0.08311225 -0.06627897 0.02428182 -0.079243205 -0.04944598 0.045828868 0.0015948637
-0.8078654 0.007169419 -0.10298864 -0.21379991 0.058270063 0.05295308 -0.119397685 -0.04555276
0.26332808 -0.25994658 -0.04752423 -0.029350175 -0.22785547 -0.07526453 -0.10376032 -0.026402995
-0.49377254 0.09254601 0.032766875 0.03679349 -0.15127979 0.15336886 0.041570168 0.18238078
0.3887361 -0.109692045 -0.22586986 -0.16006278 -0.052987047 -0.06353022 0.07820249 -0.08352241
0.03838409 0.049002443 0.10217058 0.048741 -0.11085261 0.10917026 -0.17190656 0.050566003
0.07130204 0.046438742 0.049237225 -0.0056498647 0.011622589 0.008118315 -0.057882324 0.052939232
0.5838673 -0.1975321 0.09751065 -0.1335046 -0.26854023 -0.27494907 -0.109840594 0.04036271
0.5385993 0.076866366 0.092147335 -0.17283125 -0.14507249 -0.23221657 -0.12799741 -0.24876173
0.8071743 -0.12558532 -0.021361029 -0.17340973 -0.091771014 0.053534437 0.091067344 0.09353316
-0.67832094 0.07862346 0.038074624 0.15459746 0.12046986 0.3823949 0.035788544 0.20753652
0.567172 -0.053476814 -0.07874211 -0.028450135 0.22219495 -0.095598444 -0.038441442 0.20755178
-1.8081523 0.3013374 0.5126289 0.26054212 0.38242882 0.47897983 0.16180493 0.22717021
0.50408053 0.14325134 -0.063965954 0.04006609 0.08722329 0.04442077 -0.058699537 -0.047596022
-0.7884661 0.4424147 0.36301193 0.25885096 -0.04283779 0.3533702 -0.086148255 0.3884984
0.72877294 0.041361704 -0.19727466 -0.07209952 -0.034806106 -0.11751412 0.11467095 -0.25706905
0.92385995 0.1829032 -0.043582156 -0.17255013 -0.29360542 -0.19336441 0.10962862 -0.39192432
-0.77648115 0.31446505 0.19992447 0.23019592 0.12798564 0.41199854 -0.027985627 0.4634908
00000000: b566 fc3d 2ad2 66be 0522 463d 11c6 8e3d
00000010: 41b9 31be 3b1b 73be d5c3 14bd b342 80bc
00000020: cb39 d93d c3f1 e8bc d067 43be b44a 0d3d
00000030: 98c4 ba3d 3ea6 79be 9513 703b 54bd 853d
00000040: 6885 29be 3127 bbbd 6c3f b4bc 0f08 51bd
00000050: 366b 51bd fc78 b23d e567 ebbd ca98 a93d
00000060: ebb8 19be 71fc ccbd 191d b2bc 39c4 dfbc
00000070: eff8 ecbd 00bd 18bd afa4 aa3d 04dc 683d
00000080: 37d3 51be 4ae7 923c 8897 6b3c 9974 debd
00000090: 67a7 b2bc 24b8 d4bd 982e b6bd 4039 9abc
000000a0: d981 fd3c 70b6 36be 4591 103e c0dd ebbd
000000b0: 9838 3b3d 2e79 62be b9e8 8f3d 526c b4bc
000000c0: af3f 11bb 965a a73d 2428 77bd 53d5 a7bd
000000d0: 4b90 1bbd bb8e c8bc 998b 433d b49b 573e
000000e0: 0d8d 1d3e c06e 8cbe e9b2 2abe 5dca 6fbd
000000f0: d866 923d d2d9 90bb 73f0 2539 a093 3ebd
00000100: 7524 56bd c940 183d 82d7 69be fa09 3dbc
00000110: 4f21 24be 64a0 623d 9817 4bbe 1d7b ef3d
00000120: 5b07 20be 780a fdbc 566e 95bd 08ee 1d3e
00000130: ff73 cb3c fce7 583d fcb9 2fbd c1a8 913d
00000140: 8080 2a3e e903 e63d 74f8 b83d b4fd dabd
00000150: 82b4 b6bd 3140 7dbd 181f 26bd f612 cd3d
00000160: 21b7 11bd 9e87 b4bd 67c8 0a3d fc54 993d
00000170: 2020 da3b ffeb ddbd 7d39 9dbc 628f d23b
00000180: 0e98 663e a5a3 72be 54c1 3e3d 57a5 f3bc
00000190: 5b5a 803d cd43 f5bc a7fa 7d3d 3a81 1e3d
000001a0: 9e1d 4ebf 530b b83d f953 d33d f02e 3d3e
000001b0: 5b65 ac3e 9179 333d 2db0 f4bd b419 0c3e
000001c0: b3aa 353d c136 aabd 45bd 87bd abea c63c
000001d0: 434a a2bd de87 4abd 0db7 3b3d bf0a d13a
000001e0: 44d0 4ebf 72ed ea3b b5eb d2bd 5dee 5abe
000001f0: 97ac 6e3d 54e5 583d c686 f4bd 8895 3abd
00000200: f0d2 863e b817 85be c4a8 42bd c76f f0bc
00000210: f252 69be 4a24 9abd 4a80 d4bd 184b d8bc
00000220: c1cf fcbe c388 bd3d 8f36 063d c5b4 163d
00000230: 17e9 1abe ba0c 1d3e 7b45 2a3d 07c2 3a3e
00000240: 6b08 c73e 39a6 e0bd 6e4a 67be 7fe7 23be
00000250: f208 59bd 221c 82bd a128 a03d cc0d abbd
00000260: a338 1d3d c9b6 483d cf3e d13d a5a4 473d
00000270: b106 e3bd a894 df3d 4608 30be 4c1e 4f3d
00000280: ce06 923d 8d36 3e3d f9ac 493d 8022 b9bb
00000290: ac6c 3e3c ae02 053c 0416 6dbd cfd6 583d
000002a0: 5478 153f db45 4abe aab3 c73d 6eb5 08be
000002b0: 1b7e 89be 20c6 8cbe 1bf4 e0bd 5e53 253d
000002c0: a5e1 093f 1d6c 9d3d beb7 bc3d adfa 30be
000002d0: e28d 14be 2eca 6dbe c111 03be 65bb 7ebe
000002e0: faa2 4e3f 7099 00be 53fd aebc 5292 31be
000002f0: 71f2 bbbd ed46 5b3d 8481 ba3d 508e bf3d
00000300: 71a6 2dbf 5605 a13d 23f4 1b3d cc4e 1e3e
00000310: e7b8 f63d 44c9 c33e 0297 123d 7484 543e
00000320: 2f32 113f 810a 5bbd 8b43 a1bd 4210 e9bc
00000330: 1387 633e 1ec9 c3bd c674 1dbd 7488 543e
00000340: 8971 e7bf e548 9a3e a63b 033f c765 853e
00000350: b6cd c33e d83c f53e 31b0 253e 4f9f 683e
00000360: 6c0b 013f 7bb0 123e 9500 83bd 571c 243d
00000370: 20a2 b23d 8ef2 353d ed6e 70bd 0cf4 42bd
00000380: ead8 49bf 2e84 e23e b3dc b93e 1d88 843e
00000390: ae76 2fbd f0ec b43e 7f6e b0bd 43e9 c63e
000003a0: dd90 3a3f e46a 293d 5e02 4abe eaa8 93bd
000003b0: d990 0ebd 3eab f0bd 9ad8 ea3d 8e9e 83be
000003c0: 1682 6c3f fa4a 3b3e 3483 32bd fbb0 30be
000003d0: 7353 96be 5201 46be f884 e03d 4eaa c8be
000003e0: 78c7 46bf 9001 a13e 00b9 4c3e 7bb8 6b3e
000003f0: ab0e 033e 79f1 d23e 1d42 e5bc ab4e ed3e

net.0.bias f4 [128]
0.14683317 0.16775185 0.12876412 0.15804487 0.350759 0.14477447 0.5991307 0.25894636
0.018660573 0.21475624 0.1542103 0.118691355 0.19770527 0.12708512 0.18381749 0.15535238
0.13676214 0.23378639 0.18851845 0.08670524 0.10968506 0.06655484 0.42334583 0.20610164
0.23871592 0.17517799 0.20487018 0.29818854 0.15555575 0.52923435 0.30919534 0.17547567
0.25101873 0.11246038 0.22243418 0.12858166 0.11195574 0.21458484 0.24270797 0.17912924
-0.08348443 0.13087207 0.0968485 0.18946743 0.08313497 0.22320323 0.09957307 0.26129732
0.16117601 0.26513857 0.031223288 0.22091804 0.12880558 0.14087552 0.20663655 0.16703948
0.16364677 -0.085102886 0.34428075 0.18251102 0.23474139 0.11300794 0.08846934 0.17429045
0.21074301 0.20779483 0.3128883 0.12382025 0.14448231 0.09724955 0.17902383 0.25452414
0.24790274 0.13396415 0.20096639 0.48040068 0.19127916 0.17279784 0.21197733 0.18879993
0.12731425 1.1880476 0.19673477 0.42798468 0.21375291 0.19022031 0.21708287 0.051882643
0.50506663 0.24526627 0.17579976 0.11974685 0.18409725 0.07509787 0.39196017 0.14024167
0.049939986 0.2315489 0.14880647 0.048365816 0.20455356 0.44441167 0.1440433 0.25443107
0.10245382 0.17241102 0.21615419 0.10322667 0.20757931 0.14824457 0.05245279 0.31029984
0.0761895 0.26180112 0.19935092 0.10693409 -0.06829573 0.41317928 -0.11534216 0.22997728
0.13784379 0.18442877 0.3139179 0.21342425 0.14631586 0.21602494 0.120273 0.22214562
00000000: 6f5b 163e 24c7 2b3e beda 033e 84d6 213e
00000010: af96 b33e c23f 143e a160 193f 9e94 843e
00000020: 0fde 983c 0fe9 5b3e 4ee9 1d3e 7414 f33d
00000030: 4073 4a3e 9a22 023e a73a 3c3e b214 1f3e
00000040: 600b 0c3e b365 6f3e fb0a 413e 8492 b13d
00000050: 90a2 e03d e74d 883d c9c0 d83e 4f0c 533e
00000060: f271 743e dc61 333e 7dc9 513e 2bac 983e
00000070: 024a 1f3e e77b 073f da4e 9e3e e5af 333e
00000080: 8785 803e a151 e63d c9c5 633e e9aa 033e
00000090: 0d49 e53d 21bc 5b3e 7088 783e a86d 373e
000000a0: e3f9 aabd 5403 063e 8258 c63d c003 423e
000000b0: ab42 aa3d 638f 643e f7ec cb3d c3c8 853e
000000c0: 530b 253e 3ec0 873e fbc7 ff3c 5738 623e
000000d0: 9ce5 033e ac41 103e 8898 533e 660c 2b3e
000000e0: 0593 273e 6c4a aebd 9145 b03e 2be4 3a3e
000000f0: 0c60 703e b570 e73d 6a2f b53d 3279 323e
00000100: 04cd 573e 2bc8 543e e532 a03e 7995 fd3d
00000110: 2cf3 133e c62a c73d 0652 373e fd50 823e
00000120: 37da 7d3e e62d 093e 22ca 4d3e 14f7 f53e
00000130: afde 433e ebf1 303e 9610 593e c554 413e
00000140: ab5e 023e f211 983f d774 493e cf20 db3e
00000150: 0be2 5a3e 1dc9 423e f94a 5e3e e582 543d
00000160: 0c4c 013f 1527 7b3e da04 343e d63d f53d
00000170: fd83 3c3e e9cc 993d 01af c83e 839b 0f3e
00000180: df8d 4c3d 281b 6d3e b960 183e 3c1b 463d
00000190: 7d76 513e ed89 e33e 1680 133e ca44 823e
000001a0: 4fd3 d13d 848c 303e 8657 5d3e 8168 d33d
000001b0: ac8f 543e 6dcd 173e bdd8 563d 9fdf 9e3e
000001c0: 3e09 9c3d cc0a 863e a622 4c3e 4300 db3d
000001d0: a2de 8bbd 3c8c d33e 8338 ecbd 2a7f 6b3e
000001e0: ec26 0d3e e5da 3c3e d9b9 a03e e38b 5a3e
000001f0: d3d3 153e a435 5d3e b151 f63d 247a 633e

net.2.weight f4 [256, 128]
1.036233 -0.004958272 2.6775255 0.34338427 0.06774133 0.8366671 0.8326851 1.5371382
2.7504988 0.56081945 0.93884534 0.33254033 0.06173449 0.43838835 -0.06094878 1.2082827
0.7632229 0.33291844 0.7370276 1.5988246 1.0540375 1.6447622 0.11778892 1.0578101
0.52793574 0.5467842 1.0828688 -0.035635266 0.86658216 0.2460815 0.21248566 0.6586369
0.9494337 0.875489 0.6841556 0.72693926 0.349149 1.6296469 1.5763726 0.1273728
-1.8627129 0.48211876 0.121267535 0.37951228 0.5786161 0.75035477 1.3657055 1.4073685
1.0294418 0.25991762 0.8986995 1.7776401 0.88119316 -0.03560644 0.8156023 -0.18752456
-0.12709828 -1.9294022 0.32000527 2.028851 -0.19834296 2.7107773 0.540215 0.766081
-0.091458365 0.4371534 1.1477666 0.4112136 0.80205977 0.74363756 0.35615125 0.31900975
0.42922243 1.6330055 0.44501987 0.24457966 0.40135154 -0.3208451 1.2415596 0.32389817
0.6490101 0.6992172 -0.83851224 0.30505383 0.6788397 -0.2270801 0.6685091 1.4833349
-0.035687454 0.6025656 1.2613415 0.9548402 0.82823306 1.5707889 0.65926594 0.58121026
1.5286535 0.24745712 0.7334317 -1.6647667 -0.037813142 -0.16114284 1.4522432 0.37021774
0.6075233 0.57136 0.5562788 0.16340412 1.2922872 1.7132055 0.57834125 0.6916252
1.2720112 1.080047 0.82332474 1.6967099 2.5675426 0.3196524 -1.8373015 1.1755576
1.1311516 0.336922 0.52223825 0.8651623 2.7334235 0.30503154 1.3692424 1.4453068
2.4593267 0.2574595 0.48212162 0.08427068 0.54144347 0.5776487 -0.3091611 1.2127033
0.42590812 0.42809367 -0.016099779 0.33501247 0.34643254 1.0792571 0.83023375 2.2287993
0.56464416 0.8710067 0.56968045 0.21472107 1.6535083 1.0373015 0.7572602 0.8781565
0.7013303 0.70958567 1.0407754 0.50305086 0.36363602 0.5536596 0.15868461 1.9398624
0.7266099 1.3000653 1.165734 0.48467398 1.3271512 1.2948105 0.9569785 0.6295872
-2.112271 0.70448714 0.476924 0.7531893 0.6357938 0.73601985 1.8729403 0.63192356
1.8466303 0.2868851 0.1879378 1.2725476 0.7985373 0.35697103 0.83798337 0.50117576
0.94919556 -2.144701 -0.001809476 1.6298767 0.073210366 0.4883732 0.42085844 0.51103985
-0.15421626 0.4170582 1.7268084 0.4645658 2.0183246 -0.13057734 1.2599773 0.8325763
0.8922263 0.5483672 0.45802584 0.48638794 0.9530549 0.68970454 0.63975614 1.1655418
1.1238683 -0.16621058 0.4491289 0.37807232 0.7226673 0.35657868 0.431176 0.5008546
0.8865065 0.9595446 0.2995426 0.8341517 0.29455173 -0.341148 -0.22761615 0.7425628
0.51730615 0.92346185 1.0733029 1.3404022 0.9691963 0.5743975 1.6477499 1.1063409
0.7786922 0.70881224 0.58133656 0.6903827 0.34504035 0.89269376 0.85630333 0.06700546
0.5954764 2.306855 1.481625 0.37691838 -0.51451135 0.26131898 -2.0450807 1.5891597
1.4619178 0.6649211 0.44619292 0.85480756 -0.32042196 0.6453227 2.3740423 1.8824402
00000000: 48a3 843f 0079 a2bb 945c 2b40 10d0 af3e
00000010: f7bb 8a3d d12f 563f da2a 553f f2c0 c43f
00000020: 2c08 3040 dd91 0f3f 2b58 703f ba42 aa3e
00000030: 4edd 7c3d 7074 e03e 6ea5 79bd 02a9 9a3f
00000040: 9362 433f 4974 aa3e d7ad 3c3f 49a6 cc3f
00000050: b3ea 863f 9187 d23f 513b f13d 5266 873f
00000060: cc26 073f 0dfa 0b3f 729b 8a3f 49f6 11bd
00000070: 54d8 5d3f cafc 7b3e d795 593e 6e9c 283f
00000080: 160e 733f 0c20 603f d224 2f3f b118 3a3f
00000090: a8c3 b23e 4598 d03f 94c6 c93f 046e 023e
000000a0: 606d eebf 45d8 f63e 1d5b f83d 6f4f c23e
000000b0: 2f20 143f 4017 403f 70cf ae3f a724 b43f
000000c0: c0c4 833f ec13 853e 2c11 663f b689 e33f
000000d0: e095 613f 0fd8 11bd 50cb 503f 7006 40be
000000e0: 0d26 02be a7f6 f6bf bbd7 a33e b2d8 0140
000000f0: 6b1a 4bbe 607d 2d40 884b 0a3f e21d 443f
00000100: 864e bbbd 92d2 df3e 04ea 923f 978a d23e
00000110: ca53 4d3f 085f 3e3f 7559 b63e 3f55 a33e
00000120: 0bc3 db3e 5306 d13f a5d9 e33e 1773 7a3e
00000130: f37d cd3e cf45 a4be 6deb 9e3f fbd5 a53e
00000140: 8725 263f e6ff 323f bda8 56bf 0430 9c3e
00000150: 70c8 2d3f b087 68be 6a23 2b3f ebdd bd3f
00000160: 022d 12bd bd41 1a3f a373 a13f 6870 743f
00000170: 1507 543f 9c0f c93f a7c5 283f 32ca 143f
00000180: ebaa c33f 6665 7d3e 2ec2 3b3f 1317 d5bf
00000190: f4e1 1abd a102 25be 1be3 b93f 2e8d bd3e
000001a0: a686 1b3f a644 123f 4a68 0e3f 6953 273e
000001b0: ab69 a53f 514a db3f 2c0e 143f 590e 313f
000001c0: 43d1 a23f fb3e 8a3f 69c5 523f ca2d d93f
000001d0: 9e52 2440 7ba9 a33e b22c ebbf ac78 963f
000001e0: 93c9 903f 0a81 ac3e 68b1 053f 477b 5d3f
000001f0: 69f0 2e40 182d 9c3e 5643 af3f d0ff b83f
00000200: 9c65 1d40 bbd1 833e a5d8 f63e 1b96 ac3d
00000210: 0a9c 0a3f c9e0 133f 5d4a 9ebe dd39 9b3f
00000220: a110 da3e 182f db3e afe3 83bc c186 ab3e
00000230: 9b5f b13e 1925 8a3f 338a 543f a6a4 0e40
00000240: 858c 103f 4cfa 5e3f 94d6 113f d7df 5b3e
00000250: 29a6 d33f 4cc6 843f cedb 413f ddce 603f
00000260: 628a 333f 68a7 353f 2138 853f f1c7 003f
00000270: 802e ba3e a3bc 0d3f 387e 223e 694d f83f
00000280: 1b03 3a3f 8a68 a63f c636 953f 3027 f83e
00000290: 17e0 a93f 5abc a53f 8bfc 743f a02c 213f
000002a0: 732f 07c0 4559 343f 622f f43e 04d1 403f
000002b0: 62c3 223f cc6b 3c3f 82bc ef3f bec5 213f
000002c0: 625e ec3f 9be2 923e c472 403e d7e2 a23f
000002d0: f16c 4c3f e8c4 b63e 1486 563f 0e4d 003f
000002e0: 7bfe 723f c842 09c0 f02b edba cd9f d03f
000002f0: 51ef 953d 0d0c fa3e c27a d73e 82d3 023f
00000300: deea 1dbe a788 d53e 0f08 dd3f 92db ed3e
00000310: 3b2c 0140 11b6 05be f046 a13f b823 553f
00000320: f168 643f cb61 0c3f 5d82 ea3e d707 f93e
00000330: 68fb 733f 7a90 303f 0fc7 233f 7930 953f
00000340: ebda 8f3f 1b33 2abe 39f4 e53e b292 c13e
00000350: b900 393f 7b91 b63e 1ac3 dc3e 0238 003f
00000360: 17f2 623f b7a4 753f a65d 993e f78a 553f
00000370: 7ccf 963e f3aa aebe 3514 69be 9818 3e3f
00000380: 2d6e 043f ff67 6c3f fd61 893f 4d92 ab3f
00000390: 401d 783f b70b 133f 78e9 d23f 949c 8d3f
000003a0: 5f58 473f b874 353f 79d2 143f ecbc 303f
000003b0: 21a9 b03e 9487 643f b236 5b3f 293a 893d
000003c0: 2471 183f 83a3 1340 e3a5 bd3f 72fb c03e
000003d0: 04b7 03bf 9acb 853e 9ae2 02c0 9669 cb3f
000003e0: 1f20 bb3f 4538 2a3f 6673 e43e abd4 5a3f
000003f0: 590e a4be de33 253f 4ff0 1740 cdf3 f03f

net.2.bias f4 [256]
0.44862887 0.35255814 0.20751293 0.3445252 0.34548545 0.4101941 -0.22496426 0.3446621
1.845308 -0.11934115 -0.12885652 0.108344786 0.35570702 0.28081414 0.29617235 0.28801566
0.33954176 0.31442782 -0.15907389 0.24161553 -0.15781133 0.38149014 0.21633442 0.13601343
0.37721354 0.28944328 0.2767576 0.3224905 0.298718 0.39723524 0.25455672 0.4174595
-0.13705099 -0.22253317 0.3290686 -0.09940896 0.5842737 -0.015310695 0.34017503 0.25194663
0.20455895 0.28195432 0.23678663 0.36535442 0.32204655 0.41287205 0.32022947 0.15270284
0.33239907 0.32612377 -0.1916505 0.4229947 -0.20165342 0.3605277 -0.11868859 0.31118637
0.23600732 0.25129446 -0.2190841 0.078464955 0.28239068 0.33233315 0.45413312 0.3712602
0.25011945 1.7794504 0.48854285 0.23569527 0.25860766 0.21722774 0.44127932 -0.14936207
0.30496344 0.2635134 -0.6650608 0.44160488 0.5722864 1.2918442 0.37634638 0.39425316
-0.19006707 0.18012065 -0.14158268 0.24217267 0.27302986 0.22299135 0.20103854 0.24670465
0.23817883 0.66247797 0.3118863 0.3731789 0.19185014 1.7750007 0.459777 0.2184755
0.18039393 0.42045966 0.40958476 0.38877827 -0.07882926 0.16966617 0.3514629 -0.1039187
0.26134962 0.4675463 0.36972415 0.36820236 0.3772012 0.26622707 0.5712804 0.22562239
0.2156644 0.23151363 0.2751223 -0.010324316 0.18390158 -0.23955445 -0.3505405 -0.00030315496
0.3465723 0.2088658 -0.1601987 0.3488327 0.47083715 0.35724092 0.21500582 0.2711338
0.2980723 0.3291803 0.29463318 0.41414517 0.17567293 0.32669908 0.31321904 0.20894954
0.4944187 0.28801164 0.27003852 0.30143383 0.4366521 0.28593293 0.33640268 0.38475442
0.22838049 0.39071366 -0.15424278 0.04985109 0.43731144 0.38692778 0.5425654 0.17622961
0.24638927 0.3057623 0.19430256 0.25718063 0.4291053 0.2642193 0.3870519 0.28507987
-0.14159921 0.389485 0.34209603 0.41943446 0.30093527 0.31449676 -0.0399887 0.24851765
0.326944 -0.21289115 0.37401715 0.29952678 1.6163213 0.25509074 0.39754468 0.14511345
0.30533656 0.211132 0.36848554 0.21222061 0.21961464 0.02810216 0.23164016 0.31825212
0.121269114 0.18065166 0.76038665 0.27098158 -0.04757074 0.38130948 -0.15154679 0.2686532
0.41307095 -1.5316123 0.38289434 0.31141064 0.37782675 0.40438396 0.37297735 0.31300154
0.3449141 -0.1954271 0.3683515 0.2980284 0.34230724 -0.070081055 -0.37587908 0.32031754
0.27883866 0.27721792 0.29416558 0.3604309 0.32255298 1.2549965 0.31093884 0.750392
0.34635392 0.30961972 0.3835258 0.36955267 0.24458808 0.38422525 0.27610224 0.24165821
0.3189007 0.21310191 0.39292523 0.16146587 0.33325663 0.264319 -0.10250158 0.254156
0.24376929 0.31285125 -0.11867899 0.5621437 0.32574514 0.2636758 0.32082972 0.8997887
0.28941423 0.24719673 -0.17976938 0.31422925 0.3086286 0.48014262 0.34579214 0.27879846
-0.060531292 -0.19634344 0.3819745 -0.018089548 0.33993208 0.26136407 0.45452756 0.5485397
00000000: afb2 e53e 8082 b43e 457e 543e 9b65 b03e
00000010: 78e3 b03e f604 d23e 085d 66be 8d77 b03e
00000020: 0d33 ec3f 2269 f4bd f7f2 03be dfe3 dd3d
00000030: 3b1f b63e dfc6 8f3e e7a3 973e ca76 933e
00000040: 6bd8 ad3e affc a03e 44e4 22be 106a 773e
00000050: 4b99 21be ad52 c33e c586 5d3e 1b47 0b3e
00000060: 2222 c13e e931 943e 2cb3 8d3e 7a1d a53e
00000070: 91f1 983e 6b62 cb3e 4255 823e 40bd d53e
00000080: 1857 0cbe bcdf 63be ae7b a83e ed96 cbbd
00000090: f692 153f b6d9 7abc 6c2b ae3e 26ff 803e
000000a0: e777 513e 515c 903e 3278 723e bc0f bb3e
000000b0: 49e3 a43e f763 d33e 1ef5 a33e 225e 1c3e
000000c0: 3630 aa3e b2f9 a63e 0740 44be c392 d83e
000000d0: 3c7e 4ebe 1697 b83e 0113 f3bd d253 9f3e
000000e0: e7ab 713e aba9 803e 9557 60be 3cb2 a03d
000000f0: 8395 903e 9227 aa3e 2384 e83e d115 be3e
00000100: a80f 803e 08c5 e33f 4a22 fa3e 1a5a 713e
00000110: 3968 843e f370 5e3e 5def e13e 5ff2 18be
00000120: 2b24 9c3e 3aeb 863e 6d41 2abf 091a e23e
00000130: 5d81 123f 275b a53f 79b0 c03e 8ddb c93e
00000140: f1a0 42be 8c71 383e 0dfb 10be 1dfc 773e
00000150: 92ca 8b3e d857 643e 0cdd 4d3e 25a0 7c3e
00000160: 27e5 733e 2898 293f 90af 9f3e 4e11 bf3e
00000170: 5d74 443e 3933 e33f e467 eb3e 0bb8 5f3e
00000180: 30b9 383e 7d46 d73e 18b5 d13e f20d c73e
00000190: 3c71 a1bd f8bc 2d3e f2f2 b33e 54d3 d4bd
000001a0: 9ecf 853e 3b62 ef3e 7c4c bd3e 0585 bc3e
000001b0: 8420 c13e ea4e 883e 6f3f 123f 8e09 673e
000001c0: 21d7 5c3e e911 6d3e d5dc 8c3e 5227 29bc
000001d0: b250 3c3e c34d 75be 0b7a b3be c5f0 9eb9
000001e0: ed71 b13e ebe0 553e 210b 24be 339a b23e
000001f0: 9111 f13e 48e8 b63e 7c2a 5c3e 0dd2 8a3e
00000200: ef9c 983e 528a a83e 29da 963e d60a d43e
00000210: 9be3 333e 1a45 a73e 3f5e a03e def6 553e
00000220: 7324 fd3e 4376 933e 7d42 8a3e 8955 9a3e
00000230: dd90 df3e cd65 923e f93c ac3e 88fe c43e
00000240: 93dc 693e 9f0b c83e d2f1 1dbe a830 4c3d
00000250: 49e7 df3e 661b c63e 91e5 0a3f 8975 343e
00000260: 784d 7c3e e08c 9c3e 40f7 463e 2ead 833e
00000270: b1b3 db3e c147 873e ab2b c63e fdf5 913e
00000280: 62ff 10be 946a c73e 3627 af3e 1dc0 d63e
00000290: 3014 9a3e b805 a13e 31cb 23bd 697b 7e3e
000002a0: 3465 a73e 2300 5abe 2d7f bf3e 935b 993e
000002b0: 9ee3 ce3f 419b 823e fa8a cb3e 9f98 143e
000002c0: 1355 9c3e fd32 583e 23aa bc3e 5c50 593e
000002d0: a9e2 603e 8036 e63c 1433 6d3e f1f1 a23e
000002e0: f15b f83d c0fc 383e b3a8 423f 19be 8a3e
000002f0: 89d9 42bd ff3a c33e 152f 1bbe ea8c 893e
00000300: 097e d33e df0b c4bf ba0a c43e 3771 9f3e
00000310: 8272 c13e 6a0b cf3e e3f6 be3e bd41 a03e
00000320: 9598 b03e 0b1e 48be 9198 bc3e 2e97 983e
00000330: e542 af3e a886 8fbd 3973 c0be a900 a43e
00000340: f1c3 8e3e 82ef 8d3e df9c 963e 668a b83e
00000350: aa25 a53e baa3 a03f 6033 9f3e b119 403f
00000360: 4d55 b13e 7a86 9e3e 7e5d c43e 0236 bd3e
00000370: 4c75 7a3e 2cb9 c43e 465d 8d3e 4075 773e
00000380: f446 a33e 6337 5a3e 7f2d c93e 4f57 253e
00000390: 9da0 aa3e d254 873e 59ec d1bd bc20 823e
000003a0: a89e 793e 0a2e a03e f80d f3bd a6e8 0f3f
000003b0: 11c8 a63e 8400 873e cb43 a43e 8d58 663f
000003c0: 1a2e 943e 2421 7d3e 7715 38be a8e2 a03e
000003d0: 9104 9e3e 41d5 f53e ab0b b13e acbe 8e3e
000003e0: a9ef 77bd 410e 49be 2992 c33e 8830 94bc
000003f0: 940b ae3e 83d1 853e d6b7 e83e 196d 0c3f

net.4.weight f4 [27, 256]
0.2593408 0.52110636 0.53402436 0.4568563 0.4758848 0.49810633 0.60464394 0.52996445
-0.8934767 0.61061233 0.5875306 0.6254746 0.5563517 0.41818243 0.47020867 0.44712472
0.46674275 0.49799758 0.5392566 0.4799305 0.63695085 0.3616754 0.49549052 0.57697576
0.39576298 0.4855838 0.5028861 0.37309146 0.37289995 0.43555486 0.49678284 0.39160374
0.6309385 0.5406582 0.4382794 0.51204747 0.4421898 -0.052616417 0.4663114 1.0237924
0.5330375 0.42213753 0.52819276 0.44741833 0.44059074 0.4724127 0.071394145 0.5013332
0.46300957 0.44555068 0.6082532 0.49104378 0.62060654 1.0089778 0.59922874 0.50125706
0.41701403 0.49844748 0.5327109 0.3200879 0.47097218 0.46581015 0.5509047 0.45683202
0.46636423 -0.81578875 0.3528247 0.5065226 0.40122414 0.5412484 0.39981306 0.48933607
0.4780488 0.37540582 0.68892854 0.5024975 0.1342331 -0.55826855 0.41441685 0.39317557
0.5926319 0.4238375 0.5812171 0.42470196 0.40110344 0.41636267 0.50844574 0.48704073
0.49667215 -1.2372421 0.5786771 0.32606578 0.4950017 -0.788425 0.46658844 0.17479287
0.555575 0.07229604 0.28765082 0.433913 0.5022102 0.36956772 0.53446394 0.5026784
0.44597065 0.27018395 0.4591354 0.43803614 0.47567222 0.47267345 -0.27082902 0.49388176
0.4395561 0.5592344 0.53758967 -0.013187401 0.4744527 0.5155427 0.71589285 0.5197322
-0.15688224 0.29703933 0.6244753 0.41785794 0.33853188 0.39589226 0.5055881 0.45478734
0.4093674 0.41401502 0.35792017 0.4567255 0.46626306 0.49337015 0.2704703 0.3954842
0.2945574 0.53696656 0.5110444 0.49909514 0.45742694 0.2716619 0.3834272 0.43931058
0.5069253 0.5511713 0.5539227 0.3614559 0.5242773 0.4553578 0.7313392 0.39207634
0.39960188 0.43750593 0.40753478 0.48996773 0.4590985 0.5278311 0.42005235 0.4138288
0.5794591 0.41160712 0.38453847 0.3462403 0.45599252 0.5004477 0.6159085 0.5113518
0.50449866 0.5062465 0.4330105 0.52397174 -0.92727333 1.336994 0.4126032 1.2093892
0.47651044 0.5354793 0.44591102 0.4885967 0.4735838 1.3274573 0.47664 0.39346066
0.4803145 0.4247527 -0.9262741 0.4736406 0.53005534 0.2551644 0.6038475 0.52365947
0.3833358 0.26607943 0.4206516 0.3030183 0.5056113 0.50149065 0.46285155 0.4799621
0.45654884 0.5998158 0.46288887 0.52457625 0.51810366 0.54283494 0.5461559 0.5377563
0.39906523 0.4075247 0.47229248 0.46953636 0.48075742 -0.89380187 0.44132942 -0.2275997
0.4677974 0.46728578 0.36896354 0.3832669 0.44992825 0.40353334 0.5351774 0.46995634
0.36579436 0.54243904 0.42267293 1.2428956 0.33107528 0.50029916 0.5707007 0.5284552
0.43421134 0.4717902 0.5188544 -0.21348612 0.4665445 0.4182262 0.42860115 -0.12604648
0.42376065 0.5437105 0.6501403 0.41298297 0.44678688 0.37528345 0.5004217 0.41269657
1.0510527 0.6133732 0.4180117 0.51425624 0.45129123 0.47838864 0.46965504 -0.19799669
00000000: 51c8 843e 3a67 053f d2b5 083f 12e9 e93e
00000010: 2ca7 f33e cb07 ff3e f2c9 1a3f c0ab 073f
00000020: e4ba 64bf 1751 1c3f 6868 163f 1a1f 203f
00000030: 116d 0e3f 021c d63e 31bf f03e 88ed e43e
00000040: e8f8 ee3e 8af9 fe3e b80c 0a3f 73b9 f53e
00000050: 360f 233f 852d b93e efb0 fd3e afb4 133f
00000060: 72a1 ca3e 719e f83e 25bd 003f d805 bf3e
00000070: beec be3e 0c01 df3e 525a fe3e 4980 c83e
00000080: 2f85 213f 9368 0a3f 2866 e03e 8b15 033f
00000090: b466 e23e 5084 57bd 5ec0 ee3e a10b 833f
000000a0: 2575 083f 6922 d83e a437 073f 0414 e53e
000000b0: 1c95 e13e 14e0 f13e 1837 923d 5f57 003f
000000c0: 970f ed3e 381f e43e 7bb6 1b3f 176a fb3e
000000d0: 12e0 1e3f 2f26 813f 0e67 193f 6252 003f
000000e0: dd82 d53e 8234 ff3e be5f 083f 90e2 a33e
000000f0: 4423 f13e ab7e ee3e 1708 0d3f e3e5 e93e
00000100: 4bc7 ee3e 88d7 50bf 70a5 b43e 77ab 013f
00000110: 406d cd3e 418f 0a3f 4cb4 cc3e 428a fa3e
00000120: d0c2 f43e 3135 c03e 9f5d 303f ada3 003f
00000130: 6774 093e b0ea 0ebf 722e d43e 4f4e c93e
00000140: b9b6 173f 3b01 d93e a5ca 143f 8972 d93e
00000150: 6e5d cd3e 7d2d d53e 8029 023f 675d f93e
00000160: d04b fe3e f35d 9ebf 2f24 143f 18f2 a63e
00000170: dd70 fd3e 39d6 49bf aee4 ee3e e7fc 323e
00000180: 2a3a 0e3f f20f 943d f846 933e d829 de3e
00000190: d990 003f fb37 bd3e a1d2 083f 88af 003f
000001a0: 4456 e43e 8d55 8a3e cc13 eb3e 4646 e03e
000001b0: 4f8b f33e 4102 f23e 1aaa 8abe 12de fc3e
000001c0: 7f0d e13e fc29 0f3f 7a9f 093f f80f 58bc
000001d0: 77eb f23e 9bfa 033f c144 373f 2b0d 053f
000001e0: bda5 20be 8a15 983e 9ddd 1f3f 7af1 d53e
000001f0: 0d54 ad3e 64b2 ca3e 396e 013f e3d9 e83e
00000200: 9b98 d13e c7f9 d33e 5041 b73e edd7 e93e
00000210: 08ba ee3e 039b fc3e 157b 8a3e e87c ca3e
00000220: 3ad0 963e a476 093f ced3 023f 6689 ff3e
00000230: dd33 ea3e 4517 8b3e 9250 c43e 51ed e03e
00000240: dbc5 013f 9019 0d3f e1cd 0d3f bf10 b93e
00000250: 0a37 063f a824 e93e 0c39 3b3f 3bbe c83e
00000260: 9e98 cc3e c700 e03e 66a8 d03e 0ddd fa3e
00000270: f50e eb3e f01f 073f 1a11 d73e 5ee1 d33e
00000280: 6e57 143f 2bbe d23e 3ae2 c43e 6946 b13e
00000290: da77 e93e 571d 003f 2eac 1d3f f4e7 023f
000002a0: d326 013f 5f99 013f 8db3 dd3e 0323 063f
000002b0: c961 6dbf 9f22 ab3f ba40 d33e 44cd 9a3f
000002c0: 2df9 f33e 2c15 093f 734e e43e 5929 fa3e
000002d0: 9379 f23e 1fea a93f 280a f43e ad73 c93e
000002e0: c8eb f53e 3079 d93e 4d20 6dbf 0581 f23e
000002f0: b5b1 073f e9a4 823e c095 1a3f 8c0e 063f
00000300: 9744 c43e 903b 883e a65f d73e 3725 9b3e
00000310: be6f 013f b161 003f e1fa ec3e 98bd f53e
00000320: c5c0 e93e 878d 193f c5ff ec3e a14a 063f
00000330: 71a2 043f 3bf7 0a3f e0d0 0b3f 66aa 093f
00000340: 4752 cc3e 14a7 d03e 52d0 f13e 1267 f03e
00000350: d625 f63e 33d0 64bf eef5 e13e e50f 69be
00000360: 2483 ef3e 1540 ef3e cae8 bc3e 8f3b c43e
00000370: ff5c e63e ec9b ce3e 6301 093f 1e9e f03e
00000380: 6649 bb3e 49dd 0a3f 9668 d83e 3417 9f3f
00000390: b382 a93e 9b13 003f 7119 123f d748 073f
000003a0: f350 de3e 7c8e f13e a4d3 043f 1b9c 5abe
000003b0: ecde ee3e bf21 d63e 9c71 db3e 5412 01be
000003c0: 28f7 d83e 9c30 0b3f 986f 263f 8172 d33e
000003d0: 40c1 e43e 2725 c03e a31b 003f f74c d33e
000003e0: e588 863f 0706 1d3f a105 d63e 4ca6 033f
000003f0: a50f e73e 5bef f43e a076 f03e a5bf 4abe

net.4.bias f4 [27]
-0.053921062 0.1880458 -0.04208937 0.05166368 0.109193005 0.14866862 0.098242626 0.1845865
-0.020508008 0.4378088 0.07230877 0.16403152 0.03942552 0.2232206 0.11637568 0.10310119
-0.021259697 -0.04830633 0.282187 0.52514446 0.4578204 0.06516305 0.12759903 0.13548142
0.054345246 0.14710727 0.07706401
00000000: 55dc 5cbd 148f 403e e765 2cbd 4b9d 533d
00000010: 95a0 df3d 963c 183e 6e33 c93d 3e04 3d3e
00000020: 6900 a8bc 7a28 e03e 9f16 943d e1f7 273e
00000030: a77c 213d f193 643e 5f56 ee3d b726 d33d
00000040: d128 aebc dcdc 45bd d17a 903e de6f 063f
00000050: 6f67 ea3e 3574 853d 52a9 023e a4bb 0a3e
00000060: 1f99 5e3d 4aa3 163e bcd3 9d3d
