model/dqn_policy_net_episode_1660.pt (torch, 334295 bytes, 6 tensors)

net.0.weight f4 [128, 336]
0	0x3d96356f	0.073344104
1	0xbda0966b	-0.0784119
2	0xbddb08db	-0.106950484
3	0x3ca528a1	0.020160975
4	0xbc9a7815	-0.018856088
5	0xbdff8235	-0.12476007
6	0x3cad840b	0.021181127
7	0xbdb1e00f	-0.08685314
8	0x3e2de3d3	0.1698144
9	0xbd896a19	-0.0670969
10	0xbea25df9	-0.3171232
11	0xbdd05e63	-0.10174253
12	0x3d723558	0.059132904
13	0xbd845b75	-0.064627565
14	0x3dd3e8e5	0.103471555
15	0x3ca7e1f1	0.02049348
16	0xbe45df38	-0.19323432
17	0xbd9c99b6	-0.076465055
18	0x3c2ab5df	0.010419338
19	0xbd2792ea	-0.040911593
20	0x3d2e4a8f	0.042551573
21	0x3dd6db7e	0.104910836
22	0xbddc042e	-0.10742985
23	0x3dc3c87b	0.09559723
24	0xbe3bcb40	-0.18339252
25	0xbe0d77a0	-0.13815165
26	0xbe064ccd	-0.13115235
27	0x3d939eb1	0.07208002
28	0x3cda4896	0.02664594
29	0xbd7c126d	-0.06154101
30	0x3c189c11	0.009314553
31	0x3dc45378	0.09586233
32	0xbeae6725	-0.34063068
33	0xbd06eaec	-0.032938883
34	0x3cd7ff21	0.026366772
35	0xbcd722b2	-0.026261661
36	0x3d14b0d5	0.036301453
37	0xbd52e108	-0.051484138
38	0x3d3a319d	0.04545747
39	0xbcce7d38	-0.025206193
40	0x3d0e7cc3	0.03478695
41	0xbe6af239	-0.22943963
42	0xbc3e32ee	-0.011608822
43	0x3c071fa6	0.008247292
44	0x3d8c7dde	0.06859945
45	0xbe38cb01	-0.1804619
46	0xbe27b2d0	-0.16376805
47	0x3c408e5d	0.011752692
48	0xbd2b64a7	-0.041844036
49	0x3dc6e9c4	0.09712556
50	0x3d9539ba	0.07286401
51	0xbca9937d	-0.02070021
52	0xbd94b309	-0.07260711
53	0xbdf99106	-0.12185864
54	0x3dd27021	0.10275293
55	0x3da1f9b4	0.07908955
56	0x3e6ff747	0.23434173
57	0xbdd9e223	-0.10638835
58	0xbe7c3975	-0.24631293
59	0xbdcd1245	-0.1001325
60	0x3d7364a9	0.05942217
61	0x3dda8608	0.10670096
62	0xbdc3e895	-0.09565846
63	0xbe22aa9d	-0.15885396
64	0xbe003bb3	-0.12522773
65	0x3d74f74f	0.059806164
66	0xbdcda935	-0.10042039
67	0xbbab5ed8	-0.005229812
68	0x3c2fda46	0.010733193
69	0x3d12dba6	0.035854004
70	0xbd701968	-0.05861798
71	0xbd6a56f3	-0.057211827
72	0xbdf75ec4	-0.12078622
73	0xbdf23a37	-0.1182751
74	0x3d905f1a	0.07049389
75	0x3e046f41	0.12933065
76	0x3cc1943d	0.023630256
77	0x3de1d4b6	0.110268995
78	0xbe173e78	-0.14769924
79	0xbd16f49e	-0.03685438
80	0x3e0d5e5a	0.13805524
81	0xbddf896a	-0.109148815
82	0x3db27f7d	0.08715723
83	0x3c0894d6	0.0083362665
84	0xbe27c398	-0.16383207
85	0xbe0b93ca	-0.13630596
86	0x3dd5021f	0.10400795
87	0xbc1f1651	-0.0097099105
88	0x3d68f5ec	0.056875154
89	0xbd06bc92	-0.03289468
90	0xbd5b1ea0	-0.053496003
91	0xbcf70ea1	-0.030158343
92	0xbcaaf13d	-0.020866985
93	0xbdc5d63e	-0.09660004
94	0xbcb1ff0d	-0.021728063
95	0xbbe2ad32	-0.006917619
96	0x3e7d7016	0.24749789
97	0xbd75abb5	-0.059978206
98	0xbcf895d7	-0.030344887
99	0xbdd8c149	-0.10583741
100	0x3dbfc50b	0.09363755
101	0x3cac2789	0.021014946
102	0x3d586c63	0.05283774
103	0x3d0e531c	0.034747228
104	0xbf46c6b1	-0.7764693
105	0x3e3f4f5e	0.1868262
106	0x3e6925fa	0.22768393
107	0x3df60d37	0.12014239
108	0x3e9d1bd6	0.306853
109	0x3d9771b5	0.07394735
110	0xbe5fcd01	-0.21855547
111	0x3db4e0fc	0.08831975
112	0x3db6f735	0.0893387
113	0xbcf7f62e	-0.030268755
114	0xbe481627	-0.195397
115	0x3c332abb	0.010935481
116	0xbe51cfb3	-0.20489387
117	0xbd070e19	-0.03297243
118	0x3cd6335a	0.026147533
119	0x3d38caf1	0.045115415
120	0xbf890269	-1.070386
121	0x3e3bc0c0	0.18335247
122	0x3c1334e9	0.008984783
123	0xbe27c3dc	-0.16383308
124	0x3dadcac1	0.08485938
125	0x3df27671	0.11838997
126	0x3dbb4266	0.09143524
127	0xbc562b1f	-0.013071804
128	0x3ecc1ad3	0.39864215
129	0xbe3d95f0	-0.18514228
130	0xbdf228a5	-0.118241586
131	0xbe2819b6	-0.16416058
132	0xbe359ff1	-0.17736794
133	0xbe0a27c4	-0.13491732
134	0xbe074a86	-0.13212022
135	0xbd157cf2	-0.03649611
136	0xbecbc25c	-0.39796722
137	0x3e257c85	0.16160782
138	0x3d35af9f	0.04435694
139	0x3c7effc4	0.015563909
140	0xbd305f64	-0.04305972
141	0xbc228826	-0.009920156
142	0x3c06c5d8	0.008225881
143	0x3d1e2174	0.038606122
144	0x3ef6016a	0.48047954
145	0xbe077457	-0.13227974
146	0xbe148fb9	-0.14507951
147	0xbe950cef	-0.2911143
148	0x3d0ae5b5	0.033910472
149	0xbc779ff4	-0.015113819
150	0xbd283313	-0.041064333
151	0xbe485a80	-0.19565773
152	0x3e069ca6	0.13145694
153	0xbb642a81	-0.0034815373
154	0x3bda5bfa	0.0066637965
155	0xbc02497d	-0.007952091
156	0xbe28b323	-0.16474585
157	0x3ce43bf6	0.027860623
158	0xbb9c0d51	-0.0047623296
159	0x3b9d4828	0.0047998615
160	0x3d0a31d1	0.033738915
161	0xbe60b264	-0.2194305
162	0x3e0449ca	0.12918773
163	0x3d517bdf	0.051143523
164	0x3d7276fc	0.059195504
165	0xbd633efe	-0.055479996
166	0xbd2c71aa	-0.042100586
167	0xbc3cceb2	-0.011523889
168	0x3f1f920f	0.6233224
169	0xbd90c45c	-0.070687026
170	0xbd9e42fc	-0.0772762
171	0xbde30010	-0.11083996
172	0xbe8bc1c2	-0.27296263
173	0xbe98c048	-0.298342
174	0xbd89728f	-0.067113034
175	0x3abb22c4	0.0014277329
176	0x3f055516	0.52082956
177	0x3e26c865	0.16287382
178	0xbdaa547a	-0.08316894
179	0xbe23aed3	-0.15984659
180	0xbdcbf241	-0.09958316
181	0xbe585ba7	-0.21128713
182	0xbdfeb314	-0.124365
183	0xbe0fab5d	-0.14030214
184	0x3f458baa	0.77166235
185	0x3d86869d	0.06568644
186	0xbe625edb	-0.22106497
187	0xbd0680be	-0.032837622
188	0xbdb98a79	-0.09059615
189	0x3c470e6f	0.012149437
190	0xbdc3f9ab	-0.09569105
191	0x3e13d4ca	0.14436641
192	0xbf3e45b5	-0.74325114
193	0x3db8a405	0.09015659
194	0x3e62c28b	0.22144525
195	0x3da95ec4	0.08270028
196	0x3e2a0e30	0.16606975
197	0x3ecced6f	0.40024897
198	0x3de79d91	0.1130935
199	0x3e72186c	0.23642129
200	0x3f1904d6	0.59773004
201	0x3ca2e57c	0.019884817
202	0xbe2f0aff	-0.17094038
203	0xbaff7aa0	-0.0019491501
204	0x3d0617bb	0.032737475
205	0xbcada8a8	-0.021198586
206	0xbe5832d4	-0.2111314
207	0x3e7985d6	0.2436746
208	0xbfd927c5	-1.6965262
209	0x3e9da277	0.30788013
210	0x3eeb9ccf	0.46018073
211	0x3ea0ded7	0.31420013
212	0x3ea03dbb	0.31297097
213	0x3e8a4cb6	0.2701165
214	0x3def972d	0.11698756
215	0x3e4778db	0.19479696
216	0x3f1a8355	0.60356647
217	0xbc1326f8	-0.008981459
218	0xbdebe6cf	-0.115186326
219	0x3cf4b180	0.029869795
220	0xbe54c5c0	-0.2077856
221	0xbd35a2f8	-0.044344872
222	0xbdb0ce24	-0.08633068
223	0x3db9b4b1	0.09067667
224	0xbf249b24	-0.64299226
225	0x3ef3eb87	0.4764063
226	0x3e82168a	0.2540782
227	0x3e5931aa	0.21210352
228	0x3e20d409	0.15705885
229	0x3e018485	0.12648208
230	0xbdeb586e	-0.11491476
231	0x3e808cd1	0.25107434
232	0x3f3eaf24	0.74485993
233	0x3e0235ce	0.12715837
234	0xbbcb07dd	-0.0061960057
235	0xbe05f799	-0.13082732
236	0xbd27a801	-0.040931705
237	0xbe633ac1	-0.22190382
238	0xbe2567db	-0.16152899
239	0xbe3e8c08	-0.18608105
240	0x3f533a4c	0.8251083
241	0x3e23ca90	0.1599524
242	0x3d35536b	0.044269007
243	0xbe1d2686	-0.15346727
244	0xbd5cca01	-0.053903583
245	0xbe7048d3	-0.2346528
246	0x3de9fbed	0.11425004
247	0xbe4cd6b5	-0.20003779
248	0xbf55dea5	-0.83542854
249	0x3e7f530f	0.24934028
250	0x3e0f4e54	0.13994724
251	0x3ea0040d	0.3125309
252	0x3e3c1902	0.18368915
253	0x3e96e425	0.29470935
254	0xbe7c42ea	-0.246349
255	0x3e997494	0.29971755

net.0.bias f4 [128]
0	0x3e064bd2	0.1311486
1	0x3e1fdccd	0.15611573
2	0x3dba3675	0.09092418
3	0x3dfa4054	0.12219301
4	0x3e90b2ed	0.2826151
5	0x3db148c6	0.086564586
6	0x3f025ff7	0.5092768
7	0x3e6c6152	0.23084
8	0xbb6b6016	-0.0035915426
9	0x3e48dd42	0.19615653
10	0x3e0c2de6	0.13689384
11	0x3d91b9b1	0.07115496
12	0x3e226aa9	0.15861
13	0x3df77a71	0.12083901
14	0x3e0ecb2f	0.13944696
15	0x3e085285	0.13312729
16	0x3dc3edb6	0.09566824
17	0x3e4f3980	0.20236778
18	0x3e209ca1	0.15684749
19	0x3db37fa6	0.087645814
20	0x3dd45ece	0.10369645
21	0x3d9a687a	0.075394586
22	0x3eb1c55a	0.3472088
23	0x3e1ed7e0	0.15512037
24	0x3e50d6c8	0.20394433
25	0x3e1c7e7c	0.15282625
26	0x3e198ec9	0.14995874
27	0x3e76c8c0	0.24100018
28	0x3e130eb9	0.14361085
29	0x3ee73717	0.45159218
30	0x3e79e00e	0.24401876
31	0x3e24bf1c	0.16088527
32	0x3e38145c	0.17976516
33	0x3d8c21fb	0.06842419
34	0x3e3f521d	0.18683667
35	0x3da824e9	0.08210165
36	0x3dc72693	0.09724154
37	0x3e4bb1ed	0.19892092
38	0x3e665ef5	0.2249716
39	0x3e25a850	0.16177487
40	0xbdaa1db0	-0.08306444
41	0x3dbaae91	0.09115327
42	0x3d854ed2	0.065091744
43	0x3e108f14	0.1411708
44	0x3dbcb11f	0.09213471
45	0x3e55d9b8	0.20883834
46	0x3dde96db	0.10868617
47	0x3e60fba5	0.21970995
48	0x3e1052ae	0.1409404
49	0x3e57395d	0.21017976
50	0x3d5948a2	0.053047784
51	0x3e2574ca	0.16157833
52	0x3d7fc317	0.06244191
53	0x3ddc8ecb	0.10769423
54	0x3e1866cc	0.14882964
55	0x3df0c355	0.11756007
56	0x3e06ecfb	0.13176338
57	0xbd92de7a	-0.0717134
58	0x3e8c2085	0.2736856
59	0x3e13c63e	0.14431092
60	0x3e405d2e	0.18785545
61	0x3e11c429	0.14234985
62	0x3d7bd1ab	0.06147925
63	0x3e19ad14	0.1500743
64	0x3e4ef565	0.20210798
65	0x3e357a4f	0.17722438
66	0x3e8ceb75	0.2752339
67	0x3dfad82d	0.122482635
68	0x3e045a54	0.12925082
69	0x3d841c6d	0.06450734
70	0x3e0f7c7f	0.14012335
71	0x3e5ec758	0.21755731
72	0x3e660190	0.22461534
73	0x3e088fb0	0.13336062
74	0x3e127278	0.14301479
75	0x3ecc13ca	0.39858848
76	0x3e27fcb8	0.16404998
77	0x3e37e661	0.17958976
78	0x3e30bb49	0.17258944
79	0x3e38341f	0.17988633
80	0x3dcff71d	0.10154555
81	0x3f89796a	1.0740178
82	0x3e4c31d7	0.19940887
83	0x3eb6a7dd	0.35674945
84	0x3e30d578	0.17268932
85	0x3e2af7aa	0.16696039
86	0x3e39899c	0.181189
87	0x3d54c647	0.051946905
88	0x3edba58f	0.4289975
89	0x3e462829	0.19351257
90	0x3e0e14b1	0.1387508
91	0x3dcdb9e2	0.1004522
92	0x3e22e0e9	0.15906109
93	0x3d2b3a8d	0.041803885
94	0x3ea1ab9d	0.31576243
95	0x3dcb0b28	0.09914237
96	0x3ce3ae09	0.027792947
97	0x3e4bb756	0.19894156
98	0x3dee9f43	0.116514705
99	0x3d689014	0.05677803
100	0x3e3450c0	0.17608929
101	0x3ebd102d	0.36926404
102	0x3dcbcaa6	0.099507615
103	0x3e532924	0.20621163
104	0x3db529b4	0.08845845
105	0x3dfad7f0	0.12248218
106	0x3e34f31a	0.17670861
107	0x3dcdcf19	0.10049266
108	0x3e29e84e	0.16592523
109	0x3e1027a3	0.1407762
110	0x3d3eb322	0.046557553
111	0x3e73b496	0.23799357
112	0x3d842407	0.06452184
113	0x3e788896	0.24270853
114	0x3e2020a6	0.15637454
115	0x3db8b8c5	0.09019617
116	0xbd445364	-0.04793109
117	0x3eabbe69	0.3354371
118	0xbddfae1c	-0.109218806
119	0x3e54de75	0.20787986
120	0x3e019b41	0.12656881
121	0x3e2e531b	0.1702389
122	0x3e931935	0.2873017
123	0x3e582e88	0.211115
124	0x3e0b83e8	0.13624537
125	0x3e04a807	0.12954722
126	0x3dbd9965	0.09257773
127	0x3e330854	0.17483646

net.2.weight f4 [256, 128]
0	0x3f931ee7	1.1493806
1	0x3c6d3f5b	0.014480437
2	0x401bcb2e	2.434276
3	0x3eb3c904	0.351143
4	0x3b9a8d88	0.004716579
5	0x3f468fcf	0.77563184
6	0x3f45e729	0.7730585
7	0x3fbf848e	1.4962327
8	0x4032fd59	2.796713
9	0x3f14a130	0.5805845
10	0x3f677ab9	0.90421635
11	0x3eb92ce0	0.3616705
12	0x3d6f5a1f	0.058435556
13	0x3e5f7f5d	0.21825929
14	0xbe048336	-0.12940678
15	0x3f9009ed	1.1253029
16	0x3f3889b8	0.7208514
17	0x3e42a4fc	0.19008249
18	0x3f2db852	0.67859375
19	0x3fd1f9a2	1.6404307
20	0x3f89d841	1.076912
21	0x3fe1e110	1.7646809
22	0x3d7f9969	0.062402163
23	0x3f6e3bd4	0.9306004
24	0x3ee6a35a	0.45046502
25	0x3eb09f61	0.34496596
26	0x3f7c5132	0.98561394
27	0xbdbd7bc9	-0.09252126
28	0x3f19f39c	0.60137343
29	0x3e3b6a89	0.18302359
30	0x3e49a027	0.1969
31	0x3f35dc76	0.7103952
32	0x3f61fb70	0.8827429
33	0x3f3b9a85	0.73282653
34	0x3f0beab3	0.54655
35	0x3f33bf3a	0.70213664
36	0x3d1949cc	0.037423894
37	0x3fc55e5e	1.5419424
38	0x3fccc792	1.5998404
39	0x3d66d5bb	0.056356173
40	0xbfb72569	-1.4308292
41	0x3eae176d	0.34002247
42	0x3dbe8530	0.09302747
43	0x3e756af6	0.23966584
44	0x3ed13028	0.40857053
45	0x3f1c95e1	0.611662
46	0x3fa27073	1.2690567
47	0x3fae618a	1.3623517
48	0x3f5cfcc9	0.8632322
49	0x3e659d0c	0.2242319
50	0x3f490111	0.7851725
51	0x3feb447a	1.8380272
52	0x3f5e6db6	0.86886156
53	0xbd231e31	-0.039823715
54	0x3f447eea	0.76756155
55	0xbe3cf6eb	-0.18453567
56	0xbe8be49f	-0.27322862
57	0xbfc0065d	-1.5001942
58	0x3ea00249	0.31251743
59	0x3ff47211	1.909731
60	0xbdfe8cc5	-0.124291934
61	0x401dee4e	2.46767
62	0x3ef5296e	0.4788317
63	0x3f20e29b	0.6284577
64	0xbd0eb0ea	-0.034836687
65	0x3ef4fd62	0.47849566
66	0x3f8d9549	1.1061183
67	0x3e310d8b	0.17290322
68	0x3f57c37a	0.8428265
69	0x3f0f8074	0.5605538
70	0xb9c41eaa	-0.0003740688
71	0x3e841584	0.25797665
72	0x3ed42a8b	0.41438708
73	0x3fc5214e	1.5400789
74	0x3ee9bf40	0.45653725
75	0x3e480336	0.19532475
76	0x3ebd5fbf	0.3698711
77	0xbeb84aa6	-0.35994452
78	0x3f951942	1.1648333
79	0x3e9fb57f	0.31193158
80	0x3f2ca1f1	0.674346
81	0x3f219aaf	0.63126653
82	0xbf4522ea	-0.770064
83	0x3e7c7222	0.24652913
84	0x3f1e700b	0.61889714
85	0xbe554952	-0.2082875
86	0x3f3067ab	0.68908185
87	0x3f98db1f	1.194187
88	0xbde263c7	-0.11054187
89	0x3edb3bb4	0.42818987
90	0x3f8bf88d	1.0935227
91	0x3f3891a2	0.7209722
92	0x3f47bd63	0.78023356
93	0x3fc1fec9	1.5155879
94	0x3f1e9384	0.6194384
95	0x3f0aade5	0.5417159
96	0x3fa3f98a	1.2810528
97	0x3e4eb870	0.20187545
98	0x3f281348	0.6565442
99	0xbfa66d31	-1.3002073
100	0xbd881249	-0.066441126
101	0xbe5b9dd9	-0.21446933
102	0x3fbb53cf	1.4634951
103	0x3ebd6fef	0.3699946
104	0x3eb9dc82	0.36301047
105	0x3f012a51	0.50455195
106	0x3f0d2164	0.55129075
107	0x3d9a8e27	0.07546645
108	0x3f9b4406	1.2130134
109	0x3fd28288	1.6446085
110	0x3ece655c	0.40311706
111	0x3f297af8	0.6620326
112	0x3f787bae	0.9706372
113	0x3f6a30c6	0.9148067
114	0x3f231cfa	0.6371609
115	0x3fc2a0d0	1.5205326
116	0x402139ff	2.5191648
117	0x3e8a6790	0.27032137
118	0xbfb51cca	-1.4149411
119	0x3f8d4382	1.1036227
120	0x3f1947e7	0.5987534
121	0x3e2f0857	0.17093025
122	0x3ede1719	0.43376997
123	0x3f4d517a	0.8020245
124	0x4025033d	2.5783226
125	0x3e88edf6	0.2674405
126	0x3fa07b21	1.2537576
127	0x3fb3a35e	1.4034231
128	0x40174b4f	2.3639715
129	0x3e38ea73	0.18058185
130	0x3f12758d	0.5721062
131	0xbc85a72d	-0.016315067
132	0x3f09e780	0.53868866
133	0x3f1420cf	0.5786256
134	0xbeacf710	-0.33782244
135	0x3f9424f6	1.157378
136	0x3e859da8	0.26096845
137	0x3eb20f49	0.34777287
138	0xbdedf750	-0.11619437
139	0x3e853472	0.26016575
140	0x3eb24d1a	0.3482445
141	0x3f7ce8c3	0.98792666
142	0x3f51c115	0.81935245
143	0x3ffac94f	1.9592685
144	0x3ee994b7	0.45621273
145	0x3f573fc9	0.84081703
146	0x3ee52575	0.4475514
147	0x3e81e0b7	0.25366756
148	0x3fc7073b	1.5549082
149	0x3f756233	0.95852965
150	0x3f3f4d75	0.74727565
151	0x3f561f55	0.8364156
152	0x3f269852	0.6507617
153	0x3f21e21a	0.6323563
154	0x3f804c70	1.0023327
155	0x3f000681	0.50009924
156	0x3e9be5c3	0.30448732
157	0x3f0b890a	0.5450598
158	0x3e17c0ee	0.1481969
159	0x3fec3bd6	1.845576
160	0x3f276079	0.6538158
161	0x3f8b106e	1.0864389
162	0x3f86d186	1.0532691
163	0x3eaf8cac	0.34287012
164	0x3f970d04	1.1800847
165	0x3fa37e6c	1.2772956
166	0x3f84cc63	1.0374874
167	0x3f1dddff	0.61666864
168	0xbfdf7b5e	-1.7459524
169	0x3f081de3	0.53170604
170	0x3edea41e	0.43484586
171	0x3f40f5a7	0.75374836
172	0x3f1e5ee3	0.61863536
173	0x3f36d9e6	0.71426237
174	0x3ff1b6ee	1.8883951
175	0x3f20debf	0.62839884
176	0x3fe91bbe	1.8211591
177	0x3e8d9fb4	0.27660906
178	0x3e2f6bb9	0.17130937
179	0x3f955030	1.1665096
180	0x3f3b30b8	0.73121214
181	0x3ea87dcb	0.32908472
182	0x3f479805	0.7796634
183	0x3eff4bbe	0.49862474
184	0x3f6d9bf0	0.92816067
185	0xbfdd6b1a	-1.729831
186	0xbc8769b2	-0.016529892
187	0x3fc565ac	1.5421653
188	0x3d5dccd4	0.054150417
189	0x3eb2cd2f	0.34922168
190	0x3e6179dd	0.22019143
191	0x3f00a331	0.5024901
192	0xbe361633	-0.17781906
193	0x3e808426	0.2510082
194	0x3fcde2f2	1.6084883
195	0x3ec92071	0.39282563
196	0x3ff8c4db	1.9435076
197	0xbea58a4d	-0.32332078
198	0x3f8687c9	1.0510188
199	0x3f520218	0.82034445
200	0x3f5c505b	0.8606011
201	0x3edd08df	0.4317083
202	0x3e983d33	0.2973419
203	0x3ef26c18	0.47348094
204	0x3f6763a6	0.90386426
205	0x3f29e82c	0.6636989
206	0x3f1eb872	0.6200019
207	0x3f87f9ec	1.0623145
208	0x3f7bbba0	0.9833317
209	0xbe436746	-0.19082364
210	0x3eed69e8	0.46369863
211	0x3ebbfde1	0.36717132
212	0x3f3acd81	0.72969824
213	0x3eb748ba	0.35797673
214	0x3e9d483e	0.3071918
215	0x3ef40dce	0.47666782
216	0x3f63978a	0.88903105
217	0x3f5c10a2	0.8596288
218	0x3e393056	0.18084845
219	0x3f308705	0.68956023
220	0x3e077393	0.13227682
221	0xbee6cfa4	-0.45080292
222	0xbe84358e	-0.2582211
223	0x3f1112b1	0.56669146
224	0x3eafdab3	0.34346542
225	0x3f6fe4f9	0.9370876
226	0x3f8398fe	1.0281065
227	0x3f96bcf6	1.1776416
228	0x3f76919b	0.96315926
229	0x3f10f2b8	0.5662036
230	0x3fcec367	1.6153382
231	0x3f730ba7	0.94939655
232	0x3f295af5	0.66154414
233	0x3f1911a8	0.59792566
234	0x3edc835c	0.4306897
235	0x3f313919	0.6922775
236	0x3e3d86f6	0.18508515
237	0x3f78b29a	0.97147524
238	0x3f5a1b92	0.8519832
239	0x3cb1f2fa	0.021722306
240	0x3e9dee2b	0.3084577
241	0x400e5c5d	2.2243874
242	0x3f91fb71	1.1404859
243	0x3e4e017d	0.20117755
244	0xbf0f01a8	-0.558619
245	0x3e7f15f4	0.24910718
246	0xbfd400f3	-1.656279
247	0x3fb79b3d	1.434425
248	0x3f95d208	1.1704721
249	0x3f1d4ca4	0.6144507
250	0x3ee91dca	0.4553054
251	0x3f5187d4	0.8184788
252	0xbe8253b5	-0.25454488
253	0x3f182a45	0.594395
254	0x4015ce04	2.3406992
255	0x3fe91040	1.8208084

net.2.bias f4 [256]
0	0x3ec2f0d2	0.38074356
1	0x3e9e06f1	0.3086467
2	0x3e17e81b	0.14834635
3	0x3e91aef7	0.284538
4	0x3e910ad9	0.2832859
5	0x3eb495eb	0.35270628
6	0xbe93bff0	-0.28857374
7	0x3e954842	0.2915669
8	0x3fd9a6b2	1.7003996
9	0xbe37e968	-0.17960131
10	0xbe443074	-0.19159108
11	0x3dbd370d	0.09239016
12	0x3e9888a1	0.2979174
13	0x3e5f4941	0.21805288
14	0x3e76ec7f	0.24113654
15	0x3e6bb10c	0.23016757
16	0x3e91f628	0.28508115
17	0x3e815864	0.2526275
18	0xbe648c26	-0.22319087
19	0x3e3ce28a	0.18445793
20	0xbe6049e6	-0.2190319
21	0x3ea561eb	0.32301268
22	0x3e210097	0.15722881
23	0x3da5125f	0.08060145
24	0x3ebfa6a7	0.37431833
25	0x3e6ed8bc	0.23324865
26	0x3e5d5989	0.21616186
27	0x3e84a1fa	0.25904828
28	0x3e8b1273	0.27162513
29	0x3eacd080	0.33752823
30	0x3e462f04	0.19353873
31	0x3eb6ac42	0.35678297
32	0xbe4cafba	-0.1998891
33	0xbe931040	-0.28723335
34	0x3e896059	0.2683132
35	0xbe28bc37	-0.16478048
36	0x3f00dd1b	0.5033738
37	0xbc7ad9b6	-0.015310695
38	0x3e8fb7d9	0.28069952
39	0x3e4a1c6d	0.19737406
40	0x3e180021	0.14843799
41	0x3e607c39	0.21922387
42	0x3e3ab2b0	0.18232226
43	0x3e9db7d2	0.30804306
44	0x3e84ee32	0.2596298
45	0x3eb7c45a	0.35891992
46	0x3e914834	0.283754
47	0x3db435c2	0.08799316
48	0x3e8bb9ba	0.27290136
49	0x3e876100	0.26441193
50	0xbe82c42d	-0.25540295
51	0x3ebbcb82	0.36678702
52	0xbe87bdf7	-0.2651212
53	0x3ea33958	0.31879687
54	0xbe3e32be	-0.18574044
55	0x3e83c66b	0.25737318
56	0x3e33594b	0.17514531
57	0x3e4697dc	0.19393867
58	0xbe916840	-0.2839985
59	0x3d184161	0.037171725
60	0x3e6818be	0.22665688
61	0x3e8c7129	0.27430084
62	0x3eddc8e9	0.43317345
63	0x3ea0ef98	0.31432796
64	0x3e406e46	0.18792066
65	0x3fd1eebc	1.6400981
66	0x3ed8de48	0.42357087
67	0x3e3441d0	0.1760323
68	0x3e4852cc	0.19562835
69	0x3e24c899	0.16092147
70	0x3ec23eba	0.37938482
71	0xbe5e8c54	-0.21733218
72	0x3e7869ed	0.24259157
73	0x3e4e0eab	0.20122783
74	0xbf2792be	-0.65458286
75	0x3ec5f4c2	0.38663298
76	0x3f032303	0.512253
77	0x3f96bb3a	1.1775887
78	0x3ea05236	0.31312722
79	0x3ea9e23d	0.3318042
80	0xbe833f68	-0.25634313
81	0x3e2f168b	0.17098443
82	0xbe51991d	-0.20468564
83	0x3e36236f	0.17786954
84	0x3e55f50e	0.20894262
85	0x3e1f7c07	0.15574656
86	0x3e140f7b	0.1445903
87	0x3e404b28	0.1877867
88	0x3e3ba4c5	0.18324573
89	0x3f2702f4	0.6523888
90	0x3e83c749	0.2573798
91	0x3e99c58a	0.30033523
92	0x3e056d9b	0.13030092
93	0x3fd17bb3	1.6365875
94	0x3ec20acb	0.3789886
95	0x3e310949	0.17288698
96	0x3df6e499	0.1205532
97	0x3ec24069	0.37939766
98	0x3ecaa602	0.3957978
99	0x3ea8f067	0.32995912
100	0xbe182f3c	-0.14861768
101	0x3df8c8bc	0.12147662
102	0x3ebc9e28	0.36839414
103	0xbe2d1f9f	-0.16906594
104	0x3e4d2db4	0.20036966
105	0x3ee02a6a	0.4378236
106	0x3e9f04ad	0.31058255
107	0x3ea09eff	0.31371304
108	0x3ea61953	0.32441196
109	0x3e52aab7	0.20572935
110	0x3f011965	0.50429374
111	0x3e2cd7dc	0.16879219
112	0x3e1cfaa2	0.15329984
113	0x3e34f686	0.17672166
114	0x3e5f930d	0.21833439
115	0xbc292752	-0.010324316
116	0x3dfb815d	0.122805335
117	0xbe9b2eb7	-0.30309078
118	0xbeb975d6	-0.36222714
119	0xbd8b2f43	-0.06796124
120	0x3ec46bfe	0.38363642
121	0x3e4f1ce4	0.20225865
122	0xbe614178	-0.2199763
123	0x3e908e3d	0.2823352
124	0x3ee0cfdc	0.43908584
125	0x3e9859fb	0.2975615
126	0x3e1ec0be	0.15503213
127	0x3e57dae9	0.21079601
128	0x3e7a7517	0.24458729
129	0x3e896c35	0.26840368
130	0x3e675c75	0.22593863
131	0x3eb55127	0.35413477
132	0x3dfc7fcb	0.12329062
133	0x3e937e90	0.28807497
134	0x3e96e895	0.2947432
135	0x3e14f3a5	0.14546068
136	0x3efbd48d	0.491856
137	0x3e6c26cf	0.2306168
138	0x3e592c8f	0.21208404
139	0x3e7e725b	0.2484831
140	0x3ec25145	0.3795263
141	0x3e8dd216	0.27699345
142	0x3e8ef9a7	0.27924845
143	0x3ea63b6e	0.32467216
144	0x3e2d385c	0.1691603
145	0x3eab5763	0.33465108
146	0xbe605507	-0.21907435
147	0xbc9a7199	-0.018852996
148	0x3ed45e48	0.4147818
149	0x3ea72c25	0.32650867
150	0x3ef246d7	0.47319672
151	0x3de57e87	0.11205774
152	0x3e3b6f37	0.18304144
153	0x3e7ce111	0.24695231
154	0x3e0487ed	0.12942477
155	0x3e4cc09b	0.19995348
156	0x3ebf9e5d	0.3742551
157	0x3e52e0c2	0.20593551
158	0x3ea64189	0.32471874
159	0x3e6622c2	0.22474197
160	0xbe502e24	-0.20330101
161	0x3ea7068c	0.32622182
162	0x3e8fabf8	0.2806089
163	0x3ecd7497	0.40128013
164	0x3e7b2b40	0.24528217
165	0x3e83c318	0.25734782
166	0xbdcbe840	-0.099564075
167	0x3e4301fe	0.19043729
168	0x3e8c6895	0.2742354
169	0xbe911950	-0.28339624
170	0x3ea06423	0.31326398
171	0x3e7a066c	0.24416512
172	0x3fbcc67f	1.4748076
173	0x3e72f114	0.23724777
174	0x3eaac8a8	0.33356214
175	0x3dde739b	0.10861894
176	0x3e7a93fa	0.24470511
177	0x3e1bda3b	0.15219967
178	0x3e9c3314	0.3050772
179	0x3e1f0a4f	0.15531276
180	0x3e221424	0.15827996
181	0x39f844b6	0.0004735344
182	0x3e30d42e	0.1726844
183	0x3e833c66	0.25632018
184	0x3d6d8e17	0.057996836
185	0x3dea60f9	0.11444277
186	0x3f3ed37f	0.7454147
187	0x3e574d26	0.21025524
188	0xbdebe151	-0.11517585
189	0x3ec0f04c	0.37683332
190	0xbe5f7bb3	-0.21824531
191	0x3e602df3	0.21892528
192	0x3eb28d20	0.34873295
193	0xbfc2f66b	-1.5231451
194	0x3ea4da27	0.32197687
195	0x3e88845e	0.26663488
196	0x3ea53930	0.32270193
197	0x3eb49ff4	0.35278285
198	0x3e9fa88b	0.31183276
199	0x3e816b66	0.2527725
200	0x3e935a7b	0.2877997
201	0xbe843f69	-0.25829628
202	0x3e9cbc55	0.30612436
203	0x3e77bc07	0.2419282
204	0x3e9465de	0.28983968
205	0xbe09485b	-0.13406508
206	0xbec15424	-0.37759507
207	0x3e872488	0.2639506
208	0x3e58e4b0	0.21180987
209	0x3e5bfd99	0.21483459
210	0x3e7228e2	0.23648408
211	0x3e9901b1	0.29884103
212	0x3e864a4e	0.26228565
213	0x3f91877f	1.1369475
214	0x3e80d82f	0.25164935
215	0x3f2f5963	0.6849577
216	0x3e966b0f	0.29378554
217	0x3e7e4ab3	0.24833183
218	0x3ea304f1	0.31839707
219	0x3e9c2006	0.30493182
220	0x3e3e852a	0.18605486
221	0x3eaa6895	0.33282915
222	0x3e625976	0.22104439
223	0x3e388398	0.18018949
224	0x3e847260	0.2586851
225	0x3e21143c	0.15730375
226	0x3eabafc3	0.33532533
227	0x3e0353dc	0.12824959
228	0x3e87a98c	0.26496542
229	0x3e56db10	0.20982003
230	0xbe2cbe03	-0.16869359
231	0x3e446cd2	0.19182137
232	0x3e390380	0.18067741
233	0x3e82c6e6	0.25542372
234	0xbe3a62ed	-0.182018
235	0x3ef6279c	0.48077095
236	0x3e92a5a0	0.28641987
237	0x3e4cec73	0.20012073
238	0x3e83029e	0.25587934
239	0x3f55d66c	0.83530307
240	0x3e6a3ba3	0.22874312
241	0x3e44fd3d	0.19237228
242	0xbe7a197f	-0.24423788
243	0x3e81af3b	0.25329003
244	0x3e803898	0.25043178
245	0x3ed88157	0.42286178
246	0x3e93e791	0.2888761
247	0x3e6078b6	0.21921048
248	0xbd83f662	-0.06443478
249	0xbe85ff22	-0.26171213
250	0x3ea42e72	0.32066685
251	0xbda723ed	-0.08161149
252	0x3e8d7310	0.27626848
253	0x3e4bb9c1	0.19895078
254	0x3ece82ad	0.40334073
255	0x3efa0429	0.488313

net.4.weight f4 [27, 256]
0	0x3e6970ea	0.2279698
1	0x3efc558e	0.49284023
2	0x3effbeb9	0.49950197
3	0x3ed907fd	0.42388907
4	0x3ee046f0	0.4380412
5	0x3eec25ca	0.4612258
6	0x3f0d5079	0.55200917
7	0x3efba680	0.49150467
8	0xbf822ecb	-1.017053
9	0x3f0ef622	0.5584432
10	0x3f0853bf	0.53252786
11	0x3f0eef2f	0.55833715
12	0x3f05245c	0.52008605
13	0x3ec3be91	0.38231328
14	0x3edcf784	0.4315759
15	0x3ed1beb9	0.40965822
16	0x3edbf0b6	0.42957085
17	0x3eed59e5	0.46357647
18	0x3ef8fcf7	0.48630497
19	0x3ee473b8	0.44619536
20	0x3f156bba	0.583675
21	0x3ea71a9e	0.32637495
22	0x3eeb78a5	0.45990482
23	0x3f0b5aa1	0.54435164
24	0x3ebd1ff5	0.36938444
25	0x3ee6bb67	0.45064852
26	0x3eef7728	0.46770597
27	0x3eaf5155	0.3424174
28	0x3eacf4f9	0.3378065
29	0x3ecdf61f	0.40226838
30	0x3eed143a	0.46304494
31	0x3eba63c4	0.3640424
32	0x3f13da5d	0.5775507
33	0x3ef84ae2	0.4849463
34	0x3ecf8bd9	0.40536383
35	0x3ee9d08e	0.45666927
36	0x3f009486	0.5022663
37	0xbd578450	-0.052616417
38	0x3edd7b2e	0.4325804
39	0x3ee5c5a0	0.44877338
40	0x3efe524c	0.49672163
41	0x3ec6e788	0.3884852
42	0x3efb3cc4	0.49069798
43	0x3ed3bff6	0.41357392
44	0x3ecef807	0.40423605
45	0x3ee0d3bc	0.4391154
46	0xbd92c962	-0.07167317
47	0x3eee5985	0.46552673
48	0x3edb3857	0.4281642
49	0x3ed2a3a8	0.41140485
50	0x3f0e4f28	0.5558953
51	0x3ee8c8c5	0.45465675
52	0x3f11eb4a	0.5699965
53	0x3f747955	0.9549764
54	0x3f0c1d3a	0.54732096
55	0x3eedafbe	0.46423143
56	0x3ec2ab17	0.38021156
57	0x3eecd567	0.46256563
58	0x3ef5bebb	0.47997078
59	0x3e9a3ebe	0.30125993
60	0x3edda773	0.43291816
61	0x3edcdc58	0.4313686
62	0x3f065814	0.52478147
63	0x3ed59352	0.4171396
64	0x3edddb5e	0.43331426
65	0xbf70f640	-0.9412575
66	0x3ea4cedb	0.32189068
67	0x3ef2f528	0.47452664
68	0x3ebc8675	0.36821333
69	0x3f01573d	0.5052374
70	0x3ebba2cf	0.3664765
71	0x3ee2e0cf	0.4431214
72	0x3ee3eb4e	0.4451546
73	0x3eafc041	0.34326366
74	0x3f225519	0.634111
75	0x3ef0a060	0.46997356
76	0x3e0d9d29	0.13829483
77	0xbf134ee9	-0.5754228
78	0x3ec25ece	0.37962955
79	0x3eb7f1bf	0.35926625
80	0x3f09a675	0.5376962
81	0x3ec8623f	0.39137456
82	0x3f07c02f	0.53027624
83	0x3ec8bbee	0.3920588
84	0x3ebc0fdb	0.36730847
85	0x3ec49c25	0.3840038
86	0x3ef1e54c	0.47245252
87	0x3ee74c17	0.4517524
88	0x3eea24fd	0.45731345
89	0xbf682440	-0.90680313
90	0x3f0ad09d	0.5422457
91	0x3e95c9f8	0.29255652
92	0x3eeb47f9	0.45953348
93	0xbf6b80de	-0.9199351
94	0x3ebf1686	0.37321872
95	0x3e2eca01	0.17069246
96	0x3f0671f7	0.52517647
97	0x3d86b22e	0.06576954
98	0x3e49bc72	0.19700792
99	0x3ecaaf52	0.39586884
100	0x3ee6cc8d	0.45077935
101	0x3eafcb16	0.3433463
102	0x3f0174d4	0.5056889
103	0x3ee44772	0.44585758
104	0x3ed041d1	0.40675214
105	0x3e8204b8	0.25394225
106	0x3edacaf7	0.42732975
107	0x3ece1973	0.4025379
108	0x3ee10a2d	0.43953076
109	0x3ee06e4b	0.43834147
110	0xbcec79f1	-0.02886674
111	0x3eeba5b2	0.46024853
112	0x3ece26b0	0.4026389
113	0x3f06a3c8	0.5259366
114	0x3f00462f	0.5010709
115	0xbc580ff8	-0.013187401
116	0x3ee09d42	0.43869978
117	0x3eec8b9f	0.46200272
118	0x3f27627a	0.6538464
119	0x3ef50a06	0.4785921
120	0xbdb6d62b	-0.08927568
121	0x3e8ae2e7	0.27126238
122	0x3f11f16a	0.57008994
123	0x3ec58529	0.38578156
124	0x3eaa59f0	0.33271742
125	0x3eb8c37e	0.3608665
126	0x3ef12c9a	0.4710434
127	0x3ed72e99	0.4202774
128	0x3ebf7644	0.37394917
129	0x3ec310da	0.38098794
130	0x3ea77935	0.3270966
131	0x3ed8ebca	0.42367393
132	0x3edd90a4	0.43274415
133	0x3eef6963	0.4676009
134	0x3e7f423f	0.24927615
135	0x3eb9130b	0.3614734
136	0x3e89af4d	0.26891556
137	0x3f000a45	0.5001567
138	0x3ef3ef9a	0.4764374
139	0x3eeb8ff0	0.46008253
140	0x3ed7eb63	0.42171773
141	0x3e700639	0.23439874
142	0x3eb2ba31	0.34907678
143	0x3ecdf3a8	0.40224957
144	0x3ef1f5a9	0.47257736
145	0x3f047e2c	0.51755023
146	0x3f013804	0.504761
147	0x3ea4d504	0.32193768
148	0x3eeadbf6	0.45870942
149	0x3ed65214	0.41859496
150	0x3f37f3cb	0.71856374
151	0x3eb6e9fa	0.35725385
152	0x3eba45c2	0.36381346
153	0x3ecf7f31	0.40526727
154	0x3ebf94de	0.37418264
155	0x3ee7c6fc	0.45269
156	0x3eda2ee0	0.42613888
157	0x3efb3b04	0.49068463
158	0x3ec5a34e	0.38601154
159	0x3ec42b44	0.3831426
160	0x3f06498b	0.5245597
161	0x3ec0a131	0.3762298
162	0x3eb43884	0.35199368
163	0x3eabbc41	0.33542064
164	0x3ed69446	0.4191
165	0x3eed8d77	0.46396992
166	0x3f10199d	0.5628908
167	0x3ef60ff8	0.48059058
168	0x3eee9226	0.46595877
169	0x3ee9dc2b	0.45675787
170	0x3ecc9d59	0.39963797
171	0x3ef8b0ae	0.48572296
172	0xbf871c23	-1.0555462
173	0x3fd24dcb	1.642999
174	0x3ec007ea	0.37506038
175	0x3f947bb7	1.1600255
176	0x3ee0e966	0.4392807
177	0x3f0034d8	0.50080633
178	0x3ed3363d	0.41252318
179	0x3ee63a9e	0.44966596
180	0x3ee08b93	0.43856487
181	0x3fa3df3a	1.2802498
182	0x3edfe181	0.43726733
183	0x3eb81b5f	0.35958382
184	0x3ee5b213	0.44862422
185	0x3ec78f73	0.3897663
186	0xbf578311	-0.84184366
187	0x3edfd6af	0.43718478
188	0x3ef523e1	0.47878936
189	0x3e6a9cbe	0.22911355
190	0x3f0cd135	0.55006725
191	0x3ef9a32d	0.48757306
192	0x3eb3806c	0.35058916
193	0x3e65dee9	0.22448315
194	0x3ec6232e	0.38698715
195	0x3e8f4662	0.27983385
196	0x3eefd4fa	0.46842176
197	0x3eec8e0b	0.4620212
198	0x3edda990	0.43293428
199	0x3ee370e8	0.44422078
200	0x3ed96315	0.42458406
201	0x3f0c37a0	0.54772377
202	0x3eda3311	0.42617086
203	0x3efab8aa	0.48969012
204	0x3ef4cc69	0.47812203
205	0x3efa29d7	0.48860046
206	0x3f000bf1	0.5001822
207	0x3f001aa0	0.50040627
208	0x3ebddd5c	0.37082946
209	0x3ebf711a	0.37390977
210	0x3ee10e68	0.43956304
211	0x3edd8d61	0.43271926
212	0x3ee5455a	0.44779474
213	0xbf5a530c	-0.8528297
214	0x3ed091a2	0.4073611
215	0xbdcc4d81	-0.0997572
216	0x3edd3715	0.43206087
217	0x3edc7138	0.4305513
218	0x3eacaa73	0.33723792
219	0x3eb5f21f	0.35536286
220	0x3ed37f4d	0.4130806
221	0x3ebb9d55	0.36643472
222	0x3eff3e44	0.49852192
223	0x3edddb7b	0.43331513
224	0x3eaaca2d	0.33357373
225	0x3f00c958	0.50307226
226	0x3ec671e1	0.38758758
227	0x3f992dd3	1.196711
228	0x3e9783a0	0.2959261
229	0x3eeeaac7	0.46614668
230	0x3f048314	0.5176251
231	0x3efd6759	0.4949291
232	0x3ecc6902	0.39923865
233	0x3ee07871	0.4384189
234	0x3eed5dd2	0.46360642
235	0x3df4fae2	0.119619146
236	0x3ed856e5	0.42253795
237	0x3ec508ac	0.3848318
238	0x3ecac6be	0.39604753
239	0xbd41b037	-0.047287192
240	0x3ec55795	0.38543382
241	0x3f01b6bf	0.50669473
242	0x3f183ce8	0.59467936
243	0x3ec284d0	0.37991953
244	0x3ed199e0	0.4093771
245	0x3eb07747	0.34466
246	0x3eedd45b	0.46451077
247	0x3ebfecdc	0.37485397
248	0x3f7b226e	0.9809941
249	0x3f100a28	0.562655
250	0x3ec4e874	0.38458598
251	0x3ef3d29d	0.47621623
252	0x3ed73352	0.42031342
253	0x3ee3d3dc	0.44497573
254	0x3edfbcaf	0.43698642
255	0xbdab08f7	-0.08351319

net.4.bias f4 [27]
0	0xbd089ccd	-0.033352662
1	0x3e15f7bc	0.14645284
2	0xbd87a3c3	-0.06623032
3	0x3cb0adcb	0.021567246
4	0x3d3eaec9	0.046553407
5	0x3de771fa	0.11301036
6	0x3d283b2b	0.041072052
7	0x3e48a23f	0.19593142
8	0xbd9bfdc4	-0.07616761
9	0x3ecc451c	0.39896476
10	0x3d8bf721	0.068342455
11	0x3e09baeb	0.1345021
12	0xba88d27f	-0.0010438709
13	0x3e321159	0.1738943
14	0x3d8a469d	0.0675175
15	0x3dc5a6da	0.09650965
16	0xbd541bcf	-0.051784333
17	0xbd46b95d	-0.04851662
18	0x3e7efbdf	0.24900769
19	0x3eff688f	0.4988446
20	0x3ee35bec	0.44406068
21	0x3c394bdd	0.011309591
22	0x3d9d569c	0.07682535
23	0x3e0057dd	0.12533517
24	0x3c1f7eb4	0.009734798
25	0x3e0fb090	0.14032197
26	0x3d879deb	0.06621917
