model/dqn_policy_net_episode_2760.pt (torch, 334295 bytes, 6 tensors)

net.0.weight f4 [128, 336]
000000 4c 67 db 3d 7c 13 3c be a7 8c 6c 3d b4 22 a2 3d
       0.10713062 -0.18366808 0.057751324 0.07916775
000010 3a 42 ed bd d2 47 a4 be 88 07 11 bc ed e8 1f bd
       -0.11584897 -0.32086045 -0.008851893 -0.039040495
000020 20 d6 e4 3d 3a 44 97 bd 3e a8 51 be a2 15 a2 3d
       0.111736536 -0.0738606 -0.20474336 0.079142824
000030 6e 3f 59 3d ab 83 71 be 14 f6 89 bd 71 1b d9 3c
       0.053039007 -0.23585384 -0.06736389 0.026502343
000040 be d3 14 be 1d 25 f9 bd 8f da 69 bc 23 65 b7 bd
       -0.14533898 -0.12165282 -0.0142733 -0.08954837
000050 72 61 b1 3d c5 38 86 3d 9d d4 c4 bd ac cf 65 3d
       0.08661164 0.06553797 -0.09610865 0.056106254
000060 05 5f 22 be 54 f4 07 be 17 ce ba 3c e7 f8 88 bc
       -0.1585656 -0.13276798 0.02280335 -0.016720248
000070 5b 15 23 be 69 54 15 bd df 7d 9d 3d 50 f2 2a 3d
       -0.15926115 -0.036457453 0.07690024 0.041734993
000080 ec f7 40 be ae 12 93 bd c3 6d 94 3d df 0d bf bd
       -0.18844575 -0.07181297 0.07247498 -0.093288176
000090 ea 43 21 bd d8 df 4e be 31 c2 39 bd 7c 5e 3d bc
       -0.03937141 -0.20202577 -0.04535121 -0.011558171
0000a0 39 e8 73 bc 8e 84 6a be c7 90 50 3e 44 24 ef bd
       -0.014886909 -0.22902128 0.20367728 -0.11676839
0000b0 a6 54 b1 3d 12 65 29 be 5c b3 8d 3d 18 30 e1 bc
       0.086587235 -0.16542462 0.06918976 -0.027488753
0000c0 b7 3a 0e bd 9e 84 37 3d ba a5 86 bd 47 02 b8 3b
       -0.034723964 0.044804208 -0.065745786 0.005615506
0000d0 41 20 a7 3d 92 1a 0d be 8e 9f 79 bd 5b d1 60 3e
       0.08160449 -0.13779667 -0.06094318 0.21954863
0000e0 02 af 85 3d 7d d0 aa be 6d 92 33 be 9d 95 71 bc
       0.06527521 -0.3336219 -0.17536326 -0.014745143
0000f0 2e 7d cb 3d 6f 09 96 3d fb 8b 09 3d ad 4a 88 ba
       0.099359855 0.07326018 0.03358076 -0.0010398232
000100 e4 68 a0 bd c7 40 c1 bc d1 a8 92 be ba b3 85 3d
       -0.07832506 -0.023590459 -0.28644422 0.06528421
000110 2c 63 5a be b1 3d 7b bc 7b a7 2f be 19 27 0e 3e
       -0.21326894 -0.015334533 -0.17153732 0.13882102
000120 09 9b 4f be 67 88 e3 3b f9 1f 0c bd 83 2b 1a 3e
       -0.20273985 0.0069437507 -0.03421018 0.15055661
000130 34 46 2f 3d 37 71 0e 3d f5 4e 80 bc 7b 51 de 3d
       0.04279156 0.03477594 -0.01566265 0.10855385
000140 8c a8 d7 3d f9 cc c5 3d e2 29 44 3d 74 5b 26 bd
       0.10530195 0.09658236 0.047891505 -0.04061456
000150 ba 32 c5 bd 22 38 02 bc a7 0f db bd fd c4 fc 3d
       -0.09628816 -0.007947953 -0.10696345 0.1234226
000160 68 a8 33 bd 61 8c fa bd 87 e9 84 3d df 71 ab 3d
       -0.043861777 -0.122338064 0.06489854 0.083713286
000170 58 f7 98 3d c4 77 36 be 98 11 90 bc 4e e6 96 bc
       0.07469052 -0.17819124 -0.017586514 -0.018420365
000180 23 5a 51 3e 46 26 56 be 95 fa a5 bc af 1a 05 3d
       0.2044454 -0.20913038 -0.020261088 0.03249615
000190 e0 ec cb 3c d9 fc 71 bd de 91 65 3c 18 02 12 3d
       0.024893224 -0.059079025 0.014011828 0.035646528
0001a0 5b 9b 50 bf ce 85 cd 3d a3 e2 0c 3e 5e 85 32 3e
       -0.81487054 0.10035287 0.1375833 0.17433688
0001b0 72 3c cb 3e e7 1f cd bc 86 49 d8 bd 77 9a f8 3d
       0.39694554 -0.025039626 -0.105608985 0.12138837
0001c0 ce 00 b5 3b 75 77 d3 bc 0b b2 92 bb 9d 89 10 3d
       0.0055237776 -0.025813797 -0.004476791 0.03528749
0001d0 fc b4 17 be 62 fd 70 bd 6c c8 fd 3c 95 a6 09 3d
       -0.14815134 -0.058835395 0.030979358 0.03360613
0001e0 c4 6e 4d bf a4 b5 46 bd cd 39 93 bd cc 24 49 be
       -0.8024714 -0.04851307 -0.07188759 -0.19642943
0001f0 6c e1 dc 3c 8c cc 78 3b ae ba 00 be 30 40 71 bd
       0.026962958 0.0037963716 -0.12571213 -0.058899105
000200 2c 10 86 3e 14 cb 80 be 00 d4 41 bb 1e 03 47 bd
       0.26184213 -0.25154936 -0.0029575825 -0.048586957
000210 e1 19 8a be 1a 63 88 bd f5 44 d9 bd 8c 5e ae bc
       -0.2697287 -0.06659527 -0.10608856 -0.021285318
000220 e1 90 08 bf 64 9a dc 3d be 77 95 bc 08 06 f5 3d
       -0.5334607 0.10771635 -0.018245574 0.11964041
000230 e8 11 ab bd 40 7e c4 3c f9 12 e3 bc 3c 1f 58 3e
       -0.08353025 0.023985982 -0.027719008 0.21105665
000240 e6 cf b4 3e 7b 13 41 be 5e 08 33 be 61 02 27 be
       0.35314864 -0.18855087 -0.1748366 -0.16309501
000250 93 1b bd bd f0 a8 7d 3c 77 fd c1 3d ca 1a 06 be
       -0.09233775 0.015482172 0.09472173 -0.13096157
000260 92 de 15 3d 67 43 3c bc 82 39 82 3c b0 18 02 3e
       0.036589213 -0.011490679 0.015896562 0.1270473
000270 41 40 67 be 07 51 c1 3d 20 ad 77 be 65 2f 58 3d
       -0.22583105 0.09439283 -0.24187136 0.052779574
000280 39 5a 37 3d 4e f7 5d 3d 4e 2d f8 3c fb 2b ce bc
       0.044763777 0.054190926 0.03029504 -0.025167456
000290 0b 76 be 3d b5 25 b8 3d 0d 4a bd bd 07 55 b9 3c
       0.09299859 0.08991567 -0.0924264 0.022623552
0002a0 9b 23 0b 3f 06 50 62 be ce 3d 11 3c d9 f0 f2 bd
       0.54351205 -0.22100839 0.008864833 -0.11862344
0002b0 ed eb 8d be fb 2d 06 be 92 04 0c be 10 2d f5 3c
       -0.2771906 -0.13103478 -0.13673618 0.029928714
0002c0 2f e2 08 3f 58 24 38 3c f4 63 98 3d c8 ef 50 be
       0.5347013 0.011239134 0.074409395 -0.2040397
0002d0 30 a8 b6 bd a3 66 74 be 29 38 96 bd 33 7a a2 be
       -0.08918798 -0.23867278 -0.073349304 -0.31733856
0002e0 3a 09 4a 3f c5 5d 24 be 9b 66 c7 bd 6f 95 25 be
       0.7892033 -0.16051395 -0.09736367 -0.16170286
0002f0 d2 34 8f 3d a6 99 6e 3d f0 06 ca 3c 95 75 54 3d
       0.069924966 0.058252 0.024661511 0.051869947
000300 83 d4 2d bf 1a 94 fe 3c e6 a1 e1 3d 91 d4 ef 3d
       -0.6790239 0.03107648 0.11017208 0.11710466
000310 40 69 8f bc 4d 77 d2 3e f2 e8 86 3d 4e ee 1e 3e
       -0.017506242 0.41106644 0.065873995 0.15520594
000320 67 6c 11 3f 13 07 c2 bd c8 55 d2 bd 05 1e 16 bd
       0.56806034 -0.094740056 -0.10270268 -0.036649723
000330 dc 4e 85 3e c2 84 d8 bd 72 37 3c bd 85 c2 54 3e
       0.26036727 -0.105721965 -0.045951314 0.20777328
000340 de 4d ec bf d6 e4 89 3e 24 51 0c 3f 88 70 80 3e
       -1.8461263 0.269324 0.5481131 0.25085855
000350 22 c7 9b 3e 63 b4 03 3f a0 ff 30 3e 90 29 6e 3e
       0.30425364 0.51447123 0.17285013 0.23258042
000360 06 b6 f1 3e 9c f0 c5 3d 0d 6f a2 bd 8e b3 b3 3c
       0.47209185 0.09665033 -0.079313375 0.021936204
000370 c8 22 75 3d 16 5d 84 3d fe 41 3d 3d 97 06 e0 bc
       0.059847623 0.06463067 0.046205513 -0.027346892
000380 06 c4 4f bf 56 24 cc 3e b2 9d a9 3e 8c 46 9e 3e
       -0.81158483 0.39871472 0.33128124 0.30913198
000390 aa 87 24 be e0 8e 84 3e c7 bc ec bc 62 ff e9 3e
       -0.16067377 0.25890255 -0.02889861 0.45702654
0003a0 b4 8b 35 3f 6e bf 67 3d 9a df 55 be 7f ec 06 be
       0.70916295 0.056579046 -0.20886078 -0.13176154
0003b0 69 c8 19 bd d0 55 ed 39 e6 4c 20 3e 9b d7 99 be
       -0.03754464 0.00045268098 0.15654334 -0.30047306
0003c0 bd 68 79 3f df c3 2a 3d d4 ce cc bd 6b aa 06 be
       0.9742544 0.041690703 -0.10000387 -0.13150947
0003d0 20 90 ce be b6 2f 88 be c9 a0 f1 3c 37 3f de be
       -0.40344334 -0.265989 0.029495614 -0.43407604
0003e0 f1 84 57 bf 47 60 b1 3e 9e 73 8c 3e 84 b8 2b 3e
       -0.8418723 0.34643766 0.2743196 0.16769606
0003f0 95 07 f6 3d 4e 02 05 3f e2 cd 00 3d 79 db f4 3e
       0.12013165 0.5195664 0.031446345 0.47823694

net.0.bias f4 [128]
000000 99 bc 03 3e 76 4b 2d 3e ae ae e5 3d c9 b0 19 3e
       0.12864913 0.16923317 0.11214958 0.15008844
000010 13 6e b5 3e a1 c3 14 3e 61 f5 19 3f 1d 8f 80 3e
       0.35435542 0.14527752 0.60140043 0.25109187
000020 14 b7 0c 3c 66 1a 59 3e 92 0a 17 3e a7 bf eb 3d
       0.008588571 0.21201476 0.14750126 0.11511164
000030 c8 0f 4d 3e bf e4 07 3e 44 d4 35 3e 3b ff 10 3e
       0.20025551 0.13270853 0.17756754 0.14159863
000040 f9 6e 07 3e 46 7b 70 3e 8c 3b 50 3e 42 d5 be 3d
       0.13225926 0.23484525 0.20335215 0.093180194
000050 f9 f7 ea 3d 1a 01 8b 3d 44 44 db 3e c8 3b 63 3e
       0.11473078 0.067873195 0.4282552 0.22190773
000060 df 58 6c 3e 0d c3 17 3e 3b d8 44 3e 89 96 9a 3e
       0.23080777 0.148205 0.1922311 0.30192974
000070 32 e1 18 3e 5b a9 08 3f 5a d9 a1 3e 13 5b 36 3e
       0.14929655 0.53383416 0.3161114 0.1780818
000080 22 d6 80 3e 3f d6 ed 3d 13 aa 61 3e d3 b4 0b 3e
       0.2516337 0.1161313 0.22037534 0.13643198
000090 64 bd e1 3d ed 70 67 3e c6 5c 78 3e e2 9a 38 3e
       0.110224515 0.22601672 0.2425414 0.18027833
0000a0 c7 6b a8 bd 01 93 0f 3e 0d 5b b5 3d d1 59 44 3e
       -0.08223682 0.14020921 0.08855257 0.19174887
0000b0 28 d6 be 3d 3b 32 62 3e 41 7c c9 3d f7 74 82 3e
       0.09318191 0.22089474 0.09838153 0.25479862
0000c0 b1 cb 08 3e 9a 77 8a 3e 56 31 2a 3d 9b d7 58 3e
       0.13358952 0.27044374 0.041550957 0.21175997
0000d0 a2 71 fd 3d 12 9c 06 3e 5b 1b 4f 3e 93 0a 31 3e
       0.12375189 0.13145474 0.20225279 0.1728919
0000e0 83 0f 27 3e 80 15 a5 bd 58 b4 b3 3e bb e6 48 3e
       0.16314511 -0.080607414 0.3509853 0.19619267
0000f0 ec 79 78 3e 86 3b d1 3d d4 a9 bc 3d 41 36 36 3e
       0.2426526 0.10216431 0.0921208 0.17794134
000100 59 6f 66 3e 8f 50 4f 3e ae 69 a2 3e ed 46 f8 3d
       0.22503413 0.20245574 0.31721252 0.12122903
000110 34 d2 09 3e 04 dd c7 3d d4 df 3d 3e de 90 87 3e
       0.13459092 0.09758952 0.18542415 0.26477712
000120 f0 ba 82 3e f9 57 0e 3e 02 a4 46 3e 97 86 f8 3e
       0.25533247 0.13900746 0.19398502 0.48540184
000130 04 46 45 3e a9 09 2f 3e 73 2c 61 3e fc 53 43 3e
       0.1926499 0.17093529 0.21989612 0.19075006
000140 32 44 ff 3d f6 74 98 3f da f5 5f 3e 8b bc dc 3e
       0.12464179 1.1910694 0.21871129 0.43112597
000150 36 e5 4d 3e 69 4e 3b 3e 32 1b 5a 3e 34 9b 82 3d
       0.20106968 0.1829163 0.21299437 0.06377259
000160 ed 81 02 3f 8b fc 83 3e 2a 41 38 3e 30 9a 09 3e
       0.509795 0.25778612 0.17993608 0.13437724
000170 fa d5 3d 3e 59 bd 91 3d cd 78 ca 3e 9b 9e 0a 3e
       0.18538657 0.07116193 0.3954529 0.13537066
000180 70 3c 45 3d bd 54 72 3e 98 a1 1b 3e 9b 1b 3b 3d
       0.04815334 0.23665138 0.15198362 0.045680624
000190 3e cc 4e 3e 78 39 e6 3e 11 cc 0a 3e 3e 44 7f 3e
       0.201951 0.4496572 0.13554408 0.24928376
0001a0 e1 b1 c7 3d 3d 52 27 3e 98 84 65 3e 0f 22 e9 3d
       0.097507246 0.16339965 0.22413862 0.11383449
0001b0 d2 9e 4f 3e 5c fd 15 3e 96 88 79 3d a7 84 a1 3e
       0.20275429 0.1464743 0.060921274 0.31546518
0001c0 34 57 b1 3d e0 6e 82 3e 8e 3d 49 3e c5 8a ed 3d
       0.08659211 0.25475216 0.19652387 0.11598734
0001d0 10 0c 8b bd b9 d9 d5 3e 19 54 00 be 9b 6d 61 3e
       -0.0678941 0.41767672 -0.1253208 0.22014467
0001e0 2a df 02 3e 52 5c 3a 3e 1f e3 a5 3e dd fe 68 3e
       0.12780443 0.1819928 0.32399842 0.22753473
0001f0 95 77 0d 3e 47 1b 63 3e 17 41 ed 3d e5 0d 70 3e
       0.13815148 0.22178374 0.115846805 0.234428

net.2.weight f4 [256, 128]
000000 a9 e6 84 3f f1 f0 5a bc a4 ef 2a 40 00 c5 b4 3e
       1.0382892 -0.013363109 2.6708765 0.3530655
000010 df 03 9a 3d 15 93 5a 3f 02 bf 57 3f 93 9c c6 3f
       0.075202696 0.8538068 0.8427583 1.5516533
000020 58 64 30 40 e1 22 0f 3f 7b 2d 6e 3f fd 85 a0 3e
       2.7561245 0.55912596 0.9303815 0.31352225
000030 6c 24 56 3d 0c a7 05 3f 0f c5 56 bd 67 2e 96 3f
       0.05228083 0.5220802 -0.052434023 1.1732911
000040 bd e4 46 3f dd e6 ac 3e 5f 5c 47 3f c8 65 d5 3f
       0.77692777 0.33769885 0.7787532 1.6671686
000050 d3 83 86 3f 17 fd ca 3f 89 ac 02 3e c7 26 8c 3f
       1.050898 1.5858487 0.1276113 1.0949334
000060 cc 2a 11 3f 3e b9 10 3f 7f 86 8b 3f e7 1c fb bc
       0.5670593 0.5653266 1.090042 -0.03065343
000070 e3 9c 5e 3f e8 ba 83 3e 57 64 59 3e d6 4a 33 3f
       0.8695814 0.25728536 0.21229683 0.70036066
000080 d0 b6 74 3f b3 71 5a 3f 0d 30 31 3f c6 c8 39 3f
       0.9559145 0.8532974 0.69213945 0.7257198
000090 5c 4c c1 3e b4 dc d0 3f 4a cc ca 3f df ad f3 3d
       0.3775357 1.6317353 1.5843594 0.11898398
0000a0 f8 6a ff bf 86 48 e5 3e 3d 19 e9 3d 17 51 cb 3e
       -1.9954519 0.44781893 0.11381767 0.39710304
0000b0 08 30 1c 3f a9 01 45 3f 97 c4 b2 3f 88 2a b6 3f
       0.6101079 0.7695566 1.3966244 1.423173
0000c0 18 ed 79 3f f9 80 83 3e c6 1b 67 3f df ee e0 3f
       0.976274 0.25684336 0.90276754 1.7572898
0000d0 d3 a4 68 3f ad 95 11 bd ec 96 56 3f 5c e7 36 be
       0.908765 -0.035543133 0.8382404 -0.17861694
0000e0 4d 70 fa bd 95 8a 03 c0 c1 12 a4 3e 1e b7 03 40
       -0.12228451 -2.0553334 0.32045558 2.0580516
0000f0 97 21 5b be 2f 62 31 40 04 2e 0d 3f 81 72 49 3f
       -0.21399532 2.7716177 0.5514834 0.78690344
000100 e7 09 db bd 06 14 e0 3e fe 10 98 3f 02 26 e2 3e
       -0.10695248 0.43765277 1.1880186 0.44169623
000110 ba 2f 45 3f 41 79 45 3f a2 67 c9 3e 72 89 a0 3e
       0.7702595 0.77138144 0.39336878 0.31354862
000120 39 db e8 3e b8 a9 d5 3f 10 f8 e8 3e b0 7d 81 3e
       0.45479754 1.6692419 0.45501757 0.25291204
000130 34 82 e1 3e d8 50 ad be b4 a8 a4 3f 8e 73 b1 3e
       0.4404465 -0.3385074 1.2863984 0.34658474
000140 75 9b 24 3f 45 2f 36 3f 52 04 5c bf 55 68 a1 3e
       0.6429971 0.7116588 -0.8594409 0.31524912
000150 57 ef 32 3f 44 88 75 be cd cd 2d 3f 56 24 c1 3f
       0.69896454 -0.23977762 0.6789215 1.5089214
000160 c6 dc aa bc 83 57 1f 3f 33 4b a5 3f ba a3 70 3f
       -0.020857226 0.6224291 1.2913574 0.93999827
000170 ae 15 59 3f 22 79 cb 3f c6 88 2a 3f 24 dd 11 3f
       0.84798706 1.5896342 0.6661495 0.5697806
000180 67 a6 c9 3f b1 38 89 3e 65 26 4a 3f 67 4f de bf
       1.5753907 0.26801065 0.78964835 -1.7367982
000190 2a 9b 44 bd f3 a5 1c be 97 5e b7 3f a2 a9 bc 3e
       -0.04799954 -0.1529768 1.4325742 0.3684817
0001a0 7c eb 23 3f bf 6d 18 3f d9 2c 11 3f 36 f1 32 3e
       0.64031196 0.5954246 0.5670906 0.17474827
0001b0 84 db a6 3f 78 79 da 3f 2c 55 15 3f d0 92 30 3f
       1.3035741 1.7068319 0.58333087 0.6897402
0001c0 6c 4c af 3f b6 ed 93 3f c1 fb 5a 3f 46 a9 d7 3f
       1.3695197 1.1556919 0.85540396 1.6848533
0001d0 37 c8 22 40 44 0f a8 3e 42 1c ff bf 0b 66 9d 3f
       2.5434701 0.32824147 -1.9930499 1.2296766
0001e0 60 17 98 3f 4f 39 bd 3e 44 77 0a 3f 43 d6 62 3f
       1.1882133 0.36957785 0.54088235 0.8860819
0001f0 50 19 32 40 68 43 98 3e 94 dc ab 3f 3c 54 be 3f
       2.782795 0.29738927 1.342669 1.4869456
000200 72 86 21 40 46 76 82 3e 3a cd f4 3e fc 01 b7 3d
       2.523831 0.2548086 0.47812825 0.08935925
000210 56 5d 0b 3f 19 2c 12 3f 95 49 9c be 54 17 99 3f
       0.54439294 0.5709854 -0.3052489 1.1960244
000220 19 74 f5 3e 1d 73 d4 3e 0e 29 eb bc ec ba ac 3e
       0.47940138 0.41494074 -0.0287061 0.3373636
000230 46 30 af 3e 56 64 8b 3f 1c 5d 54 3f 57 38 0f 40
       0.34216517 1.0889995 0.82954574 2.2378137
000240 59 46 13 3f d4 39 5f 3f 1b 94 15 3f 73 00 61 3e
       0.57529217 0.87197614 0.58429116 0.21972828
000250 0c 47 cd 3f 01 e3 81 3f f0 56 42 3f 83 f6 5f 3f
       1.6037307 1.0147401 0.75913906 0.8748552
000260 d2 a0 38 3f 61 ba 3c 3f 8a 9a 88 3f fe 2a 02 3f
       0.7212039 0.7372189 1.0672162 0.5084685
000270 8e 7d b7 3e 62 ad 0e 3f d7 7e 21 3e e3 f5 fb 3f
       0.35837978 0.5573331 0.15771042 1.9684414
000280 cb 71 42 3f 52 1f a4 3f 0d cb 98 3f db 57 f3 3e
       0.75954884 1.2822058 1.1936966 0.47527966
000290 c7 11 b1 3f 81 08 a8 3f 2e c1 80 3f b8 a2 1f 3f
       1.383355 1.3127595 1.0058954 0.62357664
0002a0 b3 64 10 c0 15 09 39 3f 43 a7 f8 3e f7 7c 41 3f
       -2.2561462 0.72279483 0.4856511 0.75581306
0002b0 9a 49 25 3f b2 1d 38 3f 30 ee f8 3f b4 07 24 3f
       0.6456543 0.7192031 1.9447689 0.64074254
0002c0 06 df ee 3f 59 53 94 3e bc b1 39 3e 38 b1 a2 3f
       1.8661811 0.2896984 0.18134207 1.2710333
0002d0 8e 4c 4f 3f 65 7e b9 3e a4 5a 52 3f ce 58 fc 3e
       0.8097619 0.36229244 0.82169557 0.49286503
0002e0 45 30 72 3f 63 99 12 c0 14 64 51 bb 11 6b d3 3f
       0.94604903 -2.290612 -0.003195052 1.6517049
0002f0 34 9a 8a 3d 68 91 fc 3e 3d 01 e5 3e f3 3f 02 3f
       0.06767693 0.49329686 0.44727507 0.5087883
000300 da c9 2b be ad 75 d9 3e 65 04 e1 3f cf 3c fb 3e
       -0.16776219 0.42472592 1.7579466 0.4906983
000310 4b a6 04 40 61 3a dc bd 58 b0 a9 3f d1 4d 56 3f
       2.0726497 -0.107533224 1.3256941 0.8371249
000320 67 2a 65 3f f7 f5 12 3f 63 10 f3 3e 53 9b f9 3e
       0.89517826 0.5740656 0.4747344 0.48751315
000330 62 e7 73 3f d1 f1 35 3f 6d b0 20 3f 64 a7 95 3f
       0.9527494 0.7107211 0.62769204 1.1691709
000340 c7 f6 90 3f 0f 54 25 be f1 0e e2 3e c8 e5 c2 3e
       1.132531 -0.16145347 0.44152024 0.38065934
000350 22 5b 3a 3f ab 63 b2 3e be c3 da 3e de 4f fb 3e
       0.7279531 0.34841666 0.42727464 0.4908437
000360 96 a0 63 3f d8 cc 7b 3f 83 8e 93 3e 4a 3b 5d 3f
       0.8891691 0.9835944 0.28819665 0.8641859
000370 85 ea 93 3e f8 cf 9e be 43 2e 6a be 24 af 46 3f
       0.28889862 -0.31018043 -0.2286921 0.77610993
000380 9f 98 f6 3e 5c f6 69 3f 1e 0d 8a 3f 44 2a b7 3f
       0.48163316 0.9139154 1.0785253 1.4309773
000390 03 6e 7b 3f 11 d1 13 3f 3e b0 d3 3f dd 50 8d 3f
       0.9821474 0.57740885 1.653816 1.1040303
0003a0 ca 6b 46 3f 69 3b 38 3f 2f cd 15 3f 50 de 2f 3f
       0.77508223 0.7196565 0.5851621 0.68698597
0003b0 47 56 a7 3e c7 f7 6f 3f 96 12 56 3f e7 d1 83 3d
       0.32683012 0.93737453 0.8362211 0.0643652
0003c0 ac 11 1d 3f d6 c7 16 40 74 11 c4 3f 36 2d dd 3e
       0.6135509 2.355947 1.5317826 0.43198556
0003d0 61 8a ea be e1 42 86 3e 11 f7 0c c0 19 17 cc 3f
       -0.458087 0.262229 -2.2025797 1.5944549
0003e0 01 03 c5 3f 13 97 30 3f ba e3 eb 3e 39 b4 68 3f
       1.5391542 0.6898052 0.4607218 0.909
0003f0 60 6f a3 be 7c 7e 27 3f 09 91 1b 40 fc 97 f1 3f
       -0.3192091 0.65427375 2.4307272 1.8874507

net.2.bias f4 [256]
000000 e3 11 e8 3e 2e 12 b6 3e 1a 8a 57 3e 9a 55 b2 3e
       0.45326146 0.35560745 0.21048775 0.34830934
000010 48 c5 b2 3e f7 7a d3 3e 36 a4 61 be 3b f0 b1 3e
       0.3491614 0.41304752 -0.22035298 0.34753594
000020 ea 16 ef 3f a3 c1 ed bd d8 4f ff bd 2d 39 e0 3d
       1.8678868 -0.11609199 -0.12466401 0.109484054
000030 cc c6 b7 3e 40 96 91 3e 27 47 99 3e 81 e8 94 3e
       0.35893857 0.28434944 0.29937097 0.29083636
000040 61 3e af 3e 28 cf a2 3e 52 de 1e be 52 c1 79 3e
       0.3422728 0.31798673 -0.15514496 0.24390152
000050 a0 5d 1e be 19 da c4 3e cd 4c 60 3e 03 c6 0d 3e
       -0.15465403 0.38447645 0.21904297 0.13845067
000060 b5 c4 c1 3e 02 e5 95 3e 68 4c 8f 3e 0f e5 a6 3e
       0.37845388 0.29276282 0.2798798 0.32596633
000070 2c c5 98 3e f8 e5 cc 3e df eb 83 3e d6 bf d7 3e
       0.2983793 0.40019202 0.25765893 0.42138547
000080 f1 4d 09 be d6 09 5f be 5c ad aa 3e 95 b1 c2 bd
       -0.13408639 -0.21781096 0.33335388 -0.09506527
000090 34 fc 1a 3f b6 d9 7a bc 13 24 b0 3e 63 81 84 3e
       0.6054108 -0.015310695 0.34402522 0.25879964
0000a0 38 cc 53 3e a1 42 92 3e b5 97 75 3e b2 74 bc 3e
       0.20683372 0.2856646 0.23983653 0.3680778
0000b0 b9 ad a6 3e fa 73 d4 3e 98 c4 9f 3e 91 0c 20 3e
       0.32554415 0.41494733 0.31204677 0.15629794
0000c0 8c f1 ab 3e cc bd a8 3e 12 fb 3f be 7e 47 da 3e
       0.33582723 0.32957304 -0.1874812 0.4263267
0000d0 70 6f 4a be 3b 4f ba 3e 9e b6 eb bd 57 9d a0 3e
       -0.19769073 0.36388573 -0.11509441 0.3137004
0000e0 25 6a 75 3e 0b 75 82 3e 0a 66 5c be f5 cd 9e 3d
       0.23966272 0.25479922 -0.215233 0.07754127
0000f0 01 ef 91 3e 7d 0a ac 3e 6a 25 e9 3e e8 31 bf 3e
       0.28502658 0.33601752 0.45536357 0.37342763
000100 d4 98 81 3e c0 77 e6 3f bd 44 fc 3e c6 3f 74 3e
       0.2531191 1.8005295 0.49271193 0.23852453
000110 15 9d 86 3e f3 86 61 3e fa 66 e3 3e a8 cb 12 be
       0.2629172 0.22024135 0.44414502 -0.14335501
000120 21 e5 9d 3e 04 d3 88 3e 40 b6 27 bf df a4 e3 3e
       0.30838874 0.26723492 -0.65512466 0.44461724
000130 c1 a5 14 3f cf 3b a3 3f 45 68 c2 3e 3a cd cb 3e
       0.5806542 1.2752627 0.37970176 0.39805013
000140 9c 2a 3e be 5f e3 35 3e e5 27 0d be 6c 3d 7c 3e
       -0.18570942 0.17762516 -0.1378475 0.24632806
000150 30 d0 8d 3e 7c bc 69 3e b7 4a 50 3e ab 13 80 3e
       0.27697897 0.22825807 0.20341001 0.25015005
000160 94 85 75 3e b6 04 2b 3f 98 05 a1 3e 05 e6 c1 3e
       0.23976737 0.66804063 0.3144958 0.37870803
000170 b3 e9 46 3e 6b 51 e6 3f e2 e6 df 3e f3 e4 65 3e
       0.19425087 1.7993597 0.43730837 0.22450618
000180 ed d7 3a 3e 88 5b d9 3e d1 63 d1 3e b1 d2 c8 3e
       0.18246432 0.42452645 0.40896466 0.39223245
000190 5a 85 98 bd 8e a0 2a 3e 5b bc b3 3e 15 f8 cb bd
       -0.0744731 0.16662809 0.3510464 -0.09959427
0001a0 b6 6a 87 3e 31 86 f1 3e e6 05 bf 3e de 35 be 3e
       0.264486 0.47172692 0.37309188 0.37150472
0001b0 de 8e c2 3e 51 33 8a 3e c8 82 16 3f ba 47 6a 3e
       0.37999624 0.26992276 0.58793306 0.22878924
0001c0 e5 71 60 3e 07 aa 6f 3e fc 6a 8e 3e 52 27 29 bc
       0.21918447 0.23404704 0.27815998 -0.010324316
0001d0 84 d1 3f 3e 1c 55 70 be b7 9e ab be dc 39 85 3b
       0.18732268 -0.23469967 -0.33519527 0.0040657353
0001e0 c0 cf b9 3e 0a f6 53 3e 9a de 20 be 58 6e b4 3e
       0.36291313 0.20699325 -0.15709916 0.35240436
0001f0 b4 20 f3 3e ed 19 b9 3e 9f da 5f 3e bf c7 8c 3e
       0.47485888 0.36152592 0.21860741 0.27496144
000200 6b 44 9a 3e da 45 aa 3e 1e ba 98 3e b0 e1 d5 3e
       0.30130324 0.33256418 0.29829496 0.41773748
000210 7b 58 36 3e 6e fd a8 3e f8 3e a2 3e 34 b2 59 3e
       0.1780719 0.33005852 0.31688666 0.21259385
000220 c0 e9 fe 3e ef 19 95 3e ae a1 8b 3e 66 cf 9b 3e
       0.49787712 0.29121348 0.2727179 0.3043167
000230 91 51 e1 3e c3 70 91 3e 91 4a ae 3e 29 3a c7 3e
       0.44007543 0.28406343 0.34041265 0.3891156
000240 be 6e 6d 3e 37 a4 c9 3e 04 e6 19 be 31 11 62 3d
       0.23186776 0.39383098 -0.1502915 0.055192176
000250 70 e2 df 3e 15 7e c7 3e 4d 03 09 3f a8 ea 38 3e
       0.43727446 0.3896338 0.5352066 0.18058264
000260 ef d6 7f 3e 0d 4a 9e 3e ed ce 4a 3e 33 dc 84 3e
       0.24984334 0.3091587 0.19805498 0.2594925
000270 f2 e7 dc 3e 31 71 89 3e c1 06 c8 3e 1b c8 93 3e
       0.4314571 0.2684417 0.39067653 0.28863606
000280 cb ff 0c be 81 47 c9 3e da 58 b1 3e cb 8b d8 3e
       -0.13769452 0.39312366 0.346381 0.42294154
000290 bf 35 9b 3e e0 84 a2 3e 26 67 14 bd 2b d9 80 3e
       0.30314443 0.31742 -0.036231183 0.25165686
0002a0 c2 b3 a8 3e 01 b6 54 be 3b 2e c1 3e 34 2a 9b 3e
       0.32949644 -0.20772554 0.37730584 0.30305636
0002b0 0a 48 d1 3f 7f 9f 96 3e ac 9f cd 3e c4 d6 16 3e
       1.635011 0.2941856 0.40160882 0.14730364
0002c0 d9 58 9e 3e 56 a3 5b 3e 7f f8 be 3e 3a 25 5d 3e
       0.3092716 0.21449026 0.37298962 0.21596232
0002d0 65 fa 63 3e ee 27 f1 3c 0c 79 70 3e 6d 1e a5 3e
       0.22263487 0.029437985 0.23483676 0.32249776
0002e0 4e 11 fe 3d 84 56 3d 3e 72 97 4c 3f 9c 8e 8c 3e
       0.12405644 0.18490034 0.7991859 0.27452552
0002f0 4a c5 31 bd 83 f7 c1 3e 99 6c 16 be f2 95 8a 3e
       -0.04340104 0.3788415 -0.14689864 0.27067524
000300 23 5e d5 3e a7 61 c2 bf 59 18 c6 3e ec 1e a0 3e
       0.41673383 -1.5186051 0.3869045 0.31273592
000310 51 89 c2 3e 14 4d d0 3e 80 f4 c0 3e 03 22 a2 3e
       0.3799539 0.40683806 0.3768654 0.31666574
000320 42 41 b2 3e 0c 26 44 be f1 9a be 3e 92 b4 99 3e
       0.34815413 -0.19155139 0.37227586 0.30020577
000330 3e c2 b0 3e d4 f1 86 bd 43 c7 bf be a3 5d a5 3e
       0.34523195 -0.06589094 -0.37456712 0.32298002
000340 33 3f 90 3e 8c 37 8f 3e fc 7d 98 3e f2 ce ba 3e
       0.28173217 0.27972066 0.29783618 0.36486012
000350 45 2e a7 3e 78 40 9d 3f b5 6b a1 3e be 34 44 3f
       0.32652488 1.2285299 0.31527486 0.7664298
000360 1e 70 b2 3e 45 73 a0 3e e7 0b c6 3e 6d c9 bf 3e
       0.34851164 0.31337944 0.38680956 0.37458363
000370 44 b0 7d 3e f4 cb c5 3e 0b ef 8e 3e ca cd 7a 3e
       0.24774271 0.38632166 0.2791675 0.24492565
000380 1b f7 a4 3e 43 c8 5d 3e 43 c3 ca 3e 05 a5 27 3e
       0.32219777 0.21658425 0.39602098 0.16371544
000390 12 b0 ac 3e 1a 83 88 3e 67 3b c9 bd 4d eb 83 3e
       0.3372808 0.26662523 -0.09825783 0.25765458
0003a0 16 b7 7c 3e 3f fa a1 3e 1e 17 ea bd 90 68 11 3f
       0.24679217 0.31636235 -0.114301905 0.56800175
0003b0 15 f9 a6 3e 4e 27 89 3e 0f a4 a6 3e 64 d7 60 3f
       0.3261191 0.267878 0.32547042 0.8782866
0003c0 33 37 96 3e b5 c7 7f 3e 76 23 34 be 40 99 a2 3e
       0.2933899 0.24978526 -0.17591652 0.31757545
0003d0 92 c0 9f 3e 0a d4 f7 3e 9b 36 b2 3e e7 50 90 3e
       0.31201607 0.4840396 0.34807286 0.28186724
0003e0 0b d8 fe bc 1b 7a 45 be 2b 66 c5 3e e4 2a 7d bc
       -0.031108877 -0.19284861 0.3855451 -0.01545212
0003f0 d9 4f b0 3e 95 8f 87 3e 2a f3 e9 3e 98 12 0b 3f
       0.3443592 0.26476732 0.45693332 0.54325247

net.4.weight f4 [27, 256]
000000 27 5d 89 3e 89 18 06 3f a6 4a 0a 3f 28 00 ec 3e
       0.26828882 0.5238119 0.54020154 0.4609387
000010 0a 93 f6 3e fe fa 00 3f ae 3b 1d 3f 5e 28 09 3f
       0.48159057 0.50382984 0.6141919 0.5357722
000020 af 57 68 bf 88 af 1e 3f a5 f2 18 3f f2 e3 22 3f
       -0.90758795 0.6198659 0.59745246 0.63629067
000030 28 c2 0f 3f 3d 4a d9 3e 0a 90 f3 3e 5a 99 e7 3e
       0.56155634 0.42439452 0.4757083 0.45234185
000040 68 59 f2 3e 63 20 01 3f 68 69 0c 3f ef d4 f8 3e
       0.47333837 0.50440043 0.5484834 0.48599955
000050 27 a7 25 3f af c3 bb 3e 74 92 00 3f 17 0b 15 3f
       0.6470818 0.36672732 0.5022347 0.58220047
000060 20 13 c9 3e e2 be fb 3e 4a fd 01 3f 1d fc c1 3e
       0.39272404 0.4916907 0.50777113 0.3788766
000070 d3 17 c2 3e a6 a4 e2 3e c6 99 00 3f 48 ed c9 3e
       0.379088 0.44266242 0.5023464 0.39438844
000080 de 40 24 3f 89 d7 0c 3f ba e2 e2 3e 7d e7 05 3f
       0.6416148 0.5501638 0.44313604 0.5230635
000090 78 47 fd 3e 50 84 57 bd 6a 93 f1 3e 9b 35 86 3f
       0.4946859 -0.052616417 0.4718278 1.0485109
0000a0 ea d6 09 3f 2d 02 db 3e 34 a7 08 3f 1e ff e7 3e
       0.5384356 0.42775097 0.5338013 0.45311826
0000b0 d3 8e e4 3e 83 4c f4 3e 79 38 73 3d 04 b3 02 3f
       0.44640216 0.47714624 0.05938003 0.51054406
0000c0 95 1c f0 3e 48 5a e7 3e b5 36 1e 3f e3 c6 fe 3e
       0.46896806 0.45186067 0.61802226 0.49761114
0000d0 d9 b3 21 3f 2f 5a 81 3f 2e 11 1c 3f 17 99 01 3f
       0.6316505 1.0105647 0.60963714 0.5062422
0000e0 b6 1f d8 3e f3 19 01 3f 04 10 0b 3f 2b bd a6 3e
       0.42211694 0.5043022 0.5432131 0.325662
0000f0 ee 7c f4 3e 7f a8 f0 3e cd 6a 0d 3f 80 8d ec 3e
       0.47751564 0.47003552 0.5524109 0.46201706
000100 06 b2 f1 3e 84 5f 54 bf 05 ef b7 3e 1a c1 02 3f
       0.47206134 -0.82958245 0.35924545 0.510759
000110 24 d6 cf 3e 40 05 0c 3f f5 91 cf 3e 93 e1 fe 3e
       0.40593064 0.5469551 0.40541044 0.49781474
000120 8e 93 f6 3e d1 bb c3 3e 72 44 32 3f fe b8 01 3f
       0.4815945 0.3822923 0.6963569 0.506729
000130 cc 62 14 3e cc d4 09 bf d5 f7 d7 3e 06 ab cc 3e
       0.14490813 -0.5384033 0.42181268 0.3997423
000140 7a b7 1a 3f 32 c5 d8 3e 7d 40 17 3f 54 65 dc 3e
       0.60436213 0.42337948 0.59082776 0.43046057
000150 a3 16 d0 3e 82 57 d8 3e 34 c8 03 3f 84 1e fc 3e
       0.4064227 0.42254263 0.5147736 0.49242032
000160 44 db 00 3f 44 05 96 bf 2c 98 15 3f b3 48 ad 3e
       0.5033457 -1.1720357 0.5843532 0.33844528
000170 7c 31 00 3f ad 1c 4d bf f2 84 df 3e 10 b8 39 3e
       0.5007551 -0.8012188 0.43656117 0.1813662
000180 3b 06 10 3f 3d a3 98 3d 73 20 9f 3e f1 40 e1 3e
       0.56259507 0.0745301 0.31079444 0.4399486
000190 f1 67 03 3f 7f 70 bf 3e 75 1a 08 3f c2 49 03 3f
       0.51330477 0.37390515 0.5316537 0.5128442
0001a0 3c a2 e7 3e 5b 50 89 3e e5 55 ed 3e 2b dd e2 3e
       0.45240963 0.2681912 0.46354595 0.44309363
0001b0 ae 37 f6 3e 71 b1 f4 3e 16 ae 98 be 5f aa ff 3e
       0.48089355 0.47791627 -0.29820317 0.4993467
0001c0 23 ea e4 3e 5a 8e 10 3f 63 14 0b 3f f8 0f 58 bc
       0.44709882 0.5646721 0.5432798 -0.013187401
0001d0 10 f4 f5 3e 75 62 06 3f 24 a6 39 3f b3 a9 07 3f
       0.48037767 0.52493984 0.72519135 0.52993315
0001e0 c9 7e 15 be 2a fb 94 3e cf 69 22 3f 5d 1e d9 3e
       -0.14599146 0.29097873 0.634427 0.42405978
0001f0 2b 19 aa 3e a3 f4 cd 3e 71 b5 02 3f 70 b6 eb 3e
       0.33222327 0.40225706 0.5105811 0.46037626
000200 f6 87 d4 3e a2 40 d6 3e 55 ee ba 3e 72 66 ec 3e
       0.4150998 0.41846186 0.36509958 0.4617191
000210 bb 7e f1 3e 72 9d fd 3e d8 25 8c 3e d4 00 ce 3e
       0.47167 0.49534184 0.27372622 0.40235007
000220 eb 89 98 3e c2 ce 0a 3f 68 73 04 3f d8 35 01 3f
       0.29792723 0.5422174 0.51738596 0.50472784
000230 2e e5 ec 3e ea 4e 8c 3e 9a f9 c6 3e 24 71 e3 3e
       0.462686 0.27403957 0.38862306 0.44422257
000240 f8 36 03 3f 92 18 0e 3f 7e 34 10 3f 3c b1 c1 3e
       0.5125575 0.5550624 0.56330097 0.37830532
000250 35 54 02 3f 5a b3 ec 3e 2f f9 35 3f f3 b9 cc 3e
       0.5090974 0.46230584 0.7108335 0.39985618
000260 a7 d1 d0 3e 15 7d e2 3e b0 f0 d3 3e 37 fb fd 3e
       0.40784952 0.44236055 0.41394567 0.49605724
000270 27 e3 ec 3e 96 e7 08 3f 83 25 da 3e 63 4f d6 3e
       0.46267053 0.5347837 0.42606744 0.41857442
000280 8e 9f 16 3f a7 69 d5 3e 43 a0 c7 3e 57 2c ae 3e
       0.5883721 0.4168217 0.38989457 0.34018204
000290 fe f6 eb 3e d6 ae 01 3f 28 6e 20 3f 1c d2 03 3f
       0.46086878 0.50657403 0.62668085 0.51492476
0002a0 49 87 02 3f e5 71 04 3f ab af e0 3e 70 7d 07 3f
       0.5098768 0.5173629 0.43884024 0.5292578
0002b0 08 28 70 bf c9 97 a7 3f b8 91 d6 3e 7d a1 9a 3f
       -0.9381108 1.3093196 0.4190805 1.2080532
0002c0 f0 1d f7 3e ba 9d 0a 3f 94 9b e7 3e 23 ba fd 3e
       0.48265028 0.5414692 0.45235884 0.49556074
0002d0 d5 b0 f5 3e 86 6c a9 3f ec ab f7 3e 7d 92 cc 3e
       0.47986475 1.3236244 0.48373353 0.39955512
0002e0 e2 30 f9 3e 17 7e dc 3e 9c 16 68 bf 11 a5 f5 3e
       0.48670107 0.4306495 -0.906595 0.47977498
0002f0 06 94 0a 3f fe 03 84 3e 97 89 1d 3f 04 7a 07 3f
       0.54132116 0.25784296 0.6153807 0.52920556
000300 e6 5d c7 3e 3f 82 8a 3e bd 0b da 3e b8 2a 9e 3e
       0.38938826 0.27052495 0.4258708 0.30891967
000310 13 04 03 3f ea a4 01 3f 56 1c ef 3e 43 f9 f8 3e
       0.5117809 0.50642264 0.46701306 0.48627672
000320 78 27 ec 3e 83 61 1c 3f 41 25 f0 3e 91 ee 07 3f
       0.46123862 0.6108629 0.46903422 0.530984
000330 03 2d 06 3f 0b 5c 0d 3f af 57 0d 3f fe 23 0b 3f
       0.5241243 0.5521857 0.5521192 0.54351795
000340 be 0a cf 3e f8 53 d4 3e 7c b4 f4 3e 23 1a f3 3e
       0.40437883 0.41470313 0.4779395 0.47480878
000350 6b a9 f8 3e 66 c0 5c bf d2 02 e5 3e 04 d8 82 be
       0.48566756 -0.86231077 0.44728714 -0.25555432
000360 7e ba f2 3e d3 24 f2 3e 4e 5b c0 3e fa ab c6 3e
       0.47407907 0.4729372 0.3756966 0.38803083
000370 b9 14 ea 3e 20 0f d1 3e a1 31 0a 3f 70 ad f3 3e
       0.45718935 0.40831852 0.5398198 0.4759326
000380 ec 22 be 3e 20 95 0c 3f 41 33 db 3e 37 be 9e 3f
       0.37136018 0.54915047 0.4281254 1.2401799
000390 03 25 af 3e 3e 99 01 3f 13 bf 14 3f 58 ee 08 3f
       0.34207925 0.50624454 0.58104056 0.53488684
0003a0 17 ac e1 3e 10 00 f4 3e 8c 59 07 3f aa 80 8b be
       0.44076607 0.47656298 0.5287101 -0.272466
0003b0 f5 09 f3 3e df 26 d9 3e 21 78 de 3e 5c 05 36 be
       0.47468534 0.4241247 0.43451026 -0.17775482
0003c0 6a 24 dc 3e e8 65 0c 3f 81 ff 28 3f 63 7b d6 3e
       0.42996532 0.54842997 0.6601487 0.41891012
0003d0 1d cc e7 3e 55 82 c2 3e 7d 91 01 3f 2d 4c d6 3e
       0.45272914 0.3799006 0.5061262 0.41854993
0003e0 e4 20 86 3f 8a d5 1f 3f 95 59 d8 3e e8 84 05 3f
       1.0478787 0.6243521 0.42255846 0.52155924
0003f0 22 da e9 3e 9c 2c f8 3e c5 5e f2 3e 63 a8 8c be
       0.45674235 0.48471534 0.47337928 -0.2747222

net.4.bias f4 [27]
000000 cf 43 6d bd 12 84 46 3e 8b 59 45 bd 28 87 6d 3d
       -0.057925995 0.19386318 -0.048181098 0.057990223
000010 0c 2a e9 3d 43 65 01 3e 85 4a cb 3d d6 b6 3c 3e
       0.11384973 0.12636285 0.09926323 0.18429121
000020 e8 35 03 bd d7 fd e1 3e 7e ec 9a 3d e0 4e 35 3e
       -0.03203383 0.44138977 0.075646386 0.1770587
000030 67 1c 87 3d d6 f9 5d 3e aa 6a 06 3e 23 7c 99 3d
       0.06597214 0.21677336 0.13126627 0.0749438
000040 af 8f 99 bc 59 1e 0a bd c1 e2 97 3e 66 78 07 3f
       -0.018745271 -0.033720348 0.29665187 0.5291809
000050 91 13 ea 3e 34 cb 88 3d b5 5e 0e 3e 18 e3 05 3e
       0.45718053 0.06679383 0.13903315 0.1307491
000060 e4 6f 8e 3d f6 ac 0b 3e 93 b9 9a 3d
       0.06954935 0.13640198 0.07554927
