model/dqn_policy_net_episode_2100.pt (torch, 334295 bytes, 6 tensors)

net.0.weight f4 [128, 336]
0	0x3d6f0791	0.058356825
1	0xbe5de614	-0.21669799
2	0x3da2d59d	0.079509
3	0xbb6b4085	-0.003589661
4	0xbe31d8fc	-0.17367929
5	0xbe427ac0	-0.18992138
6	0x3dbcaf4e	0.09213124
7	0xb9c6c2ca	-0.00037910632
8	0x3e3619a5	0.1778322
9	0xbdaab818	-0.08335894
10	0xbe90c090	-0.28271914
11	0xbe0fad8c	-0.14031047
12	0x3dbb2a86	0.0913897
13	0xbe206fc2	-0.15667632
14	0x3e0134b7	0.12617765
15	0x3ced3f41	0.028960826
16	0xbe02b658	-0.12764871
17	0xbda8617c	-0.08221719
18	0xbda8ebfa	-0.08248134
19	0xbde5e980	-0.11226177
20	0xbe255c31	-0.1614845
21	0x3e34d8c1	0.1766081
22	0xbdd600be	-0.1044936
23	0x3d89b19c	0.067233294
24	0xbe27475a	-0.16335812
25	0xbe88a3fc	-0.2668761
26	0x3ce61f4b	0.028091094
27	0xbced9ac6	-0.029004466
28	0xbd303f45	-0.04302909
29	0xbda5fa14	-0.08104339
30	0x3d9af373	0.075659655
31	0x3de5927e	0.11209582
32	0xbe845601	-0.25846866
33	0xbdb3a32a	-0.087713555
34	0x3da132d3	0.07871022
35	0xbde9f840	-0.11424303
36	0xbca791ba	-0.02045523
37	0xbdfd9e2c	-0.123836845
38	0x3d28b1f6	0.04118534
39	0xbc0443de	-0.008072821
40	0x3d8f32af	0.06992089
41	0xbe999926	-0.29999655
42	0x3e1b2502	0.15150836
43	0xbdbfe52a	-0.093698815
44	0x3d9c7d05	0.07641033
45	0xbe992428	-0.29910398
46	0xbc9aaaec	-0.01888033
47	0xbc08cd7a	-0.008349771
48	0xbc84e34d	-0.016221667
49	0xbc2503b2	-0.010071682
50	0x3d0ad3fa	0.033893563
51	0xbd72c7e3	-0.059272658
52	0xbd6be57f	-0.05759191
53	0xbd4a74d9	-0.04942784
54	0x3d8f67f0	0.070022464
55	0x3e1e16ce	0.15438387
56	0x3e76a28e	0.24085447
57	0xbeb265c9	-0.3484328
58	0xbe61c09b	-0.2204613
59	0xbe002e87	-0.12517749
60	0x3d82a4dc	0.06379101
61	0x3dc14b72	0.09438218
62	0xbaed20c2	-0.0018091428
63	0xbe0f6d1b	-0.14006464
64	0xbe004272	-0.12525347
65	0x3cdd9c83	0.02705217
66	0xbe295fd7	-0.16540466
67	0xbd382c1d	-0.044963945
68	0xbd542d73	-0.051801156
69	0x3e21a90a	0.1578714
70	0xbdb85f54	-0.090025574
71	0xbd03a825	-0.032142777
72	0xbe29c176	-0.16577706
73	0xbcd540e2	-0.026031915
74	0x3cee9336	0.02912293
75	0x3e1d9c8d	0.1539175
76	0xbd86f518	-0.06589717
77	0x3cdd5377	0.027017338
78	0xbcd36cee	-0.025808778
79	0x3ce1ef27	0.027579857
80	0x3e18b930	0.14914393
81	0x3d8db3e6	0.069190785
82	0x3e31ccc3	0.17363267
83	0xbd93a3e7	-0.07208996
84	0xbe18e5dd	-0.14931436
85	0xbd5f40ad	-0.05450504
86	0xbe0aa96b	-0.1354119
87	0xbc29f06b	-0.0103722615
88	0x3cf2c8bf	0.029636739
89	0xbe327af7	-0.1742972
90	0xbcf97abc	-0.030454032
91	0x3d0ab834	0.033867076
92	0xbe2e4e7b	-0.17022125
93	0xbdbd40cf	-0.09240877
94	0x3d6ca06e	0.057770185
95	0xbd17a96a	-0.0370268
96	0x3e9165e1	0.2839804
97	0xbe1295c5	-0.14314945
98	0x3d0cc8f1	0.03437132
99	0xbe1d25be	-0.15346429
100	0xbb434b2b	-0.0029799442
101	0x3d255a34	0.040369228
102	0x3dced005	0.1009827
103	0x3cb3394f	0.021877913
104	0xbf391e2c	-0.72311664
105	0xbca7ec43	-0.0204984
106	0x3e2bd3e5	0.1678005
107	0x3e240c3a	0.16020289
108	0x3ea44d8a	0.32090408
109	0xbc7dc53a	-0.015488917
110	0xbe55f474	-0.20894033
111	0x3dc8bc29	0.09801514
112	0x3d04c80c	0.032417342
113	0xbe16a210	-0.1471026
114	0xbd4d32ac	-0.050097153
115	0x3cf2df8a	0.029647607
116	0xbd8a7fc2	-0.06762649
117	0xbd30c0ff	-0.043152805
118	0x3c23752c	0.009976666
119	0x3d1ad297	0.03779849
120	0xbf6a29c3	-0.91469973
121	0x3d67ddb9	0.056607936
122	0xbe111a08	-0.14170086
123	0xbe250e4e	-0.16118738
124	0x3d3c84bf	0.046025034
125	0x3c932772	0.017963145
126	0x3c7880b4	0.015167404
127	0xbcfe864d	-0.031069899
128	0x3ea5da5b	0.32393155
129	0xbe75e05b	-0.24011366
130	0x3c57c08e	0.013168467
131	0xbdb991d2	-0.09061016
132	0xbda3c733	-0.079969786
133	0xbe8c6e16	-0.2742774
134	0xbe0ac77f	-0.13552664
135	0xbca555a1	-0.020182433
136	0xbee52a3d	-0.44758788
137	0x3d1f5b6d	0.03890555
138	0x3d331f5f	0.04373109
139	0x3dc2611d	0.09491179
140	0xbd829316	-0.06375711
141	0xbd12b55c	-0.03581749
142	0xbc5514d1	-0.013005451
143	0x3de0059d	0.10938571
144	0x3ec57a59	0.38569906
145	0xbde48b6a	-0.111594036
146	0xbdc64510	-0.096811414
147	0xbe6efd2c	-0.23338765
148	0xbbb24b52	-0.005441108
149	0xbc836626	-0.01603992
150	0x3d8fbb27	0.07018118
151	0xbe1b1ca3	-0.15147643
152	0x3dbcd8fd	0.09221075
153	0x3da03c1d	0.07823966
154	0x3dde098b	0.10841664
155	0x3ca64a36	0.020299058
156	0xbe18fb7e	-0.14939687
157	0x3dc20c64	0.094750196
158	0xbe512789	-0.20425238
159	0xbd37d8fc	-0.044884667
160	0x3bb5dc5d	0.005549951
161	0x3b07d183	0.0020724244
162	0x3d49a8d0	0.049233258
163	0x3d3913b7	0.045184817
164	0x3d32f08b	0.04368643
165	0x3d3ffc5f	0.04687154
166	0xbdddaec9	-0.10824353
167	0xbaa7d8ad	-0.0012805663
168	0x3f2879ab	0.6581065
169	0xbe04bec5	-0.12963398
170	0x3d5d699c	0.054055795
171	0xbe350c14	-0.17680389
172	0xbe2c37bd	-0.16818137
173	0xbe732b14	-0.23746902
174	0xbe29342c	-0.16523808
175	0xbde4101a	-0.11135884
176	0x3f03b7eb	0.5145251
177	0x3d12b728	0.035819203
178	0x3bb30d59	0.0054642376
179	0xbe42f95a	-0.19040433
180	0xbda7e326	-0.08197622
181	0xbe85d24f	-0.26137015
182	0x3d2bc7ec	0.041938707
183	0xbe2a0a88	-0.1660558
184	0x3f5a76f1	0.8533774
185	0xbdbbc2a9	-0.09167988
186	0xbdef5b87	-0.11687379
187	0xbe0b6ab6	-0.13614926
188	0xbe1fbc22	-0.1559911
189	0x3cb9094d	0.022587443
190	0x3cd514bd	0.026010865
191	0x3d97dbdd	0.074149825
192	0xbf2cd8d2	-0.6751834
193	0xbdc2e008	-0.09515387
194	0x3dabe8df	0.08394026
195	0x3e312151	0.17297865
196	0x3dffbcf7	0.12487214
197	0x3e85f8f8	0.2616651
198	0x3e0bbae0	0.13645506
199	0x3e8af1d8	0.27137637
200	0x3f138fd1	0.5764132
201	0x3da125c1	0.07868529
202	0xbe396f5e	-0.1810889
203	0xbcf87933	-0.03033123
204	0x3e023bc9	0.12718119
205	0x3c0f3113	0.008739728
206	0xbddcbffd	-0.10778806
207	0x3e7e7b56	0.24851736
208	0xbfd69a94	-1.6765924
209	0x3eb06379	0.34450892
210	0x3eb002a5	0.34377018
211	0x3eb45098	0.35217738
212	0x3ea81ead	0.32835904
213	0x3e80b98f	0.2514157
214	0x3da89084	0.08230689
215	0x3e873a1d	0.26411524
216	0x3f0e6879	0.5562816
217	0x3cc37cb5	0.023863176
218	0x3c1d1784	0.009588126
219	0x3cacf0f3	0.021110987
220	0xbdc1ca2a	-0.09462388
221	0xbdb4e6a1	-0.088330515
222	0xbd5a39e5	-0.05327787
223	0x3d4d05ed	0.05005448
224	0xbf3532ed	-0.7078083
225	0x3f0f08a6	0.5587257
226	0x3ebd3b88	0.3695948
227	0x3e6b59e5	0.22983511
228	0xbdb61d01	-0.08892251
229	0x3de6913e	0.112581715
230	0xbc1634bb	-0.009167845
231	0x3ead20c5	0.33814064
232	0x3f3594f1	0.7093039
233	0x3d8155f7	0.063152246
234	0xbcd1452a	-0.025545675
235	0xbdda6a8a	-0.10664852
236	0xbdc242f7	-0.09485429
237	0xbe3ac727	-0.18240033
238	0x3d96a657	0.073559456
239	0xbe6c21a8	-0.23059714
240	0x3f5c642a	0.8609034
241	0x3e85dc1a	0.26144487
242	0x3d73cb26	0.05951991
243	0xbe2e8f72	-0.17046908
244	0xbded7203	-0.11594012
245	0xbe8767fa	-0.26446515
246	0x3a584464	0.0008249937
247	0xbea8e7d9	-0.32989386
248	0xbf6138b2	-0.87977135
249	0x3e9291ff	0.2862701
250	0x3e91be32	0.2846542
251	0x3e9a8477	0.30179188
252	0x3e286088	0.16443074
253	0x3e8402c0	0.25783348
254	0xbe1e6a34	-0.15470201
255	0x3eb8ece2	0.36118227

net.0.bias f4 [128]
0	0x3e09a32e	0.13441154
1	0x3e17ed25	0.14836557
2	0x3de6c59e	0.11268161
3	0x3e177b14	0.14793044
4	0x3ea4a404	0.32156384
5	0x3de18979	0.11012549
6	0x3f12320a	0.57107604
7	0x3e721b0d	0.23643132
8	0x3c9721d9	0.018448757
9	0x3e5a9d7c	0.21349138
10	0x3e05d6df	0.13070248
11	0x3d9f9a5c	0.077931136
12	0x3e4098d6	0.18808302
13	0x3e01a558	0.1266073
14	0x3e28d3c8	0.16487038
15	0x3e0e0248	0.13868058
16	0x3e005634	0.12532884
17	0x3e52a11f	0.20569275
18	0x3e329bf1	0.174423
19	0x3db0b40e	0.08628093
20	0x3e015e13	0.12633543
21	0x3dbd4297	0.09241217
22	0x3ec5c9ce	0.38630527
23	0x3e2f524f	0.17121242
24	0x3e674369	0.22584309
25	0x3e2094fb	0.15681832
26	0x3e4bc896	0.19900736
27	0x3e8e1d58	0.27756763
28	0x3e0f81f7	0.14014421
29	0x3efd3f55	0.4946238
30	0x3e92961f	0.28630158
31	0x3e2572eb	0.16157119
32	0x3e7352c0	0.23762035
33	0x3db1a8d9	0.08674783
34	0x3e556532	0.20839384
35	0x3dcc321c	0.09970495
36	0x3ddb8ba1	0.107199915
37	0x3e4a40b6	0.19751248
38	0x3e7c1b31	0.24619748
39	0x3e1ff4f9	0.15620793
40	0xbdd51faa	-0.1040643
41	0x3dfc9154	0.12332407
42	0x3d66d7df	0.056358214
43	0x3e2fb722	0.17159703
44	0x3d9af627	0.07566481
45	0x3e73f78f	0.23824905
46	0x3ddd1cb7	0.107964925
47	0x3e82f4e8	0.25577474
48	0x3e2173b5	0.15766795
49	0x3e809f72	0.25121647
50	0x3cf72b72	0.030172084
51	0x3e4c9650	0.19979215
52	0x3dc3565f	0.09537958
53	0x3deb1627	0.114788346
54	0x3e2f9c4e	0.1714947
55	0x3e167772	0.14694002
56	0x3e0b435b	0.13599913
57	0xbdce38c7	-0.10069423
58	0x3ea32fe3	0.31872472
59	0x3e15701c	0.14593548
60	0x3e659c0d	0.2242281
61	0x3e005ab0	0.12534595
62	0x3d9904ea	0.074716404
63	0x3e20227a	0.15638152
64	0x3e64c38f	0.22340225
65	0x3e4f3501	0.20235063
66	0x3e98287f	0.29718396
67	0x3defa146	0.11700682
68	0x3e13957b	0.14412491
69	0x3da3fb4f	0.08006918
70	0x3e261dc4	0.16222292
71	0x3e723044	0.23651224
72	0x3e7a9810	0.2447207
73	0x3e131886	0.14364824
74	0x3e335368	0.17512286
75	0x3ee49098	0.44641566
76	0x3e3457d0	0.17611623
77	0x3e3192a7	0.173411
78	0x3e3d0b14	0.18461257
79	0x3e459553	0.19295244
80	0x3e04b4e2	0.12959626
81	0x3f924472	1.1427138
82	0x3e3fdfa3	0.18737654
83	0x3ecd3b18	0.40084147
84	0x3e529015	0.20562775
85	0x3e4024c7	0.1876403
86	0x3e4e6c6f	0.20158552
87	0x3d9b4a1a	0.07582493
88	0x3eec2054	0.46118414
89	0x3e75cd82	0.24004176
90	0x3e2af52f	0.16695093
91	0x3e0766b1	0.13222767
92	0x3e1cee36	0.15325245
93	0x3d974d4d	0.07387791
94	0x3ebf4a05	0.3736116
95	0x3e135569	0.1438805
96	0x3d6bbf76	0.05755564
97	0x3e66c3cd	0.2253563
98	0x3defa0e1	0.11700607
99	0x3d1e736e	0.0386843
100	0x3e558499	0.20851363
101	0x3ece794f	0.40326926
102	0x3e00d70f	0.12582038
103	0x3e763e39	0.24047174
104	0x3daf35c9	0.085551806
105	0x3e17f959	0.14841212
106	0x3e52957a	0.20564833
107	0x3e03927f	0.12848853
108	0x3e577ed7	0.2104448
109	0x3e25ffa7	0.16210805
110	0x3d4d44a6	0.050114296
111	0x3e93546c	0.28775346
112	0x3dc2bffb	0.095092736
113	0x3e8511c5	0.2599012
114	0x3e37030c	0.17872256
115	0x3df5a6f8	0.119947374
116	0xbd1cecae	-0.038311653
117	0x3ec405ea	0.38285762
118	0xbe004337	-0.1252564
119	0x3e6aad4f	0.22917674
120	0x3df47084	0.11935523
121	0x3e41460a	0.18874374
122	0x3e9f23d8	0.31082034
123	0x3e61abd5	0.22038205
124	0x3e185d64	0.14879376
125	0x3e33f5f3	0.17574291
126	0x3de37946	0.111071154
127	0x3e4cc9f7	0.19998918

net.2.weight f4 [256, 128]
0	0x3f952b42	1.1653826
1	0xbc90b207	-0.017663015
2	0x4021a621	2.5257647
3	0x3eb2e2ec	0.34938753
4	0x3d41cc27	0.047313835
5	0x3f54f5cb	0.8318755
6	0x3f536752	0.8257953
7	0x3fbbec59	1.4681503
8	0x402dec2b	2.7175395
9	0x3f16cbb3	0.5890457
10	0x3f6c0361	0.92192656
11	0x3ead1c32	0.33810574
12	0x3d49991f	0.049218293
13	0x3ebe9e55	0.37230173
14	0xbdc99247	-0.09842353
15	0x3f9ba045	1.2158285
16	0x3f3aa03a	0.72900736
17	0x3e8b98e9	0.272651
18	0x3f32769c	0.69712234
19	0x3fc4f0a8	1.5385942
20	0x3f884a01	1.0647584
21	0x3fda0474	1.7032609
22	0x3dc93ab4	0.0982565
23	0x3f7c6c65	0.98602897
24	0x3efa91d1	0.48939374
25	0x3ed7f53e	0.42179292
26	0x3f84e3ea	1.0382054
27	0xbd7abdd6	-0.061216198
28	0x3f226e66	0.63449705
29	0x3e6382df	0.22217892
30	0x3e581687	0.21102343
31	0x3f240f15	0.64085513
32	0x3f682038	0.9067416
33	0x3f634bee	0.88787735
34	0x3f274298	0.6533599
35	0x3f304915	0.68861514
36	0x3e54640a	0.20741287
37	0x3fc94df8	1.5726919
38	0x3fd001c7	1.6250542
39	0x3d28f16b	0.04124586
40	0xbfd99af6	-1.7000415
41	0x3ead3aaf	0.33833835
42	0x3dcce992	0.100054875
43	0x3e8ccac6	0.27498454
44	0x3ef2dda0	0.4743471
45	0x3f302bee	0.6881703
46	0x3fab4da7	1.3383073
47	0x3fb47cde	1.4100606
48	0x3f778656	0.96689355
49	0x3e7adbcf	0.24497913
50	0x3f4a7431	0.79083544
51	0x3fe6e424	1.8038373
52	0x3f690ea5	0.9103797
53	0xbdb4160f	-0.0879327
54	0x3f57fb86	0.8436817
55	0xbe4aa682	-0.1979008
56	0xbe58eacf	-0.21183322
57	0xbfe10942	-1.758095
58	0x3ea67793	0.32513103
59	0x3ffa3021	1.9545938
60	0xbe335a60	-0.17514944
61	0x401e28b1	2.4712336
62	0x3ef5ace8	0.4798348
63	0x3f387db7	0.72066826
64	0xbd9902c0	-0.07471228
65	0x3ee7dcf7	0.4528577
66	0x3f924aaf	1.1429042
67	0x3e8f6cae	0.28012604
68	0x3f649f58	0.8930564
69	0x3f289cec	0.65864444
70	0x3e6eef60	0.23333502
71	0x3ea55908	0.32294488
72	0x3ee206f9	0.44145945
73	0x3fcc2c06	1.5950935
74	0x3eebd8f5	0.46063963
75	0x3e6bc08f	0.23022674
76	0x3ec4ba37	0.3842332
77	0xbeadabed	-0.3392023
78	0x3f948634	1.1603456
79	0x3e9e26f9	0.3088911
80	0x3f27d66c	0.65561557
81	0x3f2eedac	0.6833141
82	0xbf52f068	-0.8239808
83	0x3e91c921	0.28473762
84	0x3f28d131	0.659442
85	0xbe74bbf1	-0.23899819
86	0x3f28dba3	0.6596014
87	0x3fb30abd	1.3987652
88	0xbd817a03	-0.063221
89	0x3f01d2af	0.507121
90	0x3f986556	1.1905925
91	0x3f5c141d	0.8596819
92	0x3f4affed	0.7929676
93	0x3fd06999	1.6282226
94	0x3f2823bd	0.6567953
95	0x3f11681f	0.567995
96	0x3fbbdb37	1.4676274
97	0x3e70492c	0.23465413
98	0x3f42a0b9	0.76026493
99	0xbfb017ca	-1.375726
100	0xbd1bd575	-0.038045365
101	0xbe3e060f	-0.18556999
102	0x3fbf9e93	1.4970268
103	0x3eb1f903	0.34760293
104	0x3f007619	0.501802
105	0x3f0a00ca	0.53907454
106	0x3f0f3ed2	0.5595523
107	0x3dfa2088	0.12213236
108	0x3fa5ecfc	1.2962947
109	0x3fdbd6bd	1.7174908
110	0x3ed89bb7	0.423063
111	0x3f313cb8	0.69233274
112	0x3f8fb7d4	1.1227975
113	0x3f80e6cb	1.0070432
114	0x3f360b68	0.71111155
115	0x3fd28a59	1.644847
116	0x40206c29	2.5066016
117	0x3e9bc0de	0.30420583
118	0xbfd3e9c0	-1.655571
119	0x3f92ca98	1.1468077
120	0x3f68174f	0.90660566
121	0x3e7e0d9e	0.24809882
122	0x3ef8aec6	0.48570842
123	0x3f626691	0.88437754
124	0x4029ea7c	2.6549368
125	0x3e9ccece	0.3062653
126	0x3faf757e	1.3707731
127	0x3fb51e24	1.4149823
128	0x4017f9d9	2.3746245
129	0x3e6647c4	0.22488314
130	0x3f1bf10e	0.60914695
131	0x3cc3cf42	0.02390254
132	0x3f0cdfb4	0.55028844
133	0x3f12e918	0.5738692
134	0xbea5dd1c	-0.32395256
135	0x3f9e8e8f	1.2387255
136	0x3eb5e5cc	0.35526884
137	0x3ebc5a9a	0.36787874
138	0xbd87e2b2	-0.066350356
139	0x3ea94164	0.33057702
140	0x3eb59fd4	0.35473502
141	0x3f87de93	1.0614799
142	0x3f54eacd	0.8317078
143	0x4008d241	2.1378329
144	0x3f0b3a82	0.5438615
145	0x3f59b51c	0.85041976
146	0x3f09c1b7	0.5381121
147	0x3e650688	0.22365773
148	0x3fcf2628	1.6183519
149	0x3f7d8de2	0.9904462
150	0x3f438b33	0.76384276
151	0x3f587d78	0.8456645
152	0x3f326cee	0.69697464
153	0x3f3b2043	0.730961
154	0x3f81734d	1.0113312
155	0x3f02f40b	0.5115363
156	0x3eaec749	0.34136418
157	0x3f0fc720	0.56163216
158	0x3e207905	0.15671165
159	0x3ff8b1f4	1.9429307
160	0x3f312a7d	0.69205457
161	0x3f99e32a	1.202245
162	0x3f93ca59	1.1546127
163	0x3ed0efa3	0.40807828
164	0x3fa1a7ad	1.2629296
165	0x3fa814a0	1.3131294
166	0x3f711a1d	0.9418047
167	0x3f1fd58a	0.6243521
168	0xbffe4822	-1.9865763
169	0x3f1de0f1	0.6167136
170	0x3efd11c0	0.49427605
171	0x3f4652c2	0.7747003
172	0x3f1ffdb1	0.6249648
173	0x3f3d6bf3	0.7399284
174	0x3ff408da	1.9065201
175	0x3f1bf681	0.6092301
176	0x3fec4745	1.845925
177	0x3e93aec3	0.2884427
178	0x3e536d1f	0.20647095
179	0x3f9e1e2d	1.2352959
180	0x3f3db27b	0.74100465
181	0x3eb55c45	0.3542196
182	0x3f5cb66b	0.8621585
183	0x3eff69dd	0.49885455
184	0x3f7157e9	0.94274765
185	0xc0006d9c	-2.00669
186	0xbbfd3820	-0.007727638
187	0x3fc9d131	1.5766965
188	0x3d7d9273	0.061907243
189	0x3edc73c3	0.4305707
190	0x3ea3fa1d	0.3202676
191	0x3effd50b	0.49967226
192	0xbe28bf27	-0.16479169
193	0x3ea169b3	0.31525955
194	0x3fd3c0cd	1.6543213
195	0x3edd7d25	0.4325954
196	0x3ffcfd62	1.9764826
197	0xbe86eb56	-0.26351422
198	0x3f966c21	1.1751748
199	0x3f53bf47	0.8271374
200	0x3f5b8bf5	0.8576043
201	0x3efb434f	0.4907479
202	0x3ebe8f16	0.3721854
203	0x3ef9cc2d	0.48788586
204	0x3f6d687b	0.9273755
205	0x3f2ce337	0.675342
206	0x3f1c0900	0.6095123
207	0x3f8dd27f	1.1079863
208	0x3f89362d	1.0719658
209	0xbe2dc9de	-0.16971537
210	0x3eef9cd5	0.4679934
211	0x3ec393c7	0.38198683
212	0x3f35dc08	0.71038866
213	0x3ebb7511	0.36612752
214	0x3ec8d325	0.3922359
215	0x3f04db0f	0.51896757
216	0x3f671260	0.90262413
217	0x3f6cde10	0.9252634
218	0x3e89be6c	0.26903093
219	0x3f58644d	0.84528047
220	0x3e6ed334	0.23322755
221	0xbea4c573	-0.32181892
222	0xbe7c8098	-0.2465843
223	0x3f2c5620	0.67318916
224	0x3f155795	0.58336765
225	0x3f6bfb67	0.92180485
226	0x3f85f404	1.0465093
227	0x3f9f4ec5	1.2445914
228	0x3f7b15c0	0.9808006
229	0x3f161c16	0.58636606
230	0x3fd1aa33	1.6380066
231	0x3f844a67	1.0335206
232	0x3f37ce0d	0.71798784
233	0x3f2dc058	0.6787162
234	0x3f0107e1	0.5040265
235	0x3f306789	0.6890798
236	0x3e8f064d	0.27934495
237	0x3f743032	0.9538604
238	0x3f6317ab	0.8870799
239	0x3d31e474	0.04343076
240	0x3f035fe0	0.5131817
241	0x40111c92	2.2673688
242	0x3fabdc04	1.3426518
243	0x3e3b7787	0.18307315
244	0xbeee2f16	-0.465203
245	0x3e868f80	0.26281357
246	0xbff54324	-1.9161115
247	0x3fbe77ae	1.4880273
248	0x3fa4d35e	1.2877004
249	0x3f21c916	0.6319746
250	0x3ee996ba	0.45622808
251	0x3f631199	0.88698727
252	0xbe918c62	-0.28427416
253	0x3f1d1c8d	0.6137169
254	0x40152c96	2.3308463
255	0x3fe72194	1.8057122

net.2.bias f4 [256]
0	0x3edd6604	0.43241894
1	0x3eab82f1	0.33498338
2	0x3e426c2d	0.18986578
3	0x3ea623d8	0.32449222
4	0x3ea7c65d	0.32768527
5	0x3eca0c47	0.39462492
6	0xbe7c22ee	-0.246227
7	0x3ea7337d	0.3265647
8	0x3fdf7f68	1.7460756
9	0xbe0ffe0d	-0.14061756
10	0xbe1c0bfa	-0.15238944
11	0x3dba6123	0.091005586
12	0x3eac6d6c	0.33677232
13	0x3e850520	0.25980473
14	0x3e8e2021	0.27758887
15	0x3e8a2d1f	0.2698755
16	0x3ea56db2	0.32310253
17	0x3e980dc2	0.29697996
18	0xbe3b02cf	-0.1826279
19	0x3e67cbaf	0.22636293
20	0xbe37e24a	-0.17957416
21	0x3eba241c	0.36355674
22	0x3e4bf3ae	0.19917175
23	0x3df55ba5	0.119803704
24	0x3ebc218d	0.36744347
25	0x3e8b68ef	0.27228495
26	0x3e83a8ff	0.2571487
27	0x3e9c7666	0.3055908
28	0x3e99a785	0.3001062
29	0x3ec3ad62	0.38218218
30	0x3e71384d	0.23556633
31	0x3ecb7806	0.39740008
32	0xbe21197d	-0.1573238
33	0xbe7cb79b	-0.24679415
34	0x3e9e1dba	0.30882055
35	0xbdfcab28	-0.12337333
36	0x3f19e20a	0.60110533
37	0xbc7ad9b6	-0.015310695
38	0x3ea46410	0.32107592
39	0x3e87f06a	0.2655061
40	0x3e3dd190	0.18536973
41	0x3e86140a	0.26187164
42	0x3e5f03a6	0.21778736
43	0x3eb2c7d0	0.3491807
44	0x3e9a6808	0.30157495
45	0x3ecb5fda	0.39721566
46	0x3eaaf529	0.33390167
47	0x3e0b4377	0.13599955
48	0x3ea150eb	0.31507048
49	0x3e9df6cf	0.30852363
50	0xbe5940d5	-0.21216138
51	0x3ed01690	0.40642214
52	0xbe640e8f	-0.22271179
53	0x3eb05d03	0.34445962
54	0xbe0ff366	-0.14057693
55	0x3e95c58c	0.2925228
56	0x3e5c0467	0.21486054
57	0x3e6ecc84	0.23320204
58	0xbe7853d8	-0.24250734
59	0x3d9245b4	0.07142201
60	0x3e872a87	0.26399633
61	0x3ea0b72f	0.31389758
62	0x3ee23ff1	0.44189408
63	0x3eb51aae	0.35371917
64	0x3e6e1ad2	0.23252419
65	0x3fd7d028	1.6860399
66	0x3ef15b59	0.47140005
67	0x3e5ddc1e	0.21666
68	0x3e7288d4	0.23685008
69	0x3e4bad2b	0.19890277
70	0x3ed94ed1	0.42442945
71	0xbe342ec8	-0.1759597
72	0x3e9212f9	0.285301
73	0x3e7ccc34	0.24687272
74	0xbf2d11bc	-0.67605186
75	0x3ed9f0f8	0.42566657
76	0x3f0f100d	0.55883867
77	0x3f9915f2	1.1959822
78	0x3eb820ee	0.35962623
79	0x3ec106a8	0.3770039
80	0xbe587468	-0.21138155
81	0x3e408856	0.18802008
82	0xbe276fd3	-0.16351251
83	0x3e62a1fd	0.22132106
84	0x3e81b9c1	0.2533703
85	0x3e4e6f9e	0.20159766
86	0x3e3bd604	0.18343359
87	0x3e6a9aab	0.22910564
88	0x3e620393	0.22071676
89	0x3f260495	0.6485074
90	0x3e96f156	0.29481
91	0x3eb66534	0.35624087
92	0x3e3063f5	0.1722563
93	0x3fd7aabb	1.6848978
94	0x3ee40402	0.44534308
95	0x3e4ef286	0.20209703
96	0x3e292e59	0.16521586
97	0x3ed78ee7	0.42101213
98	0x3ed0e398	0.4079864
99	0x3ebd754a	0.37003547
100	0xbdce9987	-0.10087877
101	0x3e2480bb	0.16064732
102	0x3eb200e8	0.34766316
103	0xbe026609	-0.12734236
104	0x3e77a080	0.2418232
105	0x3ee6f866	0.45111388
106	0x3eb4033a	0.35158712
107	0x3eb37e40	0.3505726
108	0x3eb95058	0.3619411
109	0x3e7de4f8	0.24794376
110	0x3f0fc6a8	0.561625
111	0x3e544d03	0.20732503
112	0x3e489ca4	0.19591004
113	0x3e5cd8ca	0.21567073
114	0x3e83f189	0.25770214
115	0xbc292752	-0.010324316
116	0x3e2703a3	0.16309981
117	0xbe877ae9	-0.2646096
118	0xbeb554ba	-0.35416204
119	0xbca0f2c9	-0.019647019
120	0x3ebf944a	0.37417823
121	0x3e5cfee5	0.2158161
122	0xbe3990dd	-0.18121667
123	0x3ea93080	0.33044815
124	0x3ee917ee	0.4552607
125	0x3eadd1ae	0.33949035
126	0x3e471515	0.19441636
127	0x3e8122c0	0.25221825
128	0x3e8fec8b	0.28110155
129	0x3e9d8c45	0.3077108
130	0x3e8d3248	0.27577424
131	0x3eca50f8	0.395149
132	0x3e21f823	0.15817313
133	0x3e9ecab9	0.3101404
134	0x3e99e051	0.30053952
135	0x3e42363f	0.18966006
136	0x3ef85417	0.48501655
137	0x3e8a251a	0.2698143
138	0x3e81c7df	0.25347802
139	0x3e90e4c2	0.28299528
140	0x3ed5c282	0.4174996
141	0x3e94c984	0.29059994
142	0x3ea32494	0.31863844
143	0x3ebbd14a	0.36683112
144	0x3e56a087	0.20959674
145	0x3ebf8efc	0.37413776
146	0xbe35512d	-0.17706747
147	0x3d14db78	0.036342114
148	0x3edbb9ea	0.4291528
149	0x3ebcd560	0.36881542
150	0x3f012660	0.5044918
151	0x3e215c7a	0.15757933
152	0x3e6adf1b	0.2293667
153	0x3e92c864	0.2866851
154	0x3e31e621	0.17372943
155	0x3e741482	0.23835948
156	0x3ed33797	0.4125335
157	0x3e7d759f	0.247519
158	0x3ebbfdd8	0.36717105
159	0x3e879ad2	0.26485306
160	0xbe293d3a	-0.16527262
161	0x3ebcd625	0.3688213
162	0x3ea5b08a	0.3236125
163	0x3ed1505d	0.40881625
164	0x3e912512	0.28348595
165	0x3e98171e	0.29705137
166	0xbd7b42f3	-0.061343145
167	0x3e6c9cfc	0.2310676
168	0x3e9f5b46	0.31124324
169	0xbe71e0a4	-0.2362085
170	0x3eb622ff	0.35573575
171	0x3e8f2c62	0.2796355
172	0x3fc2536f	1.5181712
173	0x3e8cd9ef	0.2751002
174	0x3ec19d8f	0.3781552
175	0x3dffbc3c	0.12487075
176	0x3e92db1c	0.28682792
177	0x3e46b54a	0.19405094
178	0x3eb2dc62	0.34933764
179	0x3e47dbde	0.19517466
180	0x3e4e17e8	0.20126307
181	0x3c30b02b	0.010784189
182	0x3e58fdb1	0.21190526
183	0x3e986d4b	0.29770884
184	0x3dd2e758	0.102980316
185	0x3e23af83	0.15984921
186	0x3f3c2709	0.7349706
187	0x3e80c09a	0.25146943
188	0xbd8dd259	-0.06924886
189	0x3ec8fd69	0.39255837
190	0xbe30771d	-0.17232938
191	0x3e81a56a	0.25321513
192	0x3eca6897	0.3953292
193	0xbfc433c1	-1.5328294
194	0x3eba51d2	0.3639055
195	0x3e9d9bcb	0.30782923
196	0x3eb99b7d	0.3625144
197	0x3ec6395b	0.38715634
198	0x3eb53b5b	0.35396847
199	0x3e976481	0.29568866
200	0x3ea7b152	0.32752472
201	0xbe5d360a	-0.21602646
202	0x3eb2b816	0.3490607
203	0x3e903182	0.2816277
204	0x3ea6e4b9	0.32596377
205	0xbdc20d97	-0.09475248
206	0xbec51036	-0.3848893
207	0x3e9a5460	0.30142498
208	0x3e84afae	0.25915283
209	0x3e84e96d	0.2595934
210	0x3e8e084e	0.2774071
211	0x3eae58af	0.34052035
212	0x3e9bd7f7	0.30438206
213	0x3f923778	1.1423178
214	0x3e9674bf	0.29385945
215	0x3f2da4e0	0.67829704
216	0x3ea8a7be	0.32940477
217	0x3e9448d4	0.28961813
218	0x3ebac9c0	0.36482048
219	0x3eb4b435	0.35293737
220	0x3e665a45	0.22495373
221	0x3ebd54f8	0.3697889
222	0x3e83c688	0.25737405
223	0x3e654c3d	0.22392364
224	0x3e99aa62	0.30012804
225	0x3e4889ab	0.19583766
226	0x3ec01186	0.3751337
227	0x3e153b3a	0.14573374
228	0x3ea35949	0.31904057
229	0x3e7e5144	0.24835688
230	0xbe00d16c	-0.12579888
231	0x3e72874a	0.23684421
232	0x3e65c2dd	0.22437616
233	0x3e969d0d	0.29416695
234	0xbe12f008	-0.14349377
235	0x3f09acc1	0.53779227
236	0x3ea4d3bf	0.321928
237	0x3e7a01a9	0.24414696
238	0x3e9aae6b	0.30211195
239	0x3f5f9d4f	0.8734941
240	0x3e899546	0.268717
241	0x3e6b6ddb	0.22991125
242	0xbe4eef19	-0.20208396
243	0x3e978e64	0.29600823
244	0x3e93dad8	0.28877902
245	0x3eed09b7	0.46296474
246	0x3ea86380	0.32888412
247	0x3e84e871	0.2595859
248	0xbda4bd6d	-0.080439426
249	0xbe5f0be0	-0.21781874
250	0x3eb8ce04	0.36094677
251	0xbd19b3f1	-0.03752512
252	0x3ea4181d	0.32049647
253	0x3e78ed75	0.24309333
254	0x3edf606b	0.4362825
255	0x3f04d1f6	0.51882875

net.4.weight f4 [27, 256]
0	0x3e7c10f7	0.24615847
1	0x3f01c173	0.50685805
2	0x3f04ed3a	0.5192448
3	0x3ee116ee	0.43962806
4	0x3ee9a36d	0.45632496
5	0x3ef5f475	0.48038068
6	0x3f139dc7	0.57662624
7	0x3f02bdd9	0.51070935
8	0xbf83af68	-1.0287905
9	0x3f155e4b	0.58347005
10	0x3f0eade5	0.5573409
11	0x3f11646a	0.56793845
12	0x3f09ad07	0.53779644
13	0x3ecd5776	0.4010579
14	0x3ee63fa0	0.44970417
15	0x3edb1e68	0.42796636
16	0x3ee5b59f	0.44865128
17	0x3ef63b09	0.48091915
18	0x3f02687e	0.5094069
19	0x3eee4549	0.46537235
20	0x3f1bd633	0.6087372
21	0x3eb0692b	0.34455237
22	0x3ef5237f	0.47878644
23	0x3f101660	0.5628414
24	0x3ec0d169	0.37659767
25	0x3ef04a48	0.46931672
26	0x3ef86b26	0.48519248
27	0x3eb7a6c1	0.3586941
28	0x3eb9889b	0.36237034
29	0x3ed6ea3d	0.41975585
30	0x3ef61948	0.48066163
31	0x3ec061c9	0.37574604
32	0x3f1a7224	0.60330415
33	0x3f024924	0.50892854
34	0x3ed78309	0.4209216
35	0x3ef6c7ab	0.4819921
36	0x3ebcaad1	0.36849073
37	0xbd578450	-0.052616417
38	0x3ee61be4	0.44943154
39	0x3f521981	0.82070166
40	0x3f03e384	0.51519036
41	0x3ed05845	0.40692344
42	0x3f027197	0.50954574
43	0x3edd323b	0.43202385
44	0x3ed8369e	0.4222917
45	0x3ee9775f	0.45598885
46	0xbd97e9df	-0.07417654
47	0x3ef88568	0.4853928
48	0x3ee453ce	0.44595188
49	0x3edc1762	0.4298659
50	0x3f147846	0.5799602
51	0x3ef24b6d	0.4732317
52	0x3f187511	0.5955363
53	0x3f79e698	0.97617483
54	0x3f12c612	0.5733348
55	0x3ef7855b	0.4834393
56	0x3ecb5706	0.3971483
57	0x3ef657c4	0.48113835
58	0x3f0133a5	0.5046943
59	0x3ea7429a	0.32668
60	0x3ee81131	0.45325616
61	0x3ee55e03	0.44798288
62	0x3f08cca8	0.5343728
63	0x3edf8e1d	0.4366311
64	0x3ee6b2cb	0.45058283
65	0xbf738ec6	-0.9513973
66	0x3ead8b42	0.33895308
67	0x3efb0e9d	0.49034587
68	0x3ec4f78f	0.38470122
69	0x3f062c9e	0.5241183
70	0x3ec44f2a	0.38341647
71	0x3eed0ea9	0.46300247
72	0x3eec4ba3	0.46151456
73	0x3eb9173c	0.3615054
74	0x3f295ecf	0.6616029
75	0x3ef89949	0.48554447
76	0x3e19ee49	0.15032305
77	0xbf24f32e	-0.6443356
78	0x3ecbf27e	0.39833444
79	0x3ec17f78	0.37792563
80	0x3f105d93	0.5639278
81	0x3ed7176b	0.42010054
82	0x3f0da5f4	0.5533135
83	0x3ed1a3ce	0.40945286
84	0x3ec466da	0.3835972
85	0x3ecd3e84	0.40086758
86	0x3efc3a01	0.49263003
87	0x3ef07940	0.46967506
88	0x3ef518c7	0.47870466
89	0xbf74a4f5	-0.95564204
90	0x3f0fdc7c	0.5619581
91	0x3e9f4fb1	0.31115487
92	0x3ef55271	0.4791446
93	0xbf6dcad4	-0.92887616
94	0x3ebe36bd	0.37151137
95	0x3e3404c8	0.17579949
96	0x3f0b05da	0.54305804
97	0x3dda2f21	0.106535204
98	0x3e7ade41	0.24498846
99	0x3ed4b2c0	0.41542625
100	0x3ef40e3a	0.47667104
101	0x3eba24c1	0.36356166
102	0x3f03d55f	0.51497453
103	0x3ef10fba	0.4708231
104	0x3edaa110	0.42701006
105	0x3e82aecb	0.2552398
106	0x3ee2ed5d	0.4432172
107	0x3ed779f3	0.42085227
108	0x3eea1441	0.45718578
109	0x3ee99a69	0.45625618
110	0xbe659c1a	-0.2242283
111	0x3ef4439a	0.47707826
112	0x3ed8015e	0.42188543
113	0x3f0b4fc5	0.54418594
114	0x3f052bdb	0.52020043
115	0xbc580ff8	-0.013187401
116	0x3eea0868	0.45709538
117	0x3ef84130	0.48487234
118	0x3f309fda	0.68993914
119	0x3f004a4e	0.5011338
120	0xbe5a7bc4	-0.21336275
121	0x3e9712f7	0.29506657
122	0x3f186d6e	0.59541976
123	0x3ece3807	0.4027712
124	0x3ea59f5d	0.32348147
125	0x3ec290ad	0.38001004
126	0x3ef9f21e	0.48817533
127	0x3ee0d159	0.4390972
128	0x3ec7eb97	0.39046928
129	0x3ecab31f	0.39589784
130	0x3eafad1e	0.34311765
131	0x3ee13646	0.4398672
132	0x3ee6ad35	0.4505402
133	0x3ef4e4d3	0.4783083
134	0x3e81208a	0.25220138
135	0x3ec30b37	0.38094494
136	0x3e8cba15	0.2748572
137	0x3f04c924	0.51869416
138	0x3efdb41b	0.49551472
139	0x3ef597ba	0.4796732
140	0x3ee130ce	0.43982548
141	0x3e84d66a	0.25944835
142	0x3ebbc5bc	0.36674297
143	0x3ed6aff6	0.41931123
144	0x3efb4fb7	0.49084255
145	0x3f08bcd0	0.53413105
146	0x3f070937	0.52748436
147	0x3eafb781	0.3431969
148	0x3efbc166	0.4917099
149	0x3edfdb50	0.4372201
150	0x3f394059	0.7236381
151	0x3ec0cb07	0.37654898
152	0x3ec4c81c	0.3843392
153	0x3ed807c9	0.4219344
154	0x3ec84e5e	0.3912229
155	0x3ef18869	0.47174385
156	0x3ee27f86	0.44237918
157	0x3f026e62	0.5094968
158	0x3ecf0ba9	0.40438583
159	0x3ecc464c	0.39897382
160	0x3f0c1ea8	0.5473428
161	0x3ec9425e	0.39308447
162	0x3ebc1f8a	0.36742812
163	0x3eaadfc0	0.33373833
164	0x3ee04940	0.43805885
165	0x3ef788f7	0.48346683
166	0x3f16ac88	0.5885701
167	0x3efde92c	0.4959196
168	0x3ef8ad4a	0.4856971
169	0x3ef5d6d7	0.48015472
170	0x3ed56f51	0.4168649
171	0x3f010b6c	0.50408053
172	0xbf8887c1	-1.0666429
173	0x3fae1f6d	1.360334
174	0x3ec96841	0.39337352
175	0x3f96e09a	1.1787293
176	0x3eea4dee	0.4576258
177	0x3f04ded3	0.519025
178	0x3edc66d4	0.43047202
179	0x3ef05cea	0.46945888
180	0x3ee9d1bd	0.4566783
181	0x3fa62b45	1.2981955
182	0x3eea7e9f	0.4579973
183	0x3ec0ae43	0.3763295
184	0x3eee984e	0.46600574
185	0x3ed0a259	0.4074886
186	0xbf77b848	-0.96765566
187	0x3ee92c1d	0.45541468
188	0x3f00c5e7	0.50301975
189	0x3e817922	0.2528773
190	0x3f139e15	0.5766309
191	0x3f01b191	0.5066157
192	0x3ebc2ad7	0.36751434
193	0x3e7f54ad	0.24934645
194	0x3eced773	0.4039875
195	0x3e98ef5f	0.29870126
196	0x3ef9cbac	0.48788202
197	0x3ef68060	0.48144817
198	0x3ee61403	0.44937143
199	0x3eed1111	0.46302083
200	0x3ee18335	0.44045416
201	0x3f12f4ea	0.5740496
202	0x3ee3361f	0.4437723
203	0x3f023ea1	0.50876814
204	0x3efeb43e	0.4974689
205	0x3f032e1d	0.5124224
206	0x3f0623ea	0.5239855
207	0x3f04f8fc	0.5194242
208	0x3ec611d4	0.38685477
209	0x3ec8f0bf	0.39246175
210	0x3ee9fde8	0.45701528
211	0x3ee6a715	0.45049348
212	0x3eee0f30	0.46495962
213	0xbf7383c5	-0.9512294
214	0x3ed97a17	0.4247596
215	0xbe2c92d8	-0.16852891
216	0x3ee6e4bd	0.45096388
217	0x3ee5abd6	0.44857663
218	0x3eb55f9a	0.354245
219	0x3ebccaf6	0.36873597
220	0x3eddb421	0.4330149
221	0x3ec4bb66	0.38424224
222	0x3f0426a0	0.5162144
223	0x3ee7c4b8	0.45267272
224	0x3eb355d6	0.35026425
225	0x3f05ef91	0.52318674
226	0x3ecf9f4a	0.40551215
227	0x3f9b6d29	1.2142688
228	0x3ea14ca3	0.31503782
229	0x3ef85459	0.48501852
230	0x3f0add32	0.5424377
231	0x3f0352b0	0.51298046
232	0x3ed5ccf8	0.4175794
233	0x3ee962f1	0.455833
234	0x3ef947e9	0.48687676
235	0xbe31ba19	-0.17356147
236	0x3ee373ae	0.44424194
237	0x3ecd9121	0.40149787
238	0x3ed36b53	0.4129282
239	0xbe6116dd	-0.21981378
240	0x3ecf199f	0.40449235
241	0x3f068bed	0.5255726
242	0x3f1ed7db	0.6204812
243	0x3ecb18d4	0.3966738
244	0x3edb0ddd	0.42784014
245	0x3eb8c9cf	0.36091468
246	0x3ef7ae36	0.483751
247	0x3ec9a969	0.39387062
248	0x3f807124	1.0034528
249	0x3f168bba	0.58806956
250	0x3ecd3b41	0.4008427
251	0x3efe6e8e	0.49693722
252	0x3edf1ea6	0.4357807
253	0x3eeca0c2	0.46216398
254	0x3ee7b024	0.45251572
255	0xbe0ca3da	-0.1373438

net.4.bias f4 [27]
0	0xbd3921f3	-0.045198392
1	0x3e351d32	0.17686918
2	0xbd356315	-0.044283945
3	0x3d27cb5a	0.040965416
4	0x3d8ebad3	0.06969228
5	0x3e05c4de	0.1306338
6	0x3d8b16b9	0.067914434
7	0x3e34fdf4	0.17675
8	0xbd78b42a	-0.060718693
9	0x3edf1415	0.4357001
10	0x3d9889a3	0.07448127
11	0x3e1db553	0.15401201
12	0x3d380d79	0.044934724
13	0x3e45722d	0.19281836
14	0x3dceda6d	0.10100255
15	0x3d949573	0.07255068
16	0xbd03bce5	-0.032162566
17	0xbd77e437	-0.060520377
18	0x3e8785e4	0.26469338
19	0x3f032dff	0.5124206
20	0x3eefd63c	0.46843135
21	0x3d4f3ef5	0.05059715
22	0x3ddcc05a	0.10778876
23	0x3e0e3a89	0.13889517
24	0x3cb1d823	0.021709507
25	0x3e19b94c	0.15012091
26	0x3ce3cc30	0.027807325
