model/dqn_policy_net_episode_1480.pt (torch, 334295 bytes, 6 tensors)

net.0.weight f4 [128, 336]
00000000: d65f 763d bc84 b6bd 876d bebd 0880 bb3c
00000010: 0294 7a3d d629 b5bd e333 88bc ca2f 1fbd
00000020: d538 043e e0a7 22bd e3d5 a8be 3c3b cdbd
00000030: 2e2a 2d3d fd1e 5a3d 0cc2 ba3d e01a 9c3d
00000040: 2dff 47be ec40 77bd f267 7f3c 4fdd 8ebd
00000050: 51f4 ff3d ee35 dc3d 9387 dbbd e650 e33d
00000060: b86c 37be d274 95bd 0ba0 48be 08b5 3b3d
00000070: 9367 483d 5e7f 35bd de3f e03c c6b6 0d3e
00000080: dc84 babe 3cdb ed3b 5fa6 12bc 9b32 b7bc
00000090: ebc8 1f3d ca3f 713d 94d6 56bc b188 aabc
000000a0: 5e23 fe3c b478 d5bd 3193 94bd e8ff 8dbd
000000b0: d661 293e abc5 9cbd d685 edbd becd df3c
000000c0: f6ff 97bd cd30 243e b555 f6bb 1a2c 1ebc
000000d0: 3a66 443d 9d07 d1bd bf98 cc3d 9342 4c3d
000000e0: a0ef 413e 69db 28bd 6f9c 12be e90f f5bd
000000f0: b8a8 1f3e a7c6 cf3d e3e4 cfbd 045b 45bd
00000100: 4b35 edbd b942 c03d e5de 65be c540 09bd
00000110: bb72 ae3d 28d3 893d 6c68 8fbc 2f8b 2cbd
00000120: 7850 6dbe 6e7c 83bc 2658 ff3c 3144 263e
00000130: 4be2 c73c 7f39 6a3d 6964 bdbd 98e1 153d
00000140: 963c 143e fc0e d0bc 3990 d23d cf62 56bd
00000150: ca96 0bbe d498 b6bd 7e5f ca3d 9814 ae3c
00000160: ff7a 5b3d be89 d3bd 8f50 bdbd 5904 2dbd
00000170: 331a e4bc 3f79 07bd 6beb 913b 963a a13b
00000180: bc82 7b3e 93f0 0cbd 75b8 c4bd efd6 a4bd
00000190: 71ae 973d 84bb 713d 9e65 68bd c41f 593d
000001a0: b758 43bf 9ae3 0e3e e51a 4e3e 9ead fc3d
000001b0: bdb8 963e 8306 0c3e a68a 8ebe 56a7 e03d
000001c0: d383 983d e7b5 ae3b 1760 3ebe beb9 85bc
000001d0: ce1d 1bbe 8d72 0e3c e186 2b3c a34a 9a3d
000001e0: 97ad 87bf 5379 413e b453 f73c 13b2 3abe
000001f0: ff0f 8a3d cea2 323e 6dff 023d ff99 61bd
00000200: a461 bb3e 1044 1dbe c6c3 cdbd 29cf 13be
00000210: 5352 12be 5faa 0dbe 3e98 38be 0598 913b
00000220: d3db cdbe 2ad0 0d3e 5128 22be 1843 c73c
00000230: 7b46 e3bc 22db b83d 0769 023d ee71 973c
00000240: 86c1 e83e fd7a eabd 0dac 63bd ca2b 98be
00000250: dee2 3f3d 4752 b8bd 320b 73bb 6fbf 0bbe
00000260: 2f83 193e e8ca e7bd 8e90 cdbd aa22 24bd
00000270: cd6e 03bd 1b0a 723d 6a17 233d b493 b3bb
00000280: 55bf 0b3c 1e70 97bd a3ca eb3d ce00 2a3d
00000290: be96 873d e196 02be f544 dabc 7fe4 d13c
000002a0: 2eab 1b3f b769 5cbe 3686 2abe 46a7 9fbd
000002b0: ba3d 5fbe b1d4 b9be 66f7 ec3c 060e 3c3d
000002c0: 9e8f f83e 6e6d fb3d b757 4abc 6202 2abe
000002d0: da2a 163d 00b4 0ebe 3c1c 56be 0561 00be
000002e0: 1e82 4e3f d467 f83c 403a 5bbe 5f4b 163b
000002f0: 933f 10be 1807 84bd 9d93 5dbe 03ce d63d
00000300: ee04 46bf 2bc0 e83d 14d4 243e 2c66 df3d
00000310: cdb6 2d3e 13a8 e93e 52e0 823d 4e76 7e3e
00000320: 0749 1d3f fe33 9d3c d503 8bbd b093 f1bc
00000330: 4605 51bd 9baf 9abd 73dd 5bbe 4d95 823e
00000340: 44c5 d7bf df13 ae3e bf87 9d3e bccd a23e
00000350: 3cc8 993e 60c8 ae3e 6170 a63d 9322 133e
00000360: 5c15 123f 1584 68bd 93d6 1bbd c8b4 553d
00000370: c6f5 86be 11d4 e83c 945e 2dbe b61f f33d
00000380: 9e6b 1cbf 9422 b03e db9c 503d d730 543e
00000390: b547 1e3e e6a4 873e a67e c8bd 320a 653e
000003a0: 42db 333f a6cf 873d b595 88bb d076 d5bd
000003b0: 13b2 b3bd e320 70be 9d13 6cbd 1388 1dbe
000003c0: ec4b 4f3f 0f32 82bd a63a 3e3b 8351 d5bd
000003d0: a5c2 f83c c226 06be 3387 a83c 3aeb e5bd
000003e0: a0e6 6dbf 1d22 8e3e 0f72 123e afe4 983e
000003f0: f46e bd3d e202 ac3e 74f1 99bd 7461 c43e
0.06014999 -0.08912036 -0.092982344 0.022888198 0.061176307 -0.0884587 -0.016626304 -0.038863935
0.12912305 -0.03971088 -0.32975683 -0.10021064 0.042276554 0.05325221 0.09119043 0.076223135
-0.19530936 -0.06036465 0.015588747 -0.06975805 0.124977715 0.10752474 -0.10719218 0.110994145
-0.17912567 -0.07297672 -0.19592302 0.04582694 0.0489269 -0.04431092 0.027374204 0.13839254
-0.3642949 0.007258801 -0.008950799 -0.022362998 0.03900997 0.058898725 -0.013112683 -0.020817133
0.031022724 -0.10423413 -0.07254637 -0.06933576 0.16541228 -0.0765489 -0.11597793 0.027319785
-0.074218675 0.16034241 -0.0075175413 -0.009654069 0.047949053 -0.1020653 0.099900715 0.049868178
0.18939066 -0.04122487 -0.14317487 -0.11965925 0.15591705 0.10145312 -0.101510786 -0.048182502
-0.115824305 0.09387726 -0.22448309 -0.033509035 0.08517977 0.06729728 -0.017505847 -0.042124923
-0.23175228 -0.016050544 0.031169962 0.1623695 0.024399897 0.05718374 -0.09247667 0.036592096
0.14476237 -0.02539777 0.102814145 -0.052340325 -0.1363174 -0.089158684 0.09881495 0.021250054
0.053584095 -0.103290066 -0.09243881 -0.042240474 -0.027844524 -0.033074614 0.004453113 0.004920314
0.2456159 -0.034409117 -0.09605495 -0.08048808 0.07406319 0.05901672 -0.056737535 0.05300881
-0.76307243 0.1395401 0.20127447 0.12337802 0.2943782 0.13674359 -0.27840155 0.10969417
0.074470185 0.005331743 -0.18591343 -0.01632392 -0.15148088 0.008694303 0.010469169 0.07533767
-1.059985 0.18893938 0.03019128 -0.18231992 0.06741332 0.17444918 0.031981874 -0.055078503
0.3659793 -0.15357995 -0.100471064 -0.14434494 -0.14289217 -0.13834523 -0.18026826 0.004443171
-0.40206775 0.1384894 -0.15835692 0.024323985 -0.027743569 0.09026171 0.031838443 0.018486943
0.45460147 -0.114492394 -0.055584002 -0.29720908 0.046847217 -0.09000068 -0.003708553 -0.13647245
0.14991449 -0.11317998 -0.10037337 -0.04007212 -0.03208809 0.05909167 0.03981725 -0.005480254
0.008529504 -0.073944315 0.11513259 0.041504674 0.06620549 -0.12752868 -0.02664421 0.02562165
0.60808074 -0.21524702 -0.1665276 -0.07795577 -0.2180089 -0.36295083 0.028926563 0.04591181
0.4854707 0.122767314 -0.012350014 -0.16602471 0.03666196 -0.13935852 -0.20909208 -0.1253701
0.80667293 0.030322947 -0.2140894 0.0022933108 -0.14086752 -0.064466655 -0.21638341 0.10488512
-0.7735127 0.11364778 0.16096526 0.109081596 0.16964264 0.45636043 0.06390442 0.24849817
0.61439556 0.01918983 -0.0678784 -0.029489368 -0.05103042 -0.07553025 -0.21471195 0.25504532
-1.6857076 0.33999535 0.3076763 0.31797588 0.3003558 0.3413725 0.08126903 0.14368658
0.5706384 -0.05676659 -0.03804643 0.05217436 -0.26359385 0.028421434 -0.1693061 0.11871283
-0.6110171 0.3440138 0.05093084 0.20721756 0.15457042 0.26492995 -0.09789781 0.2236717
0.70256436 0.06631403 -0.004168237 -0.10423052 -0.08774199 -0.23450045 -0.057635892 -0.1538394
0.8097522 -0.06357204 0.0029026656 -0.10415938 0.030366251 -0.13100722 0.02057228 -0.112265065
-0.9293003 0.277604 0.14301322 0.29861972 0.09249678 0.3359595 -0.07516757 0.383556

net.0.bias f4 [128]
00000000: eed3 f73d 5500 1a3e 5c03 b13d 1f8a fd3d
00000010: dbbf 883e 9526 a93d c6bf f73e 022e 583e
00000020: 512f 133c 087d 473e 5f7a 043e 1fd1 733d
00000030: 03fc 173e c345 f93d 29b4 103e 7e20 f83d
00000040: b3d8 a03d cd86 4c3e 5868 253e 4d8a cd3d
00000050: c3f0 fd3d 20cf 843d ba63 a93e 66a2 073e
00000060: 8459 413e e4c3 243e 0636 063e d785 693e
00000070: 3bfb 103e 7093 de3e c1db 693e 58dd 1c3e
00000080: 5461 363e 266e a03d eb1a 353e 1e1d a33d
00000090: 410b c93d f720 403e a203 663e cbe6 263e
000000a0: 9cf1 c5bd 7ea9 d03d 4650 933d 05c6 0f3e
000000b0: 47a2 a93d e824 473e 10f9 e33d f0fd 5d3e
000000c0: 1b98 193e 3b69 483e dcaf 293d d3da 193e
000000d0: 1b2f 683d cd2e db3d eec2 053e 0cfb ff3d
000000e0: 6fe9 093e 34bc 9dbd 7b64 833e 49a2 0d3e
000000f0: db01 2d3e 49cb 0b3e f370 683d 271a 163e
00000100: 08f3 223e 5811 2a3e 0a88 803e aebb 073e
00000110: 0dce 083e 1482 913d 028e 173e cde6 513e
00000120: 4e68 573e 17ca 063e e459 0f3e 2d19 c23e
00000130: 4f8f 273e ecb8 2e3e 8e2c 1b3e 558e 203e
00000140: 1024 c43d f249 853f ee69 303e 4553 ae3e
00000150: bf95 303e 8886 243e e191 393e beee 543d
00000160: f8ea d33e bfb5 263e 9f45 023e a0b2 c43d
00000170: c20c 223e ea98 353d 3214 963e 62fe bd3d
00000180: 8693 1a3d 5730 443e 0c1e d63d 9d04 a93d
00000190: e92c 1c3e 09fb b43e 1acd d33d 7f8d 553e
000001a0: 16c7 ac3d e261 ee3d f4ec 2d3e 41de d33d
000001b0: b78c 243e 4264 033e 2c37 293d 13f2 5f3e
000001c0: 6efc 803d eb05 773e 8b96 233e 33e4 ac3d
000001d0: 45ff 07bd 1b53 a23e 32f7 e5bd 0bf4 423e
000001e0: 7a8f fc3d 42d4 253e fc18 843e fffd 4e3e
000001f0: 4f1e 173e 8021 d73d 16b9 ba3d 6143 263e
0.12100969 0.15039189 0.08643219 0.1237986 0.26708874 0.08259312 0.483885 0.211113
0.008983449 0.1948129 0.12937306 0.059525605 0.14842229 0.12171509 0.14131226 0.121155724
0.07853832 0.19973297 0.16153085 0.100361444 0.12399437 0.064848185 0.33083898 0.13245544
0.18881804 0.16090351 0.13106546 0.22804962 0.14158337 0.4347186 0.22837736 0.15318811
0.17810565 0.07833509 0.1768605 0.07964538 0.098166 0.18762575 0.22462323 0.16298978
-0.09665224 0.10188578 0.07193045 0.14040382 0.08282905 0.19447672 0.11131489 0.216789
0.1499943 0.19571392 0.04142748 0.15024881 0.05668555 0.10702286 0.13062641 0.12499055
0.13467954 -0.077019125 0.25662598 0.13831438 0.16895239 0.13651766 0.05674834 0.14658414
0.15913022 0.16608179 0.2510379 0.13255188 0.13359852 0.071048886 0.14800265 0.204982
0.21035883 0.13163029 0.13999134 0.37909833 0.16363262 0.1706273 0.15153715 0.15679295
0.09577191 1.0413191 0.17227909 0.34047905 0.17244624 0.16066945 0.18122055 0.051985495
0.41390204 0.16280268 0.12721871 0.096043825 0.15825179 0.044335283 0.29312283 0.09277035
0.037738346 0.19159065 0.1045495 0.08252833 0.15251507 0.35347775 0.103418544 0.20854758
0.0843641 0.116397634 0.16984922 0.10345126 0.16069303 0.12831214 0.04131238 0.21869688
0.06298147 0.24123351 0.15975396 0.08441963 -0.03320243 0.3170403 -0.112287894 0.19038408
0.123320535 0.16194251 0.25800312 0.2021408 0.14757656 0.105044365 0.091173336 0.1623664

net.2.weight f4 [256, 128]
00000000: ac71 8d3f 938d 513c 2a7d 1540 1b29 bb3e
00000010: e623 2cbc c648 383f c215 433f 7762 ca3f
00000020: 617a 3240 cc53 0f3f 4d4d 673f dc51 ac3e
00000030: 40e6 713d c0f6 433e 7714 1cbe 1d8e 7b3f
00000040: 9ff3 283f 8e73 373e bb1d 263f d94a d03f
00000050: b8a9 913f d666 e43f e66c 4e3d 3543 683f
00000060: 073a ec3e 031e 963e 5436 713f a042 dcbd
00000070: 25ae 133f 6db8 2c3e dcb9 583e 0047 363f
00000080: 3685 5b3f 18f5 2f3f 6bfb f73e 06b2 2e3f
00000090: 9fd9 09bd 3b6e ba3f 522b c23f 0e48 803d
000000a0: 4567 a0bf c73b aa3e 784e 983d 68c4 7d3e
000000b0: 8724 c53e 61e8 1d3f 6645 983f 978a a33f
000000c0: ad01 4b3f b743 613e 1779 4f3f b2dd e23f
000000d0: 8a9c 463f 00f3 84bc f2c2 353f 5664 46be
000000e0: 7d36 93be 9ddd a3bf 1860 a93e d77d e73f
000000f0: d3dc babd c9f2 1b40 7c74 d93e c79a 1b3f
00000100: 6260 7fbc 3613 fa3e 9b56 8a3f dc0a 313e
00000110: c571 673f 836f 063f 4d1a 98bd 98b0 723e
00000120: 3c3d c23e 76bc bb3f f054 f03e 9b55 443e
00000130: 3684 c33e d99a aebe c5fd 8b3f 6415 963e
00000140: c30e 2b3f 015d 1d3f b6b7 37bf 7c90 6e3e
00000150: 4aed 123f 020a 67be 5469 363f 1a51 843f
00000160: eb6e 04be 29e8 b63e c29d 853f b2b4 303f
00000170: 0102 473f 9153 c53f 718b 1e3f ff9f 063f
00000180: c9f4 893f f8ff 2c3e c95d 1d3f 1667 9bbf
00000190: 50b6 9bbd 4377 62be 52fd c33f da57 b53e
000001a0: 95b9 a83e a406 ef3e 33ef 0d3f 94b2 9c3d
000001b0: a81f 9d3f b455 d63f b5a2 c93e 5202 283f
000001c0: 2e40 6d3f 829f 673f 24b5 173f 323a b13f
000001d0: 7a4a 1540 71fb 863e b385 9ebf 825f 873f
000001e0: 13da 093f d020 f43d e28d d83e 5712 493f
000001f0: 189c 1c40 63d6 6e3e 1ced 963f 96cd b53f
00000200: db78 1740 d471 453e 993a 163f 5903 c3bc
00000210: e7a0 083f 5510 193f 4384 b0be a82d 8e3f
00000220: 8a9c 803e 4f7c b23e 5511 09be b7a0 663e
00000230: 2b48 b13e e191 6d3f a980 4d3f 5a1a dc3f
00000240: 91be eb3e 0b2b 553f 3ece c53e 94fd 773e
00000250: ee2f c73f 9386 763f 82fb 3c3f 61e3 4d3f
00000260: c606 263f 8cb5 1c3f da70 763f 1e14 fd3e
00000270: 24fc 953e 1ffb 093f b3f0 133e d111 e93f
00000280: 58a7 1d3f c304 803f a016 723f 4842 9a3e
00000290: 0ab1 8e3f a6e1 a43f c875 853f bbf6 1b3f
000002a0: ade9 c8bf f7fa 023f e4d6 db3e 6eda 3f3f
000002b0: 1439 1b3f 38fe 353f 69ff f03f 4ca9 243f
000002c0: 3b8a e93f 4311 8f3e 78b1 ab3d 178a 833f
000002d0: 680a 363f eb5f aa3e 9ba3 3f3f 03b6 013f
000002e0: 1b4e 6a3f 8a8a c4bf 3a40 9bbc 7024 c33f
000002f0: 75b9 513d 12d5 bb3e 72cf 453e e3cd 003f
00000300: 5174 28be 76a0 593e 00ec c73f a58c bc3e
00000310: 4bb0 fb3f 84f9 c0be fb29 713f 563b 4e3f
00000320: c982 5c3f b3e5 ba3e 72ee 693e fcea ec3e
00000330: bfcf 633f 6b31 273f 97ee 223f 8245 873f
00000340: 9fc1 743f 038a 4dbe a728 ee3e 014f b83e
00000350: 28a9 3b3f b79b be3e 440b 803e ad3a f33e
00000360: 72f2 613f 7fb2 543f be35 d13d 780d 1f3f
00000370: 0c80 c03d bc18 ebbe 57a9 85be 08f9 033f
00000380: a888 3d3e 0133 713f 2ed5 7f3f 7771 923f
00000390: 2a8a 753f 0b60 0f3f c589 cc3f 91b5 653f
000003a0: 896a 243f ef21 073f 6838 c93e 7851 313f
000003b0: d204 243e 8122 693f 61e2 5a3f 8693 713c
000003c0: 3e56 763e 2a71 0840 c113 853f 6b61 163e
000003d0: bce1 1fbf c0b0 773e cda8 c0bf 5971 aa3f
000003e0: 71a1 8c3f 9df2 133f 8326 e33e 668d 3f3f
000003f0: df21 3cbe f363 0f3f 1fca 1440 90b4 e73f
1.1050315 0.012790102 2.3357644 0.36554798 -0.010506606 0.71986043 0.76205075 1.5811299
2.7887194 0.5598724 0.90352327 0.33656204 0.059057474 0.19137096 -0.15242182 0.9826372
0.65996736 0.17915174 0.64889115 1.6272842 1.1379919 1.7843883 0.050396822 0.9072755
0.4613802 0.29319772 0.94223523 -0.10754895 0.576876 0.16867228 0.2116465 0.7120209
0.8575014 0.6873336 0.48434004 0.6824039 -0.033654805 1.456489 1.516947 0.06263743
-1.2531515 0.33248731 0.07436842 0.24781954 0.3850443 0.6168271 1.1896179 1.2776669
0.7929943 0.21998487 0.81044143 1.7723906 0.7758261 -0.016229153 0.7100059 -0.19374213
-0.2875251 -1.2802006 0.33081126 1.8085278 -0.0912415 2.4366934 0.42471683 0.60783046
-0.015586944 0.48842782 1.080768 0.17289299 0.90407974 0.52513903 -0.074268915 0.23700178
0.37937343 1.4666889 0.46939802 0.19173281 0.38186806 -0.34102514 1.0936819 0.29313195
0.668194 0.6147004 -0.71764696 0.23297304 0.57393324 -0.22562411 0.7125447 1.033725
-0.12932937 0.35724 1.0438769 0.6902572 0.7773743 1.5416127 0.6193152 0.52587885
1.0777828 0.1689452 0.6147123 -1.2140834 -0.07603133 -0.22115807 1.5311682 0.35418588
0.32954088 0.46684754 0.55443114 0.076512486 1.2275286 1.6744905 0.39381948 0.6562854
0.92676055 0.90477765 0.59260774 1.3845885 2.3326707 0.2636371 -1.2384552 1.0576022
0.5384838 0.11920321 0.42295748 0.7854361 2.4470272 0.2332397 1.179111 1.4203365
2.3667514 0.19281703 0.5868316 -0.023805307 0.5337052 0.59790546 -0.34475908 1.1107683
0.2511943 0.34860465 -0.13385518 0.22522245 0.34625372 0.9280072 0.80274445 1.7195542
0.46043828 0.83268803 0.38633913 0.24217826 1.5561502 0.96299094 0.7382127 0.8042508
0.64854085 0.6121452 0.9626595 0.4942941 0.2929393 0.53898805 0.14447288 1.8208562
0.6158347 1.0001453 0.94565773 0.30128694 1.1147778 1.2881362 1.0426569 0.60923356
-1.5696312 0.5116419 0.42937386 0.7494267 0.6063397 0.7109103 1.8827945 0.64320827
1.824531 0.27942857 0.08383459 1.0276517 0.7110963 0.33276305 0.7485902 0.5066835
0.9152543 -1.5354779 -0.018951524 1.5245495 0.051202256 0.36685997 0.19317415 0.5031416
-0.16450621 0.21252617 1.5618896 0.36826053 1.9663175 -0.37690365 0.9420468 0.8055929
0.8613706 0.36503372 0.22844866 0.4627303 0.8898887 0.6530978 0.6364531 1.0568087
0.9560794 -0.20072179 0.4651539 0.35997775 0.73304987 0.37228176 0.25008595 0.47505704
0.8826057 0.83084863 0.10215329 0.62129927 0.09399423 -0.45917308 -0.2610576 0.51551867
0.18509161 0.9421845 0.9993466 1.1440877 0.95913947 0.56005925 1.5979544 0.89730173
0.6422506 0.52786154 0.39300847 0.69264936 0.16017464 0.91068274 0.85501677 0.014744645
0.24056336 2.131907 1.0396653 0.146856 -0.6245382 0.24188519 -1.5051514 1.3315841
1.0986768 0.57792073 0.4436532 0.7482513 -0.18372296 0.56011885 2.3248365 1.8101978

net.2.bias f4 [256]
00000000: 39e9 ba3e 34e8 983e 00c3 0e3e 69e2 8a3e
00000010: f2da 893e d618 ae3e 424a 9abe 022d 903e
00000020: cf84 d13f 20e3 42be 5a8e 51be 03ea 9d3d
00000030: 7e5f 923e 84fb 533e e5b5 6c3e f303 603e
00000040: 3032 8d3e 91de 743e c220 72be b20f 323e
00000050: 5e80 6bbe 9564 9f3e 65b7 163e 602b 923d
00000060: 74a5 bc3e 07db 633e 9415 4f3e ea31 7c3e
00000070: fc1d 873e 67a5 a63e 094e 383e 2b84 ae3e
00000080: 020c 59be 9ffb 99be b527 823e 538e 31be
00000090: aa7c fd3e b6d9 7abc 27df 893e 4b60 303e
000000a0: c293 0d3e bf47 543e 2c21 313e 18ff 983e
000000b0: 3606 7c3e db93 b23e 5d8c 6e3e be55 9d3d
000000c0: 623d 853e d701 823e e603 89be d534 b63e
000000d0: 782d 8dbe 691d 9e3e 4505 4cbe 497c 7d3e
000000e0: 0989 253e 91da 3b3e 0b79 96be 2aa4 073d
000000f0: 61dc 5e3e 2926 863e fa78 da3e bb8d 9b3e
00000100: 0244 323e 2bb3 c93f 716a d13e d55e 273e
00000110: 269c 3b3e abc1 1a3e d7e2 ba3e a9b8 70be
00000120: 5328 693e 876d 443e 6369 2dbf d855 bf3e
00000130: de65 fa3e 9652 963f 3fa0 9a3e b710 a43e
00000140: af00 8abe 22ac 223e b672 5ebe 7d8f 293e
00000150: bc29 473e 7c2e 103e d4e6 0b3e 76db 343e
00000160: 3269 333e 4549 253f 662a 7f3e e8e6 8f3e
00000170: b553 f43d f46c ca3f 4027 b03e c186 193e
00000180: b568 e13d 63fc bc3e 94e7 bd3e d9fb a23e
00000190: 9755 27be 5366 f03d 5d64 bc3e c6d2 3bbe
000001a0: e5d6 3f3e f533 d83e 287b 983e 5e82 9c3e
000001b0: 71d8 a13e c54b 453e aa28 ec3e 444a 213e
000001c0: c51d 113e eef5 2b3e 3355 543e 5227 29bc
000001d0: 9880 e23d f226 a1be e8c9 b5be 9afa a5bd
000001e0: 2f31 c63e 78ad 3f3e 951a 68be c541 883e
000001f0: ee54 d53e 7823 943e 56df 103e 88aa 4b3e
00000200: 4f3a 6f3e fe4a 823e 0746 573e 7a49 ae3e
00000210: 3e36 ec3d 0ba6 8c3e 356b 8f3e 1750 0a3e
00000220: 70fa f73e ae10 603e da11 4e3e 2df6 753e
00000230: 5a84 bc3e 0ea7 8a3e 6483 883e 8e4a 9e3e
00000240: d032 213e 0b23 a53e 1cab 6dbe 4080 31bd
00000250: bc2e ce3e 07f4 a13e dc6d ec3e 642a ce3d
00000260: 2d93 333e b113 703e 394d ed3d 4a93 423e
00000270: f385 b93e c04c 463e 855f a03e 0a08 5c3e
00000280: 9c05 5dbe 6f1e 9f3e da13 893e 03ad c53e
00000290: fed3 703e 298a 7d3e 6911 e2bd f3a1 343e
000002a0: 55e8 873e 2639 99be 8cdc 993e b899 6f3e
000002b0: c70f b43f 3776 713e 8cb3 a33e db3a c63d
000002c0: 9c6f 6d3e e84c 113e 98cc 943e 93cc 133e
000002d0: 9901 143e b770 29bc d490 273e c28c 7a3e
000002e0: 6e23 3c3d 166b cc3d f1e1 3c3f bddc 4b3e
000002f0: 15b7 03be 23a1 bc3e 8eaf 6dbe 8cb9 593e
00000300: 229a ab3e 9480 c5bf 7141 9e3e f3c9 823e
00000310: 1882 a03e 692a b03e eccc 983e 1549 763e
00000320: 5af2 8c3e 49e4 89be f388 953e def6 6e3e
00000330: ec06 903e 74b1 14be eedd c7be 20c4 813e
00000340: 5b52 4b3e aadb 4f3e b204 663e 1807 923e
00000350: 2a28 803e 2e58 913f 925e 743e 7e87 343f
00000360: 2b2a 923e 4cd4 713e c0bc 9b3e b2e5 923e
00000370: b0aa 343e 1328 a53e 4452 573e 28e5 2a3e
00000380: 6e9a 7c3e 7b2d 183e 53e4 a53e 48c2 ed3d
00000390: f366 803e cc3a 503e 87b3 39be 92bf 353e
000003a0: c654 2e3e d726 7a3e 2143 46be de9e e53e
000003b0: ec84 8e3e 9b83 3e3e 3f71 773e 5728 563f
000003c0: b278 5f3e b63d 393e 28c8 83be 2f14 773e
000003d0: 2f76 753e 05e2 d23e b54a 8f3e 2fda 553e
000003e0: 4cf5 bfbc c7ea 8bbe 3f4d 9d3e a44c bdbd
000003f0: 6b78 853e 0da3 3c3e 4cca c93e afef e23e
0.3650606 0.29864657 0.13941574 0.27125862 0.26924855 0.34003323 -0.3013478 0.28159338
1.6368655 -0.19031954 -0.20464459 0.0771065 0.2858848 0.20701414 0.23116262 0.21876507
0.27577353 0.23913027 -0.23645309 0.173888 -0.22998187 0.31131425 0.14718397 0.071371794
0.3684498 0.22251521 0.20223075 0.24628416 0.26390064 0.32548067 0.17998518 0.3408521
-0.21195987 -0.30074784 0.2542092 -0.17339449 0.49509174 -0.015310695 0.26928064 0.17224233
0.13825896 0.20730494 0.1729781 0.2988212 0.24611744 0.3487843 0.23295732 0.0768237
0.26023394 0.2539203 -0.26760787 0.35587183 -0.27573752 0.30881813 -0.19923885 0.24754442
0.16165556 0.18345095 -0.29389223 0.033115543 0.21763755 0.2620099 0.42670423 0.3038157
0.17408755 1.5757803 0.4090152 0.1634477 0.18321285 0.15112941 0.3650119 -0.23507942
0.22769289 0.19182406 -0.6773893 0.3737018 0.48905843 1.1743953 0.30200383 0.32044002
-0.26953647 0.15885976 -0.21723446 0.16558643 0.19449514 0.14080232 0.13662273 0.17661843
0.17520598 0.64564925 0.24918517 0.28105855 0.11930028 1.58145 0.34404945 0.14992811
0.110062994 0.36911306 0.37090743 0.3183277 -0.16341244 0.11738267 0.3679532 -0.18342122
0.1873432 0.4222714 0.2978146 0.30568212 0.31610444 0.19267185 0.46124774 0.15750986
0.14171512 0.16793033 0.20735626 -0.010324316 0.110596836 -0.31475025 -0.35505605 -0.08104439
0.387094 0.18718517 -0.2266639 0.26612678 0.4166636 0.2893331 0.14147696 0.19889271
0.23362087 0.2544784 0.21022807 0.34040433 0.115337834 0.2747043 0.2801148 0.13507114
0.48433256 0.21881363 0.20123997 0.2401969 0.36819726 0.27080578 0.26662743 0.30916256
0.1574204 0.32253298 -0.23209804 -0.0433352 0.4027003 0.3163149 0.46177566 0.10066679
0.17536612 0.23445012 0.11586995 0.19001499 0.36235008 0.19365215 0.31322876 0.21487442
-0.21584171 0.31077906 0.26772958 0.3860856 0.23518369 0.24759735 -0.11038477 0.17639904
0.26544443 -0.29926413 0.30051076 0.23398483 1.4067315 0.23580252 0.3197292 0.096791945
0.23187107 0.14189494 0.29062343 0.14433508 0.14453734 -0.010341815 0.16363841 0.24467757
0.045932226 0.099813625 0.7378226 0.19908424 -0.12862809 0.36841688 -0.232115 0.21262187
0.33516032 -1.5429864 0.30909303 0.255447 0.31349254 0.34407356 0.29843843 0.24051316
0.2752865 -0.2693198 0.29206046 0.2333636 0.2813028 -0.14520818 -0.39036506 0.25344944
0.19855635 0.20298639 0.22462729 0.28521037 0.25030643 1.1355035 0.238642 0.70519245
0.28547797 0.23616141 0.30417442 0.2869087 0.17643237 0.32257137 0.21027476 0.16688979
0.24668285 0.148611 0.3240076 0.11609322 0.25078544 0.20334929 -0.1813489 0.1774886
0.17024526 0.24428879 -0.19361545 0.4484777 0.27835786 0.18604891 0.24164294 0.83655304
0.21823385 0.18089947 -0.25738645 0.24128793 0.23970865 0.41188064 0.27986684 0.20884012
-0.023432396 -0.27327558 0.30722997 -0.09243134 0.26068434 0.18421574 0.39412153 0.4432349

net.4.weight f4 [27, 256]
00000000: a600 5e3e cc0f fa3e d3f3 f93e 238f d53e
00000010: 4360 da3e 27af e63e c371 083f 054a f53e
00000020: bfad 84bf 3dd6 093f a1c6 023f e639 063f
00000030: 0d4c 023f 2796 bd3e 4863 d73e 4a62 cc3e
00000040: bfa2 d53e 8399 e73e 5e22 ef3e b778 de3e
00000050: ca04 103f bd3c a23e 0129 e53e 34c5 083f
00000060: 8202 be3e b353 e13e d693 ea3e 0d78 ab3e
00000070: e379 a03e 681d c93e 2125 e83e 872e b93e
00000080: be08 0e3f 590e ee3e f66d cb3e 2f06 df3e
00000090: 0e54 0f3f 5084 57bd 3cd5 d83e 189f 9e3e
000000a0: 218a f83e ca61 c13e 0127 f53e 5fbf cd3e
000000b0: 19b5 c93e 46bf db3e e26b 113d 8ac0 e63e
000000c0: 8c94 d63e 72b8 cc3e 481b 093f 955d e33e
000000d0: 79fb 0b3f f3aa 6f3f 4063 063f cbbd e73e
000000e0: 8d90 bd3e 4056 e73e 1f03 eb3e dd17 953e
000000f0: db47 d73e 679a d83e 129a 053f ed23 cf3e
00000100: 023e d83e fb19 76bf 0fcc a03e d9c1 ee3e
00000110: c7e3 b73e 45bf fc3e e89b b73e a643 dc3e
00000120: de23 e03e ae72 aa3e d1eb 193f 66ca ec3e
00000130: 5e38 223e 2125 15bf 0dae bb3e c0c6 b23e
00000140: 7aed 033f 2e38 be3e 06d3 023f 9ebf c33e
00000150: 22de b73e c2ab bf3e e851 eb3e 4cf0 e13e
00000160: 53dc e23e f1ed 80bf 9b7c 073f 6fa8 8e3e
00000170: b7a2 e43e e369 70bf 9190 e83e 2f86 393e
00000180: 1cd4 013f 98ad aa3d 26b7 393e a85f c53e
00000190: 2635 dc3e 5072 a73e 5ccd 003f c602 da3e
000001a0: 35bb c93e 1382 853e fb60 d73e 1c6c c83e
000001b0: 8574 db3e 6b02 dc3e 1a26 dfbc 6550 e63e
000001c0: 4b9a c73e 79fb 033f 919e fa3e f80f 58bc
000001d0: 5bc1 da3e ecf6 e23e cd89 1e3f a4a4 eb3e
000001e0: 46ba 1fbd 2aba 803e 58b1 0c3f 2992 c03e
000001f0: 2847 b43e e4ec b23e 7299 ec3e eee6 d23e
00000200: 060d bb3e a1ea be3e 85a0 a23e 3b8d d53e
00000210: 8536 d83e 0f62 ee3e bf4b 813e a04b b33e
00000220: 0bd3 883e 89af fa3e eebb ee3e f529 e53e
00000230: 35b0 d23e 35b3 553e 680f ae3e 789a c93e
00000240: 1988 ec3e c46a 023f 8ad1 f83e 5c94 9b3e
00000250: 6c8b ee3e 1f71 cf3e c640 393f 4a81 b03e
00000260: c3b2 b23e 92a7 cb3e 912a ba3e 3395 e13e
00000270: a835 d63e 55db f43e a5f2 bf3e 2f92 bf3e
00000280: 39a9 013f 891c bc3e cdbd af3e 8283 b23e
00000290: f96d d03e 7748 e73e 81b1 0a3f 9d8f f23e
000002a0: 57c5 e83e 8199 df3e d617 c83e dc89 f23e
000002b0: e871 8abf 2567 bd3f f463 b93e 1e93 923f
000002c0: 4bfe da3e b5b8 fa3e 0eff cd3e ed42 df3e
000002d0: bfe8 da3e de51 a23f 94f8 d83e 9923 b33e
000002e0: 3434 e03e b6a2 c13e e4f2 67bf 74ce d93e
000002f0: 7c30 ea3e 8f82 573e 9bd7 063f 085a f33e
00000300: b98b ae3e d625 4d3e 6711 c13e 6f66 863e
00000310: 11df e83e 0aa6 e53e 4591 da3e dcd7 dd3e
00000320: caef d53e 4838 063f 4edc d33e d53e f43e
00000330: ffcd ed3e 812d ef3e 5221 f33e 81eb f93e
00000340: decc b93e 7488 b93e 7091 dc3e 2391 d83e
00000350: 555b e03e 799d 55bf bcb5 cb3e 1f00 97bd
00000360: 62a3 d73e 8d1b d73e afea a73e cf01 b53e
00000370: 34d0 cc3e 69a4 b73e a096 f93e 8e7a d83e
00000380: 5368 a63e 739b fa3e 3701 c23e 62b3 973f
00000390: 20a5 8f3e 97d3 e83e e7c2 fd3e 9adf f73e
000003a0: 7838 c63e 06f0 db3e 7214 e33e b70f 683e
000003b0: 69f1 c73e 37b8 c03e 1659 c63e 03e0 673d
000003c0: 50f6 be3e 5147 fe3e 8478 123f 8861 bd3e
000003d0: 8086 cb3e 0d51 ac3e 02fb e73e 2675 b93e
000003e0: 5065 753f c60b 0a3f 025b c03e e54f ec3e
000003f0: b88d d33e 1231 df3e a022 dc3e 43cd 5bbd
0.21679935 0.48840177 0.48818836 0.41710767 0.42651567 0.45055506 0.53298587 0.47908035
-1.0365523 0.53842527 0.51084334 0.52432096 0.50897294 0.3702862 0.42067933 0.3991874
0.41725728 0.45234308 0.46705908 0.43451473 0.5625731 0.31686965 0.44757846 0.5342591
0.37111288 0.4400917 0.45815915 0.3349003 0.31342992 0.39280248 0.45340827 0.3616831
0.5548209 0.4649532 0.3973233 0.43559405 0.5598763 -0.052616417 0.42350185 0.30980754
0.48542884 0.3776992 0.4788132 0.40185067 0.3939598 0.42919368 0.035503276 0.4506877
0.41910207 0.3998447 0.5355725 0.44407335 0.5468059 0.9362022 0.52495193 0.45261988
0.37024346 0.4518299 0.4590082 0.2911977 0.4204701 0.423053 0.5218822 0.40457097
0.42234808 -0.96133393 0.31405684 0.4663227 0.35915968 0.49364677 0.35861135 0.43020362
0.43777364 0.3329062 0.6012545 0.46248168 0.15841815 -0.5825978 0.36656228 0.3491726
0.51534235 0.37152237 0.51103246 0.3823213 0.3591166 0.37435728 0.45960927 0.44128644
0.4430872 -1.0072614 0.5292451 0.2786288 0.44655392 -0.9391157 0.45422795 0.18117593
0.5071428 0.08333892 0.18136272 0.38549542 0.430093 0.327044 0.50313354 0.4258024
0.3940064 0.260758 0.42066178 0.3914498 0.42862335 0.42970595 -0.027239848 0.4498321
0.38984904 0.5155559 0.48949102 -0.013187401 0.42725644 0.4432901 0.6192902 0.46024048
-0.038996004 0.25142032 0.54958105 0.3761151 0.35210538 0.34946358 0.4621082 0.4119181
0.36533374 0.37288383 0.31763092 0.41709313 0.42229095 0.46559188 0.25253102 0.35018635
0.26723513 0.48962048 0.46627754 0.44758573 0.4115006 0.20869143 0.3399613 0.39375663
0.46197584 0.5094416 0.48597366 0.30386627 0.46590745 0.40515992 0.7236446 0.3447364
0.3490201 0.39776284 0.363606 0.44059142 0.4183781 0.47823587 0.3748981 0.37416217
0.5064884 0.3674052 0.34324494 0.34865957 0.40708902 0.45172474 0.541771 0.47375193
0.45463058 0.43671802 0.39080685 0.47370803 -1.0816011 1.4797102 0.3620907 1.1451147
0.42772135 0.48969045 0.40233654 0.43605748 0.42755696 1.2681234 0.4237715 0.34988096
0.43789828 0.3781945 -0.90604997 0.42540324 0.45740116 0.21045898 0.5267274 0.47529626
0.34090975 0.20033965 0.3770859 0.26250026 0.45482686 0.4485324 0.42688957 0.4332875
0.41784507 0.5242963 0.41379017 0.47704187 0.46446225 0.46714404 0.4748636 0.48812488
0.36289114 0.36236918 0.4307971 0.4229823 0.4381968 -0.8344341 0.3978709 -0.0737307
0.4211684 0.42013207 0.32796237 0.35352942 0.40002596 0.35867622 0.4874773 0.42281002
0.32501468 0.48946723 0.37891552 1.1851618 0.28055668 0.4547393 0.4956276 0.48412782
0.38714957 0.4295656 0.44351536 0.22662245 0.3905137 0.37640545 0.38739842 0.05661012
0.37297297 0.49663785 0.5721514 0.36988473 0.39751053 0.33655587 0.4530869 0.3622219
0.95857716 0.53924215 0.37569433 0.46154705 0.4131906 0.43592125 0.42995167 -0.05366255

net.4.bias f4 [27]
00000000: 7dd4 b3bc c59d 193e 9125 4cbd d505 933c
00000010: 1474 1b3d f263 b93d 45e9 bc3c 18f6 503e
00000020: 67f6 9cbd 84a8 be3e 0f1c 913d 3872 113e
00000030: 258f 92bc ac14 2b3e 777e 963d 0423 903d
00000040: c382 52bd 8e71 79bd b616 7d3e 9b5a eb3e
00000050: 9af4 e63e bcb0 fdbb fbd2 683d 6bcc 143e
00000060: 9ad0 32bc 0a50 1e3e 180b 063d
-0.021951908 0.1500159 -0.049840514 0.017947117 0.037952498 0.09052266 0.02306045 0.20406377
-0.07664185 0.37237942 0.0708543 0.14203727 -0.017890522 0.16707104 0.0734834 0.07037929
-0.051394235 -0.06089931 0.24715695 0.45967564 0.4510849 -0.0077420156 0.05684183 0.14531104
-0.010913992 0.1546022 0.032725424
