model/dqn_policy_net_episode_1190.pt (torch, 334295 bytes, 6 tensors)

net.0.weight f4 [128, 336]
0	0x3def95a0	0.116984606
1	0xbdc27092	-0.09494127
2	0x3beebdcd	0.0072858096
3	0x3d3e5c7a	0.04647491
4	0x3cc8ef3d	0.02452814
5	0xbe52488f	-0.20535491
6	0xbdb8860e	-0.09009944
7	0xbdefb97a	-0.11705299
8	0x3e23c1ea	0.15991941
9	0xbda1a31b	-0.07892438
10	0xbd644d60	-0.055737853
11	0xbda59ee5	-0.08086947
12	0xbc651fb2	-0.0139846075
13	0xbd74e8fb	-0.0597925
14	0xbd4e0dac	-0.050306007
15	0xbd00a194	-0.031404093
16	0xbdf2d22b	-0.118564926
17	0xbc639b23	-0.013891968
18	0x3d62d68c	0.05538039
19	0xbe0033a1	-0.12519695
20	0x3d8046d1	0.06263507
21	0x3de07358	0.109595
22	0xbe2067a3	-0.15664534
23	0xbce1c630	-0.027560323
24	0xbe393c12	-0.18089321
25	0xbcfed519	-0.031107472
26	0xbd7cc3ab	-0.06171004
27	0x3c8b1910	0.016979724
28	0x3cf73299	0.030175494
29	0xbd924f00	-0.07143974
30	0x3cc4caf2	0.024022553
31	0x3dd52577	0.104075365
32	0xbec2c806	-0.3804323
33	0xbbcee968	-0.0063144453
34	0x3bdc2992	0.0067188228
35	0xbccec656	-0.025241058
36	0x3bf1c7d1	0.0073785563
37	0x3dd08d02	0.10183145
38	0xbab23063	-0.0013594743
39	0xbdc83eac	-0.09777579
40	0xbd460488	-0.048344165
41	0xbdf5c586	-0.12000565
42	0xbd437f7b	-0.047728997
43	0x3c910c68	0.017706111
44	0x3ba63c42	0.0050731013
45	0x3d679cd0	0.056546032
46	0xbe230e1e	-0.15923354
47	0x3d602201	0.05471993
48	0xbdc7c03e	-0.09753464
49	0x3e49a6e9	0.19692577
50	0x3c32ec8a	0.010920653
51	0xbd4f2f93	-0.05058248
52	0xbc9df61a	-0.01928239
53	0x3cd43c8d	0.02590778
54	0x3dd66415	0.10468308
55	0x3cb01e40	0.0214988
56	0x3e37fc5e	0.17967364
57	0xbc7b0d2c	-0.015322965
58	0xbc8165aa	-0.015795548
59	0xbda2f4cc	-0.079568475
60	0x3d373c0e	0.044735007
61	0xbd41baae	-0.047297172
62	0xbe0e3d44	-0.13890558
63	0xbcd8b77f	-0.026454685
64	0xbdd67215	-0.10470978
65	0x3bc17e99	0.005904984
66	0xbd92b1c3	-0.071628116
67	0xbd3f8d6d	-0.046765734
68	0xbca5d79c	-0.020244412
69	0x3d3be865	0.045875926
70	0xbd2310fa	-0.039811112
71	0xbdb967f1	-0.090530284
72	0xbe1d3974	-0.15353948
73	0x3d83c82d	0.06434665
74	0x3e206402	0.1566315
75	0x3e0bf773	0.13668613
76	0xbd95d429	-0.07315857
77	0x3b967aac	0.0045922603
78	0xbe5e767e	-0.21724889
79	0x3cbae50a	0.022814292
80	0x3e54acee	0.20769092
81	0xbe49225f	-0.19642018
82	0x3da2d5da	0.07950945
83	0x3c8cc213	0.017182386
84	0xbe56ba83	-0.20969586
85	0xbe04942b	-0.12947147
86	0xbc68d38f	-0.014210596
87	0xbdadfef1	-0.08495892
88	0x3d990844	0.0747228
89	0xbda40b81	-0.08010007
90	0x3ce4fb0f	0.027951745
91	0xbd69ea4f	-0.05710822
92	0x3c896dc4	0.016775973
93	0xbe067050	-0.13128781
94	0xbc9955d9	-0.018717693
95	0xbcfba189	-0.030716674
96	0x3e8ee5be	0.27909654
97	0xbd86c630	-0.0658077
98	0x3cd99498	0.026560113
99	0xbd2811d4	-0.041032627
100	0xbdac37fc	-0.08409116
101	0xbbe66842	-0.0070314715
102	0xbdbaf05e	-0.09127878
103	0x3c6b480a	0.014360437
104	0xbf36b016	-0.71362436
105	0x3dfb1ef5	0.12261764
106	0x3e3af827	0.18258725
107	0x3d50a68e	0.05094009
108	0x3e62d58e	0.22151777
109	0x3e24c786	0.16091737
110	0xbdd58166	-0.104250714
111	0x3d66dc11	0.056362215
112	0x3d9eb447	0.07749229
113	0xbc494fde	-0.012287108
114	0x3dc9e216	0.098575756
115	0xbd1b9e60	-0.037992835
116	0xbd90a4dd	-0.07062695
117	0xbd7ec33a	-0.0621979
118	0xbd9aa08e	-0.075501546
119	0x3ce31100	0.027718067
120	0xbf932dca	-1.1498349
121	0x3ddd5d77	0.10808843
122	0x3dc4ed7b	0.09615608
123	0xbd81d130	-0.063387275
124	0x3d286114	0.041108206
125	0x3c92bd32	0.017912481
126	0x3dfea96a	0.12434657
127	0x3c47f305	0.012203936
128	0x3ea3afff	0.31970212
129	0xbdd97f22	-0.10619952
130	0xbd2e77b8	-0.04259464
131	0xbdd37102	-0.10324289
132	0xbe843967	-0.25825045
133	0xbe022f79	-0.12713422
134	0xbdd0004f	-0.10156309
135	0x3d9758d9	0.07389993
136	0xbecb8751	-0.39751676
137	0x3db686e8	0.0891245
138	0xbd724e71	-0.05915684
139	0x3cfc7c61	0.030821027
140	0xbdd6f482	-0.10495855
141	0xbd43a2d3	-0.047762703
142	0x3e1b6ff1	0.15179421
143	0x3dabac48	0.083824694
144	0x3ec9b047	0.393923
145	0xbd532d26	-0.05155673
146	0x3d4ff361	0.050769214
147	0xbe8a7e5c	-0.2704953
148	0x3d215bcc	0.039394185
149	0xbd3912b3	-0.04518385
150	0xbdb771ea	-0.08957274
151	0xbdd8f74a	-0.10594042
152	0x3dee76fe	0.1164379
153	0xbdd3f331	-0.103491195
154	0xbd89900c	-0.06716928
155	0xbd01013d	-0.03149532
156	0xbd462c48	-0.048382074
157	0x3d54c804	0.051948562
158	0x3d53a64d	0.05167227
159	0xbd5043cd	-0.05084591
160	0x3ceb06fd	0.028689856
161	0xbd85890c	-0.0652028
162	0xbccc4a75	-0.024937848
163	0x3e02a657	0.12758766
164	0xbdcc2640	-0.09968233
165	0xbddc4ae1	-0.107564695
166	0xbddc1fcf	-0.107482545
167	0xbc583f78	-0.013198726
168	0x3f1a7127	0.60328907
169	0xbe81faa0	-0.25386524
170	0xbe395c63	-0.18101649
171	0xbd663778	-0.056205243
172	0xbe2682b6	-0.162608
173	0xbe7ab234	-0.24482042
174	0xbe098a44	-0.1343165
175	0xbde4248f	-0.111397855
176	0x3ef8dcc4	0.4860593
177	0x3e45c6a0	0.1931405
178	0xbd2c815c	-0.042115554
179	0xbe73d4ba	-0.23811617
180	0x3c8a1b59	0.016858744
181	0xbdd7773f	-0.10520791
182	0xbd720b2b	-0.05909268
183	0xbdec819c	-0.115481585
184	0x3f53ce61	0.82736784
185	0x3e01b46a	0.12666479
186	0xbe16adbc	-0.14714712
187	0xbdb0b6a1	-0.08628584
188	0xbdff601e	-0.12469505
189	0xbe2c0068	-0.1679703
190	0xbdde7f78	-0.108641565
191	0x3d9337a1	0.07188345
192	0xbf485b27	-0.7826409
193	0x3dd83963	0.10557821
194	0x3deb2911	0.11482442
195	0x3dea2c55	0.11434237
196	0x3e07ec28	0.1327368
197	0x3ebb6c34	0.3660599
198	0x3e85e26c	0.2614931
199	0x3e8794e9	0.26480797
200	0x3f2b189f	0.66834444
201	0xbcc988b6	-0.024601322
202	0xbd316555	-0.04330953
203	0xbdf716e8	-0.12064916
204	0x3d5434df	0.051808234
205	0xbe21770a	-0.15768066
206	0xbe1e38c3	-0.1545134
207	0x3e4982ab	0.19678752
208	0xbfd2adef	-1.645933
209	0x3e94f0cc	0.29089963
210	0x3ea3a9de	0.31965536
211	0x3ebe445a	0.37161523
212	0x3e6f2d1e	0.23357055
213	0x3e6b6de2	0.22991136
214	0x3defefc2	0.11715652
215	0x3e4d7c9b	0.20067064
216	0x3f2b0ac5	0.6681331
217	0xbd378489	-0.04480413
218	0x3a9b472b	0.0011846771
219	0xbdb7c03a	-0.08972211
220	0xbdeb6a90	-0.114949346
221	0xbe164442	-0.14674476
222	0xbdd87dba	-0.105708554
223	0x3d928413	0.071540974
224	0xbf20902f	-0.62720007
225	0x3e8c363b	0.27385125
226	0x3dfd666d	0.12373052
227	0x3e9fdf3d	0.31225005
228	0x3d9fcfca	0.078033045
229	0x3e16c031	0.14721753
230	0xbe70db47	-0.23521148
231	0x3e5fec60	0.21867514
232	0x3f1d7262	0.6150266
233	0x3e0180d6	0.12646803
234	0xbdc9bf18	-0.09850901
235	0xbddc6cf3	-0.10762968
236	0x3d2ce226	0.04220786
237	0xbd9b214f	-0.075747125
238	0x3d490e43	0.049085867
239	0xbd1f4a58	-0.03888926
240	0x3f398641	0.7247048
241	0x3da14aca	0.07875593
242	0x3d68a102	0.056794174
243	0xbd30c791	-0.04315907
244	0xbcddc81e	-0.027072962
245	0xbdfdef4d	-0.123991586
246	0xbda92a32	-0.08260001
247	0xbe1f4f34	-0.15557557
248	0xbf73755f	-0.9510097
249	0x3eb1f3e0	0.34756374
250	0x3d82cf44	0.06387189
251	0x3ea6c94b	0.3257545
252	0x3d1f5695	0.03890093
253	0x3e90a162	0.28248125
254	0xbc09a767	-0.008401728
255	0x3ee90e87	0.45518896

net.0.bias f4 [128]
0	0x3e00fb91	0.12595965
1	0x3dfd0711	0.123548634
2	0x3da03d2f	0.0782417
3	0x3dc703a1	0.09717489
4	0x3e5b6fda	0.21429387
5	0x3d65d9de	0.056115977
6	0x3ed18690	0.40922976
7	0x3e3cf853	0.18454103
8	0x3bc7aa53	0.0060933023
9	0x3e331694	0.17489082
10	0x3df4d105	0.1195393
11	0x3d5b631b	0.05356131
12	0x3df491a7	0.119418435
13	0x3dd46452	0.10370697
14	0x3ddf1d2e	0.108942375
15	0x3df58d43	0.11989834
16	0x3d82e6a6	0.06391649
17	0x3e3a168f	0.18172668
18	0x3e11d31c	0.14240688
19	0x3d939da0	0.07207799
20	0x3dc4c2e7	0.09607487
21	0x3d41dd69	0.047330294
22	0x3e8cea95	0.27522722
23	0x3de57d9c	0.11205599
24	0x3e352ec6	0.17693624
25	0x3e07047f	0.13185309
26	0x3dee3715	0.116316
27	0x3e39b412	0.18135098
28	0x3de95521	0.1139319
29	0x3ebf458b	0.37357745
30	0x3e419ae3	0.18906741
31	0x3dfe659c	0.12421724
32	0x3e1058c1	0.14096357
33	0x3db51fdb	0.088439666
34	0x3e061dec	0.13097352
35	0x3d84f25f	0.06491541
36	0x3dd08c4f	0.10183012
37	0x3e283c85	0.16429336
38	0x3e477c20	0.19480944
39	0x3e0ba15b	0.13635771
40	0xbd8a7f15	-0.0676252
41	0x3da84101	0.082155235
42	0x3d7a7f98	0.06115684
43	0x3dee4e83	0.11636069
44	0x3da50ff8	0.080596864
45	0x3e29076d	0.16506739
46	0x3dbb4f8e	0.09146033
47	0x3e3f6eb5	0.18694575
48	0x3e043ebb	0.12914555
49	0x3e1d7324	0.15375954
50	0x3ccd0829	0.025028305
51	0x3e02c2c9	0.12769617
52	0x3d452346	0.048129342
53	0x3da567fe	0.080764756
54	0x3e025c95	0.1273063
55	0x3de0bf35	0.1097397
56	0x3dfb013d	0.122560956
57	0xbd702d1b	-0.058636766
58	0x3e5d4705	0.21609123
59	0x3dedfe9c	0.116208285
60	0x3e1cc7a3	0.1531053
61	0x3df275f0	0.11838901
62	0x3d0e5802	0.0347519
63	0x3dfb4779	0.12269492
64	0x3e1eca26	0.15506801
65	0x3e16a38d	0.14710827
66	0x3e7501e7	0.23926507
67	0x3df2db2f	0.11858212
68	0x3de60756	0.11231868
69	0x3d16ffcd	0.036865044
70	0x3e1b15cb	0.15145032
71	0x3e31a868	0.17349398
72	0x3e3cfe24	0.18456322
73	0x3e089293	0.13337164
74	0x3e00aab0	0.12565112
75	0x3ea2b66d	0.31779805
76	0x3e12c879	0.14334287
77	0x3e2c3995	0.16818841
78	0x3e1b712e	0.15179893
79	0x3e087e34	0.13329393
80	0x3da0e143	0.07855465
81	0x3f6faebe	0.9362601
82	0x3e3ec21b	0.18628733
83	0x3e90ef18	0.28307414
84	0x3e150202	0.14551547
85	0x3e0d49b3	0.13797645
86	0x3e319339	0.17341317
87	0x3d33564c	0.04378347
88	0x3eb8d7e5	0.36102214
89	0x3e1b032f	0.15137933
90	0x3dec8881	0.115494736
91	0x3da45260	0.08023524
92	0x3e120883	0.1426106
93	0x3ca6ab43	0.020345336
94	0x3e70942f	0.23494028
95	0x3daa07b5	0.08302251
96	0x3cb0e13f	0.02159178
97	0x3e2bce0f	0.16777824
98	0x3de3d236	0.11124079
99	0x3d93bf35	0.07214204
100	0x3e2264c6	0.15858755
101	0x3e9cc2e8	0.30617452
102	0x3dab2484	0.08356574
103	0x3e3ef184	0.18646818
104	0x3d992b1c	0.074789256
105	0x3de43c7b	0.11144348
106	0x3e0d680d	0.13809223
107	0x3d9b39f5	0.07579414
108	0x3de914d3	0.11380925
109	0x3e068c27	0.13139401
110	0x3cd684fe	0.026186462
111	0x3e2dc4ed	0.16969652
112	0x3d58542d	0.05281465
113	0x3e429d5f	0.19005345
114	0x3e0cdf31	0.13757016
115	0x3d85dd40	0.06536341
116	0xbcfac375	-0.03061078
117	0x3e84e089	0.25952557
118	0xbdb30c21	-0.08742548
119	0x3e396cfc	0.1810798
120	0x3de8b42e	0.113624915
121	0x3e16c559	0.1472372
122	0x3e5e76dc	0.21725029
123	0x3e434dd9	0.19072665
124	0x3e17eb77	0.14835916
125	0x3db0afe2	0.08627297
126	0x3d92a8f6	0.07161133
127	0x3e080587	0.13283359

net.2.weight f4 [256, 128]
0	0x3f953455	1.1656595
1	0x3d73ad6c	0.05949156
2	0x400d0cdc	2.2039099
3	0x3ec2e5a4	0.38065827
4	0xbd7791e1	-0.060441855
5	0x3f1c94c2	0.61164486
6	0x3f36f518	0.71467733
7	0x3fd4e7ec	1.6633277
8	0x402a9041	2.6650546
9	0x3f13d682	0.5774919
10	0x3f609f1c	0.8774278
11	0x3ead1d83	0.33811578
12	0x3d36ed79	0.044660065
13	0x3e47232c	0.19447011
14	0xbe5b6d4b	-0.2142841
15	0x3f747e9c	0.9550569
16	0x3f1c8dce	0.61153877
17	0x3d890b68	0.06691629
18	0x3f12ff75	0.57421046
19	0x3fcdfc9a	1.6092713
20	0x3f8e450e	1.1114824
21	0x3fe2f852	1.7732031
22	0x3aa36232	0.0012465178
23	0x3f5514b0	0.8323469
24	0x3edd77e5	0.43255535
25	0x3e83e1ed	0.25758305
26	0x3f6ce3e5	0.9253524
27	0xbe195252	-0.14972809
28	0x3f036abe	0.5133475
29	0x3dfdd1ca	0.1239353
30	0x3e4cf8df	0.20016812
31	0x3f2b995c	0.6703088
32	0x3f515f2d	0.8178585
33	0x3f131405	0.5745242
34	0x3ef47693	0.47746715
35	0x3f30a712	0.6900493
36	0xbd84ae87	-0.06478601
37	0x3fb3630f	1.4014605
38	0x3fb98e31	1.4496518
39	0x3d2362c7	0.039889123
40	0xbf849d23	-1.0360454
41	0x3ea292ed	0.3175272
42	0x3e00dc23	0.12583975
43	0x3e235049	0.15948595
44	0x3eb24c51	0.3482385
45	0x3ef43745	0.47698417
46	0x3f928d49	1.1449367
47	0x3f9528ab	1.1653036
48	0x3f43b68f	0.7645044
49	0x3e52a6c7	0.20571433
50	0x3f4f09f5	0.8087457
51	0x3fd8adb9	1.6928016
52	0x3f213e4c	0.6298568
53	0x3d4cae5a	0.049970962
54	0x3f21feae	0.63279235
55	0xbe5a6542	-0.2132769
56	0xbeadb7d0	-0.339293
57	0xbf82e111	-1.0224935
58	0x3ea6913a	0.32532674
59	0x3fda1a75	1.7039324
60	0xbd307ece	-0.04308968
61	0x4014f9e7	2.3277528
62	0x3ed065c8	0.40702653
63	0x3f0d2163	0.5512907
64	0x3ceb0449	0.028688567
65	0x3f009df1	0.50241
66	0x3f88ad0f	1.0677813
67	0x3e24d9c3	0.16098695
68	0x3f822ddf	1.0170249
69	0x3f023311	0.5085917
70	0xbe247614	-0.16060668
71	0x3e23180a	0.15927139
72	0x3ea0bca8	0.31393933
73	0x3fa3882d	1.2775933
74	0x3eeb08ad	0.45905057
75	0x3e1d4cb7	0.15361296
76	0x3ebbd777	0.36687824
77	0xbea9f3a2	-0.3319369
78	0x3f6cbd16	0.9247602
79	0x3e903346	0.2816412
80	0x3f2810c2	0.6565057
81	0x3f1001b2	0.56252587
82	0xbf25aa79	-0.64713246
83	0x3e3cea6d	0.18448801
84	0x3f00b6a1	0.5027867
85	0xbe76c3c9	-0.24098124
86	0x3f366573	0.7124855
87	0x3f724dd1	0.9464999
88	0xbe3cdea1	-0.18444301
89	0x3e756087	0.23962604
90	0x3f671c20	0.9027729
91	0x3f261a8e	0.6488427
92	0x3f44bf6a	0.76854575
93	0x3fb99f68	1.4501772
94	0x3f164bc5	0.58709365
95	0x3f086b43	0.5328867
96	0x3f7bc87d	0.98352796
97	0x3dc84a7e	0.09779833
98	0x3f07a7f8	0.52990675
99	0xbf850a7b	-1.0393823
100	0xbdd515cb	-0.10404547
101	0xbe80f159	-0.25184134
102	0x3fbeb96b	1.4900335
103	0x3ea6bafe	0.3256454
104	0x3e9035ad	0.2816595
105	0x3ec54075	0.3852574
106	0x3f09c8d3	0.5382206
107	0x3d2518b6	0.04030677
108	0x3f9a69d0	1.2063541
109	0x3fce80e6	1.6133087
110	0x3ead3e85	0.3383676
111	0x3f1f41db	0.6220986
112	0x3f597e7d	0.8495863
113	0x3f52d90e	0.8236245
114	0x3f142fb0	0.57885265
115	0x3f9fbcd3	1.24795
116	0x400505f3	2.078488
117	0x3e684e0c	0.22686023
118	0xbf8b4724	-1.0881085
119	0x3f6787a3	0.9044134
120	0x3ec17a9b	0.37788853
121	0x3d6a2310	0.057162344
122	0x3ec2ca25	0.3804485
123	0x3f323afe	0.69621265
124	0x4019ae2f	2.4012563
125	0x3e2c82bd	0.16846748
126	0x3f93fea8	1.156209
127	0x3fb6379e	1.4235723
128	0x4011f33e	2.2804713
129	0x3e3e3e9b	0.1857857
130	0x3f256bb9	0.64617497
131	0xbd7c9cdb	-0.061673027
132	0x3f020607	0.50790447
133	0x3f2016a7	0.62534565
134	0xbec10888	-0.3770182
135	0x3f8f905a	1.1215928
136	0x3ea14efc	0.31505573
137	0x3e9f9af7	0.31172916
138	0xbe29f0cb	-0.16595761
139	0x3e39f3c3	0.18159394
140	0x3eacea65	0.3377258
141	0x3f668dad	0.9005993
142	0x3f4c3038	0.79761076
143	0x3fac3b7c	1.3455653
144	0x3ed52c3c	0.4163531
145	0x3f542270	0.8286505
146	0x3e9ce9d6	0.30647153
147	0x3e3fab70	0.18717742
148	0x3fc955fe	1.5729368
149	0x3f75361b	0.95785683
150	0x3f35d9f4	0.71035695
151	0x3f4b864e	0.7950181
152	0x3f1f15d8	0.62142706
153	0x3f123cd6	0.5712408
154	0x3f6fb76d	0.9363926
155	0x3eeefca3	0.46677122
156	0x3e886274	0.26637614
157	0x3f01ec2e	0.50751007
158	0x3dfc0d04	0.1230717
159	0x3fe690f0	1.8012981
160	0x3f0a6056	0.54053247
161	0x3f74f312	0.95683396
162	0x3f449967	0.76796573
163	0x3e8066ec	0.25078523
164	0x3f8444b7	1.033347
165	0x3f9dda41	1.2332231
166	0x3f829a03	1.0203251
167	0x3f1ddb78	0.6166301
168	0xbfa67995	-1.3005854
169	0x3ef655b3	0.48112258
170	0x3ed813c3	0.42202577
171	0x3f4138f4	0.7547753
172	0x3f1b68eb	0.6070697
173	0x3f358634	0.709079
174	0x3feaf1b9	1.8355018
175	0x3f21aa45	0.63150436
176	0x3fe31f4d	1.7743927
177	0x3e7fa242	0.2496424
178	0x3cc6b68b	0.024256965
179	0x3f6669a8	0.9000497
180	0x3f33bae5	0.70207053
181	0x3ea7354c	0.3265785
182	0x3f33a34d	0.7017105
183	0x3f04907c	0.51782966
184	0x3f687d2d	0.90816003
185	0xbf9bba9c	-1.2166324
186	0xbd21a29f	-0.03946173
187	0x3fbd9772	1.4811842
188	0x3d56be19	0.052427385
189	0x3ea4993c	0.3214816
190	0x3e261b44	0.16221339
191	0x3eff8b88	0.4991114
192	0xbe16e5cf	-0.14736103
193	0x3e25819f	0.16162728
194	0x3fba4b3b	1.4554209
195	0x3eb20048	0.3476584
196	0x3fe78064	1.8086057
197	0xbed130ff	-0.40857694
198	0x3f7136fb	0.9422452
199	0x3f482f48	0.78197145
200	0x3f59fefe	0.8515471
201	0x3eb2c9f6	0.3491971
202	0x3e275b4a	0.16343418
203	0x3edf8979	0.4365957
204	0x3f654875	0.89563686
205	0x3f210fb8	0.6291461
206	0x3f1eb4f1	0.61994845
207	0x3f81a383	1.0128025
208	0x3f611c49	0.87933785
209	0xbe71ea46	-0.23624524
210	0x3ef016fb	0.46892533
211	0x3ea9c188	0.33155465
212	0x3f3acf9f	0.72973055
213	0x3ec7b035	0.39001623
214	0x3e4bdd8c	0.19908732
215	0x3ed7f5bf	0.42179677
216	0x3f5bab24	0.85808015
217	0x3f42bd72	0.7607032
218	0x3d3a70f6	0.045517884
219	0x3eee87c5	0.4658796
220	0x3d30f113	0.043198656
221	0xbf0cacfe	-0.54951465
222	0xbe91777a	-0.28411466
223	0x3ee0cecd	0.43907776
224	0xbbeaa3c9	-0.007160638
225	0x3f723a6a	0.9462038
226	0x3f5ef511	0.8709269
227	0x3f8d523f	1.1040725
228	0x3f6ff1b3	0.9372818
229	0x3f094779	0.53624684
230	0x3fca7925	1.581822
231	0x3f540c8d	0.8283165
232	0x3f1c0eef	0.60960287
233	0x3ee0d4f8	0.43912482
234	0x3ea6bc47	0.3256552
235	0x3f3109ce	0.69155586
236	0x3dafe2c7	0.08588176
237	0x3f756d10	0.9586954
238	0x3f5e02e2	0.8672315
239	0x3bf0ddf0	0.0073506758
240	0x3dd29b5f	0.10283541
241	0x3ff8d755	1.9440714
242	0x3f680402	0.90631115
243	0xbc8a315e	-0.016869243
244	0xbf43cf41	-0.7648812
245	0x3e5cd43a	0.21565333
246	0xbfa3b39f	-1.2789191
247	0x3f90dbd5	1.1317087
248	0x3f854df4	1.0414414
249	0x3f0feb42	0.5621835
250	0x3ec9683f	0.39337346
251	0x3f1da290	0.61576176
252	0xbd0570fb	-0.03257845
253	0x3f04e1f6	0.5190729
254	0x4012c3cf	2.2932012
255	0x3fd8ef18	1.6947966

net.2.bias f4 [256]
0	0x3e9f1bc2	0.31075865
1	0x3e86e230	0.26344442
2	0x3dc2faf5	0.095205225
3	0x3e62bbf4	0.22142011
4	0x3e5ed905	0.21762474
5	0x3e9473e7	0.28994676
6	0xbeab1c6e	-0.33420128
7	0x3e73f761	0.23824836
8	0x3fc31a01	1.5242311
9	0xbe5ee3f3	-0.21766643
10	0xbe697284	-0.2279759
11	0x3d8550a5	0.06509522
12	0x3e7525c8	0.23940194
13	0x3e255819	0.16146888
14	0x3e3f12da	0.18659535
15	0x3e2fe791	0.1717818
16	0x3e6c1d99	0.23058166
17	0x3e3ed0d0	0.18634343
18	0xbe8337f1	-0.25628617
19	0x3e03d4f1	0.128742
20	0xbe868ad8	-0.26277804
21	0x3e87f913	0.26557216
22	0x3dcb45d0	0.09925425
23	0x3cdd0b59	0.02698295
24	0x3ebb7301	0.3661118
25	0x3e3569b0	0.17716098
26	0x3e1c992c	0.15292805
27	0x3e467ffb	0.19384758
28	0x3e7b8d98	0.24565732
29	0x3e8bdc4b	0.27316508
30	0x3e04bc56	0.1296247
31	0x3e94a445	0.29031578
32	0xbe83285e	-0.25616735
33	0xbe9cba23	-0.3061076
34	0x3e50ea8d	0.20401974
35	0xbe39c143	-0.1814013
36	0x3eebec7e	0.46078867
37	0xbc7ad9b6	-0.015310695
38	0x3e620e42	0.22075751
39	0x3e0403de	0.128921
40	0x3dbfa503	0.09357645
41	0x3e253539	0.16133584
42	0x3e07788d	0.1322958
43	0x3e82d6c7	0.25554487
44	0x3e479669	0.1949097
45	0x3e9b7fbc	0.3037089
46	0x3e7606d1	0.24026038
47	0x3cdf86db	0.027285984
48	0x3e566f09	0.20940794
49	0x3e542186	0.20715913
50	0xbe9d2ed6	-0.30699795
51	0x3e9cb05a	0.30603296
52	0xbe997a88	-0.29976296
53	0x3e8dcf3b	0.27697167
54	0xbe7ac095	-0.24487527
55	0x3e52c7b8	0.20583999
56	0x3de7db50	0.113211274
57	0x3e0b6205	0.1361161
58	0xbea0a12f	-0.31372973
59	0x3c0f5ed3	0.008750635
60	0x3e32bfab	0.17455928
61	0x3e5bc32d	0.21461172
62	0x3ed286dd	0.41118518
63	0x3e83e48e	0.2576031
64	0x3dfe9fd0	0.124328256
65	0x3fbbc59c	1.466968
66	0x3eb60a07	0.35554525
67	0x3debc377	0.11511891
68	0x3e0b1bf8	0.13584888
69	0x3dda9104	0.10672191
70	0x3e9ef2a9	0.3104451
71	0xbe8957ae	-0.26824707
72	0x3e35d0f0	0.17755485
73	0x3e1310d0	0.14361882
74	0xbf1d7f3f	-0.6152229
75	0x3ea5dd21	0.3239527
76	0x3edc79a7	0.43061563
77	0x3f91136e	1.1334054
78	0x3e81a2c7	0.25319502
79	0x3e8a0898	0.26959682
80	0xbe90babf	-0.28267476
81	0x3e198e44	0.14995676
82	0xbe77c50a	-0.24196258
83	0x3dea5c78	0.11443418
84	0x3e11380b	0.14181535
85	0x3db70d77	0.08938115
86	0x3dc59cb0	0.096490264
87	0x3e047d41	0.12938406
88	0x3e095465	0.134111
89	0x3f20b310	0.6277323
90	0x3e5604bc	0.20900244
91	0x3e623cc8	0.22093499
92	0x3d97abee	0.0740584
93	0x3fbbabc1	1.466179
94	0x3ea5d19c	0.32386482
95	0x3de085f1	0.10963047
96	0x3d96ab0b	0.073568426
97	0x3ea585e0	0.323287
98	0x3eac822e	0.3369307
99	0x3e8a4216	0.27003545
100	0xbe4e2db9	-0.2013463
101	0x3dcb0d85	0.09914688
102	0x3ec49811	0.38397267
103	0xbe4890c6	-0.19586477
104	0x3e0d2f67	0.13787614
105	0x3ecc93c9	0.399565
106	0x3e7de5c3	0.24794678
107	0x3e872241	0.2639332
108	0x3e8b10e1	0.27161315
109	0x3e118b94	0.14213401
110	0x3ee290f7	0.44251224
111	0x3de5b3f3	0.11215963
112	0x3dbe138a	0.092810705
113	0x3dffad53	0.12484231
114	0x3e25d0f5	0.16192992
115	0xbc292752	-0.010324316
116	0x3d8391de	0.06424306
117	0xbea339c4	-0.3188001
118	0xbeab8c9d	-0.33505717
119	0xbe07defe	-0.13268659
120	0x3ec1e2f9	0.3786848
121	0x3e402bf3	0.18766765
122	0xbe6e667f	-0.23281287
123	0x3e56058b	0.20900552
124	0x3ec59b71	0.38595155
125	0x3e7aeff4	0.24505597
126	0x3dbcaa76	0.092122
127	0x3e1a5141	0.15070058
128	0x3e3f67ec	0.18691987
129	0x3e52886e	0.20559856
130	0x3e1d67e5	0.15371664
131	0x3e944a85	0.28963104
132	0x3d97a181	0.07403851
133	0x3e78ecc4	0.24309069
134	0x3e88221d	0.26588526
135	0x3db3ce4a	0.08779581
136	0x3ef879ae	0.48530334
137	0x3e2fcc1f	0.1716771
138	0x3e1c8aa0	0.15287256
139	0x3e4d17b1	0.20028569
140	0x3ea567b5	0.32305685
141	0x3e861ee2	0.26195437
142	0x3e60f25e	0.21967456
143	0x3e82faf5	0.2558209
144	0x3de2d7e8	0.11076337
145	0x3e8d0147	0.27540037
146	0xbe866353	-0.26247653
147	0xbde41016	-0.11135881
148	0x3eb16e94	0.34654677
149	0x3e8a6ad1	0.2703462
150	0x3eec641d	0.4617013
151	0x3d53a1ca	0.051667966
152	0x3e05ad0f	0.13054298
153	0x3e40557e	0.18782613
154	0x3d860d20	0.06545472
155	0x3e164d04	0.14677817
156	0x3ea0d1c0	0.31410027
157	0x3e1305f6	0.14357743
158	0x3e888f90	0.2667203
159	0x3e2fa21d	0.17151685
160	0xbe5e6dde	-0.21721599
161	0x3e84b342	0.25918013
162	0x3e5ef74e	0.21774027
163	0x3ebb6e2d	0.36607495
164	0x3e42b00c	0.19012469
165	0x3e502dbe	0.2032995
166	0xbe03e0f6	-0.12878785
167	0x3dffefb2	0.1249689
168	0x3e62fc15	0.22166474
169	0xbea5c30b	-0.32375368
170	0x3e807a9d	0.25093547
171	0x3e44593b	0.19174664
172	0x3fa72fd8	1.3061476
173	0x3e5214a5	0.20515688
174	0x3e8a24f2	0.26981312
175	0x3d990063	0.07470777
176	0x3e397293	0.18110113
177	0x3dc4b427	0.09604674
178	0x3e765297	0.24054943
179	0x3dc8eed2	0.09811176
180	0x3dbfa2f8	0.09357256
181	0xbcd982fd	-0.026551718
182	0x3df7ad7e	0.12093638
183	0x3e49a1d2	0.19690636
184	0xbb7e3088	-0.003878625
185	0x3d4feda3	0.050763737
186	0x3f31d93c	0.694721
187	0x3e19efdf	0.1503291
188	0xbe2fe02c	-0.17175359
189	0x3eb6dae9	0.3571389
190	0xbe8ee20d	-0.27906838
191	0x3e31d138	0.17364967
192	0x3e914dfc	0.2837981
193	0xbfbac481	-1.4591218
194	0x3e864eb3	0.26231918
195	0x3e696355	0.22791798
196	0x3e89725e	0.26845068
197	0x3e9b55e6	0.30338973
198	0x3e7da1e6	0.2476879
199	0x3e42c768	0.1902138
200	0x3e65fc1a	0.2245945
201	0xbe9fe4c0	-0.3122921
202	0x3e778dde	0.24175212
203	0x3e438220	0.19092607
204	0x3e73a2af	0.23792528
205	0xbe18fb6f	-0.14939664
206	0xbe9e46b4	-0.30913317
207	0x3e563afb	0.20920937
208	0x3e15be95	0.14623483
209	0x3e1cca7c	0.15311617
210	0x3e3503f9	0.17677297
211	0x3e6eb2f8	0.23310459
212	0x3e511ab5	0.20420344
213	0x3f8d0feb	1.1020483
214	0x3e41bc18	0.18919408
215	0x3f2cdfa3	0.6752874
216	0x3e78783e	0.24264619
217	0x3e3dade1	0.18523361
218	0x3e7ec929	0.24881424
219	0x3e6a4c97	0.22880779
220	0x3e07712a	0.13226762
221	0x3e8cfc0a	0.2753604
222	0x3e2bb7c4	0.1676932
223	0x3debf0b8	0.11520523
224	0x3e49fe21	0.19725849
225	0x3dd79b76	0.10527699
226	0x3e8d086c	0.27545488
227	0x3dba8bbe	0.09108685
228	0x3e44b0b6	0.19208035
229	0x3e25775d	0.16158815
230	0xbe6470be	-0.22308633
231	0x3e00a825	0.12564142
232	0x3df92ffa	0.12167354
233	0x3e4c9434	0.1997841
234	0xbe485831	-0.19564892
235	0x3ee21651	0.4415765
236	0x3e8126d9	0.2522495
237	0x3e091c0f	0.1338961
238	0x3e40f6cd	0.18844147
239	0x3f4f22da	0.80912554
240	0x3e318a72	0.17337969
241	0x3e0ac781	0.13552667
242	0xbe972054	-0.29516852
243	0x3e4534be	0.19258401
244	0x3e482b7f	0.19547842
245	0x3ebae593	0.36503276
246	0x3e7044bd	0.23463722
247	0x3e287833	0.16452102
248	0xbcc331e5	-0.023827503
249	0xbe9c98f9	-0.3058546
250	0x3e84f65f	0.25969216
251	0xbe0bbd67	-0.1364647
252	0x3e54f1c8	0.20795357
253	0x3e071a26	0.13193569
254	0x3eb470ec	0.35242403
255	0x3eee6ec6	0.46568888

net.4.weight f4 [27, 256]
0	0x3e4fabc6	0.2028037
1	0x3eee21a2	0.46510035
2	0x3eee0302	0.4648667
3	0x3ecc4421	0.39895728
4	0x3ed150d0	0.40881968
5	0x3edead2f	0.43491504
6	0x3efd5a48	0.49482942
7	0x3ee9dc25	0.4567577
8	0xbf787fce	-0.97070014
9	0x3f00405c	0.50098205
10	0x3ef29b6f	0.4738421
11	0x3f03521b	0.5129716
12	0x3efb273e	0.49053377
13	0x3eb27043	0.34851274
14	0x3ecc4b86	0.3990137
15	0x3ec2b81f	0.38031098
16	0x3ecad316	0.3961417
17	0x3edce7fd	0.43145743
18	0x3edd00ac	0.43164575
19	0x3ed4c4c2	0.41556364
20	0x3f067793	0.52526206
21	0x3e99a90b	0.30011782
22	0x3ed97199	0.4246948
23	0x3f02b107	0.5105137
24	0x3eb7ad9c	0.3587464
25	0x3ed68de4	0.4190513
26	0x3ee18fa1	0.44054893
27	0x3ea24ad3	0.3169771
28	0x3e9b038f	0.30276152
29	0x3ebdcf47	0.37072203
30	0x3ede437b	0.4341086
31	0x3eb0a947	0.34504148
32	0x3f04d7bb	0.5189168
33	0x3edbf7e8	0.42962575
34	0x3ec295a0	0.3800478
35	0x3eca9ff0	0.39575148
36	0x3f0d9950	0.5531206
37	0xbd578450	-0.052616417
38	0x3ecf19e6	0.40449446
39	0x3d9db504	0.077005416
40	0x3eeda706	0.4641649
41	0x3eb6c52d	0.35697308
42	0x3ee9367c	0.4554938
43	0x3ec251a8	0.37952924
44	0x3ebfa716	0.37432164
45	0x3ed201cb	0.41016993
46	0x3dbbadff	0.091640465
47	0x3ed8dbac	0.42355096
48	0x3ecbef28	0.398309
49	0x3ec162b1	0.37770608
50	0x3f001e14	0.50045896
51	0x3ed8519c	0.42249763
52	0x3f029bfa	0.5101925
53	0x3f6c5119	0.92311245
54	0x3efa4752	0.48882538
55	0x3edc12ec	0.42983186
56	0x3eb39380	0.3507347
57	0x3edc57b6	0.43035668
58	0x3ed752a9	0.42055252
59	0x3e838228	0.2568524
60	0x3ecafa39	0.3964403
61	0x3ecf43e7	0.40481493
62	0x3f009a56	0.502355
63	0x3ec54872	0.38531834
64	0x3ece97e9	0.40350273
65	0xbf6583d5	-0.89654285
66	0x3e99f3cc	0.30068815
67	0x3ee53c25	0.4477245
68	0x3eadb313	0.33925685
69	0x3ef075bc	0.46964824
70	0x3eb0bd28	0.34519315
71	0x3ec957a6	0.39324683
72	0x3ed6e827	0.41973993
73	0x3e9f1bb3	0.3107582
74	0x3f101296	0.5627836
75	0x3ee453cb	0.4459518
76	0x3e067a48	0.13132584
77	0xbea7754e	-0.32706684
78	0x3eb1c807	0.3472292
79	0x3ea7cefb	0.327751
80	0x3ef3dd7a	0.4762991
81	0x3eb8831b	0.36037526
82	0x3ef28f70	0.4737506
83	0x3eb862d7	0.3601291
84	0x3eaf974a	0.34295112
85	0x3eb4a91e	0.35285276
86	0x3ede9a41	0.4347706
87	0x3ed7854b	0.42093882
88	0x3ed65f29	0.41869476
89	0xbf48556b	-0.7825534
90	0x3f01b195	0.50661594
91	0x3e850093	0.25977
92	0x3ed8c4d3	0.42337665
93	0xbf5f06be	-0.8711966
94	0x3ec32f25	0.38121906
95	0x3e1fa056	0.15588507
96	0x3ef69a32	0.48164517
97	0x3d997351	0.07492698
98	0x3e0c6169	0.13709034
99	0x3eba864e	0.3643059
100	0x3ec92288	0.39284158
101	0x3e983339	0.2972658
102	0x3ef96519	0.48709944
103	0x3ec6fcd4	0.38864768
104	0x3ebea059	0.3723171
105	0x3e810376	0.25197953
106	0x3ece256f	0.40262935
107	0x3ebd8fac	0.37023675
108	0x3ed0fa7a	0.40816098
109	0x3ed170d4	0.40906394
110	0xbd41881f	-0.047248956
111	0x3edb2304	0.42800152
112	0x3ebb55df	0.36588952
113	0x3efbaffc	0.49157703
114	0x3eefb140	0.4681492
115	0xbc580ff8	-0.013187401
116	0x3ecf5cc1	0.40500453
117	0x3ed04bfc	0.4068297
118	0x3f151a14	0.5824292
119	0x3edccd04	0.43125165
120	0xbcd01189	-0.025398986
121	0x3e8048c5	0.2505552
122	0x3f031972	0.512107
123	0x3eb763cc	0.35818326
124	0x3eb632c2	0.355856
125	0x3ea74185	0.32667175
126	0x3ee20da5	0.44151035
127	0x3ec7c061	0.3901396
128	0x3eafabdb	0.34310803
129	0x3eb4c788	0.3530848
130	0x3e9b64b5	0.3035027
131	0x3eccc46c	0.39993608
132	0x3ecb9e86	0.3976938
133	0x3ee35b79	0.44405726
134	0x3e74511a	0.23859063
135	0x3ea69e73	0.32542762
136	0x3e80073e	0.25005525
137	0x3ef06b37	0.46956798
138	0x3ee35d9b	0.44407353
139	0x3ed97a45	0.42476097
140	0x3ec89f9d	0.39184275
141	0x3e46f046	0.19427595
142	0x3ea42ca1	0.320653
143	0x3ec184c5	0.37796608
144	0x3ee06385	0.43825927
145	0x3efb3e77	0.49071094
146	0x3ee5d4ce	0.4488892
147	0x3e847ded	0.25877324
148	0x3f00f511	0.5037394
149	0x3ec43a41	0.38325694
150	0x3f3aff12	0.73045456
151	0x3ea44c3b	0.3208941
152	0x3ea7286d	0.3264803
153	0x3ec0771f	0.37590882
154	0x3eaf37be	0.34222215
155	0x3ed5a8e0	0.41730404
156	0x3ecde4ae	0.4021353
157	0x3eeaee0a	0.45884734
158	0x3eb4afa2	0.35290247
159	0x3eb491a7	0.35267374
160	0x3ef07ec9	0.4697173
161	0x3eb3155b	0.3497723
162	0x3ea74c5b	0.32675442
163	0x3eb1646e	0.34646934
164	0x3ec751a6	0.3892948
165	0x3edc4662	0.43022448
166	0x3f00b857	0.5028128
167	0x3eea0bbb	0.45712075
168	0x3edf56de	0.43620962
169	0x3ecb893e	0.39753145
170	0x3ebdd591	0.37077
171	0x3ee7b497	0.45254967
172	0xbf82640a	-1.018678
173	0x3f8faa23	1.1223797
174	0x3eb00a13	0.34382686
175	0x3f9004f2	1.1251509
176	0x3ed2106e	0.4102816
177	0x3eef8a34	0.46785128
178	0x3ec2ea64	0.3806945
179	0x3ed4192b	0.41425452
180	0x3ed0c016	0.4077155
181	0x3f9fc0ec	1.248075
182	0x3ecb6fe8	0.39733815
183	0x3ea836be	0.32854265
184	0x3ed4c11a	0.41553575
185	0x3eb7823c	0.35841548
186	0xbf381fea	-0.71923697
187	0x3ece25c4	0.40263188
188	0x3ed7715e	0.4207868
189	0x3e472d0a	0.19450775
190	0x3efacc8d	0.48984185
191	0x3ee7fecf	0.4531159
192	0x3ea5195d	0.32245913
193	0x3e257a2f	0.1615989
194	0x3eb73a2b	0.35786566
195	0x3e7c45e0	0.2463603
196	0x3edeeddb	0.43540844
197	0x3edb9d83	0.4289361
198	0x3ed0a528	0.40751004
199	0x3ed3170e	0.41228527
200	0x3ecc98d3	0.39960346
201	0x3ef8d22e	0.48597854
202	0x3ecb1fb0	0.39672613
203	0x3ee82255	0.45338693
204	0x3ee3127d	0.44350043
205	0x3edc1aad	0.42989102
206	0x3edf257c	0.43583286
207	0x3eee3da1	0.46531394
208	0x3eaf9cb8	0.34299254
209	0x3eae7c64	0.34079278
210	0x3ed208d1	0.4102235
211	0x3ecea6fc	0.40361774
212	0x3ed57edb	0.41698346
213	0xbf0fec7b	-0.56220216
214	0x3ec21ead	0.3791403
215	0xbd9d360a	-0.07676323
216	0x3ecb5690	0.3971448
217	0x3ecd0984	0.40046322
218	0x3e9e2026	0.30883902
219	0x3eaeb062	0.34118944
220	0x3ebfb60a	0.37443572
221	0x3eadb3e9	0.33926323
222	0x3eef2c7c	0.46713626
223	0x3ecf0fff	0.40441892
224	0x3e9c064b	0.3047355
225	0x3eef917c	0.46790683
226	0x3eb6d601	0.35710147
227	0x3f955540	1.1666641
228	0x3e873564	0.2640792
229	0x3edd2380	0.43191147
230	0x3eeac308	0.45851922
231	0x3eee7f3d	0.4658145
232	0x3ebb6e91	0.36607793
233	0x3ed176cb	0.40910944
234	0x3ecff269	0.40614632
235	0x3e45ae86	0.19304857
236	0x3ec24e10	0.37950182
237	0x3eb74fee	0.3580317
238	0x3ebc615c	0.3679303
239	0xbd180d96	-0.03712233
240	0x3eb3b1d2	0.35096604
241	0x3ef45e46	0.47728175
242	0x3f093f46	0.5361217
243	0x3eb28d9f	0.34873673
244	0x3ec06541	0.3757725
245	0x3ea2752b	0.31730017
246	0x3edc8e68	0.43077397
247	0x3eaf49ec	0.34236085
248	0x3f71529f	0.94266695
249	0x3f003c06	0.5009159
250	0x3eb6da43	0.35713395
251	0x3edee68a	0.43535262
252	0x3eca232b	0.39479956
253	0x3ed5a8c9	0.41730335
254	0x3ed2830d	0.4111561
255	0xbdd49912	-0.10380758

net.4.bias f4 [27]
0	0xbcbffb35	-0.023435215
1	0x3e0eefd5	0.13958676
2	0xbd857710	-0.0651685
3	0xbb8aa83d	-0.0042314813
4	0x3c0747fa	0.008256907
5	0x3d77bce0	0.06048286
6	0x3bd16578	0.00639027
7	0x3e464846	0.19363508
8	0xbdaca015	-0.08428971
9	0x3e9e96dc	0.30974472
10	0x3da3231b	0.0796568
11	0x3e04f6c8	0.12984765
12	0xbcc462e4	-0.023972936
13	0x3e1716c0	0.14754772
14	0x3da89620	0.08231759
15	0x3d7884ac	0.0606734
16	0xbcdb8964	-0.026798911
17	0xbd849987	-0.064745955
18	0x3e837a39	0.25679186
19	0x3ee8eac0	0.454916
20	0x3ee7c793	0.4526945
21	0xbd197665	-0.037466425
22	0x3d1f50aa	0.038895287
23	0x3e11a7c6	0.14224157
24	0xbd023d28	-0.031796604
25	0x3e1c8626	0.15285549
26	0x3be9d195	0.00713558
