model/dqn_policy_net_episode_2060.pt (torch, 334295 bytes, 6 tensors)

net.0.weight f4 [128, 336]
000000 b6 bb 4c 3d bf d7 6d be fe bc 65 3d 0c 81 fc 3b
       0.049983703 -0.23226832 0.05608844 0.0077058133
000010 c7 9a 16 be 32 94 4e be bc fe c5 3d e2 b0 99 bc
       -0.1470748 -0.2017372 0.09667727 -0.018761102
000020 bc 39 38 3e 75 0b a6 bd bb 58 a7 be d8 09 fe bd
       0.17990774 -0.08107654 -0.32684883 -0.12404221
000030 77 02 c4 3d c8 e7 28 be bc 18 bd 3d 3a 04 65 3c
       0.09570783 -0.16494668 0.09233233 0.0139780585
000040 42 06 0f be ca 8e bd bd d7 92 f8 bd 3b 3f c6 bd
       -0.13967231 -0.092557505 -0.121373825 -0.09680029
000050 14 53 cf bd 34 78 3f 3e 7c 5c f9 bd 3b de 54 3d
       -0.10123268 0.18698198 -0.12175843 0.051969748
000060 b8 7a 2a be db 74 98 be 4b 56 c5 bb 7c 1b 9c bc
       -0.16648376 -0.29776654 -0.00602225 -0.019056074
000070 a6 41 0a bd 94 05 76 bd 40 36 5d 3d 52 0d c3 3d
       -0.033754013 -0.060063913 0.054006815 0.09524025
000080 a8 1e 88 be 4e c6 84 bd 01 83 d5 3d 22 c8 ef bd
       -0.2658589 -0.06483136 0.10425378 -0.11708094
000090 5e 02 85 bc 10 62 21 be 01 70 05 3d 6b fd 87 bc
       -0.01623648 -0.15760064 0.03257752 -0.016600331
0000a0 91 48 8d 3d 6b 79 9a be 55 ea 2a 3e 54 77 c3 bd
       0.068986066 -0.3017076 0.16690953 -0.095442444
0000b0 37 09 88 3d e7 a0 a1 be 6d aa 1a bd 16 06 6e bc
       0.066423826 -0.3156807 -0.037760187 -0.014527818
0000c0 38 d3 ae bc d3 a3 70 bc dc a1 59 3d da 4b 7b bd
       -0.021340951 -0.014687496 0.053132877 -0.061351635
0000d0 95 bb 3c bd a6 d0 9c bd 72 f5 86 3d 1d 06 10 3e
       -0.04607733 -0.07656984 0.06589784 0.14064832
0000e0 43 4a 80 3e 10 d7 8f be 01 14 4e be 8d 68 1f be
       0.25056657 -0.28093767 -0.20124818 -0.15567227
0000f0 f8 74 64 3d c5 2f c4 3d 20 42 52 bc 55 11 25 be
       0.055775613 0.09579424 -0.012833148 -0.16119893
000100 22 19 17 be c8 02 00 3c 84 e9 13 be 7d cd d1 bc
       -0.14755681 0.007813163 -0.14444548 -0.02561068
000110 82 64 1c bd a5 ab fc 3d c9 61 a1 bd 27 74 09 bd
       -0.03818179 0.12337426 -0.07879979 -0.033558037
000120 26 3f 28 be fb b3 d0 bb 07 47 56 3d b8 b2 0b 3e
       -0.16430339 -0.0063691116 0.05231383 0.13642395
000130 03 c9 2a bd 70 42 08 3d dc ac 7c bd e2 17 00 bc
       -0.041695606 0.033266485 -0.06168829 -0.007818194
000140 ae 60 14 3e 3a 7e eb 3c 49 6c 2c 3e 87 cf 86 bd
       0.14490005 0.028746713 0.16838183 -0.065825514
000150 3f 23 0a be 51 b6 8e bd 49 76 01 be 12 ca 2b bc
       -0.13490008 -0.06968368 -0.12642778 -0.010485189
000160 5e b2 0e 3d 10 5e 3d be 91 c4 4f bd 5b cb 95 3c
       0.034838073 -0.18492913 -0.05072457 0.018285444
000170 05 f1 06 be d6 f1 8d bd ab 46 50 3d 02 61 2c bd
       -0.13177879 -0.06930892 0.050848644 -0.0420847
000180 78 2b 90 3e 90 e2 18 be 6e 05 63 3c 5a 2d 18 be
       0.28158164 -0.14930177 0.013856275 -0.1486105
000190 36 6c 22 3d 6b 0c 72 3d 98 71 84 3d 35 67 13 bc
       0.03965398 0.059093874 0.06466979 -0.008996774
0001a0 d8 35 38 bf 7f af fd bb 24 97 0c 3e 5b de 1b 3e
       -0.7195716 -0.007741868 0.1372953 0.1522154
0001b0 ce e7 ae 3e 92 65 ec bc a7 de 3b be 1d 66 d5 3d
       0.34161228 -0.028857026 -0.18346654 0.10419867
0001c0 08 2c 12 3d 29 ea 3b be 67 9e 93 bd 70 13 42 3d
       0.035686523 -0.18351044 -0.07207947 0.04738182
0001d0 87 44 c4 bd 4f fd 91 bd 2e 36 93 3c f4 04 1f 3d
       -0.09583383 -0.07128393 0.01797017 0.038823083
0001e0 e1 71 6f bf 7f 2b d0 3d f4 52 18 be 92 a2 1f be
       -0.9353314 0.10164546 -0.14875394 -0.1558936
0001f0 89 28 dc 3c b3 33 d9 3c e5 9a b7 3c ff 43 c1 bc
       0.026874797 0.02651391 0.022412727 -0.023591993
000200 8a 15 a8 3e bb 36 99 be aa fc 12 3d b7 38 af bd
       0.32828933 -0.2992457 0.03588549 -0.085557394
000210 b3 c7 d0 bd d8 9d 89 be d9 2e 2e be 66 9d bb bc
       -0.101943396 -0.26878238 -0.17010058 -0.022902202
000220 6c 5b e7 be c0 21 84 3d 44 6b b2 3d 8b b1 a2 3d
       -0.45186937 0.0645175 0.087118655 0.0794402
000230 1c 7a 98 bd ec 18 70 bd d2 25 75 bb cb 9a e2 3d
       -0.074451655 -0.058617517 -0.0037406576 0.11064681
000240 67 a1 cc 3e a8 85 12 be 5c a8 90 bd dd 44 7d be
       0.3996689 -0.14308798 -0.07063362 -0.247333
000250 59 2d 4e bb d5 92 81 bc 2a c0 07 3d c5 02 28 be
       -0.0031460135 -0.015817085 0.033142246 -0.16407306
000260 59 e2 a6 3d 4b 0a a1 3d 6e 57 ab 3d bc 83 1d 3d
       0.08148641 0.07863291 0.08366285 0.03845571
000270 48 ea 03 be e1 8f 9d 3d 63 da 49 be 61 76 0d bd
       -0.1288234 0.07693458 -0.19712214 -0.034536723
000280 40 9d d5 3c 92 e0 b2 bc 11 79 80 3d 21 2c b4 3c
       0.02607596 -0.0218356 0.062730916 0.021993699
000290 42 50 96 3d 6d 15 88 3d ed bf 00 be e0 c7 47 bd
       0.07339527 0.06644712 -0.12573214 -0.0487746
0002a0 6a f8 26 3f 21 b8 15 be ec 36 2c 3d 3b b9 2e be
       0.652228 -0.14621021 0.042044565 -0.17062847
0002b0 bc fa 15 be 57 26 85 be 44 7e 01 be ad 17 d3 bd
       -0.14646429 -0.26005813 -0.12645823 -0.1030725
0002c0 65 7f 00 3f 98 d5 d9 3c 5e ca a3 bb e2 c0 2f be
       0.5019439 0.026591107 -0.0049984893 -0.17163423
0002d0 d6 1b a4 bd 4c 9f 7d be cb 8f dc 3c d3 3a 1f be
       -0.08013122 -0.24767798 0.026924035 -0.15549783
0002e0 50 07 58 3f 86 2d e3 bd b0 c3 e9 bd aa 79 06 be
       0.8438616 -0.11092667 -0.114142776 -0.13132349
0002f0 af 56 01 be 27 d5 57 3d e7 32 46 bb ab 4a 93 3d
       -0.12630723 0.052693512 -0.0030242743 0.07191976
000300 0f db 31 bf 02 99 5f bd a9 23 af 3d fd a6 31 3e
       -0.6947488 -0.05458928 0.085517235 0.17348857
000310 3e d4 fb 3d e0 80 88 3e 2e 7a 18 3e 86 13 91 3e
       0.12296341 0.26660824 0.14890358 0.28335208
000320 07 b0 12 3f 9e 10 88 3d f3 ac 45 be e7 39 0c bd
       0.57299846 0.066437945 -0.19304256 -0.034234907
000330 95 41 16 3e c1 0f 2e 3d df d4 fa bd dd 8b 6f 3e
       0.14673455 0.042495493 -0.12247633 0.23393197
000340 20 7b d8 bf 4f d5 bb 3e 46 f9 b1 3e b1 01 b7 3e
       -1.6912575 0.3668618 0.34760493 0.35743478
000350 8d 79 8c 3e 9f 89 83 3e e6 05 be 3d c0 8f 89 3e
       0.27436486 0.25690934 0.09278469 0.26867485
000360 56 24 0f 3f 4e cf 49 bc 50 51 02 bd c1 ba 1d 3d
       0.5591482 -0.012317492 -0.031815827 0.03850818
000370 4e ad ce bd c8 1b 41 bd e2 3d ec bd 6c 3e e4 3c
       -0.10091649 -0.047145635 -0.11535241 0.027861796
000380 00 8c 33 bf dc b1 0d 3f 0a e7 ba 3e bf 04 6a 3e
       -0.701355 0.55349517 0.36504394 0.22853373
000390 f1 24 98 bd 66 77 c4 3d 85 eb d0 bc e4 20 a8 3e
       -0.07428921 0.09593086 -0.02550293 0.32837594
0003a0 cf 2f 36 3f ff 06 9c 3d 08 cf e7 bc 78 d3 e7 bd
       0.711667 0.07618522 -0.028296962 -0.11319631
0003b0 af 5d bc bd ff 95 09 be 15 e4 9e 3b d6 c3 83 be
       -0.09197556 -0.13436125 0.004848967 -0.25735348
0003c0 75 10 5a 3f 92 10 75 3e 39 02 9d 3d 36 54 2b be
       0.8518136 0.23932102 0.076664396 -0.16731343
0003d0 45 6b 35 bd 9c 83 8f be 55 2f de bb 3a eb a9 be
       -0.044291753 -0.28030097 -0.0067805448 -0.33187276
0003e0 b9 2f 60 bf bf 41 92 3e b0 db 88 3e e8 2c 9c 3e
       -0.8757282 0.28565785 0.26730108 0.3050301
0003f0 32 85 00 3e 61 2e 95 3e 38 05 3f be 9f 3c a9 3e
       0.1255081 0.29136947 -0.18654335 0.33054063

net.0.bias f4 [128]
000000 c6 37 07 3e 6f 2c 1e 3e 35 4d eb 3d a2 d0 12 3e
       0.1320487 0.15446638 0.114893354 0.143374
000010 ce 50 a3 3e 71 85 e1 3d a8 37 11 3f 98 3c 70 3e
       0.31897587 0.1101178 0.5672555 0.23460615
000020 ae 6d 82 3c 32 f0 5a 3e 33 c0 02 3e 88 6c 9a 3d
       0.01592144 0.2138069 0.1276863 0.07540232
000030 21 18 3d 3e 92 4a 01 3e 4e 74 2b 3e b0 2a 0b 3e
       0.18466236 0.12626103 0.16743585 0.13590503
000040 a5 14 00 3e 07 ac 54 3e d1 c0 2f 3e 0a 79 b3 3d
       0.12507875 0.20768748 0.17163397 0.08763321
000050 41 a7 fc 3d f3 c9 c0 3d b4 67 c4 3e e6 72 32 3e
       0.12336589 0.09413519 0.3836037 0.17426643
000060 63 dc 64 3e 09 b5 19 3e c8 f5 46 3e 49 94 8c 3e
       0.22349696 0.15010466 0.19429696 0.27456883
000070 cc 4c 12 3e 2d a7 fb 3e 3d 08 90 3e 83 b9 26 3e
       0.14287108 0.49150982 0.28131285 0.16281705
000080 30 63 6f 3e 4a a3 a7 3d 19 48 56 3e fe e5 ca 3d
       0.23377681 0.08185442 0.2092594 0.09907149
000090 3a 11 d6 3d 05 a3 47 3e 5f 47 76 3e bf 0f 21 3e
       0.104525045 0.19495781 0.24050663 0.15728663
0000a0 23 e1 c6 bd 83 69 f8 3d 16 04 70 3d 20 79 2a 3e
       -0.0971091 0.121295 0.058597647 0.16647768
0000b0 58 18 9c 3d c2 fe 70 3e 8d d7 d8 3d 28 ae 82 3e
       0.07621831 0.23534682 0.10587988 0.25523496
0000c0 2f 63 20 3e 85 60 7d 3e 0e 30 ee 3c 30 cf 44 3e
       0.15662836 0.2474385 0.029075649 0.19219661
0000d0 ae bf c6 3d 5b b1 f0 3d b5 e8 2c 3e b8 78 15 3e
       0.09704529 0.11752578 0.16885646 0.14596832
0000e0 9e fc 07 3e 84 72 ae bd 82 ac a0 3e 66 f5 14 3e
       0.1327996 -0.08517936 0.31381613 0.14546737
0000f0 46 ed 60 3e 7e 39 07 3e 7e 0d 9f 3d c8 2c 20 3e
       0.21965513 0.13205525 0.07766245 0.15642083
000100 74 82 5f 3e f5 33 4c 3e 01 58 96 3e 07 6b ed 3d
       0.21827108 0.19941695 0.29364017 0.115926795
000110 57 54 15 3e e5 94 ac 3d 15 05 27 3e 37 47 70 3e
       0.14582954 0.08426837 0.16310532 0.23464666
000120 08 53 7b 3e 48 54 19 3e 0b 7a 2f 3e 58 a6 e2 3e
       0.24543393 0.14973557 0.171364 0.44267535
000130 81 67 34 3e ac 17 36 3e 58 7b 39 3e 84 9f 46 3e
       0.17617609 0.17782468 0.18113458 0.19396788
000140 36 78 ff 3d 1b dd 91 3f ee 9c 3b 3e cb a0 cb 3e
       0.124741 1.1395601 0.18321583 0.39771113
000150 3c d8 4f 3e 0b c7 44 3e dd 4e 4e 3e 9c 3f a2 3d
       0.2029733 0.19216554 0.20147271 0.07922289
000160 d2 0d eb 3e 3b 42 6e 3e 2e a9 2b 3e cb 62 06 3e
       0.45908982 0.23267452 0.16763756 0.13123624
000170 cb b3 1c 3e a1 63 8d 3d 1e 0e bd 3e 1c 44 10 3e
       0.1530296 0.06903768 0.36924833 0.14088482
000180 69 68 70 3d e8 ae 63 3e cb 29 f2 3d 1c 44 12 3d
       0.058693323 0.2223469 0.118243776 0.035709485
000190 14 19 58 3e 25 fc cc 3e bc d9 fc 3d 16 37 74 3e
       0.21103317 0.4003612 0.12346217 0.23849139
0001a0 bf a6 b8 3d e1 51 17 3e 32 0e 4b 3e 2e cb 01 3e
       0.09016179 0.14777328 0.19829634 0.12675163
0001b0 c2 1f 57 3e 00 4b 20 3e f7 d3 53 3d 3e 29 91 3e
       0.21008208 0.1565361 0.051715817 0.28351778
0001c0 16 80 be 3d bf 5d 86 3e 93 7a 33 3e c3 9a f1 3d
       0.09301774 0.26243398 0.17527227 0.117970966
0001d0 2c b3 2c bd 89 f8 c1 3e 88 ab ef bd cb 1b 6a 3e
       -0.04216306 0.3788493 -0.11702639 0.22862165
0001e0 c0 bd ed 3d 13 79 3e 3e 2a f5 a0 3e 86 71 66 3e
       0.116084576 0.18600874 0.31437045 0.22504243
0001f0 43 10 12 3e 8d e4 32 3e 7b 6d e1 3d d2 c5 49 3e
       0.14264016 0.17469998 0.1100721 0.19704369

net.2.weight f4 [256, 128]
000000 aa 7c 97 3f 9a 4f 71 bc 10 8c 21 40 4c eb b0 3e
       1.183492 -0.014728451 2.5241737 0.34554517
000010 08 ac 38 3d f6 81 52 3f 77 ba 51 3f 42 6d bc 3f
       0.045085937 0.82229555 0.8192515 1.4720843
000020 02 df 2d 40 cb a1 17 3f 7a c1 6b 3f 48 eb ab 3e
       2.7167363 0.5923125 0.92092097 0.33577943
000030 61 e7 53 3d 3f 32 bc 3e 5d ec c2 bd aa 4c 9b 3f
       0.051734332 0.36757085 -0.09517739 1.2132771
000040 dd e0 39 3f 21 37 87 3e 1c b0 30 3f 53 99 c5 3f
       0.7260874 0.26409248 0.6901872 1.5437416
000050 b3 76 87 3f 54 42 da 3f b2 a8 c3 3d c6 3d 7c 3f
       1.0583099 1.7051492 0.095536605 0.9853176
000060 04 8e fa 3e 02 0f dd 3e 33 3b 84 3f 64 a2 81 bd
       0.48936474 0.43175513 1.0330566 -0.06329802
000070 19 90 24 3f 45 8e 60 3e 31 dd 56 3e d8 4d 24 3f
       0.64282376 0.21929272 0.20982815 0.6418128
000080 90 b6 67 3f 07 33 5c 3f 30 99 26 3f 07 eb 2e 3f
       0.90512943 0.8601536 0.65077496 0.68327373
000090 60 4f 4b 3e 4f fc c8 3f 7d d4 d0 3f 08 da 28 3d
       0.19854498 1.5701998 1.6314846 0.041223556
0000a0 03 b4 d7 bf f6 d9 aa 3e db ee cd 3d de f5 8a 3e
       -1.685181 0.33369416 0.10055324 0.27140707
0000b0 f0 15 f0 3e 81 f6 2b 3f 7a 91 aa 3f 39 03 b4 3f
       0.46891737 0.6717301 1.3325646 1.4063483
0000c0 f1 db 75 3f fc 62 7a 3e d7 ed 46 3f 2d 31 e8 3f
       0.9603873 0.24451822 0.77706665 1.8140007
0000d0 96 bc 69 3f bb 42 a9 bd 0d 30 56 3f 35 85 42 be
       0.91303384 -0.08264681 0.8366707 -0.18996127
0000e0 0b 37 61 be 94 e5 df bf 56 3b a5 3e 30 1d f9 3f
       -0.21993653 -1.7491937 0.32271832 1.9462032
0000f0 56 85 2d be 6e 78 1e 40 cd b2 f6 3e 03 5c 37 3f
       -0.16945395 2.4761004 0.4818329 0.71624774
000100 7a 4c 8d bd cb 93 e9 3e 34 d9 92 3f 5b fc 8b 3e
       -0.06899352 0.4562057 1.1472535 0.2734097
000110 4d 29 65 3f 4f 56 29 3f 35 48 54 3e 4c 25 a2 3e
       0.89516145 0.6614732 0.2073067 0.3166908
000120 af 63 e2 3e e5 ed cb 3f e2 c9 e9 3e 7f 69 67 3e
       0.44216678 1.5931975 0.45661837 0.22598837
000130 f0 82 c4 3e 4f 76 ab be 01 a5 95 3f 59 aa 9f 3e
       0.38381147 -0.334887 1.169098 0.31184652
000140 ff 48 28 3f f3 3c 2d 3f e3 29 51 bf 8e b9 8f 3e
       0.65736383 0.67671126 -0.8170454 0.28071254
000150 d6 bc 28 3f ff 23 6c be 4d 9a 29 3f 35 b1 b1 3f
       0.6591314 -0.23060606 0.6625107 1.3882204
000160 01 8d 86 bd a8 78 ff 3e dd 4c 96 3f a3 0e 5a 3f
       -0.06569863 0.4989674 1.1742207 0.85178584
000170 7b f1 49 3f 52 69 ce 3f 9b be 26 3f 97 8c 10 3f
       0.78884095 1.6125891 0.6513459 0.56464523
000180 33 29 ba 3f 76 7d 73 3e f2 d4 44 3f cd c7 ac bf
       1.4543823 0.23778328 0.7688743 -1.3498474
000190 dd 27 0b bd fb a8 41 be 25 6e be 3f a2 23 b2 3e
       -0.033973563 -0.18912117 1.4877363 0.3479281
0001a0 db 13 fc 3e a6 cc 07 3f 36 66 0d 3f c2 69 f8 3d
       0.492339 0.53046644 0.55234087 0.12129547
0001b0 a9 c8 a6 3f 83 a2 da 3f 62 e7 d7 3e f6 48 30 3f
       1.3029987 1.7080845 0.4216872 0.6886133
0001c0 af 66 8e 3f 6f cc 80 3f c7 dc 33 3f 5c 0b d1 3f
       1.1125087 1.0062388 0.70258754 1.6331592
0001d0 c7 59 20 40 9b c4 99 3e e1 b5 d3 bf eb 47 95 3f
       2.5054796 0.3003281 -1.653988 1.1662573
0001e0 28 ed 60 3f 8f de 77 3e c5 0f f7 3e 66 d9 5f 3f
       0.8786187 0.24205993 0.4825422 0.874411
0001f0 9c e1 29 40 2b 88 95 3e 10 92 b0 3f 7d c7 b6 3f
       2.654395 0.2920545 1.3794575 1.4279629
000200 c7 90 18 40 5b 13 59 3e 95 94 1a 3f c0 ee 6d 3c
       2.3838365 0.2119879 0.6038297 0.0145222545
000210 2e 8c 0c 3f 7b a5 13 3f 86 b6 a7 be 66 5b 9e 3f
       0.549014 0.5767438 -0.32756442 1.2371643
000220 2f 62 af 3e 93 9a b8 3e e8 20 8d bd ec a9 a4 3e
       0.34254596 0.3605543 -0.06891042 0.3216089
000230 ef b1 b4 3e ed 3c 87 3f 2d ad 55 3f ec d2 08 40
       0.35292003 1.0565468 0.8346737 2.1378736
000240 a8 e8 07 3f 93 1f 59 3f bd e2 0a 3f 8b 15 55 3e
       0.5308938 0.84813803 0.54252225 0.20808999
000250 b9 0d cf 3f 3c 14 81 3f 48 32 43 3f 46 77 58 3f
       1.6176063 1.00843 0.762486 0.84556997
000260 61 a4 31 3f f3 bb 3b 3f 63 55 81 3f fb 63 02 3f
       0.6939145 0.7333366 1.0104183 0.5093381
000270 d4 bd b0 3e f2 58 0f 3f 66 5b 1e 3e fc 7d f9 3f
       0.34519827 0.55995095 0.15464553 1.9491572
000280 7c 7f 2d 3f c6 3e 98 3f 1e f0 90 3f 35 ea cb 3e
       0.6777265 1.1894157 1.1323278 0.39827123
000290 d7 2e a0 3f 56 ba a6 3f 3d 1f 72 3f f0 8f 1f 3f
       1.2514294 1.3025615 0.94578916 0.62329006
0002a0 6e 21 fd bf dd 0f 1b 3f 45 92 f8 3e dc 4c 48 3f
       -1.9775827 0.6057108 0.48549095 0.7824228
0002b0 9b a4 20 3f 14 b7 3e 3f d4 30 f4 3f 99 9a 1b 3f
       0.6275117 0.74498105 1.9077401 0.6078277
0002c0 1e fb eb 3f 12 8e 91 3e 9d 3d 4d 3e 7b 74 9a 3f
       1.843601 0.28428704 0.20043035 1.2066797
0002d0 e8 cc 3d 3f 5b 07 b5 3e d8 6e 58 3f f5 4a fe 3e
       0.7414079 0.35357174 0.84544134 0.49666563
0002e0 40 5f 71 3f 9c 61 00 c0 69 e6 12 bc cc 36 c8 3f
       0.94285965 -2.0059576 -0.008966067 1.5641723
0002f0 86 76 71 3d 00 f6 d9 3e 32 43 9c 3e 62 ae ff 3e
       0.058950923 0.42570496 0.30520016 0.4993773
000300 81 d0 2c be 29 3b 9e 3e 2c 24 d1 3f 92 14 de 3e
       -0.16876413 0.3090451 1.6339164 0.4337507
000310 2a a1 fd 3f 80 44 8b be b9 92 96 3f f8 9e 54 3f
       1.9814808 -0.272007 1.1763526 0.8305507
000320 1d 29 5b 3f 9e 0f fa 3e de 7d ba 3e f6 21 f9 3e
       0.8560961 0.4884004 0.36424154 0.48658723
000330 53 1d 6d 3f e4 b5 2c 3f 07 75 1b 3f a7 b6 8c 3f
       0.9262287 0.67465043 0.60725445 1.0993241
000340 28 ee 87 3f 7e da 30 be 3b fb ee 3e 1d 8f c2 3e
       1.0619555 -0.17270848 0.4667605 0.37999812
000350 83 3a 36 3f 73 8b ba 3e a2 ea c6 3e e4 e9 02 3f
       0.7118303 0.36434516 0.38850886 0.5113814
000360 e5 02 67 3f 58 be 6a 3f 58 08 88 3e af 1e 54 3f
       0.9023879 0.9169669 0.26568866 0.8285932
000370 42 0d 64 3e 1e 6e a0 be d9 41 80 be f7 6f 29 3f
       0.22270682 -0.31334013 -0.25050238 0.6618647
000380 06 cc 19 3f bb c2 6c 3f d1 af 87 3f dc dd 9f 3f
       0.6007694 0.92484635 1.060053 1.2489581
000390 63 52 7b 3f d3 e2 15 3f 19 8a d0 3f 9e 00 83 3f
       0.9817259 0.5854923 1.6292144 1.0234563
0003a0 1c 8f 36 3f f9 30 2a 3f 6d b7 ff 3e df 66 30 3f
       0.7131212 0.66480976 0.4994463 0.6890697
0003b0 38 5d 84 3e b9 f4 73 3f 2a 29 64 3f de cc 1b 3d
       0.2585237 0.9529529 0.8912531 0.038037173
0003c0 6f 4b 05 3f ac ad 10 40 e5 d2 a8 3f 24 ac 1b 3e
       0.5206823 2.2606 1.318936 0.15202385
0003d0 e1 aa e4 be a9 c4 85 3e 73 14 f5 bf 10 60 bd 3f
       -0.4466162 0.26126602 -1.9146866 1.4794941
0003e0 52 54 a4 3f 25 d1 22 3f ad 16 e8 3e 2e 1c 61 3f
       1.2838233 0.6360038 0.453298 0.87933624
0003f0 e0 85 90 be c6 88 1c 3f 92 5a 16 40 f1 93 e5 3f
       -0.2822714 0.611462 2.349278 1.7935773

net.2.bias f4 [256]
000000 ab 85 db 3e ba ca a9 3e 73 0d 3f 3e 0f 32 a4 3e
       0.42875418 0.3316248 0.18657474 0.32069442
000010 27 0c a6 3e 1b 53 c8 3e 2b 26 80 be 0a f3 a5 3e
       0.32431147 0.39125904 -0.2502912 0.32411987
000020 12 8f df 3f 94 f2 13 be c2 f3 1f be 78 f2 b5 3d
       1.7465537 -0.14448005 -0.1562033 0.08884138
000030 29 cf aa 3e b8 2a 83 3e e5 78 8c 3e 69 6e 88 3e
       0.33361176 0.2561853 0.27435985 0.26646736
000040 d5 ef a3 3e 03 90 96 3e 02 6d 3f be 29 eb 64 3e
       0.32018915 0.29406747 -0.18693927 0.22355331
000050 07 a5 3b be 66 65 b8 3e c2 fa 48 3e 22 cf ee 3d
       -0.18324672 0.3601486 0.19626907 0.11660601
000060 7c 6f bb 3e f9 b2 89 3e e7 f5 81 3e 7d 6c 9a 3e
       0.36608493 0.26894358 0.2538292 0.30160895
000070 af 5b 99 3e 6e d6 c1 3e 4c e7 6d 3e d8 54 c9 3e
       0.29952762 0.3785891 0.23232764 0.39322543
000080 77 bf 24 be a6 8e 80 be 5d 3b 9c 3e 39 71 02 be
       -0.16088663 -0.25108832 0.3051404 -0.12738504
000090 34 90 15 3f b6 d9 7a bc 4b 7b a2 3e 84 33 87 3e
       0.5842316 -0.015310695 0.3173469 0.2640649
0000a0 3e cf 3a 3e 9c 2d 84 3e 71 cc 5b 3e 0c 43 b1 3e
       0.18243119 0.25816047 0.21464707 0.34621465
0000b0 d3 98 98 3e 9a c2 c9 3e 21 49 a5 3e 6a 9c 07 3e
       0.29804096 0.39406282 0.32282355 0.13243261
0000c0 71 7f 9f 3e 97 14 9c 3e d3 97 5d be d8 65 ce 3e
       0.31151918 0.3048446 -0.21639948 0.40312076
0000d0 8b dd 67 be d8 42 af 3e 9d d7 13 be 98 46 94 3e
       -0.22643106 0.34230685 -0.14437719 0.2896011
0000e0 9e a2 58 3e cb 6b 6b 3e c5 6e 7c be bb 8e 8d 3d
       0.21155784 0.22990339 -0.2465163 0.06911989
0000f0 09 b2 85 3e 8a 03 9f 3e 39 d8 e0 3e 9f a2 b3 3e
       0.26112393 0.31057388 0.43914965 0.35085008
000100 e6 ca 6a 3e 59 9e d7 3f 71 50 ef 3e b0 05 5a 3e
       0.22928962 1.6845199 0.4674106 0.21291232
000110 a1 9e 6e 3e 07 86 48 3e a8 7c d7 3e aa 20 39 be
       0.233027 0.19582377 0.42087293 -0.18078867
000120 c5 2a 90 3e b8 e7 78 3e 3f b8 2d bf 46 72 d8 3e
       0.2815763 0.24307144 -0.6785926 0.42274684
000130 51 ee 0d 3f cf b9 98 3f 6e 7f b6 3e 47 2b bf 3e
       0.55441767 1.1931704 0.35644096 0.37337705
000140 20 a1 5c be cf d2 40 3e 42 b6 2b be db fa 5e 3e
       -0.2154584 0.18830417 -0.16768745 0.21775381
000150 76 9a 7f 3e 7c 55 4a 3e 34 b5 38 3e 04 1d 67 3e
       0.24961266 0.19759172 0.18037874 0.22569662
000160 b9 45 5f 3e 64 61 26 3f db 8e 95 3e 06 62 b4 3e
       0.21803941 0.64992356 0.29210553 0.35231036
000170 b4 43 2d 3e 79 dd d7 3f c8 99 db 3e 70 40 4b 3e
       0.16920358 1.6864463 0.42890763 0.198488
000180 ef 12 26 3e 99 ec d5 3e a3 92 d0 3e e4 a8 bb 3e
       0.1621816 0.41782072 0.40736875 0.3665229
000190 d3 c8 d7 bd c1 1d 22 3e 77 dc b1 3e e9 fa 06 be
       -0.10536351 0.15831663 0.34738514 -0.13181652
0001a0 94 b1 74 3e 95 39 e5 3e bc 09 b2 3e f3 f2 b1 3e
       0.23895866 0.44770494 0.34773052 0.34755668
0001b0 57 b2 b7 3e 67 55 7a 3e 07 5b 0e 3f a7 c5 50 3e
       0.3587825 0.24446641 0.55607647 0.20387898
0001c0 9f 5a 45 3e b6 94 59 3e c4 67 82 3e 52 27 29 bc
       0.1927285 0.21248135 0.25469792 -0.010324316
0001d0 bc 6a 23 3e e7 c5 89 be 9f 5d b6 be 44 30 be bc
       0.15958685 -0.269088 -0.35618302 -0.023216374
0001e0 45 54 bc 3e 96 10 5e 3e 76 a9 3d be da 62 a7 3e
       0.36783043 0.21686015 -0.18521675 0.32692605
0001f0 dc 64 e7 3e a4 12 ac 3e 3e e2 43 3e 55 67 7e 3e
       0.45194137 0.33607972 0.19129273 0.24844106
000200 36 38 8e 3e 3d b8 9b 3e 33 4a 8b 3e bc 62 c8 3e
       0.2777726 0.30414 0.27205047 0.39137828
000210 c4 06 1f 3e 66 70 9d 3e ac c3 98 3e 4c 7d 3e 3e
       0.15529925 0.30749816 0.29836786 0.18602484
000220 5d 87 f7 3e 0a 85 88 3e dd 14 80 3e e3 58 8f 3e
       0.4834546 0.26664 0.25015917 0.27997503
000230 8c 0f d4 3e 75 41 95 3e 17 5f a1 3e ae 11 ba 3e
       0.4141811 0.29151502 0.3151786 0.36341614
000240 b5 3e 53 3e 1a dd bd 3e 09 6b 39 be ba 33 05 3d
       0.2062939 0.3708275 -0.18107237 0.032520033
000250 14 24 dc 3e e6 2e bb 3e e8 cb 01 3f d3 1c 1e 3e
       0.42996275 0.36559218 0.5070176 0.15440683
000260 a9 94 67 3e d0 d8 90 3e 64 26 2e 3e b7 bd 70 3e
       0.22615303 0.28290415 0.17006832 0.2350987
000270 47 94 d1 3e 4b 80 7a 3e 4d 45 ba 3e bb 92 85 3e
       0.4093344 0.24463002 0.36380997 0.2608851
000280 37 be 2d be 6d e9 ba 3e a4 b7 a3 3e 3b bf cf 3e
       -0.16967092 0.36506215 0.31976044 0.40575585
000290 b1 b5 8f 3e 63 88 96 3e 4a 20 85 bd 87 55 69 3e
       0.28068307 0.2940093 -0.06500299 0.22786532
0002a0 7c e9 9d 3e 44 99 76 be fa 67 b4 3e f6 a1 8d 3e
       0.30842197 -0.24081904 0.35235578 0.2766263
0002b0 01 e2 c1 3f 82 b3 85 3e fb e4 bf 3e 9d 04 fb 3d
       1.5147096 0.26113516 0.37479386 0.12256739
0002c0 96 3e 91 3e 97 52 43 3e c4 0c b1 3e ca ff 44 3e
       0.28368062 0.19074474 0.34580052 0.19238201
0002d0 20 d8 4a 3e 71 15 0e 3c bd 6d 55 3e e8 74 96 3e
       0.19809008 0.008672104 0.20842643 0.29386067
0002e0 fc cc cb 3d 17 09 20 3e 1e 21 3d 3f 84 17 7e 3e
       0.09951207 0.15628468 0.7387866 0.24813658
0002f0 6d 9b 96 bd 77 7b c9 3e b4 69 34 be 48 3a 80 3e
       -0.07353864 0.3935201 -0.17618448 0.25044465
000300 32 7f c8 3e 29 5e c5 bf b0 65 b8 3e 53 7a 9c 3e
       0.39159542 -1.541936 0.3601508 0.30562076
000310 54 3a b8 3e f0 17 c5 3e b6 46 b3 3e 0d a6 95 3e
       0.35982 0.38494825 0.35014886 0.2922825
000320 98 f1 a5 3e c0 a7 60 be 2b f7 b0 3e 69 dd 8e 3e
       0.32410884 -0.21938992 0.34563574 0.27903298
000330 f0 87 a5 3e b4 0d ca bd b6 97 c8 be 3e d8 98 3e
       0.32330275 -0.09865895 -0.39178246 0.2985248
000340 8c bc 82 3e 3c 39 83 3e 90 44 8c 3e ee 98 ac 3e
       0.25534475 0.25629604 0.2739606 0.33710426
000350 b2 0f 9a 3e 33 3e 93 3f 08 a0 94 3e da 88 2e 3f
       0.300901 1.1503357 0.29028344 0.6817757
000360 c7 18 a7 3e e7 64 92 3e f1 1f b9 3e 1d 83 b2 3e
       0.3263609 0.28592607 0.36157182 0.34865656
000370 e0 49 63 3e 72 ba bb 3e bc 3c 82 3e 38 08 62 3e
       0.2219615 0.36665684 0.25436962 0.22073448
000380 a2 ca 97 3e e9 7b 45 3e bb 49 be 3e d2 99 12 3e
       0.29646784 0.19285549 0.37165627 0.1431649
000390 9f b3 a1 3e 4d 4e 7b 3e e6 b2 04 be ed 58 6f 3e
       0.31582353 0.24541588 -0.1295887 0.23373766
0003a0 57 1e 62 3e b3 d9 94 3e 86 4d 17 be 62 3f 08 3f
       0.22081886 0.2907234 -0.14775667 0.53221714
0003b0 a6 32 a4 3e 8f d4 75 3e 99 b0 98 3e 75 cb 5e 3f
       0.32069892 0.24006866 0.29822233 0.870292
0003c0 fa b6 87 3e 7f 38 68 3e a1 bb 52 be 70 cf 95 3e
       0.26506788 0.22677802 -0.20579387 0.29259825
0003d0 0b 3a 92 3e 3b 3d eb 3e 12 d0 a6 3e 87 38 83 3e
       0.28559908 0.45945153 0.3258062 0.25629064
0003e0 2a 1c ab bd 1f b6 62 be 9f e6 b6 3e da d9 28 bd
       -0.08354981 -0.22139786 0.35722825 -0.041223384
0003f0 71 2c a2 3e a4 2c 75 3e ae a4 dd 3e 00 0a 05 3f
       0.3167453 0.2394281 0.43289703 0.51968384

net.4.weight f4 [27, 256]
000000 4e 0f 7a 3e 68 98 01 3f 7a a0 04 3f 8d 72 e0 3e
       0.24419901 0.5062318 0.5180737 0.43837395
000010 4b f0 e8 3e 0d 49 f5 3e bb 17 13 3f 0c 74 02 3f
       0.4549583 0.47907296 0.57458085 0.50958323
000020 6e 5d 84 bf 3c dd 14 3f 55 25 0e 3f 76 70 11 3f
       -1.0341012 0.58150077 0.55525714 0.56812227
000030 f9 66 09 3f 25 a9 cc 3e 98 99 e5 3e ed 5f da 3e
       0.5367275 0.39972797 0.44843745 0.4265131
000040 ad 09 e5 3e 3c a3 f5 3e e3 e1 01 3f e6 9b ed 3e
       0.44733945 0.479761 0.507353 0.46408004
000050 c6 5e 1b 3f af b1 af 3e 84 7f f4 3e a7 d2 0f 3f
       0.6069149 0.3431525 0.47753537 0.56180805
000060 7d fb c0 3e cc a6 ef 3e c7 d0 f7 3e 26 f9 b6 3e
       0.3769187 0.46806943 0.48401472 0.3573696
000070 8d 2d b9 3e 86 41 d6 3e 72 86 f5 3e 1f f2 bf 3e
       0.36167565 0.41846865 0.47954136 0.3748941
000080 b3 ea 19 3f 7b be 01 3f dd fa d6 3e b2 a8 f5 3e
       0.6012375 0.50681275 0.41988268 0.47980267
000090 ac 20 c5 3e 50 84 57 bd b1 85 e5 3e 85 0c 45 3f
       0.3850149 -0.052616417 0.4482856 0.7697223
0000a0 6c 99 03 3f 99 b0 cf 3e 27 21 02 3f a8 9d dc 3e
       0.5140598 0.4056442 0.50831836 0.43089032
0000b0 73 97 d7 3e 75 f5 e8 3e cd fb a7 bd 28 d7 f7 3e
       0.42107734 0.4549977 -0.08202324 0.4840634
0000c0 09 a1 e3 3e 39 6d db 3e 57 ef 13 3f 72 ae f1 3e
       0.44458798 0.42856768 0.5778708 0.47203404
0000d0 4e fd 17 3f 8f 85 79 3f 56 46 12 3f 6e ee f6 3e
       0.5937089 0.9746942 0.57138574 0.48228782
0000e0 1b b0 ca 3e 3a a5 f5 3e 83 b0 00 3f 87 e8 a6 3e
       0.39587483 0.4797762 0.50269336 0.3259928
0000f0 01 5c e7 3e 7a c1 e4 3e 9e df 08 3f 8b d8 de 3e
       0.4518738 0.4467886 0.5346621 0.43524584
000100 3c 26 e6 3e 3a 28 75 bf 06 c8 ac 3e f9 88 fa 3e
       0.44951046 -0.95764506 0.33746356 0.48932627
000110 88 65 c4 3e ad e4 05 3f 4f 81 c3 3e cf 42 ec 3e
       0.38358712 0.52302057 0.38184592 0.4614472
000120 69 ba eb 3e 2b 5a b8 3e e0 7a 29 3f 72 04 f8 3e
       0.46040657 0.36006293 0.6620312 0.48440892
000130 75 67 18 3e a8 9b 1e bf 96 39 cb 3e da c3 c0 3e
       0.14883216 -0.6195626 0.39692372 0.37649423
000140 2a d5 0f 3f f0 dc d6 3e 72 2c 0d 3f a4 11 d1 3e
       0.5618464 0.41965437 0.55145943 0.4083377
000150 2f ac c3 3e 53 9d cc 3e 17 96 fb 3e 79 d7 ef 3e
       0.38217303 0.3996378 0.49137947 0.4684408
000160 8f 63 f4 3e 16 cd 61 bf af 92 0f 3f b1 56 9e 3e
       0.47732207 -0.8820356 0.56083196 0.30925515
000170 99 b7 f4 3e 4c 46 6f bf 70 c0 be 3e e3 ae 34 3e
       0.47796324 -0.9346664 0.37256193 0.17644839
000180 51 e1 0a 3f d8 e6 cc 3d a5 e4 7a 3e 20 de d3 3e
       0.54250056 0.100049675 0.24501283 0.41380405
000190 f5 da f2 3e 73 ac b9 3e 5e 1c 04 3f ad d1 ef 3e
       0.47432676 0.3626438 0.51605785 0.46839657
0001a0 e3 c8 d9 3e 17 f1 82 3e f7 52 e2 3e 3d d0 d6 3e
       0.42536077 0.25574562 0.44203922 0.41955748
0001b0 62 78 e9 3e 7d fa e8 3e bc 49 62 be a7 be f3 3e
       0.45599657 0.45503607 -0.2209844 0.47606394
0001c0 76 4c d7 3e 07 0c 0b 3f 3f da 04 3f f8 0f 58 bc
       0.42050523 0.5431523 0.5189552 -0.013187401
0001d0 23 71 e9 3e 50 31 f7 3e 27 3b 30 3f b6 bc ff 3e
       0.4559413 0.4827981 0.6884026 0.49948663
0001e0 98 cb 52 be cf 31 97 3e 45 e9 17 3f 0d ae cd 3e
       -0.20585477 0.29530188 0.59340316 0.40171853
0001f0 e5 98 a6 3e 59 e0 c1 3e a8 63 f9 3e 60 2e e0 3e
       0.32538524 0.37866476 0.48708844 0.4378538
000200 6a 3d c7 3e d8 2d ca 3e bc f4 ae 3e 75 98 e0 3e
       0.38914043 0.394881 0.34171093 0.43866315
000210 a3 2b e6 3e 2d d6 f4 3e c8 a6 81 3e 2f 60 c2 3e
       0.44955167 0.47819653 0.25322556 0.37964007
000220 f0 3c 8d 3e c2 76 04 3f 93 0e fd 3e c6 f2 f4 3e
       0.27585554 0.5174371 0.49425182 0.4784147
000230 f4 89 e0 3e 75 a2 84 3e 6c 14 bb 3e 62 fa d5 3e
       0.4385525 0.25905195 0.36539018 0.4179259
000240 df c9 fa 3e 0f 78 08 3f 9a 8e 06 3f e5 b8 ae 3e
       0.4898214 0.53308195 0.5256134 0.34125438
000250 29 b3 f9 3e 03 32 df 3e e9 92 39 3f 82 0e c0 3e
       0.487695 0.43592843 0.7248979 0.3751107
000260 29 eb c3 3e 76 83 d7 3e 69 ba c7 3e 8f f5 f0 3e
       0.3826535 0.42092484 0.39009407 0.47062346
000270 03 ef e1 3e 4b 18 02 3f 7d 6b ce 3e f7 c4 cb 3e
       0.44127664 0.5081832 0.40316382 0.3979871
000280 e9 9a 0b 3f 85 90 c8 3e 0c 82 bb 3e 20 61 ab 3e
       0.5453325 0.3917276 0.36622655 0.33472538
000290 79 9c df 3e 6e dd f6 3e 31 2e 16 3f 8c 72 fd 3e
       0.43674067 0.48215812 0.5866423 0.49501455
0002a0 e9 dc f7 3e 72 d8 f4 3e 2b d2 d4 3e b1 bf 00 3f
       0.4841073 0.47821385 0.41566595 0.502925
0002b0 ce 8c 89 bf 4e 23 b5 3f a8 ad c8 3e 76 c9 96 3f
       -1.0746095 1.4151399 0.3919499 1.1780231
0002c0 12 96 e9 3e 36 93 04 3f 0f d7 db 3e f8 a2 ef 3e
       0.45622307 0.51787126 0.42937514 0.46804023
0002d0 b5 33 e9 3e 12 19 a6 3f 04 ab e9 3e d2 0a c0 3e
       0.45547262 1.2976401 0.45638287 0.37508255
0002e0 7c 05 ee 3e 7e 07 d0 3e 85 13 6f bf c9 81 e8 3e
       0.4648856 0.40630716 -0.9338916 0.45411518
0002f0 c0 3e 00 3f 84 61 81 3e 8a 11 13 3f 43 64 01 3f
       0.5009575 0.2526971 0.5744864 0.5054361
000300 94 7e bb 3e 8e 30 80 3e 8b 45 ce 3e 82 c0 98 3e
       0.3662001 0.25037044 0.40287432 0.29834372
000310 e0 28 f9 3e 41 de f5 3e 92 87 e5 3e 5b 61 ec 3e
       0.48663998 0.4802113 0.44829994 0.46168026
000320 7f 00 e1 3e 52 6c 12 3f 17 8c e2 3e 6b f9 01 3f
       0.4394569 0.57196534 0.44247505 0.50771207
000330 02 05 fe 3e 45 b7 02 3f 2a 67 06 3f 41 af 04 3f
       0.49613196 0.510609 0.52501166 0.51829916
000340 53 7f c5 3e 71 48 c8 3e 76 62 e9 3e 18 ee e5 3e
       0.38573703 0.39117768 0.45582932 0.44908214
000350 9f 85 ed 3e f2 54 68 bf f7 cd d8 3e 45 60 26 be
       0.46391007 -0.90754616 0.4234464 -0.16247661
000360 e8 4f e6 3e c7 f4 e4 3e 5d a8 b4 3e df 1e bc 3e
       0.4498284 0.44718 0.352847 0.36742303
000370 07 02 dd 3e 4c ff c3 3e ad e1 03 3f f8 00 e7 3e
       0.4316561 0.38280714 0.5151623 0.45117927
000380 ec ae b2 3e 7c 8e 05 3f 71 eb ce 3e ff 56 9b 3f
       0.3489908 0.5217054 0.40414003 1.2135924
000390 20 4e a0 3e e9 bb f7 3e 1c 5a 0a 3f 50 03 03 3f
       0.31309605 0.48385552 0.54043746 0.5117693
0003a0 69 16 d5 3e ad d8 e8 3e f3 3d f8 3e f9 5c 22 be
       0.4161866 0.4547781 0.48484764 -0.15855779
0003b0 f5 f6 e2 3e f9 e5 cc 3e 3c bd d2 3e 90 d3 52 be
       0.44329038 0.40019205 0.4116 -0.20588517
0003c0 5b 62 ce 3e 43 3d 06 3f 80 49 1e 3f 0b 7f ca 3e
       0.40309414 0.5243723 0.618309 0.3955005
0003d0 12 65 da 3e 18 31 b8 3e 4e fa f6 3e 47 ff c8 3e
       0.42655236 0.35974956 0.48237842 0.3925726
0003e0 2c 50 80 3f 60 10 16 3f b1 9d cc 3e d0 b9 fd 3e
       1.0024467 0.58618736 0.3996406 0.49555826
0003f0 ac 90 de 3e c8 07 ec 3e c1 31 e7 3e 06 90 08 be
       0.4346975 0.46099687 0.45155147 -0.1333619

net.4.bias f4 [27]
000000 84 3d 2f bd a6 35 2e 3e 6b dc 4c bd dc bf 1b 3d
       -0.042783275 0.17012653 -0.050014894 0.03802477
000010 85 52 8d 3d 06 24 09 3e 0f 6b 8a 3d 44 7c 37 3e
       0.06900505 0.13392648 0.06758701 0.17918497
000020 24 50 85 bd 1a 53 de 3e de ad 8f 3d 9c 0f 1d 3e
       -0.06509426 0.43422776 0.070155844 0.15337986
000030 8e 85 0b 3d 0d f8 3f 3e 31 73 ce 3d cb 39 93 3d
       0.034062915 0.18746968 0.10080565 0.071887575
000040 67 37 1a bd 12 5f 70 bd af 92 82 3e 91 88 03 3f
       -0.037650492 -0.058684416 0.25502536 0.5138026
000050 b7 16 ee 3e 49 4a 48 3d 63 07 d7 3d c8 e3 0e 3e
       0.46501705 0.04889897 0.10499456 0.13954079
000060 25 34 a0 3c 93 9d 19 3e bf 9f f3 3c
       0.019556114 0.15001516 0.029739259
