model/dqn_policy_net_episode_640.pt (torch, 334295 bytes, 6 tensors)

net.0.weight f4 [128, 336]
00000000: 710a 043e ecbb 12be 264a 643d a75f 5a3c
00000010: d567 2abd b90a 07bd 63e8 43bc 43c8 2fbe
00000020: f683 5a3e 38f6 b8bd 5c0d e1b8 c1bd 82bd
00000030: 1f18 193d 4e34 d3bd c400 76bd a0b3 1cbd
00000040: 8946 4dbe 7d39 d43c 9ce5 353e c09d 56bd
00000050: 7834 893e 6628 25bc 69a0 dfbd 0f70 0fbd
00000060: ddfb 34bd 7808 d3bd bd46 b1bd 9fbc e6bc
00000070: 7e31 fc3d 66c3 d23d c4f3 c7bd ea7d 05bd
00000080: 1dc8 d3be 42fb 733d 8410 893d ddac d23c
00000090: cac6 88bd 3e76 873d 58d9 2f3e 1308 abbd
000000a0: d846 d5ba ca40 cfbc 14fd aabd f829 08bd
000000b0: caf2 3b3d c9fe e43c 71e1 12bd c2a6 743d
000000c0: da61 3bbd 132a 893d 5d0b 283d 07ba 9d3b
000000d0: 8466 96bd 8598 303d df52 283e 2de3 3c3c
000000e0: 143c 503e 17ec 0b3d 31aa 23bd 245b fabd
000000f0: 7d5b 0a3e d97a 073d 452e abba 4b72 51bc
00000100: e3fe 43bd f9c7 083c 351f 37bd 934a 96bc
00000110: 5e0f 71bb edbd 82bd dcac d43d 6142 babd
00000120: 1bca 2cbd 763a ad3c 876b f03d 64c3 623d
00000130: d2e8 8bbd ecc8 143e a133 d0bc 0482 9e3d
00000140: 36cd e23d e087 693d 577f 983d 76e5 063d
00000150: 57eb 4cbe 1d26 92bd 2297 a23d b819 38be
00000160: 7f61 083e 6744 c0bd 32fd bf3d e717 88bd
00000170: 81aa a63d 2dcd 22be 8843 203d 5fe6 cdbd
00000180: 5e41 c53e 7aa6 f1bd f000 143d 94ea c9bd
00000190: 7329 8ebd 4dc6 17bb 5525 45bd 3402 c2bd
000001a0: cfbd 25bf 5b78 a33d 103f 203e 3788 703d
000001b0: b557 823e 92e1 043e 32db 173d c61f 3c3d
000001c0: 2dbc 653e 2174 dfbd 2df6 c4bd 5246 c6bc
000001d0: c69c 7a3d ca01 bebd cb3c 00be df90 dcbd
000001e0: 4d32 94bf b78b d43d 67b5 0f3e c114 a53c
000001f0: 1377 29bd 7677 c23d 4f2e 2d3d e573 ee3c
00000200: fab3 893e 4dd1 11be 4de3 0dbe 4674 7ebd
00000210: 05cc 32bd 2457 27bd 65da d2bc 59c6 87bb
00000220: f4cd 94be 7c72 75bd 08c4 6fbd 97cc 333c
00000230: bfc5 c8bd 0025 9a3d 38da 6a3e 416e 533d
00000240: de3e bd3e aa0e 80bd a34d 74bd b40c 40be
00000250: e584 0c3e e2d8 943c 6872 bdbd c286 9dbd
00000260: 41ff 103e d32d cdbc 1913 9b3d f2af 883c
00000270: 2762 d1bd a4ad b1bb e780 2bbb 1ee4 b7bd
00000280: 04fe 5a3e f99c 40be 231a 5e3d 1051 27bd
00000290: 7eff b53d 11ad 02bc 9a4d 4dbc 9b41 bdbd
000002a0: 8597 f03e 162f 21bd 0d60 0abe d901 47bc
000002b0: 1dcd 88bd 08d1 a8be 901c 45bc 7c20 9dbd
000002c0: 140c 0a3f 7bb5 423d 2626 d73d 4909 35be
000002d0: d500 83bc 7178 81be 82c8 be3b 405d 0bbe
000002e0: 152a 6d3f d789 1c3d 6aaf 05be 3595 50be
000002f0: 185b 21bd 1190 d9bd 4126 383b 9a0b fbbd
00000300: d76c 39bf 3d79 2e3e bdcc e93d e4fb 0b3e
00000310: 7cf0 413e 1490 b53e b6d3 583e 0420 883e
00000320: 678f 4b3f fd8d ccbd 88eb e7bd 51b8 0cbe
00000330: e06c ce3c 1895 8abe 14fa b2bd 8eb7 94bc
00000340: 87c3 babf a441 923e 3349 a53e 7b3a ad3e
00000350: ced6 873d 83c4 983e d1de 4d3d b9d0 8d3e
00000360: c752 333f 4368 0ebe 07b1 1cbe 16b9 7dbd
00000370: aef7 0d3d 44bd 02be e1fc a4bd 526d cdbd
00000380: 9a27 d0be d1ba 733e 78de 473e d985 543e
00000390: b126 fb3d 1e9e e03d c59b 44be ab0d 643e
000003a0: 4180 fe3e 0e0e e53d 9ec8 8bbd 958f 0c3d
000003b0: f2e6 4e3e 0b3f 95bd 6e1e 7cbd 8f1c 743c
000003c0: 42e7 413f 01ab c23c e0fd 26bd c9bf 863c
000003d0: 5a5c 5bbc e092 3ebe 719c 2bbc 9ed2 f6bd
000003e0: 8e70 74bf a18a 8b3e c5ba 363e 4a2b 9c3e
000003f0: 178c 583e 5dcd 883e 53f4 b63d e8d6 d43e
0.12894608 -0.14329499 0.055734776 0.013328469 -0.04160293 -0.03296921 -0.011957261 -0.17166238
0.21339402 -0.090313375 -0.000107313244 -0.06383849 0.03737652 -0.10312711 -0.060059324 -0.03825724
-0.20046438 0.025906319 0.1776337 -0.052396536 0.26797843 -0.0100804325 -0.10919268 -0.035018977
-0.044185508 -0.1030435 -0.086560704 -0.028166113 0.123141274 0.102911755 -0.097632915 -0.032590784
-0.41363612 0.05956579 0.06692603 0.025717193 -0.06678541 0.0661435 0.17172754 -0.083511494
-0.0016271723 -0.025299449 -0.08349052 -0.03324315 0.04588584 0.027953522 -0.03585953 0.059729345
-0.045747615 0.06697478 0.041026462 0.004813436 -0.07343772 0.043114204 0.16437863 0.011528772
0.20335418 0.0341607 -0.03995723 -0.12224415 0.13511463 0.03307614 -0.0013060054 -0.012783597
-0.0478505 0.008348458 -0.044707496 -0.018346107 -0.0036782841 -0.06383882 0.10384533 -0.09094692
-0.04218493 0.02114604 0.11739259 0.05536212 -0.06831516 0.1452977 -0.025415244 0.07739642
0.11074297 0.057014346 0.07446163 0.032933675 -0.2001165 -0.07136176 0.079389825 -0.17978561
0.13318442 -0.09388047 0.09374465 -0.06645184 0.0813799 -0.15898581 0.039126903 -0.100537054
0.38526434 -0.11799331 0.036133707 -0.09859195 -0.069414996 -0.0023158968 -0.048131306 -0.094730765
-0.6474275 0.0798194 0.15649056 0.058723655 0.2545754 0.12976673 0.037074275 0.04592874
0.22435065 -0.10910822 -0.09617267 -0.024203453 0.061184667 -0.09277685 -0.1252319 -0.107698195
-1.157785 0.10378211 0.14034043 0.020151498 -0.041373324 0.094954416 0.04228049 0.029107997
0.26895124 -0.14239998 -0.1385624 -0.062122606 -0.0436516 -0.04085459 -0.025738904 -0.004143518
-0.2906338 -0.059923634 -0.05853656 0.010974071 -0.09803342 0.075265884 0.22934806 0.05161882
0.36962026 -0.06252797 -0.059644353 -0.18754846 0.1372257 0.018169824 -0.09250337 -0.07691719
0.14159872 -0.025046265 0.07572002 0.01668546 -0.10223799 -0.005422311 -0.002616936 -0.08979057
0.21385962 -0.1880988 0.054224145 -0.04084879 0.08886622 -0.007975833 -0.012530709 -0.09241029
0.469906 -0.039351545 -0.13513203 -0.012146437 -0.06679747 -0.32971978 -0.012030736 -0.076722115
0.5392468 0.047536355 0.10505323 -0.17679323 -0.015991608 -0.25287202 0.0058222422 -0.13609791
0.9264234 0.03821739 -0.13055196 -0.20369418 -0.039393514 -0.106231816 0.0028098973 -0.12258072
-0.724317 0.17038436 0.11416004 0.13670307 0.18939394 0.35461485 0.21174511 0.26586926
0.7951569 -0.099880196 -0.11324221 -0.13742186 0.0251984 -0.27066875 -0.08739105 -0.018153932
-1.459092 0.28565705 0.3228241 0.3383368 0.066327676 0.29837427 0.050261322 0.27698305
0.70048183 -0.1390696 -0.15301906 -0.06194409 0.034660034 -0.12767512 -0.08056045 -0.10030617
-0.40655214 0.23801734 0.19518459 0.20754184 0.12263239 0.109676585 -0.19200046 0.22270839
0.49707225 0.11184321 -0.06825374 0.034316618 0.20205286 -0.07287415 -0.061552458 0.014899387
0.75743496 0.023763182 -0.040769458 0.016448872 -0.013388718 -0.18610716 -0.01047431 -0.12051891
-0.95484245 0.27254203 0.17844684 0.30501777 0.2114719 0.2671918 0.0893332 0.4157021

net.0.bias f4 [128]
00000000: 4187 203e cd9c 0a3e 13a0 943d 6571 ad3d
00000010: 39ed ec3d 7a7c 323d cdb6 923e b5c6 283e
00000020: 2d20 643c 0ed7 203e 952c ef3d ccc4 9d3d
00000030: 43e8 b83d 60fe 8f3d 5350 d43d 1c14 d43d
00000040: 4e08 983d a9b2 353e 6dcb 103e d227 993d
00000050: fe03 893d 6cee 0a3d ade7 1b3e 5032 aa3d
00000060: e000 163e 7d33 063e 99e4 b63d 1b23 ca3d
00000070: fa8b da3d 4ea8 6f3e b9e3 f03d 6be9 843d
00000080: 4f31 d93d beae 7f3d 869d 8c3d 60f8 8b3d
00000090: 214d 9e3d e512 f93d ec7d e43d 5687 ec3d
000000a0: 8de5 033d d7d6 c03d 1d16 a03d 2e5b f23d
000000b0: cbe0 773d a252 1e3e 0478 a13d 128f 1a3e
000000c0: ef59 e53d 5b26 cc3d 30b3 ef3c a134 b03d
000000d0: b35b 3c3d e41e a73d 74d6 da3d 4d1e d93d
000000e0: 6dfd d93d 5a0b 6c3d 8ea6 193e b032 ad3d
000000f0: 76c9 293e 4885 e63d ba1b 853d 8a0b ca3d
00000100: 7ae2 fa3d 19b6 153e bd63 4b3e 219a c73d
00000110: 7582 c83d aa72 303d 7267 063e b9c3 063e
00000120: 82f7 153e 58ba 1f3e fdd2 d83d f80d 483e
00000130: ee20 f03d 0b22 103e 14d8 1b3e e3a7 d23d
00000140: b1f2 393d db1c 313f 9365 fe3d 762f 3a3e
00000150: 8a1d f13d 9636 0f3e 6436 2a3e 5d06 283d
00000160: 46f1 633e d390 bb3d 1de3 153e 84f9 a33d
00000170: 94c0 0c3e f80a 673d 6af4 2a3e d2f1 6f3d
00000180: 13e5 0b3d b04f 0e3e 7e47 b73d 03c9 783d
00000190: 2eb4 1b3e 7e71 463e 6897 883d dac3 203e
000001a0: b119 983d 35eb cf3d adfa c13d 5c24 4f3d
000001b0: e967 053e 387f 033e f179 f43c 7b8b eb3d
000001c0: 7107 883d 9fa6 e83d 8d1b f03d 9075 ad3d
000001d0: 4298 9cbc 52e2 173e dc03 fdb9 3517 253e
000001e0: 20f6 d73d 5bdc 053e 5aa5 213e da68 333e
000001f0: f6b9 183e 1d22 8f3d bc11 823d ecfd 653d
0.15676595 0.13536377 0.07257094 0.08468894 0.11568684 0.04357574 0.2865509 0.1648205
0.013923687 0.15707037 0.11678425 0.07703552 0.090286754 0.0703094 0.10366883 0.10355398
0.07423459 0.17743935 0.14140101 0.07478298 0.066902146 0.033918783 0.15225096 0.083103776
0.14648771 0.13105579 0.0893032 0.09869977 0.1067123 0.23404047 0.11762185 0.064898334
0.10605108 0.062422507 0.06865983 0.06834483 0.07729555 0.12161807 0.1115683 0.11549251
0.03220134 0.094159774 0.07816718 0.118337974 0.060517114 0.1546121 0.07884219 0.1509364
0.11198794 0.09968253 0.029260248 0.08603788 0.04598589 0.08160189 0.10685435 0.106014825
0.1064404 0.057628013 0.15004942 0.084569335 0.16580757 0.1125589 0.06499429 0.09865482
0.12250228 0.14620246 0.19862266 0.09746195 0.09790508 0.043078102 0.13125399 0.131606
0.14645198 0.15598428 0.10587118 0.19536579 0.11725031 0.14075486 0.15219146 0.10285928
0.045397464 0.69184655 0.124217175 0.18182167 0.11773212 0.13985667 0.16622311 0.041021693
0.22260007 0.091584824 0.14637418 0.08006576 0.13745338 0.056406945 0.16694799 0.058580227
0.03415401 0.13897586 0.08949183 0.060738575 0.15205452 0.19379231 0.066695035 0.15699711
0.07426775 0.10152284 0.09471641 0.050571784 0.1302792 0.12841499 0.029843302 0.11501213
0.06642044 0.113599055 0.11724005 0.08469689 -0.019115571 0.14832428 -0.00048258796 0.16122134
0.105449915 0.1307234 0.15785733 0.17520466 0.14914688 0.069889285 0.06351039 0.056150362

net.2.weight f4 [256, 128]
00000000: f9df 9e3f d290 eb3d ee01 c03f dbda bd3e
00000010: 5901 bdbd 296a 973e 6bcd 1b3f 7ecd da3f
00000020: 2e56 1740 80a1 033f f868 493f dc32 923e
00000030: 5bf6 943d 2385 0e3d 190e 77be 2a34 653f
00000040: 0a25 e53e a18d 4bbd 28c8 d63e d0fd a53f
00000050: a846 8a3f 2ac5 e43f 9e44 71bd 0c80 013f
00000060: 5f38 bc3e 5810 c53d ccc5 2e3f 299b 42be
00000070: 3073 bb3e c1f1 513d 9b9f 5c3e db2d 233f
00000080: 0c5f 3a3f ac60 be3e 993f 9c3e b50f 293f
00000090: bf81 bbbd f0c4 903f c885 953f 87c0 273d
000000a0: 2bd4 27bf c16e 8f3e f307 283e e3d3 23bc
000000b0: 1900 2c3e 1d30 6e3e 3957 813f 36a6 7e3f
000000c0: 5aab 453f 161c 443e 1f23 263f 29e4 a73f
000000d0: dfac bb3e 7bdd 373e 6328 c93e 8d9d 29be
000000e0: 36bb 95be 760e 2bbf 89dd b13e 2b2b 4b3f
000000f0: 0135 d53d 17ab dc3f b999 b33e f2b5 d63e
00000100: cfad 213e ed25 083f fb9e 853f a6f1 223e
00000110: 3e03 8e3f 7873 c63e 724f 24be 1675 e43d
00000120: 0491 843e 1a03 523f 004c f03e 6fb1 d23d
00000130: a90b a33e a212 86be 036a 963e 69df 873e
00000140: 5dea 153f d77f e33e 35c5 aebe 5b2f e43d
00000150: a547 ce3e 0960 4dbe 4a63 313f 8f44 d63e
00000160: 7cec 80be b279 443d c560 113f 196b c43e
00000170: 3fad 3a3f 21a9 a53f 4990 003f ac4f 013f
00000180: d7c6 593f 23c7 0d3d 0a2f 343e 1330 3dbf
00000190: 1217 bfbd c2ad 6cbe 9c98 b93f 3bb2 8a3e
000001a0: dfff 373e 66f7 713e 10d0 ef3e e2dd 4a39
000001b0: 0afd 433f c2c2 b13f 1039 083e 7af5 0a3f
000001c0: 8a9f f03e 27b0 0f3f 0b28 103f 4142 563f
000001d0: d542 da3f 0cef 393e e815 3ebf 5cbc 033f
000001e0: d947 8d3d bf96 01bd a7cc 8b3e 3ea0 8d3e
000001f0: 4bb5 f23f dc11 c53c d842 6f3f feb3 ad3f
00000200: e8ff 0e40 6498 0f3e 164e 563f dcd3 04be
00000210: a66c e43e 153a 233f 6de2 d6be 40fe 703f
00000220: d369 f23e 8cb1 7a3e 1c4a 86be 4f3a 213d
00000230: 401d a13e 149f 253f 85da 3e3f af5a 0d3f
00000240: df08 943e 420f 443f 9e76 613e 7c72 aebc
00000250: 267d c13f fe90 793f 405b 253f a19f 363f
00000260: 0b92 023f 29ec d33e 8507 483f acd5 d03e
00000270: 32f0 2d3e dc74 dc3e 73d8 5e3d 5c81 d73f
00000280: 51ee bf3e edcb 443f 9e31 a23e 6624 eb3d
00000290: f5a0 483f 2376 923f ff47 693f 1879 123f
000002a0: 6e97 5ebf 89de a33e 76d1 a33e b0e6 323f
000002b0: 80fc fa3e 0621 203f 4cbc ce3f 74b7 2f3f
000002c0: f717 bb3f b1a3 5b3e 8ccc 5fbe cd0f 093f
000002d0: aafb 183f b11f 683e 319d 163f 1f64 fb3e
000002e0: 3538 573f c4f9 51bf 7d84 c7bd a6ad 833f
000002f0: 7ae1 303d 63cb af3e d3db 383d 189b 023f
00000300: e626 e2bd f43d 0d3d 5ede a63f 22ad 343e
00000310: d1fe a13f 9995 debe ede6 503f 0054 413f
00000320: 8c2a 593f 9d6b 9c3d 376f f73c 6195 bf3e
00000330: 4adf 483f c498 0c3f 3637 043f f119 743f
00000340: 6f19 343f 0132 9abe c67a b93e de1f 933e
00000350: 236e 413f b235 ac3e 0002 123d cb89 7c3e
00000360: 5528 463f a646 123f 8388 8abd 3994 c43d
00000370: 3ac9 a4bd 3b14 31bf d897 98be 34fa 973e
00000380: 6765 38be 5c7e 713f 9eeb 843e f37f 663f
00000390: 7fa8 5e3f d870 e43e 5b14 c83f e7a2 2b3f
000003a0: a0d9 ce3e 26a0 a23e 457c 1e3e 933f 2a3f
000003b0: c6eb 9fbd a505 5e3f ace6 4b3f e3ac 3abd
000003c0: 59f6 0cbe 1e03 b03f 5f01 193f 9faf 27be
000003d0: 60aa 6ebf 365f 203e f730 67bf bd9f 5f3f
000003e0: 98ed 5e3f 1da5 023f e6d0 9b3e 552e b73e
000003f0: 56b6 983e 47a0 c83e 8ec4 0440 136a c93f
1.2412101 0.11502232 1.5000589 0.37081036 -0.09228773 0.2957318 0.6086032 1.7093961
2.364635 0.51418304 0.78675795 0.28554428 0.07273551 0.034794938 -0.24126472 0.8953272
0.4475482 -0.049695615 0.41949582 1.2968082 1.0802813 1.787267 -0.05890333 0.5058601
0.36761758 0.09622258 0.68270564 -0.19004501 0.3661132 0.051255945 0.2154526 0.63741845
0.7280128 0.3718313 0.3051727 0.6603959 -0.091556065 1.13101 1.1681452 0.040955093
-0.6555812 0.28014186 0.16409282 -0.009999248 0.16796912 0.23260541 1.0104743 0.9947237
0.77214587 0.19151339 0.6489734 1.3116504 0.36655328 0.17955582 0.39288625 -0.16564007
-0.29244393 -0.6681894 0.3473933 0.79362744 0.104105 1.7239712 0.3507822 0.41935688
0.15788959 0.5318287 1.0439142 0.15912494 1.109474 0.3875997 -0.16045931 0.11155145
0.25891888 0.8203598 0.46932983 0.10287749 0.31844833 -0.2618609 0.29377756 0.26537636
0.58560735 0.44433472 -0.34134832 0.11141845 0.40289035 -0.20056166 0.6929213 0.4184918
-0.25180423 0.04796762 0.56788284 0.3836296 0.729206 1.2942239 0.5022016 0.50512195
0.8506903 0.03461374 0.17596069 -0.7390148 -0.09330572 -0.23113158 1.4499698 0.27089104
0.17968701 0.23629531 0.46838427 0.00019346879 0.7655798 1.388756 0.13303018 0.5428082
0.4699672 0.5612816 0.563111 0.83694845 1.7051646 0.18157595 -0.74252176 0.5145929
0.068984695 -0.031637903 0.27304575 0.27661318 1.8961576 0.024056368 0.9346137 1.3570554
2.2343693 0.14022976 0.837129 -0.12971443 0.44614142 0.637605 -0.41969624 0.94137955
0.47346362 0.24481791 -0.26228416 0.039362248 0.31467628 0.6469586 0.74552184 0.552165
0.28913018 0.7658578 0.22017905 -0.021294825 1.5116317 0.97486866 0.6459236 0.71337324
0.51004094 0.41391113 0.78136474 0.4078802 0.16986158 0.43057907 0.05440564 1.6836352
0.37486508 0.76873666 0.3167848 0.11481552 0.783706 1.1442302 0.9112548 0.57216024
-0.86949813 0.32005718 0.31995744 0.6988325 0.49020767 0.6255039 1.6151214 0.686393
1.4616688 0.21449162 -0.21855372 0.53539735 0.5975901 0.2266834 0.58833605 0.49099824
0.8407014 -0.8202174 -0.09742067 1.0287368 0.04318378 0.3433486 0.045131516 0.51017904
-0.110425755 0.03448291 1.3036611 0.1764417 1.2655889 -0.4347351 0.81602365 0.755188
0.84830546 0.07637713 0.030204399 0.37418655 0.7846571 0.549206 0.51646745 0.95352083
0.7035131 -0.30116275 0.3622648 0.2873525 0.7555868 0.33634716 0.03564644 0.24661939
0.7740529 0.5713905 -0.06764319 0.09598584 -0.080461934 -0.69171494 -0.29803348 0.29683077
-0.18007432 0.94333434 0.25961012 0.90038985 0.86975855 0.44617343 1.5631212 0.67045444
0.4040041 0.3176281 0.15477093 0.66503257 -0.07808642 0.8672736 0.7964885 -0.045575034
-0.13765849 1.3750951 0.5976772 -0.16375588 -0.9322872 0.1566132 -0.9030909 0.87353116
0.8708129 0.5103319 0.30432814 0.35777536 0.2982661 0.39184782 2.0744967 1.5735496

net.2.bias f4 [256]
00000000: e4f4 713e 82eb 2e3e 9286 263d 69f6 023e
00000010: 50c1 093e 3712 603e 1837 93be 8e02 253e
00000020: fc38 a13f fa6a 35be c9b9 30be 546c b03c
00000030: f32c 253e 1d92 c63d 602f de3d c1ed b83d
00000040: da09 293e 6d99 dc3d 3c62 5abe 79d7 903d
00000050: 3ad3 63be c6ec 463e 399b 003d 0050 22bd
00000060: a306 9e3e fe93 e23d 46e4 753d 7b6a eb3d
00000070: 4b9e 883e c36f 3d3e d25f 393d ff3a 3d3e
00000080: dd5d 69be b1c9 85be 99fd e23d 5d68 06be
00000090: 34d9 8a3e b6d9 7abc 0bb8 123e b6a2 b13d
000000a0: 5d50 9f3c 3d67 b03d 0f98 793d e5e3 453e
000000b0: 2f9f ec3d 403a 663e 062f 563e f067 16bd
000000c0: 7c5d f13d 19ad 113e 1ead 88be 47fb 683e
000000d0: 06f9 88be f962 4d3e 061a 64be a787 0c3e
000000e0: 2b1b c03c e675 813d d2e7 87be 81e5 033d
000000f0: c3c6 d73d 4360 f63d 01a9 a93e 2cd2 383e
00000100: 8159 363d 257c 9b3f 9806 8f3e 7385 df3c
00000110: 3656 5d3d 67ff 0f3d 0d58 6e3e 8174 64be
00000120: 30f4 b23d 4123 a13d f588 f5be 8448 743e
00000130: f052 ae3e 8f64 753f 3272 423e 2134 493e
00000140: 8c0c 6ebe 986c 2d3e 83d8 3fbe 417e 1e3d
00000150: ce94 5d3d 7231 5f3c 081a 213d b989 693d
00000160: 14e2 9a3d 66d5 df3e 76c1 1a3e 8b0a 133e
00000170: a9ca 523c a128 993f 4566 993e b5d7 5e3c
00000180: 8d91 223d 1225 8e3e 5def 803e d6d4 423e
00000190: 0ba5 23be c5b5 bc3d 1a5f a63e d789 1abe
000001a0: c6ed 813d d0f4 973e 7bac 1f3e 0e8d 4e3e
000001b0: d813 493e cea2 733d 91fd b53e 3ce7 193d
000001c0: c94e b13c ba76 453d 17db b93d 5227 29bc
000001d0: a8ac 72bc 55e1 88be 8044 a6be 3c78 49be
000001e0: af4e 6c3e 946e 483e f584 37be 1755 003e
000001f0: a862 933e f495 3d3e 84ce e63a 3023 943d
00000200: ca44 c63d 16a7 e03d 8b97 923d b5e1 4d3e
00000210: 775c 213b b116 0f3e 81f8 2c3e ccf6 ce3c
00000220: 2702 d33e e332 b93d 9e8c ac3d 2f72 073e
00000230: 57fc 7a3e 5e6c 8b3e 96d0 0a3e f08d 223e
00000240: b2fb 053d 135a 3e3e b2e4 5fbe 9a65 19be
00000250: 89d6 933e a539 533e 4e8b af3e 1d83 3bbc
00000260: 9ba5 9d3d f8b7 c43d 2ee5 52bc 5144 983d
00000270: 4381 683e 7c2a 8c3d 7a0c 493e 903a c33d
00000280: 8463 28be 87fe 293e 31e3 073e 74b0 8a3e
00000290: d062 fa3d a8c0 0f3e 20db acbd b5a5 1a3d
000002a0: 4be9 183e 8c74 8bbe 9462 2a3e a0a9 f53d
000002b0: b43d 8d3f a8a3 803e 1ece 483e 8253 ac3c
000002c0: b832 d33d 2b19 cb3c 1dd4 223e 3aa0 e63c
000002d0: 2362 193c 0752 18bd a645 593d ebf7 ee3d
000002e0: 7732 a4bd 2f31 f7bc 2165 e33e 2b47 8f3d
000002f0: 7fc7 0bbe 6dc6 c13e abb2 82be a070 de3d
00000300: cd4b 4e3e 1452 9ebf 7d8d 373e 26c5 673e
00000310: 3304 4d3e 1235 733e 7fa6 223e 9464 f53d
00000320: 8aff 073e fd66 95be 6658 213e 65ac 073e
00000330: e1a4 2b3e e2cd cebd 308c 2abe c29d 083e
00000340: f4e5 8f3d f057 a33d 2349 c13d 1942 173e
00000350: d745 f83d e0b9 693f dec3 dd3d 7378 083f
00000360: ee89 283e 2b41 d63d 500d 2d3e 6f25 043e
00000370: a934 853d cbd4 3a3e 8418 b43d b31e 173d
00000380: 1cf2 f53d 3f49 313d afeb 3f3e 153d 593d
00000390: ee8d f63d 33f1 ce3d 8628 46be 5d76 533d
000003a0: 6570 643d 7e83 f33d e829 1abe 01ac ad3e
000003b0: fe76 893e a6cd 3c3d 82f5 dc3d 2d8c 183f
000003c0: 83dc cc3d 6557 6b3d b346 81be 00fc d63d
000003d0: e395 f33d bde4 923e 760c 2a3e c013 bc3d
000003e0: a3a0 03bd 2d92 8dbe f19c 303e 2ae6 47be
000003f0: a581 ee3d 375a 3b3d 4451 853e 1f17 ba3e
0.23628575 0.17082027 0.04065568 0.1278931 0.13452649 0.21881948 -0.2875297 0.16114256
1.2595515 -0.1771659 -0.17258371 0.02153603 0.16130428 0.09695838 0.1084888 0.09029723
0.16507664 0.10771451 -0.21326536 0.07072348 -0.22248545 0.1942626 0.03139803 -0.039627075
0.30864438 0.110633835 0.06003215 0.11494919 0.26683268 0.18499665 0.045257397 0.18479536
-0.22789712 -0.2613044 0.11083526 -0.13125749 0.27118838 -0.015310695 0.1432802 0.08673613
0.0194475 0.08613441 0.06093603 0.19325216 0.11553799 0.22483158 0.20916376 -0.036720216
0.11785409 0.14226188 -0.26694578 0.22752105 -0.2675249 0.20057286 -0.22275552 0.13723622
0.023450455 0.063213155 -0.26544052 0.032201294 0.10535958 0.12030079 0.33136752 0.18048924
0.04451895 1.2147261 0.27934718 0.027285313 0.054037295 0.03515568 0.23275776 -0.22310068
0.08737981 0.07868052 -0.47956052 0.23855788 0.3404765 0.95856565 0.18988875 0.19648792
-0.23246974 0.16935956 -0.18734936 0.038694624 0.05409699 0.0136226285 0.039331466 0.05701611
0.07562652 0.43717498 0.15112862 0.1435949 0.012865701 1.1965524 0.29960838 0.013601233
0.03968959 0.27762657 0.2518262 0.19026503 -0.15980928 0.09214357 0.32494432 -0.15091644
0.0634418 0.29678965 0.1559314 0.20170996 0.19636476 0.059481435 0.35545018 0.037574038
0.021644013 0.04820893 0.09074991 -0.010324316 -0.014811672 -0.26734415 -0.32474136 -0.19674772
0.2307689 0.19573432 -0.17921813 0.12532459 0.28786206 0.18514234 0.0017609154 0.07233274
0.09681089 0.10969369 0.07157811 0.20105632 0.0024621764 0.139735 0.16891672 0.025264166
0.4121258 0.09042909 0.08425258 0.13227151 0.24510323 0.27231115 0.13556132 0.15874457
0.03271074 0.18589048 -0.21864584 -0.14980164 0.28874615 0.20627458 0.3428597 -0.011444834
0.07697602 0.09605402 -0.0128720235 0.07434905 0.2270556 0.06844041 0.19633666 0.09532654
-0.16444212 0.16601 0.1327026 0.27087748 0.12225878 0.14038336 -0.08440232 0.037755687
0.14932744 -0.27237356 0.16639167 0.11995244 1.1034455 0.2512486 0.19609877 0.021035913
0.10312408 0.024792274 0.15901227 0.028152574 0.0093617765 -0.037187602 0.053044938 0.1166838
-0.08017438 -0.03017482 0.44413093 0.06995996 -0.1365032 0.378467 -0.25526938 0.10861325
0.20146103 -1.2368798 0.17925067 0.226338 0.20021133 0.23750713 0.15883826 0.119820744
0.13281074 -0.29180136 0.15756378 0.13249357 0.16762115 -0.10097863 -0.1665504 0.1334143
0.07026282 0.07975757 0.09437778 0.14771308 0.12122696 0.9129925 0.10828374 0.5330879
0.16458866 0.104616486 0.1689961 0.12904905 0.06504185 0.18245237 0.087937385 0.03689451
0.12009069 0.043282744 0.1874225 0.053036768 0.1203879 0.10104599 -0.19351396 0.051626552
0.05577125 0.118903145 -0.15055048 0.3392029 0.26848596 0.04609456 0.107890144 0.5958889
0.10002997 0.057456393 -0.25249252 0.10497284 0.11893823 0.28690138 0.16606316 0.091834545
-0.032135617 -0.27650586 0.17247368 -0.19521394 0.116458215 0.045740332 0.26038563 0.36345765

net.4.weight f4 [27, 256]
00000000: bd49 263e ffee ca3e 744b cc3e a385 b03e
00000010: 10f6 af3e 36b0 ba3e 190c db3e db9e c13e
00000020: f184 6cbf fdbb de3e 9418 cc3e 12c6 603e
00000030: ce85 d43e 12ff 8d3e 4029 aa3e af3d a13e
00000040: 9559 a83e a870 bc3e ae0e ba3e 1ce9 b03e
00000050: c75d e53e 5f35 733e 2aa8 b63e c575 e13e
00000060: d881 853e 6d7b b43e f30d bc3e e66b 893e
00000070: 2031 363e 1220 a83e 3377 bb3e ec3a 973e
00000080: caa4 e53e 0655 b83e 04cc a13e 75a8 aa3e
00000090: fb83 0d3f 5084 57bd 5703 ae3e b6be 86bd
000000a0: 7e07 c63e 7ea3 933e 876a c33e 4f03 9f3e
000000b0: 3168 9d3e 720a ad3e 86d0 1bbd 0fc4 bb3e
000000c0: 6d76 ae3e df8a a13e f6b6 dd3e 4abf b83e
000000d0: b935 db3e 3e0b 493f e16c d43e d024 b33e
000000e0: 0181 913e 12dc bb3e 6b32 b63e 201f 3e3e
000000f0: 290c a83e 981a ae3e b45f d13e f7f1 a03e
00000100: b26d a93e 765e 59bf 944e 813e ba3a c23e
00000110: 2059 8b3e 7b3e ca3e ba3b 963e 5f6d a93e
00000120: 3db2 b53e 4108 853e ed30 b63e 5e4e c53e
00000130: 6028 923e 4fd8 82be ee04 923e f5c4 8a3e
00000140: 2155 d23e bbdd 4f3e e66a ce3e 354b 983e
00000150: d71c 943e 495d 953e 7d45 ba3e 899f b43e
00000160: 0e25 b03e b4bc edbe b30d da3e ba8c 723e
00000170: 0ab8 b13e a848 52bf 095c 4c3d 058c 013e
00000180: 2b75 c23e 2f7e 473e 3db8 86bd 460e 9d3e
00000190: 8179 aa3e f275 513e 94ee ac3e 925f a83e
000001a0: 6e2d 9e3e 4418 343e 1647 b13e 22fb 983e
000001b0: 4c3e ad3e 4be0 b33e f9b1 ed3d 58f3 b53e
000001c0: 3e0f 9b3e b476 d83e dc7c cb3e f80f 58bc
000001d0: bd7a a83e 1ea4 ad3e 2af1 d43e 509b be3e
000001e0: 8217 e4bd 8895 753d d5fc e33e 1fc0 963e
000001f0: 8703 8b3e d646 8b3e a3cc be3e 4627 ab3e
00000200: 768f 933e 3b2b 923e 419c 803e a634 af3e
00000210: 0850 a63e f95e bc3e 6214 183e af0d 893e
00000220: 6d30 0e3e 0fb6 cc3e 7f52 c63e 4218 b43e
00000230: 9e6b a53e 8390 083d 9636 843e 7394 a13e
00000240: b093 bb3e d77c d63e a419 c13e 3e7b 7f3e
00000250: dfeb b63e 26f1 a23e f89a 2b3f ce07 873e
00000260: 92c7 893e b6b3 9f3e 49d6 8c3e 27c6 ae3e
00000270: ec71 a93e 733c c83e 7e25 913e 221a 923e
00000280: 22e6 cc3e 2dd0 923e 05da 883e dbe9 863e
00000290: 5630 a23e 6757 b83e a4ef dd3e 972e c83e
000002a0: a010 bf3e b796 ac3e 3840 a03e b2ac bd3e
000002b0: fee7 7abf 97f1 793f 3887 8b3e fcc7 743f
000002c0: 6f41 b13e dea2 cc3e 05f9 a23e 50cc af3e
000002d0: bf1e b03e 5518 893f de98 ac3e 48b3 883e
000002e0: 4b56 b43e 18b9 913e 00bb 1dbf 5404 ac3e
000002f0: 4b16 b63e fbec 7a3d eab8 d73e 3b95 c13e
00000300: 4634 883e 5d06 1fbd 678b 923e 8dc0 103e
00000310: 3cfd b93e 848c b03e f56c b43e d40d b33e
00000320: e2f8 ae3e 20c1 d43e c09a a43e 36b5 c13e
00000330: a140 bc3e 563b b33e 6562 863e 3ed2 c73e
00000340: 1d16 913e 2727 903e 1b28 b43e c835 af3e
00000350: 57ca b13e 50e7 dcbe 2f1e a53e 321f 5d3c
00000360: dff2 a93e f600 ab3e 6d53 843e 8bab 9d3e
00000370: 0808 9c3e 9c88 913e faea c63e 2b15 b03e
00000380: 07ea 7f3e 4c8f cb3e 61e6 9d3e b15a 823f
00000390: 5a98 6c3e fdd4 ba3e d4b3 c43e 9e17 d03e
000003a0: ee9e 973e 67d6 ad3e d50e ab3e e605 653e
000003b0: 841a 813e 3f7b 9c3e f727 a03e 464d b03d
000003c0: 0246 8e3e f728 ce3e 824c ec3e d3f7 913e
000003d0: dfef 9c3e 73ac 833e 9fc7 b93e 8a0e 883e
000003e0: 725f 383f 5434 db3e 7f33 943e 1429 bc3e
000003f0: 7dc0 ad3e 9b4c b63e 4b5b af3e 45af 943d
0.16239066 0.39635465 0.39901316 0.34476957 0.34367418 0.36462563 0.42782667 0.3781651
-0.9239035 0.435028 0.39862502 0.21950558 0.41508335 0.27733666 0.33234596 0.31492373
0.32880846 0.368047 0.36339325 0.34552848 0.4479811 0.23750828 0.35675174 0.44035164
0.26075625 0.35250416 0.36729392 0.26840132 0.17792177 0.32836968 0.3661438 0.2953714
0.44852287 0.36002368 0.31600964 0.33331648 0.5527951 -0.052616417 0.33986923 -0.06579344
0.3867759 0.28835672 0.3816721 0.31057212 0.30743554 0.33797032 -0.03804066 0.36673018
0.34074727 0.31551263 0.4330365 0.36083442 0.42814425 0.7853278 0.41489318 0.34989023
0.28418735 0.36691338 0.3558534 0.18566561 0.32821777 0.34004664 0.40893328 0.31434605
0.33091503 -0.8490976 0.25255263 0.3793543 0.27216434 0.39500794 0.29342443 0.33091256
0.35487548 0.2598286 0.35584202 0.38536352 0.2854643 -0.25555655 0.28519386 0.2710339
0.41080573 0.20299427 0.40315932 0.29744878 0.28928253 0.29172733 0.3638114 0.35277966
0.3440327 -0.46433032 0.42588577 0.23686495 0.34710723 -0.82142115 0.04989246 0.1265107
0.37980017 0.19481729 -0.065781094 0.30674952 0.33295825 0.20455149 0.3377577 0.32885414
0.30894035 0.17587382 0.34624547 0.298791 0.3383659 0.3513206 0.11606211 0.3553722
0.30285066 0.42278063 0.39743698 -0.013187401 0.32906142 0.33914274 0.41590244 0.3722787
-0.11137296 0.059957057 0.44528833 0.29443452 0.2715113 0.2720248 0.372655 0.334284
0.2882039 0.28548607 0.25119212 0.34219855 0.32482934 0.36791208 0.14851525 0.26768252
0.1388566 0.3998265 0.38734815 0.35174757 0.32308668 0.033340942 0.25822896 0.3155857
0.36636114 0.4189212 0.37714875 0.24949357 0.3572683 0.31824607 0.6703334 0.26373142
0.26910073 0.31191796 0.27507237 0.34135553 0.33094728 0.3910862 0.28348917 0.28535563
0.40019327 0.2867445 0.26728836 0.26350293 0.31677502 0.36004183 0.43346894 0.39098045
0.3731737 0.33708736 0.31298995 0.3704582 -0.9801024 0.9763426 0.272516 0.9561765
0.34620234 0.39968008 0.31830612 0.34335566 0.34398457 1.071055 0.33710378 0.2669928
0.35222086 0.28461528 -0.61613464 0.33597052 0.35563883 0.06126116 0.42133266 0.37809166
0.2660238 -0.038824428 0.2862198 0.14135952 0.36326015 0.34482205 0.35239378 0.34971488
0.34174258 0.41553593 0.32149315 0.37833565 0.36768058 0.35006207 0.26246944 0.3902759
0.28337184 0.2815487 0.35186848 0.3422072 0.34724686 -0.43145227 0.3224959 0.013496207
0.33193108 0.3339917 0.258449 0.3079494 0.30474877 0.28424537 0.38851148 0.3439115
0.24991618 0.39757764 0.30839828 1.0183927 0.23104993 0.36490622 0.38418448 0.40643018
0.2961344 0.33952639 0.33409753 0.22365531 0.25215542 0.3056278 0.3128049 0.08608489
0.27787787 0.4026563 0.4615212 0.28509387 0.30651757 0.25717506 0.3628511 0.26573592
0.7202064 0.4281336 0.28945538 0.3675009 0.3393592 0.3560532 0.34249339 0.072599925

net.4.bias f4 [27]
00000000: 7cec 32bd 4310 a73d e496 47bd f1db 673c
00000010: d623 5fbc 645a 2d3d 9a61 04bd d211 493e
00000020: 98da edbd e2ec 583e fcc9 a73d 9835 be3d
00000030: 7c42 01bd c6d5 9c3d 6fcb 00bc 664c 713c
00000040: c124 b7bc 8eb5 a6bd b922 5a3e af40 9b3e
00000050: f9b6 b83e c03d 32bd 9e2e 5b3d 2fb1 5b3e
00000060: 1a7e 61bd bb5a c23d 9a14 9c3d
-0.04368256 0.081573986 -0.048727885 0.014151559 -0.013619384 0.04232253 -0.032319643 0.19635704
-0.11613959 0.21184114 0.08192822 0.09287566 -0.031557545 0.076579615 -0.007861002 0.014727687
-0.022356393 -0.081400976 0.21302308 0.30322787 0.36077097 -0.04351592 0.053511254 0.21454309
-0.0550519 0.09489962 0.07621117
