model/dqn_policy_net_episode_2910.pt (torch, 334295 bytes, 6 tensors)

net.0.weight f4 [128, 336]
0	0x3dd9fbe9	0.10643751
1	0xbe128cbe	-0.14311501
2	0x3d500d6a	0.050794043
3	0x3d82aeba	0.06380983
4	0xbdf4ad75	-0.11947147
5	0xbeac09f3	-0.3360134
6	0x3c902ce9	0.01759954
7	0xbd3bbaff	-0.04583263
8	0x3dc9ba30	0.098499656
9	0xbd6090c3	-0.054825556
10	0xbe2ce87d	-0.16885562
11	0x3d738e46	0.059461854
12	0x3bae6143	0.005321653
13	0xbe3b88f4	-0.18313962
14	0xbdb5a4d9	-0.08869333
15	0x3c9f5d53	0.01945368
16	0xbd789c61	-0.06069601
17	0xbd857fb4	-0.06518498
18	0xbd813ec8	-0.06310803
19	0xbdf9ea7f	-0.1220293
20	0x3c6091e6	0.01370666
21	0x3a5e593b	0.00084819243
22	0xbdf62daf	-0.12020432
23	0x3c8e5497	0.01737432
24	0xbe35bab4	-0.17747003
25	0xbdee39eb	-0.11632141
26	0x3d38523f	0.04500031
27	0xbbc0b48f	-0.0058808993
28	0xbe1da0c2	-0.15393355
29	0x3b062dd3	0.002047409
30	0xbc6a9b69	-0.014319279
31	0x3c387a6d	0.011259657
32	0xbe29c926	-0.16580638
33	0xbd38c1b5	-0.04510661
34	0xbc692296	-0.014229437
35	0xbde12f08	-0.109952986
36	0xbc9294e0	-0.017893255
37	0xbe2a3d7d	-0.16625018
38	0xbd9c5797	-0.07633894
39	0xbcc78b45	-0.024358401
40	0xbd6f3f2e	-0.058409862
41	0xbe9028e4	-0.28156197
42	0x3e64d5e3	0.22347216
43	0xbdc35d74	-0.09539309
44	0x3e278f80	0.16363335
45	0xbdf1bfe5	-0.11804179
46	0xbc9a8554	-0.018862404
47	0xbc71e0bc	-0.0147630535
48	0x3d05d931	0.032677833
49	0x3da501ef	0.080570094
50	0xbd9b852f	-0.07593762
51	0xbd47bcb5	-0.04876395
52	0x3de4fce0	0.111810446
53	0xbe1f9cb5	-0.15587123
54	0xbdfae970	-0.12251556
55	0x3e4f4a02	0.20243075
56	0x3d89183e	0.06694077
57	0xbed86e04	-0.42271435
58	0xbdf6f73a	-0.120588735
59	0xb9c24785	-0.0003705585
60	0x3dcc39c0	0.099719524
61	0x3d170a2e	0.036874942
62	0xbcb8f439	-0.022577392
63	0x3d2a8f80	0.04164076
64	0xbccfc581	-0.025362732
65	0xbdb6c1a5	-0.089236535
66	0xbeaa141e	-0.33218473
67	0x3cf4f075	0.029899815
68	0xbe6149ef	-0.2200086
69	0x3d16ce6d	0.036817957
70	0xbe695e16	-0.22789797
71	0x3dac8427	0.084236436
72	0xbe2afe19	-0.16698493
73	0xbd3b0518	-0.045659155
74	0x3d19ff98	0.03759727
75	0x3daee247	0.08539253
76	0x3e068317	0.13135944
77	0x3d07f57b	0.033193093
78	0x3a540ead	0.0008089345
79	0x3df78fd3	0.12087979
80	0x3e0fe811	0.1405337
81	0x3d21a08d	0.039459754
82	0x3d9c7eea	0.076413944
83	0xbce777b1	-0.028255315
84	0xbe281245	-0.1641322
85	0xbdd878ae	-0.10569893
86	0xbe067e8d	-0.13134213
87	0x3de2c5bb	0.1107287
88	0xbc36ec3f	-0.011164724
89	0xbdf145fe	-0.11780928
90	0x3d13eef1	0.036116544
91	0x3d5d9b3e	0.05410313
92	0x3d261c17	0.040554132
93	0xbe6cdf75	-0.23132117
94	0x3db14535	0.08655778
95	0xbcb4586f	-0.022014825
96	0x3e4b4c0f	0.19853233
97	0xbe5a148c	-0.212969
98	0x3c611e90	0.013740197
99	0x3d2480cf	0.040161904
100	0xbcfa1dad	-0.030531729
101	0xbd7a5c50	-0.061123192
102	0x3c2abbc2	0.0104207415
103	0x3c58a256	0.013222298
104	0xbf3958c4	-0.7240107
105	0x3da2359c	0.079203814
106	0x3d99fc2b	0.075188
107	0x3e398b82	0.18119624
108	0x3e9e965a	0.30974084
109	0xbda7cf24	-0.08193806
110	0xbe115396	-0.14192042
111	0x3e03d9be	0.12876031
112	0xba6bc5fe	-0.0008994042
113	0xbc5ccac7	-0.01347608
114	0xbd0e57a3	-0.034751546
115	0x3d3a23f1	0.045444433
116	0xbdfe1bba	-0.12407632
117	0x3d261a06	0.04055216
118	0xbd8bfbee	-0.06835161
119	0xbd0adc13	-0.033901285
120	0xbf406396	-0.75151956
121	0xbd6340ae	-0.055481605
122	0xbe30f752	-0.17281845
123	0xbe3ccf5f	-0.18438481
124	0x3cbdcb72	0.0231683
125	0xbd337fcd	-0.043823052
126	0xbdfa87df	-0.122329466
127	0xbd3f69da	-0.046731807
128	0x3e783c1a	0.24241677
129	0xbe637f8f	-0.22216628
130	0x3c3f1539	0.011662775
131	0xbd51f339	-0.051257346
132	0xbe64368f	-0.22286437
133	0xbd5e3db3	-0.05425806
134	0xbdf602cc	-0.12012252
135	0xbd0e1bf4	-0.034694627
136	0xbf04093c	-0.5157659
137	0x3de4c585	0.11170486
138	0xbd11bbaa	-0.03557936
139	0x3e0ce422	0.13758901
140	0xbda5cebc	-0.08096072
141	0xbc6cb65c	-0.014447775
142	0xbdce8dca	-0.10085638
143	0x3e6ca18b	0.23108499
144	0x3ea278d4	0.3173281
145	0xbe1a5706	-0.1507226
146	0xbe08ef3c	-0.1337251
147	0xbe03df75	-0.12878211
148	0xbd425ee4	-0.047453776
149	0xbc88b246	-0.01668657
150	0x3cf73da8	0.030180767
151	0xbdf3d0ff	-0.11905097
152	0x3c5f5124	0.013630185
153	0xbd9e44fb	-0.07728001
154	0xbb451d5e	-0.0030077319
155	0x3e265f98	0.16247404
156	0xbe2d1ad2	-0.16904762
157	0x3dcc1b76	0.09966175
158	0xbe956613	-0.2917944
159	0x3d3b3b60	0.04571092
160	0x3d01fa0f	0.031732615
161	0x3c8543f6	0.016267758
162	0xbcbb4c98	-0.022863671
163	0xbbd6ff85	-0.006561222
164	0x3dce912c	0.10086283
165	0x3d72cc04	0.059276596
166	0xbc24bf79	-0.010055416
167	0x3cb9ce79	0.022681462
168	0x3f100614	0.56259274
169	0xbe6b4146	-0.22974119
170	0x3cd65e95	0.026168147
171	0xbe050a83	-0.12992291
172	0xbea09f52	-0.31371552
173	0xbe143345	-0.14472683
174	0xbe0085de	-0.12551066
175	0x3da925b7	0.08259147
176	0x3f0befb7	0.5466265
177	0xbd3b5379	-0.045733903
178	0x3d9a0342	0.07520153
179	0xbe63363b	-0.22188656
180	0xbe2d7f22	-0.16943029
181	0xbe43e205	-0.19129188
182	0xbcbd444b	-0.023103854
183	0xbea9c7b1	-0.33160165
184	0x3f52030e	0.8203591
185	0xbe732abf	-0.23746775
186	0xbd365eaa	-0.044523872
187	0xbe21dc76	-0.15806755
188	0x3d1526af	0.036413845
189	0x3d00d844	0.031456247
190	0xbcc22a0f	-0.023701696
191	0x3cb50f34	0.022101976
192	0xbf1a6780	-0.6031418
193	0xbd12c831	-0.03583545
194	0x3d721929	0.059106026
195	0x3e0ab437	0.13545309
196	0xbd4f9b1f	-0.050685044
197	0x3ec2e157	0.38062546
198	0x3c921eae	0.017836895
199	0x3e5b8aa4	0.21439606
200	0x3f193f83	0.59862536
201	0xbe0321c3	-0.12805848
202	0xbd9372a1	-0.07199598
203	0xbcd170c1	-0.02556646
204	0x3e3045f6	0.17214188
205	0xbd76a718	-0.060217947
206	0xbe290189	-0.16504492
207	0x3e37259e	0.17885444
208	0xbfe3bc3c	-1.779182
209	0x3e713ea1	0.23559047
210	0x3eef8cdd	0.46787158
211	0x3e87e9b4	0.2654549
212	0x3e71b3f0	0.23603797
213	0x3f047ce6	0.5175308
214	0x3e15e75d	0.1463904
215	0x3e4fbe04	0.20287329
216	0x3f045210	0.5168772
217	0x3db4c5a4	0.088267595
218	0xbddfa1e1	-0.10919548
219	0x3ccc5221	0.024941506
220	0x3ce2ccba	0.027685512
221	0x3d8f8d72	0.070094004
222	0xbd0f31cb	-0.034959596
223	0xbdaed170	-0.08536041
224	0xbf4e4126	-0.8056816
225	0x3ed49bb0	0.4152503
226	0x3ead817f	0.3388786
227	0x3eaa69b6	0.33283776
228	0xbd8bc4a7	-0.06824618
229	0x3e1e38a3	0.15451293
230	0xbda5217a	-0.08063026
231	0x3efcedc2	0.49400145
232	0x3f361c41	0.7113686
233	0x3d05a285	0.032625694
234	0xbe668274	-0.22510701
235	0xbda54d7d	-0.0807142
236	0xbda639b3	-0.08116474
237	0xbd4a26d8	-0.04935345
238	0x3de9aaf1	0.114095576
239	0xbea40be2	-0.32040316
240	0x3f78ac7d	0.97138196
241	0x3d4e19cb	0.050317567
242	0xbda44e84	-0.08022788
243	0xbe32f319	-0.17475547
244	0xbe7296a6	-0.2369028
245	0xbe90c609	-0.2827609
246	0x3dc761b7	0.097354345
247	0xbee03271	-0.43788484
248	0xbf680773	-0.90636367
249	0x3ebcbe64	0.36864007
250	0x3eac7bb3	0.33688125
251	0x3e4f75e7	0.2025982
252	0x3e3612aa	0.17780557
253	0x3ee3d43c	0.4449786
254	0x3d11b5e5	0.03557386
255	0x3ef34cf0	0.47519636

net.0.bias f4 [128]
0	0x3e060b71	0.13090302
1	0x3e26edea	0.16301695
2	0x3dec3fbd	0.115355946
3	0x3e1fbcb0	0.15599322
4	0x3eb506ad	0.35356656
5	0x3e0cafc8	0.1373893
6	0x3f1c9b26	0.6117424
7	0x3e832705	0.25615707
8	0x3a9e442b	0.0012074759
9	0x3e5afa61	0.21384574
10	0x3e1cae37	0.15300833
11	0x3dce692a	0.10078652
12	0x3e4ccc7b	0.19999878
13	0x3e0287cc	0.12747115
14	0x3e2e93a5	0.1704851
15	0x3e1bc3ce	0.15211412
16	0x3dffd996	0.12492673
17	0x3e6f2254	0.23352939
18	0x3e467334	0.19379884
19	0x3da98553	0.08277383
20	0x3df77853	0.12083497
21	0x3dad1676	0.0845155
22	0x3edc4292	0.4301954
23	0x3e60c2e8	0.21949351
24	0x3e711be0	0.2354579
25	0x3e1dea3e	0.15421388
26	0x3e5e156c	0.2168786
27	0x3e99ca03	0.30036935
28	0x3e1ef7e6	0.15524253
29	0x3f09f02a	0.53882086
30	0x3ea9cad7	0.33162567
31	0x3e45b611	0.19307734
32	0x3e7d7515	0.24751695
33	0x3dea8406	0.11450963
34	0x3e60096e	0.21878597
35	0x3e04caf2	0.12968042
36	0x3def6165	0.116884984
37	0x3e65808e	0.22412321
38	0x3e7cd457	0.24690376
39	0x3e323326	0.17402324
40	0xbdaba14f	-0.083803765
41	0x3e06be3f	0.1315851
42	0x3d8eb1d0	0.06967509
43	0x3e439339	0.1909913
44	0x3da975a9	0.08274395
45	0x3e5c6209	0.21521772
46	0x3dbfa876	0.09358303
47	0x3e805475	0.25064436
48	0x3e1290d7	0.14313065
49	0x3e8a9cae	0.27072662
50	0x3d1628aa	0.036659874
51	0x3e5caa3a	0.21549311
52	0x3dfa952c	0.122354835
53	0x3e00912e	0.12555382
54	0x3e43d466	0.19123992
55	0x3e21020d	0.15723439
56	0x3e2cc50f	0.16872047
57	0xbd7ae402	-0.0612526
58	0x3ebc436c	0.3677019
59	0x3e50eae6	0.20402107
60	0x3e8448af	0.25836703
61	0x3de76817	0.112991504
62	0x3dc24fc0	0.09487867
63	0x3e36bad2	0.17844704
64	0x3e6e8e33	0.23296432
65	0x3e4d6509	0.20058073
66	0x3ea3ae5e	0.3196897
67	0x3dedbe90	0.116086125
68	0x3e1ce3e5	0.1532131
69	0x3dcce5da	0.10004778
70	0x3e42bc36	0.1901711
71	0x3e86fde5	0.2636558
72	0x3e7d4fd8	0.24737489
73	0x3e112afd	0.14176555
74	0x3e49e66e	0.19716808
75	0x3efcc93d	0.49372283
76	0x3e3ec751	0.1863072
77	0x3e2d0512	0.16896465
78	0x3e62fe6a	0.22167364
79	0x3e430ffc	0.19049066
80	0x3de76888	0.11299235
81	0x3f99d9fd	1.201965
82	0x3e6fa7b9	0.23403825
83	0x3ede6fc7	0.43444654
84	0x3e5dc259	0.21656169
85	0x3e283213	0.16425352
86	0x3e570a54	0.21000034
87	0x3d88dcbf	0.06682729
88	0x3f029898	0.5101409
89	0x3e875f37	0.2643983
90	0x3e403683	0.18770795
91	0x3e06244d	0.13099785
92	0x3e3e1e23	0.18566184
93	0x3dab3803	0.08360293
94	0x3ed07103	0.4071122
95	0x3e132cbd	0.14372535
96	0x3d8532fa	0.06503864
97	0x3e6bd36c	0.2302987
98	0x3e194b7f	0.14970206
99	0x3d71262a	0.058874287
100	0x3e41b22f	0.18915628
101	0x3ee86399	0.45388487
102	0x3e177e52	0.14794281
103	0x3e7f084a	0.24905506
104	0x3dae7cea	0.08519919
105	0x3e2166b7	0.15761839
106	0x3e6805f1	0.22658516
107	0x3df995e0	0.121867895
108	0x3e57e839	0.2108468
109	0x3e1ab47a	0.15107909
110	0x3d7a6eb3	0.061140727
111	0x3ea51d47	0.322489
112	0x3dc4b37c	0.096045464
113	0x3e8d4717	0.275933
114	0x3e53d54e	0.20686838
115	0x3dfc1333	0.123083495
116	0xbda30568	-0.079600155
117	0x3eda8aa8	0.4268391
118	0xbe0b75ce	-0.13619158
119	0x3e6d5017	0.23175083
120	0x3e0ab630	0.13546062
121	0x3e41f543	0.18941216
122	0x3ea8c30c	0.3296131
123	0x3e602431	0.21888806
124	0x3e08328d	0.13300534
125	0x3e5f9c0e	0.21836874
126	0x3df52c96	0.11971395
127	0x3e720d82	0.23637965

net.2.weight f4 [256, 128]
0	0x3f76eaa2	0.9645177
1	0xbcb88160	-0.022522628
2	0x40290870	2.64114
3	0x3eb67462	0.35635668
4	0x3d9e3010	0.07724011
5	0x3f5ffa39	0.87491184
6	0x3f5a6930	0.85316753
7	0x3fc83333	1.5640625
8	0x402fbfd9	2.7460845
9	0x3f0f683b	0.5601842
10	0x3f6cff7c	0.9257734
11	0x3ea2a41b	0.31765828
12	0x3d1c02b9	0.038088534
13	0x3f05d0e8	0.5227189
14	0xbd8532fd	-0.06503866
15	0x3f961eb4	1.172812
16	0x3f46b4fc	0.7761991
17	0x3eaafbb0	0.33395147
18	0x3f49b15a	0.7878624
19	0x3fd753b1	1.6822416
20	0x3f81ffff	1.0156249
21	0x3fc59659	1.5436507
22	0x3e058d86	0.13042268
23	0x3f8e58c6	1.1120842
24	0x3f11f839	0.5701938
25	0x3f13e5d4	0.57772565
26	0x3f8ccb6e	1.0999582
27	0xbcf23c68	-0.02956982
28	0x3f68dbcb	0.9096038
29	0x3e86d51b	0.26334462
30	0x3e5bbf7b	0.21459763
31	0x3f306b32	0.6891357
32	0x3f76e1a1	0.9643803
33	0x3f604da2	0.8761846
34	0x3f2fe952	0.68715394
35	0x3f3d4c94	0.73944974
36	0x3ed8694e	0.4226784
37	0x3fce6c11	1.6126729
38	0x3fc9842e	1.5743463
39	0x3df993ad	0.1218637
40	0xc0020273	-2.0313995
41	0x3ee852da	0.4537571
42	0x3dfa1d95	0.122126736
43	0x3ec60e6f	0.38682887
44	0x3f20ea79	0.62857777
45	0x3f4b7255	0.7947133
46	0x3fb05b64	1.377789
47	0x3fb8f4ce	1.4449708
48	0x3f7a4912	0.97767746
49	0x3e831dbc	0.25608623
50	0x3f68e851	0.90979487
51	0x3fde7425	1.7379194
52	0x3f7247d3	0.94640845
53	0xbd0f59ff	-0.034997936
54	0x3f55291d	0.8326586
55	0xbe32f862	-0.17477563
56	0xbdd5f051	-0.10446227
57	0xc00648f4	-2.0982027
58	0x3ea5b5e1	0.32365325
59	0x40050c5e	2.0788798
60	0xbe5d9f63	-0.21642832
61	0x40334cd8	2.8015652
62	0x3f111be8	0.56683207
63	0x3f494990	0.7862787
64	0xbde9d738	-0.11418003
65	0x3ee1eca6	0.4412586
66	0x3f9ab132	1.2085326
67	0x3ee98df2	0.45616108
68	0x3f445972	0.7669898
69	0x3f47484c	0.7784469
70	0x3eb9e1f6	0.36305207
71	0x3ea530dc	0.3226384
72	0x3eedc4f1	0.46439317
73	0x3fd8df74	1.6943192
74	0x3eed354f	0.46329734
75	0x3e84b994	0.25922835
76	0x3ee4f7c5	0.44720283
77	0xbeaa7d5f	-0.33298776
78	0x3fa93aed	1.3221108
79	0x3ebe4205	0.37159744
80	0x3f2b0b44	0.66814065
81	0x3f3942da	0.7236763
82	0xbf5d55d5	-0.86459094
83	0x3ea4640b	0.32107577
84	0x3f37392e	0.71571624
85	0xbe70f303	-0.23530202
86	0x3f301015	0.6877454
87	0x3fc5fa68	1.5467043
88	0xbc7c1b37	-0.015387348
89	0x3f2113dc	0.6292093
90	0x3fa93bca	1.3221371
91	0x3f706bfa	0.9391476
92	0x3f5bd7c4	0.8587611
93	0x3fd180b3	1.6367401
94	0x3f2c7023	0.6735861
95	0x3f14c676	0.5811533
96	0x3fd37002	1.6518557
97	0x3e89e531	0.26932672
98	0x3f42b30a	0.7605444
99	0xbfe0a67c	-1.7550807
100	0xbd77e125	-0.06051745
101	0xbe165fc6	-0.14684972
102	0x3fb5df61	1.4208795
103	0x3ebef784	0.37298214
104	0x3f2e102f	0.67993444
105	0x3f1a9ce6	0.6039566
106	0x3f12e605	0.5738223
107	0x3e340d44	0.17583185
108	0x3fa5520f	1.2915667
109	0x3fda7225	1.7066084
110	0x3f1971e1	0.5993939
111	0x3f3201f1	0.6953421
112	0x3fb40ecf	1.4067019
113	0x3f980cb7	1.187888
114	0x3f582dc9	0.8444486
115	0x3fd579d5	1.6677805
116	0x40273666	2.6126952
117	0x3eab276a	0.33428508
118	0xc0038cdd	-2.0554726
119	0x3f9fd028	1.2485399
120	0x3f9b859e	1.2150152
121	0x3ecc5515	0.39908662
122	0x3f0a6c0d	0.5407112
123	0x3f5d9870	0.86560726
124	0x4032c50d	2.793277
125	0x3e9d3f65	0.3071243
126	0x3fa713f2	1.3052962
127	0x3fc0a4df	1.5050315
128	0x401ef7a9	2.483866
129	0x3e8a8968	0.27057958
130	0x3f005f3e	0.5014533
131	0x3dba149a	0.09085961
132	0x3f0ab5bb	0.5418355
133	0x3f11a458	0.56891394
134	0xbea178c4	-0.3153745
135	0x3f983de1	1.1893884
136	0x3f104132	0.5634948
137	0x3ecd99e1	0.40156463
138	0xbc966d5d	-0.018362695
139	0x3eb61021	0.3555918
140	0x3eb28044	0.34863484
141	0x3f92a557	1.1456708
142	0x3f57209f	0.8403415
143	0x4013a39a	2.3068604
144	0x3f1847ea	0.5948473
145	0x3f5a2acb	0.85221547
146	0x3f16d5f2	0.58920205
147	0x3e481107	0.19537745
148	0x3fcad777	1.5847005
149	0x3f7c0bcb	0.98455495
150	0x3f40f126	0.75367963
151	0x3f5ed463	0.87042826
152	0x3f3a30ba	0.727306
153	0x3f4a4232	0.79007256
154	0x3f8850a1	1.0649606
155	0x3f01a483	0.5064165
156	0x3ec260f1	0.37964585
157	0x3f0d4c7c	0.5519483
158	0x3e1ed100	0.15509415
159	0x3ff941a1	1.9473153
160	0x3f42ca46	0.76089895
161	0x3f9ff83e	1.2497633
162	0x3f983660	1.1891594
163	0x3efcff40	0.4941349
164	0x3fb7ef31	1.436987
165	0x3faaa979	1.3332969
166	0x3f830060	1.023449
167	0x3f2203ff	0.6328735
168	0xc01607ea	-2.344233
169	0x3f3ef8b2	0.7459823
170	0x3f00f9e3	0.50381297
171	0x3f43786b	0.7635562
172	0x3f27b18c	0.6550529
173	0x3f38eafe	0.7223357
174	0x3ff771f6	1.9331653
175	0x3f227731	0.6346312
176	0x3feaef7f	1.8354338
177	0x3e931063	0.2872344
178	0x3e563f30	0.20922542
179	0x3fa8d0d3	1.3188728
180	0x3f4ed018	0.80786276
181	0x3ebf59bc	0.3737315
182	0x3f4fcb57	0.81169647
183	0x3efb4fd7	0.4908435
184	0x3f742781	0.9537278
185	0xc0182027	-2.3769624
186	0xbc2fc94f	-0.010729148
187	0x3fd1bc3b	1.6385568
188	0x3d84365d	0.064556815
189	0x3ee436b4	0.44572985
190	0x3ef4251e	0.47684568
191	0x3f044ef0	0.5168295
192	0xbe28f666	-0.16500244
193	0x3eddbda8	0.4330876
194	0x3fe84fb5	1.8149325
195	0x3f037121	0.51344496
196	0x4003f12c	2.061595
197	0xbde53883	-0.111924194
198	0x3fb0c318	1.3809538
199	0x3f52aead	0.82297784
200	0x3f64b919	0.89344937
201	0x3f141177	0.5783915
202	0x3ef5f68e	0.4803967
203	0x3ef6db3a	0.48214132
204	0x3f74161b	0.9534623
205	0x3f3ded47	0.7419018
206	0x3f28750b	0.65803593
207	0x3f941241	1.1568071
208	0x3f929d59	1.1454269
209	0xbe2e6cd1	-0.17033698
210	0x3ee4b2b5	0.44667593
211	0x3ec09959	0.37616995
212	0x3f3c3688	0.7352071
213	0x3eb74c77	0.35800526
214	0x3ee38c19	0.44442824
215	0x3f00c031	0.5029326
216	0x3f632b2a	0.8873774
217	0x3f7e0c8c	0.99237895
218	0x3ea181b3	0.31544265
219	0x3f5ff4f1	0.87483126
220	0x3e9600b7	0.2929742
221	0xbeb38b33	-0.35067138
222	0xbe727510	-0.23677468
223	0x3f5168af	0.8180036
224	0x3f0a4b2c	0.54020953
225	0x3f6abd26	0.9169487
226	0x3f8e0eca	1.1098263
227	0x3fbc432b	1.4707998
228	0x3f8136d4	1.0094857
229	0x3f124116	0.57130563
230	0x3fd4a97e	1.6614225
231	0x3f8e730e	1.1128862
232	0x3f4bf5f7	0.7967219
233	0x3f35e67e	0.7105483
234	0x3f16f70b	0.5897071
235	0x3f2e85a5	0.68172675
236	0x3ec003eb	0.3750299
237	0x3f7756ef	0.96617025
238	0x3f5ad6bd	0.85483915
239	0x3d5fef64	0.05467166
240	0x3f25526e	0.645789
241	0x4018b2e8	2.3859196
242	0x3fc8708e	1.5659349
243	0x3efdf278	0.4959905
244	0xbee669cd	-0.45002595
245	0x3e83deb8	0.25755858
246	0xc0135af4	-2.3024263
247	0x3fd2773f	1.6442641
248	0x3fcbe337	1.5928715
249	0x3f39690d	0.7242592
250	0x3eeddc72	0.4645725
251	0x3f648161	0.89259917
252	0xbe948d29	-0.29013947
253	0x3f25c8ea	0.64759696
254	0x401af822	2.4213948
255	0x3ff28841	1.8947831

net.2.bias f4 [256]
0	0x3eeb2320	0.45925236
1	0x3eb4d4e3	0.3531867
2	0x3e5e8c53	0.21733217
3	0x3eb288b1	0.34869912
4	0x3eb46712	0.35234886
5	0x3ed63193	0.41834697
6	0xbe5eb2bb	-0.21747868
7	0x3eb381f7	0.35060093
8	0x3ff121fd	1.8838497
9	0xbde37d8a	-0.11107929
10	0xbdf78129	-0.12085182
11	0x3dd50bad	0.104026176
12	0x3eba18d3	0.36347064
13	0x3e949ce1	0.2902594
14	0x3e99d341	0.30043986
15	0x3e961816	0.2931525
16	0x3eb1672b	0.34649023
17	0x3ea45e2d	0.321031
18	0xbe1aff04	-0.15136343
19	0x3e804c66	0.25058287
20	0xbe199741	-0.14999105
21	0x3ec7048a	0.3887065
22	0x3e650752	0.22366074
23	0x3e12ef0d	0.14349003
24	0x3ebbc48d	0.36673394
25	0x3e97f061	0.29675582
26	0x3e911e99	0.28343657
27	0x3ea884fd	0.32913962
28	0x3ea1b21a	0.31581193
29	0x3ecd89cd	0.40144196
30	0x3e85ba47	0.2611868
31	0x3ed658e4	0.41864693
32	0xbe031413	-0.12800626
33	0xbe5b67b1	-0.21426274
34	0x3eaba386	0.33523196
35	0xbdbc6870	-0.09199607
36	0x3f1bd7b8	0.60876036
37	0xbc7ad9b6	-0.015310695
38	0x3eb20238	0.34767318
39	0x3e796c99	0.24357833
40	0x3e5840f0	0.21118522
41	0x3e95c855	0.29254404
42	0x3e79afb1	0.24383427
43	0x3ebf1562	0.37321
44	0x3ea8160a	0.32829314
45	0x3ed65164	0.4185897
46	0x3ea0affd	0.31384268
47	0x3e26a96e	0.1627557
48	0x3eac98b1	0.33710244
49	0x3eab9fbf	0.33520314
50	0xbe3b9c06	-0.18321237
51	0x3edb54a3	0.4283801
52	0xbe422916	-0.18960986
53	0x3ebd2cf7	0.36948368
54	0xbdde3900	-0.10850716
55	0x3ea28a3a	0.31746083
56	0x3e77aaaa	0.24186197
57	0x3e83a1a0	0.25709248
58	0xbe580c33	-0.21098404
59	0x3dba5dc1	0.090999134
60	0x3e93a08d	0.28833428
61	0x3eac9ddb	0.33714184
62	0x3ee51048	0.44738984
63	0x3ec0eec6	0.3768217
64	0x3e840a6d	0.25789204
65	0x3fe8e36f	1.8194407
66	0x3eff3dd1	0.4985185
67	0x3e77db1d	0.24204679
68	0x3e87f25d	0.26552096
69	0x3e64f7ce	0.22360155
70	0x3ee52dab	0.44761404
71	0xbe121629	-0.14266266
72	0x3e9f6aab	0.3113607
73	0x3e8b5370	0.27212095
74	0xbf2a19e8	-0.6644578
75	0x3ee424aa	0.44559222
76	0x3f13177d	0.57457715
77	0x3fa8fc83	1.320206
78	0x3ec67477	0.3876073
79	0x3ecddfe4	0.40209877
80	0xbe3a2f8a	-0.18182197
81	0x3e475423	0.1946569
82	0xbe08dd6f	-0.1336572
83	0x3e7fea77	0.24991785
84	0x3e8f5fe8	0.28002858
85	0x3e6de399	0.23231353
86	0x3e566a16	0.20938906
87	0x3e819a7e	0.2531318
88	0x3e7b7991	0.24558093
89	0x3f28b698	0.65903616
90	0x3ea45651	0.32097104
91	0x3ec47234	0.3836838
92	0x3e4d74b1	0.20064045
93	0x3fe87b4b	1.8162626
94	0x3ee47d09	0.44626644
95	0x3e584c72	0.21122912
96	0x3e49b0ac	0.19696301
97	0x3edb1f3a	0.4279726
98	0x3ec78e71	0.38975862
99	0x3ec9f81c	0.39447105
100	0xbd8e323e	-0.06943177
101	0x3e3da360	0.18519354
102	0x3eaf5202	0.34242254
103	0xbdc51ced	-0.09624658
104	0x3e88ea48	0.26741242
105	0x3eeb22af	0.459249
106	0x3ebffef1	0.37499192
107	0x3ec09f89	0.37621716
108	0x3ec3377b	0.38128266
109	0x3e8b3ebb	0.27196297
110	0x3f148be5	0.5802596
111	0x3e6d16b6	0.23153195
112	0x3e645d31	0.22301175
113	0x3e72e1c3	0.23718934
114	0x3e90d3b5	0.2828652
115	0xbc292752	-0.010324316
116	0x3e44987e	0.19198796
117	0xbe6d5583	-0.23177151
118	0xbe9c06d3	-0.30473956
119	0x3c317b09	0.0108325565
120	0x3eccddfc	0.4001311
121	0x3e67fac0	0.22654247
122	0xbe1cef83	-0.15325741
123	0x3eb654c4	0.35611546
124	0x3eed0ab9	0.46297243
125	0x3ebb6eee	0.3660807
126	0x3e618029	0.22021545
127	0x3e8e4bc7	0.2779219
128	0x3e9926f1	0.29912522
129	0x3eaa6f22	0.33287913
130	0x3e9b570c	0.3033985
131	0x3ed6c3fe	0.41946405
132	0x3e386602	0.18007663
133	0x3ea4df8e	0.3220181
134	0x3e9a6312	0.3015371
135	0x3e5e1c63	0.21690516
136	0x3ef7c00e	0.48388714
137	0x3e965b7e	0.29366678
138	0x3e8d6473	0.276157
139	0x3e9dadab	0.3079656
140	0x3ee2dfc0	0.44311333
141	0x3e9c7fd9	0.3056629
142	0x3eaf42e1	0.34230712
143	0x3ec76e29	0.38951233
144	0x3e70edc4	0.235282
145	0x3eca9a1a	0.39570695
146	0xbe15ff8c	-0.14648265
147	0x3d50941b	0.050922494
148	0x3edebff7	0.43505833
149	0x3eca790b	0.39545473
150	0x3f0f89b2	0.5606948
151	0x3e3cc3e0	0.18434095
152	0x3e845ecf	0.25853583
153	0x3e9f34e0	0.31095028
154	0x3e4eb5e2	0.2018657
155	0x3e86e323	0.26345167
156	0x3ede4e4f	0.4341912
157	0x3e8b7aa6	0.2724201
158	0x3eca8e06	0.3956148
159	0x3e956c39	0.2918413
160	0xbe0b4534	-0.13600618
161	0x3eca6174	0.39527476
162	0x3eb30b38	0.34969497
163	0x3ed1cb1d	0.40975276
164	0x3e9dfc11	0.30856374
165	0x3ea57a29	0.32319763
166	0xbd05905b	-0.03260837
167	0x3e8205cf	0.25395057
168	0x3eaaee91	0.33385137
169	0xbe50f76a	-0.20406881
170	0x3ec27f95	0.37987962
171	0x3e9d3ac5	0.307089
172	0x3fd38b54	1.6526895
173	0x3ea67dfd	0.32517996
174	0x3ed0792a	0.4071744
175	0x3e1c9249	0.15290178
176	0x3ea07ec5	0.31346717
177	0x3e614eef	0.22002767
178	0x3ec07d39	0.37595537
179	0x3e613470	0.2199266
180	0x3e67f79e	0.22653052
181	0x3d0aa3c9	0.033847604
182	0x3e74ee53	0.23919038
183	0x3ea60828	0.32428098
184	0x3e043561	0.12910987
185	0x3e42b81f	0.19015549
186	0x3f4da17e	0.8032454
187	0x3e8e1267	0.27748415
188	0xbd1c5ef9	-0.03817651
189	0x3ecb9840	0.39764595
190	0xbe113882	-0.14181712
191	0x3e8dd68f	0.27702758
192	0x3ed6f7df	0.41985986
193	0xbfc28c05	-1.519898
194	0x3ec86f9d	0.39147654
195	0x3ea88682	0.3291512
196	0x3ec565e6	0.38554305
197	0x3ed2c010	0.41162157
198	0x3ec1cf5f	0.37853524
199	0x3ea3c0b5	0.3198296
200	0x3eb2cdb6	0.3492257
201	0xbe3d78c6	-0.18503103
202	0x3ec12023	0.3771983
203	0x3e9d2b84	0.30697262
204	0x3eb26219	0.34840468
205	0xbd7eb85f	-0.06218755
206	0xbebc74d2	-0.36807877
207	0x3ea78927	0.32721826
208	0x3e92b83f	0.28656194
209	0x3e91c63e	0.2847156
210	0x3e996834	0.29962313
211	0x3ebbb913	0.36664638
212	0x3ea9520e	0.33070415
213	0x3fa37c6a	1.2772343
214	0x3ea287bb	0.3174418
215	0x3f4a3655	0.78989154
216	0x3eb38234	0.35060275
217	0x3ea1b2af	0.31581637
218	0x3ec78ef0	0.3897624
219	0x3ebfa3a3	0.37429532
220	0x3e817051	0.25281003
221	0x3ec57436	0.38565224
222	0x3e90dfd2	0.2829576
223	0x3e7f41f8	0.24927509
224	0x3ea66136	0.3249604
225	0x3e63881b	0.22219889
226	0x3ecad4f7	0.39615604
227	0x3e2b5d1b	0.16734736
228	0x3eaf18fd	0.34198752
229	0x3e8b5ad7	0.27217743
230	0xbdbecfb0	-0.09316957
231	0x3e870698	0.26372218
232	0x3e812216	0.25221318
233	0x3ea3c6a9	0.31987503
234	0xbde401cb	-0.111331545
235	0x3f123a39	0.5712009
236	0x3eb00d5f	0.343852
237	0x3e8a9d63	0.27073202
238	0x3ea83d9f	0.32859513
239	0x3f692992	0.91079056
240	0x3e987300	0.29775238
241	0x3e81f22c	0.25380075
242	0xbe2e5f80	-0.17028618
243	0x3ea40eb4	0.32042468
244	0x3ea14693	0.31499156
245	0x3ef8e614	0.48613036
246	0x3eb43e9c	0.35204017
247	0x3e92b6f4	0.28655207
248	0x3be632bd	0.0070250914
249	0xbe3de84d	-0.18545647
250	0x3ec6d04d	0.38830796
251	0xbbf8ed1c	-0.007596625
252	0x3eb19b04	0.3468858
253	0x3e899aea	0.26876003
254	0x3eea521b	0.45765767
255	0x3f0d5e14	0.55221677

net.4.weight f4 [27, 256]
0	0x3e898b53	0.26864108
1	0x3f085f5a	0.53270495
2	0x3f0b8886	0.54505193
3	0x3eeef6de	0.4667272
4	0x3ef7fa89	0.4843333
5	0x3f014a85	0.5050433
6	0x3f1fcade	0.62418926
7	0x3f0a5906	0.5404209
8	0xbf7c7d99	-0.98629147
9	0x3f213a81	0.62979895
10	0x3f1b4946	0.6065868
11	0x3f1f427e	0.62210834
12	0x3f1088ed	0.5645893
13	0x3edb660e	0.428513
14	0x3ef62ff1	0.4808345
15	0x3ee9911a	0.45618516
16	0x3ef4a62b	0.47783026
17	0x3f020503	0.507889
18	0x3f0ed111	0.5578776
19	0x3efa6ff4	0.48913538
20	0x3f279ac8	0.6547055
21	0x3ebd63c3	0.36990175
22	0x3f0186d1	0.5059634
23	0x3f1672e0	0.58769035
24	0x3ecbbf88	0.39794564
25	0x3efe1bf3	0.496307
26	0x3f02a93c	0.5103948
27	0x3ec3ee22	0.38267618
28	0x3ebcc305	0.36867538
29	0x3ee58351	0.4482675
30	0x3f017d9d	0.50582296
31	0x3ecd0b4d	0.40047684
32	0x3f25ccbe	0.64765537
33	0x3f0f25f5	0.5591729
34	0x3ee4cc72	0.4468723
35	0x3f08d801	0.53454596
36	0x3ed399bb	0.41328225
37	0xbd578450	-0.052616417
38	0x3ef38648	0.47563386
39	0x3f81e189	1.0146953
40	0x3f0ad20f	0.54226774
41	0x3edcc24e	0.43116993
42	0x3f0a0566	0.5391449
43	0x3eea9418	0.45816112
44	0x3ee685c2	0.45023924
45	0x3ef643c2	0.4809857
46	0xbdbf4bea	-0.09340651
47	0x3f03bff3	0.51464766
48	0x3ef2d76c	0.4742998
49	0x3ee9c775	0.45659986
50	0x3f202e71	0.62570864
51	0x3f008af1	0.5021201
52	0x3f234411	0.63775736
53	0x3f815968	1.010541
54	0x3f1d9352	0.6155292
55	0x3f02e583	0.5113146
56	0x3ed9e193	0.42554912
57	0x3f02896c	0.5099094
58	0x3f0da14d	0.5532425
59	0x3eac7bc3	0.33688173
60	0x3ef76f49	0.4832709
61	0x3ef2c169	0.47413185
62	0x3f0f7d57	0.5605063
63	0x3eee3277	0.46522877
64	0x3ef2fb8f	0.4745755
65	0xbf6915a4	-0.91048646
66	0x3eb8812b	0.36036047
67	0x3f03bb31	0.51457506
68	0x3ed2490c	0.41071355
69	0x3f0d6409	0.55230767
70	0x3ed04c78	0.4068334
71	0x3f0246c0	0.50889206
72	0x3ef8d2e2	0.4859839
73	0x3ec62e0d	0.3870701
74	0x3f3332d4	0.6999943
75	0x3f02b709	0.5106054
76	0x3e2abe1e	0.16674086
77	0xbf27ae36	-0.655002
78	0x3ed89dbc	0.42307842
79	0x3ecebb03	0.40377054
80	0x3f1d2253	0.613805
81	0x3ed4d1b1	0.41566232
82	0x3f19be8f	0.60056394
83	0x3edf1a1c	0.43574607
84	0x3ed1b04a	0.4095481
85	0x3edabf33	0.42723998
86	0x3f05570e	0.5208596
87	0x3efe7d59	0.49705008
88	0x3f022749	0.50841194
89	0xbf9d780b	-1.2302259
90	0x3f16a949	0.5885206
91	0x3eadfded	0.33982792
92	0x3f015127	0.50514454
93	0xbf616216	-0.8804029
94	0x3e82263f	0.25419804
95	0x3e4491cd	0.19196244
96	0x3f1044b7	0.5635485
97	0x3dceb6b7	0.10093444
98	0x3ea06c75	0.31332746
99	0x3ee410ea	0.44544154
100	0x3f0583aa	0.5215403
101	0x3ec1b3ca	0.3783248
102	0x3f08b18f	0.5339593
103	0x3f05f5ed	0.5232838
104	0x3ee9f7e5	0.4569694
105	0x3e8ae417	0.27127144
106	0x3eef950b	0.46793398
107	0x3ee55c26	0.44796866
108	0x3ef8b1ea	0.48573238
109	0x3ef77618	0.48332286
110	0xbec79aa3	-0.38985166
111	0x3f012afd	0.5045622
112	0x3ee73719	0.45159224
113	0x3f12283c	0.5709264
114	0x3f0c1b91	0.54729563
115	0xbc580ff8	-0.013187401
116	0x3ef7fcf2	0.4843517
117	0x3f091d43	0.53560275
118	0x3f3a16a4	0.72690797
119	0x3f08b27a	0.53397334
120	0xbe6e5408	-0.23274243
121	0x3e8cb1bf	0.2747936
122	0x3f254627	0.6456017
123	0x3ed9ee11	0.42564443
124	0x3ea7daff	0.32784268
125	0x3ed12d8c	0.40855062
126	0x3f03e617	0.51522964
127	0x3eeee62e	0.46659988
128	0x3ed86634	0.42265475
129	0x3ed8a775	0.4231526
130	0x3ebb301c	0.36560142
131	0x3eee6968	0.46564794
132	0x3ef4f1c4	0.47840703
133	0x3f00f34b	0.50371236
134	0x3e8d2c8b	0.27573046
135	0x3ed12659	0.4084957
136	0x3e99e3fc	0.3005675
137	0x3f0bf989	0.54677635
138	0x3f05cf8e	0.5226983
139	0x3f028c86	0.5099567
140	0x3eef56fa	0.46746045
141	0x3e861bb4	0.2619301
142	0x3ec96004	0.39331067
143	0x3ee53256	0.44764966
144	0x3f0481b8	0.51760435
145	0x3f0f2847	0.55920833
146	0x3f128ef5	0.57249385
147	0x3ec7aa55	0.3899714
148	0x3efae979	0.4900625
149	0x3eeeacfc	0.46616352
150	0x3f38b676	0.72153413
151	0x3ecf793e	0.40522188
152	0x3ed25a2d	0.41084424
153	0x3ee56cc4	0.44809544
154	0x3ed5d6e9	0.41765526
155	0x3f00371d	0.50084096
156	0x3eee89fe	0.46589655
157	0x3f09683f	0.5367469
158	0x3edc765e	0.43059057
159	0x3ed95524	0.4244777
160	0x3f195886	0.599007
161	0x3ed71426	0.4200756
162	0x3ec8d755	0.39226785
163	0x3eaeb55d	0.34122744
164	0x3eed87d4	0.4639269
165	0x3f02a021	0.5102559
166	0x3f233032	0.63745415
167	0x3f04d3a7	0.51885456
168	0x3f038962	0.51381505
169	0x3f06f69e	0.5272006
170	0x3ee3090e	0.44342846
171	0x3f0868cd	0.53284913
172	0xbf82439a	-1.017688
173	0x3f96d684	1.1784215
174	0x3ed74464	0.42044365
175	0x3f9b068c	1.2111373
176	0x3ef823a5	0.48464695
177	0x3f0ba2db	0.5454537
178	0x3eea19c2	0.45722777
179	0x3eff8e52	0.4991327
180	0x3ef72391	0.48269323
181	0x3faa3297	1.3296689
182	0x3efb00b4	0.49023974
183	0x3ecf762d	0.40519848
184	0x3efb8098	0.49121547
185	0x3edd94e2	0.4327765
186	0xbf81af41	-1.0131608
187	0x3ef82bee	0.48471016
188	0x3f0c3c0a	0.5477911
189	0x3e8112ee	0.25209755
190	0x3f1f10fc	0.6213529
191	0x3f08934e	0.5334977
192	0x3ec93ef9	0.39305857
193	0x3e8dec23	0.2771922
194	0x3edbc4e7	0.42923662
195	0x3e9ad6ff	0.30242154
196	0x3f03aca2	0.5143529
197	0x3f025ac7	0.50919765
198	0x3ef22f20	0.4730158
199	0x3efb7479	0.491123
200	0x3eee7726	0.46575278
201	0x3f1e3fd6	0.61816156
202	0x3ef0adf6	0.47007722
203	0x3f08e97b	0.5348126
204	0x3f072d95	0.5280393
205	0x3f0fb523	0.5613577
206	0x3f0eaee0	0.5573559
207	0x3f0c58dd	0.54823095
208	0x3ed1583a	0.40887624
209	0x3ed660c4	0.418707
210	0x3ef78bbe	0.48348802
211	0x3ef5aee9	0.47985008
212	0x3efaca51	0.4898248
213	0xbf76d029	-0.9641138
214	0x3ee777b6	0.4520852
215	0xbe8082b3	-0.25099716
216	0x3ef6221b	0.48072895
217	0x3ef460fe	0.4773025
218	0x3ec23808	0.37933373
219	0x3ec892e4	0.3917457
220	0x3eecca54	0.46248114
221	0x3ed3b34a	0.41347724
222	0x3f0b2979	0.5436016
223	0x3ef566b2	0.47929913
224	0x3ec0eff2	0.37683064
225	0x3f0d85b1	0.5528212
226	0x3edf1f36	0.435785
227	0x3f9f7cc8	1.2459955
228	0x3eaefcac	0.34177148
229	0x3f02d495	0.51105624
230	0x3f167e2f	0.5878629
231	0x3f095ade	0.5365428
232	0x3ee35607	0.4440157
233	0x3ef64796	0.4810149
234	0x3f09bfde	0.5380839
235	0xbe941f54	-0.2893015
236	0x3eedf928	0.46479154
237	0x3edb3bb8	0.42819
238	0x3ee0c740	0.43902016
239	0xbea5d7f5	-0.32391325
240	0x3ede16d8	0.43376803
241	0x3f0d5040	0.55200577
242	0x3f2ac5c9	0.66708046
243	0x3ed8d3bf	0.4234905
244	0x3eea2ea8	0.4573872
245	0x3ec541a2	0.38526636
246	0x3f02cb8d	0.51091844
247	0x3ed7a967	0.4212143
248	0x3f861d88	1.0477762
249	0x3f21aae6	0.63151395
250	0x3eda9024	0.42688096
251	0x3f06d3e2	0.5266706
252	0x3eebf6e5	0.46086803
253	0x3ef986f7	0.48735783
254	0x3ef54cd6	0.47910184
255	0xbe8a1792	-0.26971108

net.4.bias f4 [27]
0	0xbd6c29f5	-0.0576572
1	0x3e450922	0.19241765
2	0xbd10319a	-0.035203554
3	0x3d83ac4b	0.06429347
4	0x3dfd1bb3	0.12358799
5	0x3e163ae9	0.1467091
6	0x3dd45e44	0.10369542
7	0x3e3016c6	0.17196187
8	0xbc7dcddf	-0.015490978
9	0x3edbffb2	0.42968518
10	0x3da96ab2	0.08272304
11	0x3e363da3	0.1779695
12	0x3d66a3b7	0.056308474
13	0x3e5ed8fa	0.21762457
14	0x3deb49b3	0.114886664
15	0x3da29ef2	0.07940473
16	0xbce9a9f8	-0.02852343
17	0xbd339524	-0.043843403
18	0x3ea46cf1	0.32114366
19	0x3f07f0ad	0.5310162
20	0x3ef32d5e	0.4749555
21	0x3d7c3d3b	0.06158183
22	0x3e18dd76	0.1492823
23	0x3e1149d1	0.14188315
24	0x3d91cedd	0.07119534
25	0x3e0bf7be	0.13668725
26	0x3da6e0f7	0.081483774
