model/dqn_policy_net_episode_1180.pt (torch, 334295 bytes, 6 tensors)

net.0.weight f4 [128, 336]
0.11463776 -0.105662845 0.007617037 0.05261544 0.025791569 -0.20579085 -0.095766544 -0.11567852
0.15822646 -0.07953586 -0.060093094 -0.08003269 -0.01665342 -0.04989984 -0.05897144 -0.032963894
-0.12339256 -0.018471751 0.049010485 -0.12062993 0.062749304 0.109325945 -0.14800647 -0.023194015
-0.18543589 -0.031578045 -0.06099016 0.017419811 0.021511003 -0.058307324 0.02133353 0.10811644
-0.38598028 -0.009022103 0.002383431 -0.018698892 0.009112137 0.09908913 0.00034631212 -0.094244614
-0.056055598 -0.11889554 -0.038136363 0.01936434 -0.00054313184 0.06395999 -0.1587312 0.060660228
-0.10155197 0.20034173 0.0043571554 -0.052003413 -0.0107592475 0.029157074 0.11407384 0.021829696
0.17091614 -0.014146391 -0.014753005 -0.074326225 0.043551482 -0.042816516 -0.14118056 -0.019358398
-0.1080759 0.009633765 -0.06636306 -0.05246074 -0.008351402 0.052794386 -0.04088142 -0.091810934
-0.15843235 0.06907938 0.15398543 0.13882764 -0.071596794 0.0054536816 -0.22156475 0.030828215
0.20397809 -0.18368837 0.078318834 0.01395168 -0.21327625 -0.1237812 -0.01037547 -0.08306331
0.068519115 -0.08571873 0.024437482 -0.05194723 0.023214934 -0.12817465 -0.018631699 -0.030247774
0.27654982 -0.07170719 0.024041299 -0.033587083 -0.08664082 -0.0054200664 -0.10123876 0.013663047
-0.7151829 0.11712442 0.17833892 0.05418174 0.22207984 0.15512028 -0.09794765 0.057374153
0.07260051 -0.014517093 0.09730089 -0.04092758 -0.066155404 -0.049351595 -0.071756974 0.027122093
-1.155244 0.10781137 0.09267963 -0.06063478 0.053300176 0.016904375 0.12357384 0.011915464
0.3152651 -0.11194158 -0.04433224 -0.103350766 -0.2604159 -0.11096964 -0.103201404 0.07307492
-0.40146798 0.08385115 -0.057619777 0.029401649 -0.09196554 -0.045706186 0.15663272 0.08253036
0.3894809 -0.04946435 0.049367633 -0.26831374 0.042676955 -0.052494444 -0.085285485 -0.09884261
0.112999916 -0.10820775 -0.06159512 -0.03235484 -0.05341132 0.053724647 0.056822598 -0.049961247
0.022913458 -0.0723824 -0.021913564 0.12921183 -0.101161405 -0.10490814 -0.10287403 -0.008035601
0.59835595 -0.2578263 -0.17158939 -0.06132584 -0.14864376 -0.23631836 -0.13485177 -0.11269822
0.477336 0.18115985 -0.05368775 -0.2255865 0.020106817 -0.108475395 -0.047556672 -0.11516392
0.8197825 0.11944424 -0.14371705 -0.08825004 -0.11409366 -0.15506195 -0.11134508 0.068900004
-0.7901325 0.106414154 0.106419966 0.122634776 0.14452837 0.36461887 0.25471774 0.2644336
0.6647677 -0.027893484 -0.037705135 -0.12005827 0.04455986 -0.1548396 -0.15611826 0.19616498
-1.6539285 0.2931429 0.31758365 0.3745834 0.23525913 0.22866331 0.120107494 0.20095287
0.6656564 -0.051058926 -0.0013926587 -0.09089112 -0.10198289 -0.14067942 -0.11272459 0.07254355
-0.6335951 0.26947975 0.12231093 0.31425342 0.09016662 0.15104133 -0.24008462 0.21321459
0.61013514 0.13349865 -0.10062568 -0.10742614 0.04650483 -0.08060834 0.051254835 -0.032901138
0.719789 0.073298335 0.05554293 -0.039243445 -0.018088076 -0.12853222 -0.08495441 -0.15673487
-0.9565757 0.35032907 0.063762344 0.32297942 0.047591604 0.27987 -0.0029950445 0.45873523
00000000: 34c7 ea3d c365 d8bd 5698 f93b 4a83 573d
00000010: d748 d33c d6ba 52be 4021 c4bd dce8 ecbd
00000020: 1e06 223e b2e3 a2bd 2d24 76bd 2ee8 a3bd
00000030: c16c 88bc c663 4cbd 098c 71bd 2605 07bd
00000040: 3db5 fcbd 1252 97bc 38bf 483d d30c f7bd
00000050: b582 803d 48e6 df3d 028f 17be 6001 bebc
00000060: e8e2 3dbe fb57 01bd d1d0 79bd feb3 8e3c
00000070: d837 b03c a9d3 6ebd a8c3 ae3c 276c dd3d
00000080: 359f c5be 71d1 13bc 5633 1c3b 6b2e 99bc
00000090: 134b 153c 3eef ca3d 3a91 b539 5203 c1bd
000000a0: 8e9a 65bd 817f f3bd e034 1cbd f7a1 9e3c
000000b0: f660 0eba 75fd 823d 6f8a 22be dc76 783d
000000c0: 7bfa cfbd 6226 4d3e 78c6 8e3b 8801 55bd
000000d0: 8e47 30bc d1da ee3c 8c9f e93d 31d4 b23c
000000e0: a404 2f3e 44c6 67bc 96b6 71bc 5938 98bd
000000f0: 0a63 323d 5f60 2fbd a391 10be 8195 9ebc
00000100: e656 ddbd f0d6 1d3c 5be9 87bd 13e1 56bd
00000110: 52d4 08bc ed3e 583d 4773 27bd 5f07 bcbd
00000120: 173c 22be 7d79 8d3d 5bae 1d3e d528 0e3e
00000130: 57a1 92bd ccb4 b23b dfe1 62be 748b fc3c
00000140: a2df 503e ce18 3cbe a065 a03d 9695 643c
00000150: 1765 5abe ff80 fdbd e0fd 29bc 191d aabd
00000160: c053 8c3d 4d8d afbd 1d31 c83c 9ec6 54bd
00000170: 3f2d be3c 3740 03be 81a1 98bc 2eca f7bc
00000180: f097 8d3e 38db 92bd 42f2 c43c 9c92 09bd
00000190: be70 b1bd d09a b1bb 4456 cfbd f9da 5f3c
000001a0: 3a16 37bf eede ef3d 7a9e 363e aced 5d3d
000001b0: e668 633e dad7 1e3e c798 c8bd 2901 6b3d
000001c0: 94af 943d 1ad9 6dbc b045 c73d aea3 27bd
000001d0: 7c7c 87bd e624 4abd 52f5 92bd 272f de3c
000001e0: 09df 93bf 35cc dc3d d1ce bd3d 2d5c 78bd
000001f0: 4951 5a3d 0b7b 8a3c 4814 fd3d 1439 433c
00000200: 6d6a a13e a141 e5bd b995 35bd 91a9 d3bd
00000210: 3c55 85be 0d44 e3bd 425b d3bd 4ea8 953d
00000220: 368d cdbe 27ba ab3d b702 6cbd badb f03c
00000230: 6e58 bcbd 6936 3bbd 5464 203e ad05 a93d
00000240: 0a6a c73e 219b 4abd b735 4a3d 6b60 89be
00000250: 08ce 2e3d 6a04 57bd 28aa aebd ff6d cabd
00000260: 806c e73d 069c ddbd 2a4b 7cbd 8286 04bd
00000270: d4c5 5abd 600e 5c3d d0be 683d 2aa4 4cbd
00000280: 01b5 bb3c 393d 94bd 1384 b3bc 1b50 043e
00000290: b62d cfbd 14da d6bd 9faf d2bd c1a7 03bc
000002a0: db2d 193f cf01 84be 21b5 2fbe ce30 7bbd
000002b0: 1236 18be 71fd 71be 9516 0abe 53ce e6bd
000002c0: 6265 f43e f881 393e b0e7 5bbd 2600 67be
000002d0: 0db7 a43c 5928 debd c9ca 42bd 10db ebbd
000002e0: 44dd 513f 2f9f f43d 902a 13be 70bc b4bd
000002f0: f0a9 e9bd 8fc8 1ebe e408 e4bd 721b 8d3d
00000300: 2046 4abf aaef d93d b6f2 d93d f127 fb3d
00000310: 3fff 133e 53af ba3e 5d6a 823e d763 873e
00000320: 372e 2a3f e080 e4bc b370 1abd 1ce1 f5bd
00000330: 6684 363d 468e 1ebe 77dd 1fbe 79df 483e
00000340: eeb3 d3bf d416 963e 539a a23e 65c9 bf3e
00000350: c5e7 703e b726 6a3e ebfa f53d 97c6 4d3e
00000360: 7568 2a3f 2a23 51bd df89 b6ba 2025 babd
00000370: 68dc d0bd 440e 10be 26dc e6bd b691 943d
00000380: 4a33 22bf 40f9 893e 277e fa3d d3e5 a03e
00000390: 47a9 b83d 94aa 1a3e bed8 75be ed54 5a3e
000003a0: d131 1c3f dfb3 083e d614 cebd 3c02 dcbd
000003b0: d97b 3e3d fc15 a5bd 97f0 513d 58c3 06bd
000003c0: 1844 383f 701d 963d fc80 633d bcbd 20bd
000003d0: 722d 94bc f39d 03be 94fc adbd 1b7f 20be
000003e0: 25e2 74bf 555e b33e d595 823d 8f5d a53e
000003f0: 6aef 423d 1f4b 8f3e 8248 44bb 58df ea3e

net.0.bias f4 [128]
0.12389302 0.12420976 0.07910733 0.096526735 0.21273075 0.052840807 0.4082555 0.18581627
0.005851523 0.17481872 0.1187482 0.05268618 0.11853265 0.10305075 0.108478785 0.11892493
0.06368905 0.17950673 0.1416277 0.07341931 0.095432095 0.04910826 0.2734598 0.11150501
0.17464975 0.13131386 0.11713301 0.17995171 0.112903535 0.37172583 0.18806767 0.12304774
0.14044069 0.08944962 0.12858866 0.06380242 0.101431765 0.16491397 0.19484168 0.13593665
-0.065998696 0.081640296 0.06149803 0.11539835 0.07925874 0.1611165 0.08952848 0.18586944
0.12997343 0.15298288 0.024987161 0.12711257 0.047783367 0.08151753 0.12636779 0.1107709
0.12166664 -0.054798737 0.2152386 0.11397605 0.15186365 0.11948574 0.035439566 0.12264018
0.15348633 0.14654838 0.23670357 0.11734758 0.11071634 0.036244877 0.14931294 0.17312333
0.18430573 0.13311672 0.12548435 0.31618384 0.14151475 0.16778769 0.15116316 0.13237025
0.079716146 0.9343714 0.18685718 0.28156674 0.14492111 0.13645516 0.17398642 0.042691212
0.3589011 0.150337 0.11570129 0.07821952 0.14401376 0.019695342 0.23427035 0.08268826
0.021072462 0.16626514 0.111438096 0.07178257 0.15850545 0.3044647 0.083704576 0.18652834
0.07371 0.111262254 0.13779092 0.075151764 0.11276936 0.1326483 0.024552137 0.16899239
0.051885292 0.18955843 0.13579531 0.06525852 -0.030039454 0.25799742 -0.0861793 0.18336503
0.1121371 0.14675066 0.21519303 0.19140491 0.14913736 0.0851102 0.07209619 0.13044512
00000000: a0bb fd3d b061 fe3d 0603 a23d cfaf c53d
00000010: 17d6 593e 9a6f 583d dd06 d13e 9f46 3e3e
00000020: 22be bf3b ae03 333e 4232 f33d 77cd 573d
00000030: 3fc1 f23d 460c d33d 202a de3d ea8e f33d
00000040: 686f 823d 9dd0 373e da06 113e dd5c 963d
00000050: e771 c33d be25 493d ec02 8c3e bd5c e43d
00000060: 62d7 323e 2477 063e 6ee3 ef3d 4345 383e
00000070: f839 e73d d952 be3e d094 403e 7400 fc3d
00000080: afcf 0f3e 5d31 b73d bfac 033e d8aa 823d
00000090: 75bb cf3d 35df 283e 9484 473e fa32 0b3e
000000a0: 532a 87bd 0733 a73d 5ce5 7b3d f855 ec3d
000000b0: 6852 a23d b9fb 243e b55a b73d 8f54 3e3e
000000c0: c117 053e 8ba7 1c3e e0b1 cc3c cc29 023e
000000d0: 7eb8 433d aaf2 a63d 8f66 013e dbdb e23d
000000e0: 5c2c f93d a474 60bd 8267 5c3e 466c e93d
000000f0: 2582 1b3e f1b4 f43d 1429 113d c62a fb3d
00000100: 852b 1d3e c710 163e 6c62 723e ee53 f03d
00000110: 40bf e23d 8275 143d 7ee5 183e 3e47 313e
00000120: a4ba 3c3e c04f 083e f87e 003e d9e2 a13e
00000130: 3ee9 103e 89d0 2b3e 84ca 1a3e 118c 073e
00000140: 3842 a33d f732 6f3f 7d57 3f3e 8429 903e
00000150: 3366 143e e7ba 0b3e 7f29 323e fbdc 2e3d
00000160: e3c1 b73e f1f1 193e ccf4 ec3d 8e31 a03d
00000170: 5878 133e 2058 a13c 91e4 6f3e 7658 a93d
00000180: 28a0 ac3c 6941 2a3e a839 e43d bd02 933d
00000190: 414f 223e cce2 9b3e 4e6d ab3d 4901 3f3e
000001a0: 45f5 963d 77dd e33d 1019 0d3e 2be9 993d
000001b0: 9ff3 e63d f5d4 073e 9021 c93c 570c 2d3e
000001c0: ac85 543d 9b1b 423e ed0d 0b3e 42a6 853d
000001d0: 4d15 f6bc 3d18 843e c67e b0bd 0bc4 3b3e
000001e0: 23a8 e53d ce45 163e 905b 5c3e a6ff 433e
000001f0: 77b7 183e 424e ae3d 2ba7 933d 6893 053e

net.2.weight f4 [256, 128]
1.1625713 0.05809948 2.1993587 0.38044327 -0.059611905 0.60775393 0.71451616 1.6647007
2.664026 0.57645357 0.87453187 0.33652732 0.04453871 0.19152263 -0.21689652 0.952308
0.60934645 0.06392976 0.5691884 1.6063336 1.1135722 1.7718338 0.001446229 0.8278746
0.43153438 0.25490442 0.9246428 -0.1487327 0.51037836 0.12410607 0.20010456 0.6703687
0.81898665 0.568935 0.47643256 0.68849367 -0.068994254 1.3968055 1.4488723 0.037645057
-1.0354519 0.31345487 0.12553115 0.15491156 0.34735695 0.47270793 1.140466 1.1638844
0.7653608 0.20695281 0.80617535 1.6866673 0.62294847 0.047790498 0.62952524 -0.21510679
-0.34091225 -1.0224144 0.32442218 1.6977783 -0.043146804 2.323773 0.40493044 0.5498415
0.028067367 0.50165075 1.0681816 0.15624736 1.0138893 0.5070589 -0.16246682 0.15742855
0.31258875 1.2719326 0.45820415 0.15353982 0.3639822 -0.33347207 0.9202843 0.27940702
0.65493536 0.56252426 -0.64653176 0.18468802 0.50198925 -0.24327433 0.71250284 0.9412591
-0.18408321 0.23941877 0.8996782 0.64545465 0.7675466 1.4450988 0.5868103 0.5310521
0.9820131 0.097077005 0.5241247 -1.0388085 -0.10581357 -0.25116488 1.4926184 0.32491657
0.27707988 0.3819525 0.535555 0.039137922 1.2012285 1.6119003 0.33623502 0.6209519
0.8387237 0.82410187 0.58058596 1.239715 2.0692217 0.22697873 -1.0876278 0.9028
0.37395748 0.054013442 0.38181165 0.68911004 2.4021924 0.16536912 1.1549953 1.4241087
2.283204 0.1856697 0.6423513 -0.06107686 0.5070033 0.62736887 -0.37883526 1.118349
0.30880195 0.3116764 -0.16677536 0.17957518 0.3371382 0.8989135 0.79744774 1.3376085
0.41474864 0.8280193 0.30727836 0.17884025 1.5687903 0.9619028 0.7090312 0.79623455
0.6217099 0.5667739 0.9349022 0.46527612 0.26649487 0.5055514 0.12142091 1.7981458
0.53705144 0.9553948 0.7616206 0.24933521 1.0334675 1.2291082 1.0205933 0.616863
-1.2995865 0.4801343 0.4209886 0.7552884 0.60775685 0.7105313 1.8358178 0.63153505
1.7743268 0.24835229 0.022591406 0.8924226 0.7031999 0.32573664 0.7017614 0.51737386
0.90911347 -1.2155125 -0.040617555 1.4799918 0.05197626 0.32090384 0.16211537 0.4998169
-0.14761513 0.1603589 1.4564221 0.34612262 1.807653 -0.40855762 0.9415855 0.7820051
0.85249656 0.34753495 0.16193463 0.43521652 0.89722216 0.62867624 0.6179324 1.0115339
0.87634903 -0.23857665 0.46824184 0.33009675 0.7304043 0.3897285 0.19730733 0.4210184
0.8564314 0.75697964 0.041231062 0.46209246 0.04123155 -0.55210596 -0.28573638 0.43692857
-0.014081202 0.9472144 0.867835 1.1042156 0.93693274 0.5351007 1.5815078 0.8269583
0.60918075 0.43769068 0.32421 0.6906772 0.08092016 0.95363694 0.8692681 0.007414213
0.0986538 1.9339576 0.9024946 -0.025050102 -0.76905906 0.21400467 -1.279631 1.1281059
1.0420523 0.56231225 0.39047572 0.6146102 -0.034532133 0.5203994 2.2973423 1.6961523
00000000: 23cf 943f b8f9 6d3d 4bc2 0c40 76c9 c23e
00000010: 9d2b 74bd c395 1b3f 88ea 363f ea14 d53f
00000020: 677f 2a40 7692 133f 52e1 5f3f 4f4d ac3e
00000030: 396e 363d 821e 443e 1f1a 5ebe 75ca 733f
00000040: 21fe 1b3f 9bed 823d 55b6 113f 579c cd3f
00000050: 8989 8e3f 73cb e23f 658f bd3a 97ef 533f
00000060: 13f2 dc3e d582 823e 64b5 6c3f 634d 18be
00000070: 28a8 023f 532b fe3d 36e8 4c3e 489d 2b3f
00000080: 1ca9 513f b9a5 113f f8ee f33e 1f41 303f
00000090: dc4c 8dbd 86ca b23f a674 b93f b431 1a3d
000000a0: b089 84bf 287d a03e 3d8b 003e 23a1 1e3e
000000b0: c5d8 b13e c606 f23e cafa 913f 2afa 943f
000000c0: afee 433f 70eb 533e 8261 4e3f b7e4 d73f
000000d0: 8d79 1f3f f8bf 433d 9128 213f f444 5cbe
000000e0: 0d8c aebe 7ade 82bf aa1a a63e cd50 d93f
000000f0: b4ba 30bd b2b8 1440 0b53 cf3e 6ac2 0c3f
00000100: 89ed e53c 2f6c 003f 2dba 883f 4fff 1f3e
00000110: 20c7 813f 9dce 013f b45d 26be f334 213e
00000120: a20b a03e b0ce a23f bc99 ea3e 8b39 1d3e
00000130: e05b ba3e dabc aabe c097 6b3f 700e 8f3e
00000140: d8a9 273f 9701 103f 1b83 25bf db1e 3d3e
00000150: 5e82 003f e81c 79be 9666 363f 5bf6 703f
00000160: 4f80 3cbe 322a 753e 4f51 663f 843c 253f
00000170: ef7d 443f fff8 b83f 3339 163f 08f3 073f
00000180: 3665 7b3f 4fd0 c63d 092d 063f adf7 84bf
00000190: c9b4 d8bd af98 80be 1f0e bf3f 775b a63e
000001a0: 6add 8d3e 478f c33e 221a 093f 164f 203d
000001b0: dbc1 993f c052 ce3f ff26 ac3e b4f6 1e3f
000001c0: 99b6 563f 57f8 523f 48a1 143f fbae 9e3f
000001d0: 216e 0440 1d6d 683e 6337 8bbf e71d 673f
000001e0: 5b77 bf3e 333d 5d3d d17c c33e 8469 303f
000001f0: 85bd 1940 8656 293e e3d6 933f 3249 b63f
00000200: 0420 1240 3320 3e3e 2371 243f bb2b 7abd
00000210: f8ca 013f 3f9b 203f b2f6 c1be 0f26 8f3f
00000220: 4a1b 9e3e 0d94 9f3e 29c7 2abe 8ee2 373e
00000230: 619d ac3e 321f 663f 8925 4c3f c136 ab3f
00000240: ef59 d43e 13f9 533f 9753 9d3e e621 373e
00000250: 1fce c83f 433f 763f 1283 353f 07d6 4b3f
00000260: 6128 1f3f 1818 113f c055 6f3f ac38 ee3e
00000270: 0472 883e d16b 013f 87ab f83d a429 e63f
00000280: 347c 093f c194 743f 91f9 423f bb51 7f3e
00000290: aa48 843f 6b53 9d3f cda2 823f bcea 1d3f
000002a0: da58 a6bf 2ad4 f53e d18b d73e 955a 413f
000002b0: f495 1b3f 61e5 353f 14fc ea3f 48ac 213f
000002c0: 241d e33f 1050 7e3e 9d11 b93c cf75 643f
000002d0: e904 343f f4c6 a63e a3a6 333f 9d72 043f
000002e0: a9bb 683f ea95 9bbf 985e 26bd 5f70 bd3f
000002f0: 0fe5 543d 824d a43e 9201 263e 00e8 ff3e
00000300: 6c28 17be 2035 243e 0a6c ba3f fc36 b13e
00000310: 2c61 e73f 772e d1be bf0b 713f 7c31 483f
00000320: 373d 5a3f 1af0 b13e 31d2 253e b3d4 de3e
00000330: 5ab0 653f edf0 203f d130 1e3f f179 813f
00000340: 6958 603f 704d 74be 65bd ef3e 7102 a93e
00000350: c7fb 3a3f 7e8a c73e ef0a 4a3e b98f d73e
00000360: 173f 5b3f 6bc9 413f e7e1 283d 6297 ec3e
00000370: 6ae2 283d d156 0dbf 0a4c 92be 1ab5 df3e
00000380: d8b4 66bc a57c 723f 6f2a 5e3f f056 8d3f
00000390: d3da 6f3f 5cfc 083f d96e ca3f 8ab3 533f
000003a0: 45f3 1b3f fe18 e03e dafe a53e 39d0 303f
000003b0: 78b9 a53d 8d21 743f 5b88 5e3f edf2 f23b
000003c0: 010b ca3d ec8b f73f e309 673f df35 cdbc
000003d0: 0ee1 44bf 0a24 5b3e f3ca a3bf c665 903f
000003e0: f861 853f b2f3 0f3f 6fec c73e 1857 1d3f
000003f0: 9171 0dbd e538 053f a807 1340 851b d93f

net.2.bias f4 [256]
0.3098578 0.2620079 0.094115175 0.21991178 0.2164138 0.2887344 -0.33451116 0.23683867
1.5244257 -0.21801814 -0.22841184 0.063990794 0.23794323 0.16028155 0.1849714 0.1706732
0.22922203 0.18508683 -0.25636277 0.12784757 -0.26269138 0.26431236 0.09812223 0.025939275
0.36446646 0.1759726 0.1517204 0.19263802 0.2467452 0.27186456 0.1284821 0.2887845
-0.2566504 -0.30547535 0.20253557 -0.1821149 0.46489656 -0.015310695 0.21922168 0.1284137
0.09229294 0.16018078 0.13094084 0.25440526 0.19377184 0.3024876 0.2408184 0.026527502
0.2081651 0.20602746 -0.3070526 0.30468333 -0.29954773 0.27530363 -0.24547921 0.20457838
0.111743785 0.13483647 -0.31390724 0.009757817 0.17346711 0.21308653 0.40983 0.25612792
0.123065375 1.4663075 0.35445365 0.113913424 0.13443263 0.10548618 0.30908355 -0.26843733
0.17631245 0.14243397 -0.61418486 0.32250822 0.43000507 1.1284703 0.25219578 0.268437
-0.28272867 0.15105735 -0.24213901 0.113144085 0.14049341 0.088186584 0.09556406 0.12809104
0.13331294 0.62909955 0.20795196 0.22029477 0.07309718 1.4635439 0.3273287 0.10883214
0.073375665 0.3228967 0.33690676 0.26882178 -0.20112996 0.1004838 0.3833716 -0.19509318
0.13651292 0.39829704 0.24663582 0.26261514 0.27007043 0.14087094 0.4422563 0.110874705
0.0914834 0.12379223 0.16068877 -0.010324316 0.06324705 -0.31814304 -0.33231658 -0.1334715
0.37639198 0.18871246 -0.23302041 0.20790015 0.3847437 0.24374232 0.09076262 0.14947222
0.18548092 0.20413582 0.15264025 0.28828365 0.07265841 0.24170044 0.26479974 0.08686539
0.48427653 0.17029922 0.15183197 0.1989025 0.32171693 0.26269856 0.21824563 0.2543784
0.10958876 0.27399728 -0.26257658 -0.11151964 0.3452842 0.2691113 0.46250355 0.050487358
0.12963365 0.18648814 0.064280406 0.14565542 0.31266978 0.14224115 0.2654894 0.17001592
-0.21642157 0.25794128 0.21627133 0.36475205 0.18885976 0.2021264 -0.12922153 0.1236341
0.22041388 -0.32439983 0.2496391 0.19034535 1.305731 0.20650569 0.26846883 0.073248364
0.17975783 0.094860196 0.23947187 0.09694345 0.09253739 -0.028361337 0.11983765 0.19547309
-0.0049175452 0.049558356 0.69418454 0.14903413 -0.17193359 0.3579684 -0.27976352 0.17242986
0.28278443 -1.455279 0.26103297 0.22891158 0.267334 0.3020255 0.24644579 0.18898608
0.22310199 -0.3131424 0.2405495 0.18983568 0.23650962 -0.14939812 -0.30796286 0.2078565
0.14524853 0.15215266 0.17567784 0.23168537 0.202932 1.0989064 0.18785766 0.67566097
0.2413398 0.18386953 0.24758366 0.22734818 0.13102156 0.27392817 0.16641791 0.1141518
0.1959426 0.104022935 0.2740467 0.08953468 0.19114423 0.16031215 -0.22393632 0.124676906
0.12029893 0.19849756 -0.1949707 0.44320557 0.2527183 0.13259502 0.1872086 0.8077578
0.17192185 0.134424 -0.29509944 0.19147727 0.19417171 0.36359406 0.23339872 0.16318816
-0.025282232 -0.30575866 0.25830528 -0.137283 0.20666143 0.13082519 0.35088524 0.4605302
00000000: aea5 9e3e e625 863e 75bf c03d 8e30 613e
00000010: 949b 5d3e ffd4 933e 0c45 abbe d685 723e
00000020: 6220 c33f 2640 5fbe cbe4 69be 9b0d 833d
00000030: 64a7 733e d920 243e 2569 3d3e f5c4 2e3e
00000040: 2eb9 6a3e 6787 3d3e fb41 83be 79ea 023e
00000050: 7c7f 86be f353 873e 4ff4 c83d 9a7e d43c
00000060: 599b ba3e 2932 343e 985c 1b3e e742 453e
00000070: c6aa 7c3e d531 8b3e d090 033e 90db 933e
00000080: ae67 83be 4467 9cbe 7c65 4f3e 547c 3abe
00000090: ec06 ee3e b6d9 7abc a67b 603e e27e 033e
000000a0: 1504 bd3d 6e06 243e 5b15 063e 6841 823e
000000b0: 206c 463e a8df 9a3e 1999 763e 3450 d93c
000000c0: 3b29 553e ddf8 523e 0036 9dbe 74ff 9b3e
000000d0: 525e 99be 99f4 8c3e e75e 7bbe ff7c 513e
000000e0: edd9 e43d 9212 0a3e 73b8 a0be 40df 1f3c
000000f0: 5da1 313e 5b33 5a3e 3dd5 d13e 3323 833e
00000100: b309 fc3d f7af bb3f f37a b53e 714b e93d
00000110: b5a8 093e 2309 d83d 3340 9e3e 9e70 89be
00000120: 408b 343e 36da 113e 383b 1dbf cc1f a53e
00000130: a029 dc3e b771 903f ce1f 813e 9370 893e
00000140: d0c1 90be c7ae 1a3e 4af3 77be 16b8 e73d
00000150: 81dd 0f3e 2b9b b43d 17b7 c33d 4c2a 033e
00000160: 3083 083e ab0c 213f 5cf1 543e f494 613e
00000170: f9b3 953d 6855 bb3f a197 a73e 63e3 de3d
00000180: fb45 963d b752 a53e 0b7f ac3e 02a3 893e
00000190: 03f5 4dbe 73ca cd3d 4849 c43e 82c6 47be
000001a0: 0bca 0b3e 97ed cb3e 1a8e 7c3e 7e75 863e
000001b0: ac46 8a3e 7940 103e 6b6f e23e 4712 e33d
000001c0: a65b bb3d c886 fd3d 998b 243e 5227 29bc
000001d0: ab87 813d a5e3 a2be 6625 aabe c1ac 08be
000001e0: 73b6 c03e d73d 413e e79c 6ebe c7e3 543e
000001f0: 20fd c43e 9697 793e c1e1 b93d 3f0f 193e
00000200: b6ee 3d3e fb08 513e ba4d 1c3e ea99 933e
00000210: efcd 943d 5280 773e d593 873e 7be6 b13d
00000220: 18f3 f73e eb62 2e3e d779 1b3e 19ad 4b3e
00000230: 15b8 a43e 6d80 863e c87b 5f3e e33d 823e
00000240: 1270 e03d 5f49 8c3e 7070 86be 6964 e4bd
00000250: 17c9 b03e f5c8 893e 44cd ec3e d5cb 4e3d
00000260: afbe 043e bff6 3e3e 72a5 833d b226 153e
00000270: 4116 a03e aaa7 113e 3aee 873e a718 2e3e
00000280: 9e9d 5dbe e110 843e 3b76 5d3e c8c0 ba3e
00000290: 7464 413e 39fa 4e3e a652 04be e033 fd3d
000002a0: 2db4 613e bc17 a6be 64a1 7f3e e4e9 423e
000002b0: 3222 a73f 3a76 533e bf74 893e 3d03 963d
000002c0: 7012 383e 1046 c23d 1d38 753e 4a8a c63d
000002d0: 3e84 bd3d 0956 e8bc 716d f53d 192a 483e
000002e0: 5c23 a1bb b4fd 4a3d 14b6 313f 679c 183e
000002f0: 5c0f 30be a247 b73e 2a3d 8fbe 7491 303e
00000300: 1fc9 903e 9546 babf 1da6 853e cc67 6a3e
00000310: 01e0 883e 16a3 9a3e 495c 7c3e 9185 413e
00000320: d974 643e 3354 a0be 9c52 763e 4964 423e
00000330: 942f 723e d2fb 18be 4fad 9dbe 56d8 543e
00000340: 08bc 143e e8cd 1b3e e4e4 333e ee3e 6d3e
00000350: 68cd 4f3e f7a8 8c3f c25d 403e 1ef8 2c3f
00000360: c821 773e 4b48 3c3e 9286 7d3e f6cd 683e
00000370: 842a 063e 5040 8c3e 7569 2a3e 6bc8 e93d
00000380: 2da5 483e fa09 d53d d94f 8c3e f55d b73d
00000390: 50bb 433e de28 243e 904f 65be 9b56 ff3d
000003a0: 495f f63d f242 4b3e 66a6 47be d7eb e23e
000003b0: 4b64 813e fdc6 073e 9cb3 3f3e 37c9 4e3f
000003c0: 480c 303e 72a6 093e 4617 97be 9e12 443e
000003d0: f3d4 463e 0029 ba3e 1300 6f3e cc1a 273e
000003e0: af1c cfbc 668c 9cbe 9740 843e ea93 0cbe
000003f0: 0e9f 533e 0af7 053e 3ba7 b33e 9dca eb3e

net.4.weight f4 [27, 256]
0.20220199 0.46521595 0.46468973 0.39892897 0.4085385 0.434559 0.49515226 0.45659673
-0.98631585 0.5012653 0.4741281 0.5123273 0.490265 0.348348 0.39891842 0.38020685
0.3958596 0.43109062 0.43201008 0.4152671 0.5254472 0.2999511 0.42440513 0.5103735
0.35905093 0.41886202 0.44027117 0.31671602 0.30061117 0.37050495 0.4338205 0.3451276
0.51902336 0.4300128 0.3798489 0.39605665 0.5385355 -0.052616417 0.4042987 0.060668364
0.46398008 0.3567821 0.4554172 0.3793698 0.3740939 0.40993595 0.08284102 0.4231427
0.39813524 0.3775057 0.50066733 0.4222054 0.5102433 0.92334044 0.48885748 0.42974642
0.35063055 0.43020466 0.42081794 0.2559748 0.39631638 0.40469712 0.5024113 0.3851441
0.403239 -0.9121392 0.30026764 0.44756618 0.33919632 0.4695146 0.3448604 0.39364624
0.41972724 0.31049913 0.562224 0.44572628 0.13083619 -0.33156532 0.34677777 0.32749003
0.4764838 0.358533 0.47402126 0.3599249 0.34273475 0.3526594 0.43463296 0.4207605
0.4185229 -0.77896357 0.5064419 0.25873095 0.42321908 -0.8867608 0.371678 0.15546107
0.4809686 0.075030826 0.13414505 0.36418945 0.39301234 0.29704383 0.48731154 0.38905287
0.37219563 0.25210547 0.40250134 0.37010977 0.40801287 0.40891114 -0.06128354 0.4278851
0.3656757 0.4914512 0.46795243 -0.013187401 0.4048059 0.40724477 0.58184904 0.43090263
-0.034650315 0.24894544 0.5123992 0.35771346 0.3557414 0.32652065 0.44138458 0.38997853
0.3430555 0.35305217 0.30300492 0.39974636 0.3975735 0.44416013 0.23837644 0.32523993
0.24993649 0.4693995 0.4438475 0.42466486 0.39169213 0.19278748 0.32051536 0.3777807
0.43811035 0.49057755 0.4491485 0.2569971 0.5040625 0.38300753 0.7293406 0.3206044
0.326111 0.37582114 0.34201643 0.41715276 0.40201816 0.4584407 0.35272476 0.3525856
0.47011864 0.34960106 0.3265441 0.34665966 0.38906628 0.4300451 0.50304794 0.45690373
0.43608248 0.39774165 0.3705143 0.4523812 -1.0342604 1.11036 0.34351006 1.125715
0.41000324 0.46760654 0.38048023 0.41403022 0.40743765 1.248736 0.3973382 0.3284087
0.41526395 0.35815766 -0.73172826 0.4024991 0.42094934 0.19282517 0.48979068 0.45291296
0.3221795 0.16133094 0.3576692 0.24444832 0.4351027 0.42880824 0.40736556 0.4120596
0.3993815 0.48595592 0.39641872 0.45310748 0.4433039 0.43020308 0.4356547 0.46516165
0.3428005 0.34053463 0.41000694 0.40348718 0.41683623 -0.56531763 0.37891778 -0.07660001
0.39697632 0.40027016 0.30852997 0.34093633 0.3742146 0.33928975 0.46698534 0.40412748
0.30457813 0.4676871 0.35701188 1.1673211 0.26321924 0.4317214 0.45860204 0.46536872
0.36581627 0.40891084 0.40651783 0.19224395 0.37764227 0.3578145 0.3676867 -0.050733257
0.35086218 0.4771395 0.5362837 0.34854195 0.3755922 0.31719723 0.43058723 0.3421477
0.9434766 0.5009143 0.35702786 0.43525034 0.39451435 0.41697672 0.41113696 -0.11378918
00000000: 0a0e 4f3e c930 ee3e d0eb ed3e 6b40 cc3e
00000010: f52b d13e 847e de3e 9984 fd3e 0cc7 e93e
00000020: 327f 7cbf ec52 003f ebc0 f23e e227 033f
00000030: 0404 fb3e ab5a b23e 093f cc3e 79aa c23e
00000040: 1cae ca3e e9b7 dc3e 6d30 dd3e e49d d43e
00000050: b583 063f 3193 993e a14b d93e d6a7 023f
00000060: 86d5 b73e 1575 d63e 396b e13e 9a28 a23e
00000070: b5e9 993e d3b2 bd3e b81d de3e 91b4 b03e
00000080: b7de 043f a32a dc3e 8e7b c23e f0c7 ca3e
00000090: 76dd 093f 5084 57bd 3d00 cf3e 647f 783d
000000a0: cc8e ed3e 25ac b63e 712c e93e c23c c23e
000000b0: 3c89 bf3e 20e3 d13e 8da8 a93d 29a6 d83e
000000c0: 62d8 cb3e 6d48 c13e bc2b 003f 4e2b d83e
000000d0: 4e9f 023f 0a60 6c3f 874b fa3e b907 dc3e
000000e0: d985 b33e c943 dc3e 7375 d73e 210f 833e
000000f0: fbe9 ca3e 7634 cf3e 079e 003f 9c31 c53e
00000100: 5875 ce3e f481 69bf aebc 993e 6527 e53e
00000110: 24ab ad3e 3864 f03e 8b91 b03e 008c c93e
00000120: 7de6 d63e bef9 9e3e e9ed 0f3f 3c36 e43e
00000130: ecf9 053e eec2 a9be db8c b13e c6ac a73e
00000140: aff5 f33e a391 b73e eab2 f23e 1448 b83e
00000150: ee7a af3e c68f b43e 3688 de3e ec6d d73e
00000160: a248 d63e 286a 47bf 2da6 013f 6278 843e
00000170: 2cb0 d83e c102 63bf 944c be3e 3031 1f3e
00000180: 8441 f63e c3a9 993d 525d 093e 0a77 ba3e
00000190: ea38 c93e 2116 983e e680 f93e f031 c73e
000001a0: 6d90 be3e f813 813e a814 ce3e 077f bd3e
000001b0: 10e7 d03e cd5c d13e 7304 7bbd c113 db3e
000001c0: d839 bb3e 7e9f fb3e 7697 ef3e f80f 58bc
000001d0: b842 cf3e 6382 d03e 0ff4 143f 459f dc3e
000001e0: 7ded 0dbd 8eeb 7e3e 982c 033f 3826 b73e
000001f0: bd23 b63e b72d a73e 29fd e13e 44ab c73e
00000200: f8a4 af3e 41c3 b43e 7623 9b3e 8eab cc3e
00000210: c18e cb3e f568 e33e f418 743e d985 a63e
00000220: 5aef 7f3e 2255 f03e fb3f e33e ac6d d93e
00000230: df8b c83e 156a 453e 971a a43e 796c c13e
00000240: 0050 e03e fb2c fb3e cbf6 e53e 2095 833e
00000250: 3d0a 013f 9019 c43e 11b6 3a3f 4326 a43e
00000260: 05f8 a63e a16b c03e c71c af3e 0c95 d53e
00000270: 53d5 cd3e bdb8 ea3e 5798 b43e 1a86 b43e
00000280: 64b3 f03e e9fe b23e ca30 a73e 607d b13e
00000290: b233 c73e df2e dc3e c0c7 003f 49ef e93e
000002a0: 3446 df3e cba4 cb3e 0db4 bd3e 829e e73e
000002b0: a562 84bf 4720 8e3f 8de0 af3e 6e17 903f
000002c0: f2eb d13e 206a ef3e 4ece c23e c5fb d33e
000002d0: ab9b d03e 95d6 9f3f ea6f cb3e 2f25 a83e
000002e0: 7a9d d43e 7160 b73e 8b52 3bbf 5d14 ce3e
000002f0: ac86 d73e f673 453e d8c5 fa3e 35e4 e73e
00000300: b6f4 a43e f033 253e 6b20 b73e a950 7a3e
00000310: c8c5 de3e c18c db3e 3892 d03e 7af9 d23e
00000320: bb7b cc3e 37cf f83e 65f7 ca3e b4fd e73e
00000330: bbf8 e23e 9443 dc3e 220e df3e ab29 ee3e
00000340: 8c83 af3e 8e5a ae3e 6eec d13e df95 ce3e
00000350: 8f6b d53e a8b8 10bf 8301 c23e 77e0 9cbd
00000360: 7b40 cb3e 36f0 cc3e a4f7 9d3e 358f ae3e
00000370: 0e99 bf3e 63b7 ad3e b418 ef3e cce9 ce3e
00000380: aaf1 9b3e af74 ef3e 43ca b63e c76a 953f
00000390: acc4 863e 960a dd3e e3cd ea3e cf44 ee3e
000003a0: 454c bb3e c35c d13e 1b23 d03e 99db 443e
000003b0: 545a c13e 7633 b73e 6e41 bc3e adcd 4fbd
000003c0: 35a4 b33e a14b f43e e349 093f 1774 b23e
000003d0: 9f4d c03e ad67 a23e ee75 dc3e fc2d af3e
000003e0: af87 713f eb3b 003f 5bcc b63e 22d9 de3e
000003f0: c9fd c93e f97d d53e 8b80 d23e 4d0a e9bd

net.4.bias f4 [27]
-0.023928413 0.13481875 -0.0670578 -0.0040764743 0.0067297295 0.05949628 0.0053907325 0.19162014
-0.076307304 0.30914816 0.0788465 0.12649786 -0.023012647 0.14911501 0.07784201 0.06458036
-0.021507837 -0.060786545 0.25449237 0.45526683 0.4543036 -0.038266573 0.04170517 0.14244507
-0.03346345 0.15228227 0.009524432
00000000: 8505 c4bc ed0d 0a3e 9a55 89bd f293 85bb
00000010: 1085 dc3b 5fb2 733d bea4 b03b 1238 443e
00000020: 0147 9cbd ab48 9e3e 467a a13d a888 013e
00000030: 0585 bcbc 9bb1 183e a26b 9f3d b542 843d
00000040: 3431 b0bc 50fb 78bd d34c 823e bc18 e93e
00000050: 7b9a e83e 69bd 1cbd 0ad3 2a3d 1fdd 113e
00000060: f810 09bd e2ef 1b3e 5d0c 1c3c
