model/dqn_policy_net_episode_840.pt (torch, 334295 bytes, 6 tensors)

net.0.weight f4 [128, 336]
0	0x3dc461dd	0.095889784
1	0xbe57ce08	-0.21074688
2	0x3d52e6c5	0.05148961
3	0x3d4b2bb1	0.049602214
4	0x3bd5fe01	0.0065305238
5	0xbe298000	-0.16552734
6	0x3d99feb5	0.07519285
7	0xbdaaefb7	-0.08346503
8	0x3e0a83a5	0.13526781
9	0xbd99f0b5	-0.07516614
10	0xbdaf4fad	-0.08560119
11	0xbd90e649	-0.070751734
12	0x3d63bea4	0.05560173
13	0x3caf407b	0.021393051
14	0xbc901483	-0.017587906
15	0x3b1efa1d	0.0024257966
16	0xbe3a0dc2	-0.1816931
17	0xbda8c1c5	-0.082400836
18	0x3dfa1541	0.12211085
19	0xbda90ece	-0.08254777
20	0x3e650e04	0.22368628
21	0x3d65a543	0.05606581
22	0xbd9d8bc4	-0.07692674
23	0xbcaf97e9	-0.021434741
24	0xbe1f82c4	-0.15577227
25	0xbda7e22d	-0.081974365
26	0xbd93e36d	-0.072211124
27	0xbc20b285	-0.009808187
28	0x3df02ebe	0.11727665
29	0x3d079072	0.03309674
30	0x3cc479e7	0.023983909
31	0x3da4a0bc	0.0803847
32	0xbedd26fa	-0.431938
33	0xbdc71d61	-0.097224005
34	0x3db32407	0.08747106
35	0x3d52dc22	0.051479466
36	0x3bd984a2	0.0066381255
37	0x3d37af86	0.044845127
38	0x3df7d549	0.12101228
39	0xbdacc96d	-0.084368564
40	0xbd9b4965	-0.07582358
41	0x3bcd6123	0.006267683
42	0xbe22594a	-0.15854374
43	0x3c840565	0.016115854
44	0xbd0a1251	-0.033708874
45	0x3dd9c631	0.10633505
46	0xbd588e77	-0.05287024
47	0x3d854f1d	0.0650923
48	0xbe0b2ded	-0.13591738
49	0x3d6f0aae	0.058359794
50	0x3d8c8730	0.068617225
51	0xbc13849f	-0.009003787
52	0xbc37fb54	-0.011229355
53	0x3e1ff86a	0.15622106
54	0x3dc9175e	0.0981891
55	0x3c41142f	0.011784597
56	0x3e1c39da	0.15256444
57	0x3d38ba84	0.04509975
58	0xbdcfa2da	-0.10138483
59	0xbdb5ce33	-0.0887722
60	0x3d765181	0.060136322
61	0x3bdf49b8	0.006814208
62	0x3d56a31c	0.052401647
63	0xbd543f2b	-0.051818054
64	0xbd784a16	-0.06061753
65	0xbdf06a11	-0.117389806
66	0xbc217bae	-0.009856148
67	0xbc903647	-0.017604006
68	0x3c9e62be	0.019334193
69	0xbbea080a	-0.0071420716
70	0xbc73a718	-0.014871381
71	0xbdc4ade4	-0.096034795
72	0xbe1742cb	-0.14771573
73	0x3d914d9e	0.070948824
74	0x3df3ffdc	0.11914036
75	0x3e081a31	0.13291241
76	0xbe0b4b3a	-0.13602915
77	0x3d928bd5	0.07155577
78	0xbc208a4e	-0.009798599
79	0x3e07adcc	0.13249892
80	0x3e1d33f9	0.15351857
81	0xbdf45f98	-0.119322956
82	0x3cf28d93	0.029608523
83	0x3cde0a7a	0.027104605
84	0xbe8c0f2b	-0.27355322
85	0xbb135187	-0.0022479014
86	0x3d9889d8	0.074481666
87	0xbe214eb7	-0.15752684
88	0x3d949ce4	0.07256487
89	0xbe0f8c43	-0.1401835
90	0x3d6c7cd2	0.057736225
91	0xbb49e966	-0.0030809282
92	0x3d3b8e9d	0.045790303
93	0xbe2fd56a	-0.17171255
94	0x3c9e29f2	0.01930711
95	0xbdd0e3a5	-0.1019967
96	0x3e888609	0.2666476
97	0xbdb57df2	-0.08861913
98	0x3c80832a	0.015687544
99	0xbcdde4a5	-0.027086565
100	0xbc4f40cb	-0.012649725
101	0x3c8f2d73	0.017477727
102	0xbdd282bf	-0.10278844
103	0xbdb081e0	-0.08618522
104	0xbf28eec0	-0.65989304
105	0x3ca0ae7a	0.019614447
106	0x3e0482b9	0.12940492
107	0x3d8e732e	0.069555625
108	0x3eab9f4f	0.3351998
109	0x3dce4e59	0.100735374
110	0x3b4ff2d7	0.0031730437
111	0x3ca11005	0.019660959
112	0x3e34b57f	0.1764736
113	0xbd7f6da1	-0.06236041
114	0xbd2a8415	-0.04162987
115	0xbd5cf6d2	-0.053946324
116	0x3d15114c	0.03639345
117	0xbdc3fd29	-0.09569771
118	0xbdd0bd48	-0.101923525
119	0xbdb583d8	-0.08863038
120	0xbf988502	-1.1915591
121	0x3c5567b8	0.013025217
122	0x3dd1781c	0.10227987
123	0x3b675ac0	0.0035301894
124	0x3e15dbb4	0.14634591
125	0x3d3f093a	0.04663966
126	0x3dc8bbba	0.09801431
127	0x3b671b40	0.0035264045
128	0x3e92f075	0.2869908
129	0xbd71537a	-0.0589175
130	0xbdd50622	-0.1040156
131	0xbdef13e6	-0.11673717
132	0xbddd5f8b	-0.10809239
133	0xbd6b6b3c	-0.057475314
134	0xbd5817ab	-0.052756947
135	0xbd7f056a	-0.062261023
136	0xbecfaa4f	-0.40559623
137	0xbd8eaa44	-0.06966069
138	0xbdb54087	-0.08850198
139	0x3d919a8a	0.07109554
140	0xbc8fcca4	-0.017553635
141	0x3dc6b0d5	0.09701697
142	0x3dbe134a	0.09281023
143	0x3dad6d0a	0.08468063
144	0x3eaa5389	0.33266857
145	0x3ca51dfe	0.020155903
146	0xbd6747c3	-0.05646492
147	0xbe61073e	-0.21975419
148	0x3ddb9b0d	0.10722933
149	0xbd2e5820	-0.04256451
150	0x3b6a9ff7	0.0035800913
151	0xbe188290	-0.14893556
152	0x3de9e2fd	0.11420248
153	0xbe18fe20	-0.14940691
154	0xbaa55af6	-0.001261561
155	0x3bdaed6a	0.006681134
156	0xbd2795e8	-0.040914446
157	0x3da21c0d	0.079155065
158	0x3cd99002	0.026557926
159	0xbd8c29ac	-0.06843886
160	0x3df2e2bf	0.11859655
161	0xbd7f1291	-0.062273566
162	0xbc51d780	-0.012807727
163	0x3ccdb541	0.025110843
164	0x3be3a695	0.0069473484
165	0xbd4a167d	-0.049337853
166	0xbd0ce992	-0.034402438
167	0xbdafd48c	-0.08585462
168	0x3f0f5aa5	0.5599769
169	0xbe3ab761	-0.18234016
170	0xbe04046b	-0.1289231
171	0xbd6c22f2	-0.057650514
172	0xbe338eb6	-0.17534909
173	0xbe53d29b	-0.20685808
174	0xbdc1c2be	-0.09460972
175	0xbe08e51d	-0.1336865
176	0x3f079cec	0.5297382
177	0x3dd7ff79	0.105467744
178	0x3c41e995	0.011835475
179	0xbe5b6499	-0.21425094
180	0x3d4cb9c2	0.04998184
181	0xbe8ea60f	-0.27861068
182	0x3da69109	0.08133132
183	0xbdf6c410	-0.12049115
184	0x3f622656	0.88339746
185	0x3d3c612b	0.045991104
186	0xbe147615	-0.1449817
187	0xbe271fae	-0.16320679
188	0xbcf063bc	-0.029344432
189	0xbe49271d	-0.19643827
190	0x3ce8a2b7	0.028397901
191	0xbd8fb0a8	-0.070161164
192	0xbf448f01	-0.76780707
193	0x3d8ac9e9	0.067767926
194	0x3e023c7e	0.12718388
195	0x3deb4cfc	0.11489293
196	0x3e8124b5	0.25223318
197	0x3ec442ca	0.38332206
198	0x3e8182fd	0.2529525
199	0x3e8f7dc6	0.28025645
200	0x3f4ac048	0.7919965
201	0xbd740aef	-0.05958074
202	0xbe1c7f9c	-0.15283054
203	0xbe15e877	-0.1463946
204	0x3d9ba98b	0.07600697
205	0xbec54797	-0.3853118
206	0xbd071931	-0.03298301
207	0x3d76a780	0.060218334
208	0xbfc988c6	-1.5744865
209	0x3e340d33	0.1758316
210	0x3ea701bb	0.32618508
211	0x3ed0d7f4	0.4078976
212	0x3e643900	0.22287369
213	0x3e526c1f	0.20549057
214	0x3d97b54a	0.07407625
215	0x3e948738	0.29009414
216	0x3f2f22cb	0.68412465
217	0xbdd88c5f	-0.10573649
218	0xbe19e608	-0.15029156
219	0x3cba16f6	0.022716027
220	0x3c20eb18	0.009821676
221	0xbeb5fadf	-0.35542962
222	0xbdf76467	-0.12079697
223	0xbcc77bb0	-0.024350971
224	0xbf074eeb	-0.52854794
225	0x3e3602ac	0.17774457
226	0x3e82176a	0.2540849
227	0x3e8208b7	0.25397274
228	0x3e240ed9	0.16021289
229	0x3e088430	0.13331676
230	0xbe7f711f	-0.24945496
231	0x3e851105	0.25989547
232	0x3f00ee22	0.5036336
233	0x3ddcba7f	0.10777759
234	0xbdbbb040	-0.091644764
235	0xbc6ef6dd	-0.014585224
236	0x3e5924d3	0.21205454
237	0xbe15bf28	-0.14623702
238	0x3db85a37	0.09001582
239	0xbd870b93	-0.065940045
240	0x3f3daae2	0.7408887
241	0xbcf2a83c	-0.029621236
242	0x3c4ac52a	0.012376109
243	0xbbe2cf24	-0.0069216657
244	0xbc9837de	-0.018581327
245	0xbe1e38e2	-0.15451387
246	0xbd96d33c	-0.073645085
247	0xbd9b7b01	-0.075918205
248	0xbf6e0fe4	-0.92993
249	0x3e9a6da1	0.30161765
250	0x3dcbae96	0.09945409
251	0x3e8e79b4	0.27827227
252	0x3e2274c8	0.15864861
253	0x3e9ab9cd	0.3021988
254	0x3dcc5535	0.099771895
255	0x3ed4335f	0.41445443

net.0.bias f4 [128]
0	0x3e09be4d	0.134515
1	0x3dfa49d1	0.122211106
2	0x3daeb3a8	0.085303605
3	0x3d9cf689	0.0766421
4	0x3e17ef3e	0.14837357
5	0x3d580263	0.05273665
6	0x3ea6966f	0.32536647
7	0x3e24b8aa	0.16086069
8	0x3a82c5f0	0.0009977203
9	0x3e13e22e	0.1444175
10	0x3de7f540	0.113260746
11	0x3d486336	0.04892274
12	0x3dbc9cfb	0.09209629
13	0x3d8815f1	0.0664481
14	0x3ddb50a3	0.107087396
15	0x3dd670de	0.104707465
16	0x3d8127e9	0.063064404
17	0x3e3aeda1	0.1825471
18	0x3e087c7b	0.13328736
19	0x3d89764e	0.06712018
20	0x3d8924d3	0.06696477
21	0x3d34a28d	0.044100333
22	0x3e47b830	0.19503856
23	0x3de40a62	0.11134793
24	0x3e204174	0.15649968
25	0x3df8e6b3	0.121533774
26	0x3dd2fb62	0.10301854
27	0x3dfe743f	0.12424516
28	0x3db96861	0.09053112
29	0x3e91e570	0.2849536
30	0x3e04d0d7	0.12970291
31	0x3da3318e	0.07968436
32	0x3de922ed	0.11383615
33	0x3dab3b5d	0.08360932
34	0x3da65d24	0.08123234
35	0x3d8a05a7	0.06739359
36	0x3dd1d717	0.10246103
37	0x3e15d4d7	0.14631973
38	0x3e29f883	0.16598706
39	0x3deb9a15	0.11503998
40	0xbc383239	-0.011242443
41	0x3da87881	0.08226109
42	0x3d6781d7	0.05652031
43	0x3df36c38	0.118858755
44	0x3d8bbc8b	0.06823071
45	0x3e182e13	0.14861326
46	0x3db4892a	0.088152245
47	0x3e273cc9	0.16331781
48	0x3dfdaf09	0.12386901
49	0x3dd7ef49	0.10543687
50	0x3cb7790e	0.02239659
51	0x3db16d13	0.086633824
52	0x3d529673	0.05141301
53	0x3d91c3b6	0.07117407
54	0x3deeb93f	0.11656427
55	0x3dd519c4	0.10405305
56	0x3dfea667	0.124340825
57	0xba99ad04	-0.0011724536
58	0x3e20f23e	0.15717408
59	0x3db7146e	0.089394435
60	0x3e13abda	0.14421025
61	0x3df7d930	0.12101972
62	0x3d26a133	0.040681075
63	0x3dd18dfe	0.10232161
64	0x3de031af	0.109469764
65	0x3e0c7302	0.13715747
66	0x3e539400	0.20661926
67	0x3db8f478	0.09031004
68	0x3dc44637	0.09583705
69	0x3ce3b4be	0.027796146
70	0x3e112de8	0.14177668
71	0x3e139953	0.14413957
72	0x3e236c2f	0.15959238
73	0x3e0f2ec7	0.13982688
74	0x3dd2c402	0.10291292
75	0x3e70b621	0.23506977
76	0x3df7a515	0.12092034
77	0x3e155709	0.14583983
78	0x3e25ed8d	0.162039
79	0x3de4a86c	0.111649364
80	0x3d6b73ff	0.05748367
81	0x3f4af4bb	0.7927968
82	0x3e00fafc	0.12595743
83	0x3e5a5ade	0.21323726
84	0x3dfd9374	0.1238164
85	0x3e05e375	0.13075049
86	0x3e2413bf	0.16023158
87	0x3ce28aac	0.027654015
88	0x3e8e0cc1	0.27744105
89	0x3ddf1ab6	0.108937666
90	0x3df09b8a	0.11748417
91	0x3d68a5d8	0.056798786
92	0x3e056c8f	0.13029693
93	0x3d0b9ede	0.034087054
94	0x3e39e259	0.18152751
95	0x3d87b75f	0.06626772
96	0x3c9b44fc	0.018953793
97	0x3e149990	0.14511704
98	0x3d9d6ff9	0.07687373
99	0x3db37232	0.087620154
100	0x3e21e9c2	0.15811828
101	0x3e686aab	0.2269694
102	0x3db085ee	0.08619295
103	0x3e1f5968	0.1556145
104	0x3d7c31b0	0.061570823
105	0x3dd6ee0e	0.10494624
106	0x3dce9f24	0.100889474
107	0x3d738243	0.0594504
108	0x3de6af4e	0.112639055
109	0x3e092b41	0.13395406
110	0x3ce81ba9	0.028333502
111	0x3df290c1	0.11844016
112	0x3d09d592	0.033650942
113	0x3e00950c	0.12556857
114	0x3df6661b	0.12031194
115	0x3d6d492a	0.057931103
116	0xbce6a119	-0.02815299
117	0x3e3affde	0.18261668
118	0xbcca32c7	-0.024682416
119	0x3e2ef0a4	0.17083985
120	0x3de44ae8	0.111471
121	0x3e151e93	0.14562444
122	0x3e2cbb94	0.1686843
123	0x3e2d36c8	0.16915429
124	0x3e0a406a	0.13501135
125	0x3da22ac3	0.079183124
126	0x3d728bff	0.059215542
127	0x3d8fcfac	0.07022032

net.2.weight f4 [256, 128]
0	0x3fa2dc71	1.2723523
1	0x3db4bc50	0.0882498
2	0x3fe5ed0c	1.7962966
3	0x3eb51cc4	0.3537351
4	0xbdae15b2	-0.08500232
5	0x3edbfa7c	0.42964542
6	0x3f274cff	0.6535186
7	0x3fdcd398	1.7252073
8	0x40266923	2.600167
9	0x3f0930e4	0.53590226
10	0x3f55a3d1	0.8345309
11	0x3e8df9bd	0.27729598
12	0x3d394115	0.045228083
13	0x3dc3f154	0.09567514
14	0xbe7ae072	-0.24499682
15	0x3f6d4a5d	0.92691594
16	0x3f00cf1a	0.5031601
17	0xbd495d06	-0.04916098
18	0x3f02b956	0.5106405
19	0x3fbe3f38	1.4863043
20	0x3f934935	1.1506716
21	0x3fe518cb	1.7898191
22	0xbd495c83	-0.04916049
23	0x3f297f85	0.66210204
24	0x3ec3c3aa	0.38235217
25	0x3e0c4877	0.13699518
26	0x3f4ccaee	0.79997146
27	0xbe40780e	-0.18795797
28	0x3edf7b3d	0.4364871
29	0x3d92fc9e	0.07177089
30	0x3e4bcbc4	0.19901949
31	0x3f277c88	0.65424395
32	0x3f42c526	0.76082075
33	0x3ef6fe31	0.48240808
34	0x3eb7c491	0.35892156
35	0x3f27e19e	0.6557864
36	0xbddac029	-0.10681183
37	0x3f9e1c12	1.2352316
38	0x3fa8dce2	1.3192408
39	0x3d18abad	0.037273098
40	0xbf4ecbab	-0.8077952
41	0x3e7e392d	0.24826498
42	0x3dbdd792	0.092696324
43	0x3ce4157c	0.027842276
44	0x3e7e7be6	0.24851951
45	0x3e9e1e48	0.30882478
46	0x3f81896c	1.0120063
47	0x3f8af5c7	1.0856255
48	0x3f4097d4	0.7523167
49	0x3e348ab2	0.17631033
50	0x3f38b5f0	0.72152615
51	0x3fc696e3	1.5514797
52	0x3ef2b90e	0.4740681
53	0x3dcfc473	0.101448916
54	0x3ef42466	0.4768402
55	0xbe4b20cb	-0.19836728
56	0xbeaa3a34	-0.3324753
57	0xbf4f5d1b	-0.8100144
58	0x3ea7b731	0.3275695
59	0x3f97c227	1.1856126
60	0x3d1ac4a2	0.03778518
61	0x40032d0f	2.0496252
62	0x3eac844a	0.3369468
63	0x3ef2fe0e	0.47459453
64	0x3dbc59dc	0.09196827
65	0x3f03db29	0.51506287
66	0x3f88a2d1	1.0674688
67	0x3e047a85	0.12937362
68	0x3f917575	1.136397
69	0x3ec9f4f6	0.39444703
70	0xbe502bcb	-0.20329206
71	0x3e1ad8cf	0.15121768
72	0x3e94ff39	0.2910097
73	0x3f838643	1.0275348
74	0x3eea1dcb	0.45725855
75	0x3ded5311	0.11588109
76	0x3ea4fc3d	0.32223693
77	0xbe998f7a	-0.29992276
78	0x3f08b32c	0.53398395
79	0x3e8090d4	0.25110495
80	0x3f1a1662	0.60190403
81	0x3efd4c59	0.4947231
82	0xbf00855e	-0.502035
83	0x3e078ef5	0.13238128
84	0x3ee980c2	0.45606047
85	0xbe7df4e8	-0.24800456
86	0x3f3070a8	0.689219
87	0x3f15876d	0.5840977
88	0xbe6c7985	-0.23093231
89	0x3de5203c	0.11187789
90	0x3f2ed78d	0.68297654
91	0x3f0689cf	0.5255403
92	0x3f3a58d3	0.72791785
93	0x3fac159a	1.3444092
94	0x3f083876	0.5321115
95	0x3f021482	0.5081254
96	0x3f60fa9a	0.8788239
97	0x3d8202a7	0.06348162
98	0x3e93a2d2	0.2883516
99	0xbf663e59	-0.89938885
100	0xbe0f88e5	-0.14017065
101	0xbe882f3b	-0.26598534
102	0x3fbc4c72	1.4710829
103	0x3e91c311	0.28469136
104	0x3e3e6a4b	0.18595235
105	0x3e96fdbb	0.29490456
106	0x3efe3013	0.49646053
107	0x39da1c84	0.00041601446
108	0x3f760e62	0.96115696
109	0x3fbdf232	1.4839537
110	0x3e42c56b	0.19020621
111	0x3f121918	0.5706954
112	0x3f1ccfc9	0.61254555
113	0x3f39d507	0.7259068
114	0x3f0e35f8	0.555511
115	0x3f727f98	0.9472594
116	0x3fe9e3d7	1.8272656
117	0x3e4602f8	0.1933707
118	0xbf613521	-0.87971693
119	0x3f36822b	0.7129237
120	0x3e68c9f9	0.22733296
121	0x3a8e19a1	0.0010841378
122	0x3e9b7a25	0.30366626
123	0x3eca0818	0.394593
124	0x400a142a	2.1574807
125	0x3d11a23e	0.035555117
126	0x3f89fac5	1.0779654
127	0x3fb60f74	1.4223466
128	0x4011e976	2.2798743
129	0x3e0adfc7	0.13561927
130	0x3f478120	0.77931404
131	0xbdf4e011	-0.119568
132	0x3eeef359	0.46670035
133	0x3f1f6e26	0.6227745
134	0xbee1739c	-0.44033515
135	0x3f883a51	1.0642797
136	0x3eadb017	0.33923408
137	0x3e9011e9	0.28138664
138	0xbe6cec17	-0.23136936
139	0x3d9a000c	0.0751954
140	0x3ea448a4	0.3208667
141	0x3f3c0b77	0.73454994
142	0x3f477dc3	0.7792627
143	0x3f50dff9	0.81591755
144	0x3eaa4060	0.3325224
145	0x3f48b920	0.7840748
146	0x3e818c32	0.25302273
147	0x3d98825e	0.074467406
148	0x3fc6931e	1.5513647
149	0x3f8101b8	1.007865
150	0x3f2e4367	0.680716
151	0x3f420695	0.75791293
152	0x3f14b5cd	0.58089906
153	0x3ef13ad8	0.47115207
154	0x3f580311	0.8437968
155	0x3edc6a3d	0.43049803
156	0x3e4d7d52	0.20067337
157	0x3eed1051	0.4630151
158	0x3d90653d	0.0705056
159	0x3fde7f95	1.7382685
160	0x3ed16d86	0.40903872
161	0x3f6aec71	0.9176703
162	0x3f0cad5e	0.5495204
163	0x3e3700b3	0.1787136
164	0x3f73572f	0.95054907
165	0x3f97d4d2	1.1861823
166	0x3f7481cf	0.9551057
167	0x3f15cef3	0.58518904
168	0xbf8888ba	-1.0666726
169	0x3ec58c07	0.38583395
170	0x3eb2dc4f	0.34933707
171	0x3f415c9a	0.75531924
172	0x3f10e7d1	0.56603724
173	0x3f2d7fc3	0.67773074
174	0x3fdf715a	1.7456467
175	0x3f237164	0.63844895
176	0x3fd25db8	1.6434851
177	0x3e5e094c	0.21683234
178	0xbe0aa005	-0.13537605
179	0x3f35478c	0.70812297
180	0x3f2ce4f2	0.6753684
181	0x3e7fddf9	0.2498702
182	0x3f21f6be	0.63267124
183	0x3efc264a	0.49247962
184	0x3f5fe717	0.8746199
185	0xbf7ec9ca	-0.99526656
186	0xbdaf27a9	-0.085524864
187	0x3fa9314b	1.3218168
188	0x3d027023	0.031845223
189	0x3eb24664	0.3481933
190	0x3da243eb	0.079231106
191	0x3f016965	0.50551444
192	0xbe28ef17	-0.16497456
193	0x3d7524db	0.0598496
194	0x3fb0a6bc	1.3800883
195	0x3e6f5a28	0.23374236
196	0x3fbfb668	1.4977541
197	0xbef2f708	-0.47454095
198	0x3f60f1d1	0.8786898
199	0x3f435c98	0.7631316
200	0x3f57ecfb	0.8434598
201	0x3e61007b	0.2197284
202	0x3d6c11c3	0.057634126
203	0x3ec77b3b	0.38961205
204	0x3f5ab847	0.85437435
205	0x3f1b3f35	0.6064332
206	0x3f14a4bd	0.5806387
207	0x3f7e866f	0.9942388
208	0x3f4ab93a	0.79188883
209	0xbe986094	-0.29761183
210	0x3edc8c5f	0.43075845
211	0x3e93dab9	0.2887781
212	0x3f3cf457	0.73810333
213	0x3eb290a2	0.3487597
214	0x3d85d144	0.06534055
215	0x3ea9a82b	0.33136114
216	0x3f51057b	0.8164899
217	0x3f292c0d	0.6608284
218	0xbd58bec8	-0.05291632
219	0x3e6ae6c6	0.22939596
220	0xbd3d2607	-0.046178844
221	0xbf39088d	-0.7227867
222	0xbeaa091a	-0.3321007
223	0x3ead0cc9	0.33798817
224	0xbe1457f9	-0.14486684
225	0x3f70d298	0.9407134
226	0x3eee57a6	0.46551245
227	0x3f8203d0	1.0157413
228	0x3f65c93c	0.89760184
229	0x3effadb7	0.4993722
230	0x3fc3f853	1.5310158
231	0x3f3d09ed	0.7384327
232	0x3f044a04	0.5167544
233	0x3eb3580d	0.35028115
234	0x3e5c8b2b	0.21537463
235	0x3f2d038b	0.6758353
236	0xbdc21cb8	-0.09478134
237	0x3f64ff38	0.8945193
238	0x3f605fce	0.87646186
239	0xbd11548b	-0.035481017
240	0xbdd65408	-0.104652464
241	0x3fc9d9a7	1.5769547
242	0x3f2ffe87	0.6874775
243	0xbe3df911	-0.18552043
244	0xbf5b217c	-0.8559797
245	0x3e2b5a4b	0.16733663
246	0xbf8ac470	-1.0841198
247	0x3f8438c1	1.032982
248	0x3f7ab30e	0.97929466
249	0x3f067a7b	0.5253064
250	0x3eb34e27	0.35020563
251	0x3ef4480a	0.4771121
252	0x3e03eff2	0.128845
253	0x3efe51fe	0.4967193
254	0x400e7c51	2.2263377
255	0x3fd5d3f7	1.6705312

net.2.bias f4 [256]
0	0x3e83d737	0.25750133
1	0x3e4cb986	0.19992647
2	0x3d3bb9f1	0.045831624
3	0x3e21b55a	0.15791836
4	0x3e21cc4f	0.15800594
5	0x3e739e22	0.23790792
6	0xbead7126	-0.33875388
7	0x3e37ae2b	0.17937534
8	0x3fb397fc	1.4030757
9	0xbe681e2c	-0.2266776
10	0xbe679012	-0.22613552
11	0x3cdf52db	0.027261188
12	0x3e3946d8	0.18093431
13	0x3ddbf4e4	0.107400686
14	0x3e0210c7	0.12701713
15	0x3de4d5be	0.111735806
16	0x3e351d75	0.17687018
17	0x3e032666	0.12807617
18	0xbe85fb4e	-0.26168293
19	0x3da0cbad	0.07851348
20	0xbe899459	-0.26870993
21	0x3e56a91b	0.20962946
22	0x3d361145	0.044450063
23	0xbce90b59	-0.028447794
24	0x3ea39306	0.31948107
25	0x3dfc020a	0.123050764
26	0x3db56341	0.08856822
27	0x3e0bafad	0.13641234
28	0x3e7cdbbe	0.246932
29	0x3e592477	0.21205316
30	0x3d8e112d	0.0693687
31	0x3e65c278	0.22437465
32	0xbe89d965	-0.2692367
33	0xbe9bb35d	-0.3041028
34	0x3e10dae3	0.14145999
35	0xbe3db71a	-0.18526879
36	0x3eaf622b	0.34254584
37	0xbc7ad9b6	-0.015310695
38	0x3e27cb3b	0.1638612
39	0x3df417b6	0.11918585
40	0x3d174036	0.03692647
41	0x3dd514a9	0.10404331
42	0x3d97ff85	0.07421783
43	0x3e4d3ac1	0.20041944
44	0x3e0bc37c	0.1364879
45	0x3e7bf478	0.24604976
46	0x3e65cf13	0.22442274
47	0xbce1e2a5	-0.027573893
48	0x3e140d83	0.1445828
49	0x3e1a4307	0.15064631
50	0xbea078ba	-0.31342107
51	0x3e7f772a	0.24947801
52	0xbe9e1091	-0.30872014
53	0x3e66fbea	0.22557035
54	0xbe86329c	-0.26210487
55	0x3e1966f9	0.14980687
56	0x3d547275	0.051866967
57	0x3d9d88f0	0.076921344
58	0xbea30440	-0.3183918
59	0xbbcfccec	-0.0063415673
60	0x3dee19df	0.11626028
61	0x3e1aca09	0.15116133
62	0x3eb3702f	0.35046527
63	0x3e4bed24	0.1991468
64	0x3d8b7fc6	0.0681148
65	0x3fac6307	1.3467721
66	0x3e9b1f47	0.302973
67	0x3d55a5e5	0.052160162
68	0x3d9ab130	0.07553327
69	0x3d47f232	0.04881496
70	0x3e834277	0.25636646
71	0xbe8c387d	-0.27386847
72	0x3def067a	0.11671157
73	0x3db9190e	0.09037982
74	0xbf0c5e1c	-0.548311
75	0x3e87812d	0.2646574
76	0x3ec3d916	0.3825156
77	0x3f879b1c	1.0594211
78	0x3e5006fd	0.20315166
79	0x3e5c2c1b	0.215012
80	0xbe8e9840	-0.27850533
81	0x3e1ab0e3	0.1510654
82	0xbe75a362	-0.23988107
83	0x3d6bfc27	0.057613518
84	0x3da76494	0.08173481
85	0x3cfb875e	0.030704197
86	0x3d2be7c7	0.041969087
87	0x3d935349	0.0719362
88	0x3da2ba20	0.07945657
89	0x3efb36b2	0.49065167
90	0x3e222b27	0.15836774
91	0x3e2ae25e	0.16687915
92	0x3ca34077	0.0199282
93	0x3fac0419	1.343875
94	0x3e9c7d82	0.30564505
95	0x3d5ec1ed	0.05438416
96	0x3d211be9	0.039333258
97	0x3e96f2f1	0.29482225
98	0x3e8de7fe	0.27716058
99	0x3e562e91	0.20916201
100	0xbe4aa633	-0.19789962
101	0x3d9c5fe3	0.076354764
102	0x3eb29034	0.34875643
103	0xbe43ff3a	-0.1914033
104	0x3da872f5	0.08225051
105	0x3eaae217	0.33375618
106	0x3e3d4cc7	0.1848632
107	0x3e5705ac	0.20998257
108	0x3e5a73f9	0.21333303
109	0x3da41389	0.080115385
110	0x3ec986fa	0.3936079
111	0x3d5d26a7	0.05399194
112	0x3d1da15e	0.03848397
113	0x3d803e73	0.06261911
114	0x3dd7bed8	0.105344474
115	0xbc292752	-0.010324316
116	0x3b37fa2c	0.0028072698
117	0xbea38990	-0.3194089
118	0xbeb95bc9	-0.3620284
119	0xbe3d334f	-0.18476604
120	0x3ea268a5	0.31720462
121	0x3e37e71b	0.17959253
122	0xbe6a9516	-0.22908434
123	0x3e1f38d2	0.15549019
124	0x3ea87ac1	0.32906154
125	0x3e463562	0.19356301
126	0x3cf390f0	0.029732198
127	0x3dbe3daa	0.09289105
128	0x3df9985b	0.121872626
129	0x3e0f9cfa	0.14024726
130	0x3dc8f46d	0.098122455
131	0x3e6879e8	0.22702754
132	0x3c6861ae	0.014183445
133	0x3e36281d	0.1778874
134	0x3e55618d	0.20837994
135	0x3d0257d5	0.031822044
136	0x3edf6f1e	0.43639463
137	0x3de59a4c	0.112110704
138	0x3dc567e9	0.0963896
139	0x3e113c9b	0.14183275
140	0x3e870f50	0.2637887
141	0x3e79bc72	0.24388292
142	0x3e24224c	0.16028708
143	0x3e446cb5	0.19182093
144	0x3d503a14	0.050836638
145	0x3e596ca3	0.21232848
146	0xbe8a881f	-0.27056977
147	0xbe0e0953	-0.13870744
148	0x3ea4eb90	0.3221097
149	0x3e5c4ada	0.21512929
150	0x3ecb4071	0.39697602
151	0xbafb6a37	-0.0019181435
152	0x3da6d508	0.08146101
153	0x3dfc03c1	0.123054035
154	0x3c0045b0	0.007829115
155	0x3db401b9	0.08789391
156	0x3e82f5e5	0.25578228
157	0x3db77964	0.089587
158	0x3e5610e6	0.20904884
159	0x3de60e8b	0.112332426
160	0xbe5986ec	-0.21242875
161	0x3e4949f2	0.19657114
162	0x3e23e9fa	0.16007224
163	0x3e9d5df0	0.3073573
164	0x3e09d61a	0.1346058
165	0x3e18db1e	0.14927337
166	0xbe044e7e	-0.12920567
167	0x3d85c770	0.0653218
168	0x3e2af87d	0.16696353
169	0xbea2fec1	-0.31834987
170	0x3e4305ba	0.19045153
171	0x3e0a350f	0.13496803
172	0x3f9819ae	1.1882837
173	0x3e47ef7d	0.19524951
174	0x3e5b6ada	0.2142748
175	0x3d2121da	0.039338924
176	0x3dfd896b	0.12379726
177	0x3d21857f	0.039433952
178	0x3e393450	0.18086362
179	0x3d2db379	0.042407487
180	0x3d05b48b	0.032642882
181	0xbd1f33fe	-0.038867943
182	0x3d813a5d	0.0630996
183	0x3e0aa9c1	0.13541318
184	0xbd8090cc	-0.06277618
185	0xbbe7bee0	-0.0070723146
186	0x3f1165f0	0.5679617
187	0x3dbe5cbb	0.09295031
188	0xbe35ded0	-0.17760777
189	0x3eb8bcef	0.36081645
190	0xbe9425ef	-0.2893519
191	0x3df3eb7c	0.119101495
192	0x3e6344f8	0.22194278
193	0xbfac1acf	-1.3445681
194	0x3e4ea627	0.2018057
195	0x3e61716c	0.22015923
196	0x3e58af75	0.21160682
197	0x3e80897b	0.2510489
198	0x3e3d6bc7	0.18498145
199	0x3e0a22b5	0.13489802
200	0x3e280baf	0.16410707
201	0xbeaa67f4	-0.33282435
202	0x3e3b7356	0.18305716
203	0x3e0e03cd	0.13868637
204	0x3e399503	0.1812325
205	0xbe1df66a	-0.15426031
206	0xbe822ac5	-0.25423256
207	0x3e1a6dc5	0.15080936
208	0x3db5a395	0.088690914
209	0x3dc5c539	0.09656758
210	0x3deb38c3	0.11485436
211	0x3e30dfaf	0.17272829
212	0x3e1199cb	0.14218824
213	0x3f83435b	1.025493
214	0x3e02fd0d	0.12791844
215	0x3f0f5b0a	0.5599829
216	0x3e392fce	0.18084642
217	0x3e02a889	0.12759604
218	0x3e458541	0.19289114
219	0x3e2d5bb2	0.1692951
220	0x3d9bed5b	0.07613631
221	0x3e5d8d7d	0.21636005
222	0x3ddc7f4a	0.10766466
223	0x3d66ecd7	0.05637821
224	0x3e108758	0.1411413
225	0x3d5eae5e	0.05436551
226	0x3e584c53	0.21122865
227	0x3d765051	0.06013519
228	0x3e131a67	0.1436554
229	0x3ddebcc4	0.10875848
230	0xbe756fbf	-0.23968409
231	0x3d9167b5	0.07099859
232	0x3d8bb358	0.068213165
233	0x3e0f4e94	0.13994819
234	0xbe48edbb	-0.19621937
235	0x3eb77931	0.3583465
236	0x3e8250bc	0.2545222
237	0x3d96b677	0.07359021
238	0x3e032947	0.12808715
239	0x3f2e1e7e	0.6801528
240	0x3df246f4	0.118299395
241	0x3da062ee	0.07831369
242	0xbe973c12	-0.29538018
243	0x3e05e321	0.13074924
244	0x3e0be2b6	0.13660702
245	0x3e9ceb97	0.3064849
246	0x3e36d1f9	0.17853536
247	0x3de0d166	0.109774396
248	0xbd0485ca	-0.032354154
249	0xbea287eb	-0.31744322
250	0x3e488ff8	0.1958617
251	0xbe4342e3	-0.19068484
252	0x3e12c955	0.14334615
253	0x3d915286	0.07095818
254	0x3e941ef8	0.28929877
255	0x3ed2258d	0.41044274

net.4.weight f4 [27, 256]
0	0x3e3a8c8c	0.18217677
1	0x3edeb0f1	0.4349437
2	0x3edcdd1c	0.43137443
3	0x3ec1718f	0.3778195
4	0x3ec1a981	0.37824634
5	0x3ecee629	0.40409973
6	0x3eee4b50	0.46541834
7	0x3ed5d8a5	0.4176685
8	0xbf7e8f66	-0.9943756
9	0x3ef0ad4e	0.4700722
10	0x3ee17443	0.44034013
11	0x3eb6fd87	0.357403
12	0x3ee88231	0.45411828
13	0x3ea0b282	0.3138619
14	0x3ebd4a14	0.3697058
15	0x3eb424e5	0.35184398
16	0x3eb9005d	0.3613309
17	0x3ecbef1b	0.3983086
18	0x3ece8a40	0.4033985
19	0x3ec30a9a	0.38094026
20	0x3ef994d9	0.48746374
21	0x3e8c503a	0.27404958
22	0x3ec76c3d	0.38949767
23	0x3ef330de	0.4749822
24	0x3ea4e925	0.32209125
25	0x3ec5a684	0.38603604
26	0x3ecf7457	0.40518448
27	0x3e96e432	0.29470974
28	0x3e5df213	0.21674375
29	0x3eb252ba	0.3482874
30	0x3ecd0bdf	0.4004812
31	0x3ea850ee	0.32874244
32	0x3ef8810a	0.4853595
33	0x3ecd9654	0.40153754
34	0x3eb39970	0.35078
35	0x3ebb9fe3	0.3664542
36	0x3ef26b41	0.47347453
37	0xbd578450	-0.052616417
38	0x3ebf74e7	0.37393877
39	0xbe4b967d	-0.19881625
40	0x3eda98f5	0.42694822
41	0x3ea5c00a	0.32373077
42	0x3ed74861	0.42047408
43	0x3eb1242f	0.34597918
44	0x3eafad9f	0.3431215
45	0x3ebfd71d	0.37468806
46	0xbc09864e	-0.008393837
47	0x3ec76ba4	0.3894931
48	0x3ebdc8df	0.37067315
49	0x3eb17334	0.34658206
50	0x3ef0be06	0.47019976
51	0x3ec831be	0.3910045
52	0x3eef6db0	0.46763372
53	0x3f5ffb43	0.8749277
54	0x3ee7600c	0.45190465
55	0x3ec85cdb	0.39133343
56	0x3ea47052	0.32116944
57	0x3ecd3e63	0.4008666
58	0x3ec7b652	0.39006287
59	0x3e52dcb3	0.20592003
60	0x3eb9a3c4	0.36257756
61	0x3ec10d31	0.37705377
62	0x3eea5bcb	0.45773157
63	0x3eb52f3b	0.35387596
64	0x3ebcbab8	0.36861205
65	0xbf6b0d20	-0.918169
66	0x3e8e831e	0.2783441
67	0x3ed5773a	0.41692525
68	0x3e9ea492	0.30984932
69	0x3edd95a4	0.4327823
70	0x3ea5cb26	0.32381552
71	0x3ebc7829	0.36810425
72	0x3ec9c6a9	0.39409378
73	0x3e9168d2	0.28400284
74	0x3ede6dda	0.43443185
75	0x3ed663ff	0.41873166
76	0x3e2ccc28	0.16874754
77	0xbe9795fd	-0.2960662
78	0x3ea07e13	0.31346187
79	0x3e98e911	0.29865316
80	0x3ee3d417	0.4449775
81	0x3e83d421	0.2574778
82	0x3ee17692	0.44035774
83	0x3ea7e416	0.32791203
84	0x3ea41ad1	0.3205171
85	0x3ea5481a	0.32281572
86	0x3ecbb96d	0.39789906
87	0x3ec6d38b	0.3883327
88	0x3ec2af08	0.38024163
89	0xbf11d385	-0.5696338
90	0x3eeeb800	0.46624756
91	0x3e76f9e5	0.24118765
92	0x3ec59eab	0.38597617
93	0xbf643482	-0.8914262
94	0x3de08940	0.10963678
95	0x3e01cd14	0.12675887
96	0x3ed751a3	0.4205447
97	0x3e06e91c	0.13174862
98	0xbc3a1b50	-0.011359051
99	0x3ead0e26	0.33799857
100	0x3ebb5ed0	0.36595774
101	0x3e7a6737	0.24453436
102	0x3ed7d41c	0.42154014
103	0x3ebbce49	0.3668082
104	0x3eb0076f	0.3438067
105	0x3e675b24	0.22593361
106	0x3ec235f9	0.37931803
107	0x3eac15a2	0.33610255
108	0x3ec081a8	0.3759892
109	0x3ec3e669	0.38261726
110	0x3ba8af1f	0.005147829
111	0x3ec93dc1	0.39304927
112	0x3eaa83ba	0.33303624
113	0x3ee9f775	0.45696607
114	0x3ede1f4f	0.43383262
115	0xbc580ff8	-0.013187401
116	0x3ebbb764	0.36663353
117	0x3ec1f38c	0.37881124
118	0x3ef8fea4	0.48631775
119	0x3ecb6511	0.39725545
120	0xbde80705	-0.11329464
121	0x3e09b2bd	0.1344709
122	0x3ef6c42e	0.48196548
123	0x3ea6b111	0.32556966
124	0x3eaa9be2	0.33322054
125	0x3e997d8b	0.29978594
126	0x3ed1a1a6	0.4094364
127	0x3eba4e53	0.36387882
128	0x3ea34108	0.31885552
129	0x3ea5d1aa	0.32386523
130	0x3e8e27ec	0.27764833
131	0x3ec02331	0.3752685
132	0x3eb84fee	0.35998482
133	0x3ed18e45	0.40928856
134	0x3e43bba9	0.19114555
135	0x3e96b66c	0.29436052
136	0x3e45b08c	0.19305629
137	0x3ee036e9	0.43791893
138	0x3ed4a119	0.41529158
139	0x3ec7aa8e	0.3899731
140	0x3eb86fb8	0.36022735
141	0x3db584ee	0.08863245
142	0x3e957429	0.29190186
143	0x3eb56fc5	0.35436836
144	0x3ecdf1bb	0.40223488
145	0x3eeb2442	0.459261
146	0x3ed444aa	0.41458637
147	0x3e6b51f1	0.22980477
148	0x3ef84e97	0.4849746
149	0x3eb2e69e	0.34941572
150	0x3f29e2e8	0.66361856
151	0x3e93fa88	0.28902078
152	0x3e966688	0.293751
153	0x3eb13523	0.34610853
154	0x3e9df7da	0.30853158
155	0x3ec25164	0.3795272
156	0x3ebed2b5	0.37270132
157	0x3ed90112	0.4238363
158	0x3ea3017b	0.31837067
159	0x3ea3f829	0.3202527
160	0x3ee21289	0.44154766
161	0x3ea533d8	0.32266116
162	0x3e99c940	0.30036354
163	0x3ea51c28	0.32248044
164	0x3eb54bfb	0.3540953
165	0x3ecad39b	0.39614567
166	0x3ef04caf	0.46933505
167	0x3edb37e2	0.42816073
168	0x3ed12b56	0.40853375
169	0x3ebcb25c	0.36854827
170	0x3eaf02d0	0.34181833
171	0x3ed38fd5	0.41320673
172	0xbf85aefc	-1.0444026
173	0x3f6f8918	0.93568563
174	0x3e9e87bd	0.30962935
175	0x3f885838	1.0651922
176	0x3ec2f621	0.38078406
177	0x3edd5a55	0.4323298
178	0x3eb2fc44	0.34958088
179	0x3ec1fd93	0.37888774
180	0x3ec0c343	0.37648973
181	0x3f9819b2	1.1882842
182	0x3ebc60e1	0.36792663
183	0x3e98cd04	0.29843915
184	0x3ec3e6fc	0.38262165
185	0x3ea58f72	0.32336003
186	0xbf431fbe	-0.7622031
187	0x3ebd9801	0.37030032
188	0x3ec787ba	0.3897074
189	0x3dca2306	0.098699614
190	0x3ee8c09f	0.45459458
191	0x3ed38fa8	0.4132054
192	0x3e96f49c	0.29483497
193	0x3d340fe2	0.04396046
194	0x3ea5bb1a	0.3236931
195	0x3e3153b5	0.17317088
196	0x3ecc35a7	0.39884683
197	0x3ec7bbfc	0.39010608
198	0x3ec3937b	0.38198456
199	0x3ec38fdb	0.3819569
200	0x3ebed6a8	0.37273145
201	0x3ee542b1	0.44777444
202	0x3eb8b861	0.3607817
203	0x3ed35dcc	0.412825
204	0x3ed076ba	0.4071558
205	0x3ec92bbc	0.3929118
206	0x3ea9cfd3	0.3316637
207	0x3edb2b44	0.42806447
208	0x3ea0a673	0.3137699
209	0x3e9ec0c0	0.31006432
210	0x3ec33558	0.38126636
211	0x3ec0be75	0.37645307
212	0x3ec45332	0.38344723
213	0xbef4d934	-0.47821963
214	0x3eb474ba	0.35245305
215	0xbd8f2968	-0.069903195
216	0x3eba4253	0.36378726
217	0x3ebd76be	0.37004656
218	0x3e9115d0	0.28336954
219	0x3ea9edaa	0.33189136
220	0x3eaca209	0.33717373
221	0x3ea2e039	0.31811693
222	0x3edbf709	0.4296191
223	0x3ec0da25	0.3766643
224	0x3e8ecf56	0.2789256
225	0x3edd959f	0.43278214
226	0x3eab4014	0.33447325
227	0x3f8f61d6	1.1201732
228	0x3e77147a	0.24128905
229	0x3ecb34b5	0.3968865
230	0x3ed7222e	0.42018265
231	0x3edecef4	0.43517268
232	0x3ea95079	0.33069208
233	0x3ebfa991	0.37434056
234	0x3ec03978	0.37543845
235	0x3e77319e	0.24140021
236	0x3e990a2b	0.2989057
237	0x3eaadffa	0.33374006
238	0x3eaeddcf	0.34153602
239	0xbcdc6ad8	-0.026906416
240	0x3ea2219d	0.3166627
241	0x3ee2c63c	0.44291866
242	0x3f0074d8	0.5017829
243	0x3ea211a0	0.31654072
244	0x3eaea066	0.3410675
245	0x3e9498f1	0.29022935
246	0x3ecbd396	0.39809865
247	0x3e9c2a88	0.305012
248	0x3f5e1897	0.8675627
249	0x3eec40b0	0.46143103
250	0x3ea738cf	0.3266053
251	0x3ecde464	0.4021331
252	0x3ebc9e34	0.3683945
253	0x3ec64e65	0.38731685
254	0x3ec374a4	0.38174927
255	0xbd276ba7	-0.04087415

net.4.bias f4 [27]
0	0xbd5fbd59	-0.054623935
1	0x3da674c3	0.08127739
2	0xbd95c7a7	-0.07313471
3	0xbb0afa45	-0.0021206301
4	0x3c19d1d1	0.009388403
5	0x3d80b0c2	0.06283714
6	0xbd0a1b1a	-0.033717252
7	0x3e485498	0.1956352
8	0xbda3e114	-0.080019146
9	0x3e88e3fc	0.26736438
10	0x3d87963b	0.06620451
11	0x3e071bf6	0.1319426
12	0xbd402f1f	-0.04691994
13	0x3d7ae646	0.061254762
14	0x3d3f4c3a	0.046703555
15	0x3d0e36e9	0.034720335
16	0xbd7197ae	-0.058982544
17	0xbd9d258d	-0.07673178
18	0x3e7f0d08	0.24907315
19	0x3eb9a62d	0.36259595
20	0x3ed194f9	0.4093397
21	0xbcce5ad7	-0.0251898
22	0x3d0d90e0	0.03456199
23	0x3e225062	0.15850976
24	0xbd19b236	-0.03752347
25	0x3dea50c5	0.11441187
26	0x3d079830	0.03310412
