model/dqn_policy_net_episode_2320.pt (torch, 334295 bytes, 6 tensors)

net.0.weight f4 [128, 336]
00000000: 2d4b 163d b639 55be 9f3c b93d f75a 353d
00000010: 86ed 6abe 8e74 d4bd 5421 84bc c3ee 6c3c
00000020: 0427 b53d 49ae c53c 51e1 5cbe 8794 36bc
00000030: f885 783e 38d5 6ebe fab4 fabc 4d9e 3a3d
00000040: 0329 29be 9ba0 80bd c636 9cbd 216c 74bd
00000050: 8dc7 1cbe 2a74 493e 566e 4fbe d1fe c93d
00000060: 4301 2ebe aa1a 13be 7b3e 03bd 35f2 36bd
00000070: 4ffc ff3b a1bd acbd 1caa a63d a219 b83d
00000080: ce6f 29be fa03 d23c c395 fb3b 37a6 2cbe
00000090: b3c3 eabc 96ed 79bd ab87 fabd 122a 30bc
000000a0: 2905 ad3c c1e9 8ebe faf0 313e fb9d f8bd
000000b0: 575a 163e e0fb 8ebe 0c57 863d b192 8d3c
000000c0: fd21 5639 4608 013c d204 3dbc dae5 01be
000000d0: 25c6 24bd 1961 f83d 8da5 11bd 4df6 4e3e
000000e0: 9dd9 2c3e c3f1 b4be 015e 64be d555 38bd
000000f0: c01b d53d 1a87 9f3c f618 50bd e585 97bd
00000100: 1363 ebbd afd7 6cbb 2155 5bbe 6ea1 e7bb
00000110: 5787 a6bd 36b4 013e 0fd8 58be 2f7e e53d
00000120: c3b3 5ebe 02c3 253d 6217 3ebd b243 443e
00000130: 0d7c 85bd 5aab 8c3d 5041 abbd 9c16 903d
00000140: 11eb 263e e66d dbbc 687e 143e 927a a3bd
00000150: 656b 40be 3388 9e3c c3d6 20be 2b36 b33d
00000160: dec9 88bd d2c0 acbd 36ac 9e3c 02a1 c93d
00000170: 2c6e b4bd 4f8b d0bd aec8 95bc 21fe 12bc
00000180: 6427 723e 2420 eebd cb74 dc3d 6940 b4bd
00000190: 54c3 c63c dc95 bcbd ac71 f23c 0a10 353c
000001a0: 28bc 4cbf 87fe ed3d f380 1e3e 25a4 493e
000001b0: 7ec9 973e d856 a83d c1d0 b7be 6fd9 e23d
000001c0: d199 d43c 39cc 013d 726e 83bd d6e0 2fbd
000001d0: 5ada bd3c d558 4abd f779 d13c 471f c6bc
000001e0: 1ab3 59bf 7885 5d3d 2c42 27be e57c 51be
000001f0: 21ef 17bd c7a5 033e e257 26be 4578 9fbd
00000200: 1339 7f3e 2b8b a7be ecc4 1d3d e946 53bd
00000210: 1e0b 69bd 6bb2 16be 81e2 5cbe 97b5 a3bd
00000220: 736c e7be ed4e dc3d 9448 513d ccc4 91bb
00000230: a769 22be 40be 293e 0016 8dbd 7d1e 023e
00000240: 8c18 c33e a51f 44be 33eb b9bd b43b 78be
00000250: e50a 893b 23c3 4c3d 6d61 8a3c 2713 25be
00000260: 4adb 6e3d d13f 723d f2a0 ec3d d089 ab3c
00000270: 3b12 22be ed35 0c3e 4cd8 98be ec07 be3c
00000280: f339 0f3c f777 2cbe 7ff9 dd3d 7090 643d
00000290: e2bc 76bc 6960 4cbc f711 f0bd c112 803d
000002a0: 6c29 113f d0e0 6abe b5ba 003e 23fc b6bd
000002b0: 98ca 72be 92a5 8abe bf5f 9bbe 7431 ebbc
000002c0: ba85 0c3f 531d 293e 0a1e b53d cdf0 71be
000002d0: fce9 2fbe 18c8 87be 2d8e fbbd 541a 6abe
000002e0: 7f40 4d3f a876 04bd fe17 803b 56f8 85be
000002f0: 1ca2 f6bd d55f 3cbc e606 1d3e e6df df3d
00000300: f760 32bf 87f1 8d3d bbaa e53d 8125 e53d
00000310: 48be dc3d cf54 a33e 8709 503d 79eb 793e
00000320: 4fce 093f 2669 7f3d b50f 173c d05e fbbd
00000330: 280d 3b3e 1a86 35bc c1ab 93bd 790c 833e
00000340: 60b2 e0bf 1944 bf3e 05c0 d93e 5c95 ab3e
00000350: 525c 203e be5c 903e 7f99 083e 3464 873e
00000360: dae6 f53e c89b 593d f14d d03d 28f4 e5bc
00000370: 796a 7f3d 3d1f 753d 486b 68bd 291b 0a3d
00000380: 21ff 43bf 4e5f 053f 29ea 5d3e 7d63 933e
00000390: af90 9fbd 15e7 6a3e 216a 00be 6aef b73e
000003a0: c341 303f 07f8 86bd 1ea3 c13b ae41 0bbe
000003b0: f55c 183b d33e bdbd a9ab d43d 8623 41be
000003c0: 0d3e 613f a0f7 583e b155 94bd 77c0 5dbe
000003d0: 9e31 66be 357d 26be d8f8 093e 7e3a c0be
000003e0: c004 57bf 82a7 203e b3d1 883e df79 663e
000003f0: d8c2 613e ea79 df3e 8f2e a3bd a207 f83e
0.036692787 -0.20822796 0.09044766 0.044276204 -0.2294217 -0.103737935 -0.016129173 0.014461222
0.08845332 0.024130957 -0.21570326 -0.01114381 0.24269855 -0.23323524 -0.030603874 0.045561124
-0.16519551 -0.06280633 -0.07627635 -0.059673432 -0.15310498 0.1967322 -0.20256934 0.098630555
-0.16992669 -0.1436564 -0.032042008 -0.04466458 0.00781206 -0.08434606 0.081379145 0.08989264
-0.16546556 0.025636662 0.007677765 -0.16860281 -0.02865777 -0.061017595 -0.12232908 -0.010752218
0.021120625 -0.27912715 0.17377082 -0.121395074 0.146829 -0.2792654 0.065595716 0.017281862
0.00020421292 0.007875508 -0.011536794 -0.12685338 -0.040228028 0.12127895 -0.035558272 0.20211144
0.16879888 -0.353407 -0.22301485 -0.04500373 0.104056835 0.019473601 -0.050805055 -0.07398585
-0.11493506 -0.00361393 -0.21419193 -0.0070688045 -0.08131283 0.12666401 -0.2117617 0.11205708
-0.21748261 0.040469177 -0.04640902 0.19166449 -0.065178014 0.0686862 -0.08362067 0.070355624
0.16300608 -0.026785802 0.14501345 -0.07982363 -0.18790968 0.019352054 -0.15706925 0.08750566
-0.06679128 -0.08435215 0.019369226 0.09845163 -0.08810076 -0.10182821 -0.018284168 -0.008971722
0.23647839 -0.11627224 0.10764464 -0.08801348 0.024263062 -0.09208271 0.029595219 0.011051187
-0.79974604 0.11620813 0.15478878 0.19691522 0.29645914 0.08219689 -0.35901454 0.110766284
0.025952252 0.031688903 -0.0641755 -0.04293903 0.023175407 -0.049401123 0.025570853 -0.024184836
-0.8503891 0.054082364 -0.16333836 -0.204578 -0.037093285 0.12856208 -0.16244462 -0.077866115
0.24924116 -0.32723364 0.038517877 -0.051581297 -0.056895368 -0.14716499 -0.2157078 -0.0799362
-0.45199928 0.107572414 0.051094607 -0.004448509 -0.15860616 0.16576481 -0.06888962 0.12706943
0.38104665 -0.19152696 -0.09078064 -0.24241525 0.004182207 0.049990784 0.01689216 -0.16120587
0.0583146 0.05914289 0.115541354 0.020939738 -0.15827267 0.13692446 -0.2985252 0.023197137
0.0087418435 -0.16842638 0.10838603 0.05580181 -0.015059682 -0.012474158 -0.117221765 0.06253577
0.5670383 -0.22937322 0.12571223 -0.0893481 -0.23710096 -0.27079445 -0.30346486 -0.028710105
0.5489155 0.16515093 0.0884362 -0.23627014 -0.17179102 -0.26519847 -0.12282977 -0.22861606
0.8017654 -0.032339722 0.00390911 -0.26166028 -0.12042639 -0.0114974575 0.15334663 0.10931377
-0.69679207 0.06930833 0.11214205 0.11188794 0.10778481 0.3190064 0.050790336 0.24406232
0.53830427 0.062356137 0.009220053 -0.122739434 0.18266737 -0.011079336 -0.07210494 0.25595453
-1.7554436 0.37356642 0.42529312 0.3351239 0.15660217 0.28195757 0.13339804 0.26443636
0.48027688 0.05312708 0.10171116 -0.028070524 0.0623574 0.059844244 -0.056742936 0.03371731
-0.7656117 0.5209855 0.21671356 0.2878684 -0.07791268 0.22939713 -0.12540485 0.35924846
0.68850344 -0.06590276 0.0059093377 -0.13599274 0.0023248766 -0.092404984 0.10384304 -0.18861207
0.87985307 0.21188211 -0.07242907 -0.21655451 -0.22479865 -0.162587 0.13473833 -0.37544626
-0.8399162 0.15688899 0.26722488 0.22507428 0.22046983 0.436477 -0.07967865 0.48443323

net.0.bias f4 [128]
00000000: ddde ef3d 7736 1d3e 5598 063e edfd 1c3e
00000010: e385 ad3e ea15 0c3e 71dd 153f c6f5 7e3e
00000020: 5fbe 8d3c b700 693e b017 213e 8880 d53d
00000030: ef29 473e 9a3e 0a3e 964e 363e a7b6 1a3e
00000040: 4582 083e 58bc 5d3e 9f39 413e e67c a13d
00000050: e805 043e 1bce be3d a658 d13e 21df 343e
00000060: 3caf 6f3e 7c44 303e 01c4 543e 338e 943e
00000070: faa7 0a3e 40ee 033f 10db 983e e914 333e
00000080: cfaf 763e 8a83 d33d 30c4 553e d411 f83d
00000090: 6dd4 dd3d 0d72 663e 2aff 783e f6be 223e
000000a0: fb73 d3bd 29d1 f93d e048 923d ffcc 2c3e
000000b0: a2fd 943d 5571 703e 491f e33d 341b 8a3e
000000c0: 57f7 253e 38f5 843e 2b31 3c3d 3aa4 5c3e
000000d0: 9579 f53d 78af 033e 93bc 3a3e a55c 063e
000000e0: 3b5f 153e 6025 d5bd b897 aa3e 0e6e 233e
000000f0: fabe 663e 61d4 f63d 27d7 a03d 6dc9 353e
00000100: 5216 5c3e 347d 433e 1929 a13e 66ec e33d
00000110: 0790 0b3e 0ec9 c83d 9c4d 393e 8ff1 7e3e
00000120: df17 7b3e d28a 0b3e 293b 3e3e b682 ee3e
00000130: 8fd5 433e 3b0d 253e 8e7e 4d3e 88be 443e
00000140: 9cdd 043e 425a 953f 1d5d 3f3e 9968 d53e
00000150: f8c8 5c3e b051 393e 9a71 563e e0cf 873d
00000160: 009a f93e f786 7b3e b087 403e 7c16 e43d
00000170: 20ca 213e 1f8b 913d 2c2e c43e 9293 113e
00000180: eded 4f3d 73c1 683e b85c 0e3e eecc 3e3d
00000190: 4c2f 523e 15e6 da3e 8da1 113e 714b 7c3e
000001a0: 0c33 b63d 1e22 343e 4617 5b3e 4253 f43d
000001b0: c1eb 583e 0086 313e 33bd 373d 0534 9a3e
000001c0: ea7b 9c3d a5dc 893e 029d 483e 7a9c e73d
000001d0: c9f9 49bd 4fc7 cc3e 4bcb 0ebe 75aa 6d3e
000001e0: 3f06 f53d bf47 4a3e 4bff a43e 5ba2 593e
000001f0: 505b 1e3e b5e3 493e d1e1 f23d 2d37 603e
0.1171243 0.15352808 0.13144048 0.1533124 0.3389121 0.13680235 0.5854102 0.24898443
0.01730269 0.22754179 0.15731692 0.10424906 0.1944959 0.13500443 0.17803416 0.15108739
0.13330944 0.21653879 0.18869637 0.078851506 0.12892878 0.09316655 0.40887946 0.17663242
0.2340669 0.17213625 0.20777895 0.2901474 0.1354064 0.51535416 0.2985463 0.17488445
0.24090503 0.103278235 0.20875621 0.121127754 0.108315326 0.22504444 0.24316087 0.15893158
-0.10324856 0.12198097 0.07142806 0.16875075 0.07274939 0.23480733 0.110899515 0.2697388
0.16207634 0.25968337 0.045945328 0.21547022 0.119860806 0.12859905 0.18235998 0.13121279
0.14587109 -0.10407519 0.33318877 0.15959951 0.2253379 0.12052227 0.07853537 0.17752619
0.2149289 0.1909073 0.31476668 0.11129074 0.13629161 0.09803973 0.18096012 0.24896835
0.24520825 0.13627174 0.18577255 0.465841 0.19124435 0.16118328 0.20067808 0.19213307
0.12975162 1.166817 0.18687864 0.41681364 0.21561038 0.18097568 0.20941773 0.06631446
0.48750305 0.24563204 0.1880176 0.11137101 0.15799761 0.07106613 0.38316476 0.1421645
0.050764013 0.22730045 0.13902557 0.046582155 0.20525855 0.42753664 0.14221783 0.24638154
0.08896455 0.1759114 0.21395597 0.11929943 0.21183683 0.17336273 0.04485817 0.30117813
0.07640822 0.2692615 0.19591144 0.113091424 -0.04931048 0.3999581 -0.13944738 0.23209555
0.11964082 0.19753931 0.32226023 0.2125334 0.1546452 0.1971577 0.11859477 0.21896048

net.2.weight f4 [256, 128]
00000000: 8415 8e3f 7b76 72bc 9f2c 2240 11dc b43e
00000010: 5d4d 4d3d b460 593f f700 533f 099e c13f
00000020: 0ec8 2b40 6f41 143f 1941 6d3f dba1 aa3e
00000030: 2cd8 303d b25d e33e e567 50bd e886 933f
00000040: f268 3b3f 8bae a73e 2ebd 343f b9be c93f
00000050: f518 863f 771c d43f 2612 d53d 6366 823f
00000060: 821b fa3e a7a9 eb3e dcce 843f 3b0c 59bd
00000070: c9e5 393f 9f1d 6b3e f5b2 503e ae10 2e3f
00000080: aaf7 683f da38 6c3f 6069 1e3f b808 3a3f
00000090: 0b37 ac3e 1c78 d23f 338c cf3f e27a e63d
000000a0: b1e8 ddbf abb9 d93e 3170 f83d 377e ad3e
000000b0: c763 093f d595 3e3f 89a8 a43f 48dd b53f
000000c0: eb11 7a3f ba69 7a3e 32c5 513f 52e5 e13f
000000d0: 5eb4 6a3f 038f 2bbd 945b 563f add3 3ebe
000000e0: 1c9c 1bbe f50f e5bf 36d2 a13e 19c8 0340
000000f0: 6d40 4fbe b4ec 2b40 cb6e 0b3f bfd0 453f
00000100: d7e7 c7bd 4453 ee3e 509a 953f ddf6 b23e
00000110: 12b7 483f e469 393f 2d2f 9c3e aea0 a93e
00000120: 2482 e63e a375 cf3f d33b e73e 65c6 713e
00000130: d21d c63e d6bd a1be 02bb 933f c2e1 a13e
00000140: 77ea 283f 37fb 2f3f 6a7e 54bf 5395 943e
00000150: b0b9 2b3f a98b 64be f3fb 2d3f bb61 b73f
00000160: e48e 5abd 48b9 0a3f baf3 9e3f 2575 633f
00000170: c7f9 573f a1e1 c93f 9bd1 263f 54a8 103f
00000180: 70b4 c13f 6e14 7e3e 5fa3 423f 724a bdbf
00000190: c2aa 67bb 81da 2dbe 7780 bc3f 9fb3 bb3e
000001a0: 419f 0f3f 7a79 083f b9b5 133f 94c7 213e
000001b0: 1957 a23f 917e de3f 9a20 093f a9b0 2f3f
000001c0: e54e 923f ebda 843f 3b9f 413f 28e9 d83f
000001d0: fc8f 2140 b629 9e3e b71b d7bf 5c5f 8b3f
000001e0: 3130 823f 7b75 a33e 5d5d f83e 70fa 513f
000001f0: b1ab 2b40 f59d a63e da80 aa3f 176b b43f
00000200: 9946 1d40 bd72 863e 6fe7 ff3e cf72 3c3d
00000210: 5d06 0d3f 40f1 163f 28f1 9fbe b07a 9c3f
00000220: a08b bc3e a66d d13e 076f 48bd 957f b13e
00000230: 6ed6 b43e adf3 893f eb4b 533f 870f 0740
00000240: bc48 103f 5550 633f 0a6d 073f 1578 4e3e
00000250: 40b8 ce3f 0ab0 853f 0ecf 423f e21d 5d3f
00000260: 4fd4 2d3f b6ae 2f3f b927 823f e574 023f
00000270: aea9 a83e 37ec 0e3f 9c16 223e 8166 f53f
00000280: c463 393f da5a a43f 7f4b 923f 6206 e83e
00000290: 87bc a63f 45ac a63f e5a5 793f 8356 213f
000002a0: 4b05 fdbf a589 2b3f f23c ec3e db19 403f
000002b0: fa78 1f3f 96f2 353f 9fb4 ef3f 2c31 1f3f
000002c0: ef2d ed3f a2b6 933e 5160 023e b918 a33f
000002d0: 49f7 423f e4d6 b43e b294 623f c287 ff3e
000002e0: ad85 763f f5a6 febf 5980 fdbb 4fbc d13f
000002f0: 2cca 953d 2cbe d83e cafd c23e 1fe7 013f
00000300: dabc 20be 7f24 bf3e e812 d93f 7ad2 db3e
00000310: dcb5 fe3f 3b2a 49be 3dfd 973f da3d 553f
00000320: 6cc0 5f3f 5b8c ff3e 94d5 d73e 2106 fa3e
00000330: 5ecd 703f 0e92 313f 092f 213f 773f 923f
00000340: 40f0 8c3f 3a2f 29be c41b e93e e72f c43e
00000350: 5b21 373f 1bdb bb3e 0cef c53e e187 f33e
00000360: 6376 653f 5005 6f3f fb31 883e 4ce1 513f
00000370: 878c 8c3e b9f5 b9be e8b9 6fbe 3601 343f
00000380: 73cc 103f 3a9a 6c3f 8e73 873f fc68 a83f
00000390: 849f 793f fbe9 133f f370 d13f ecb5 8a3f
000003a0: d730 433f e88d 353f 161e 093f cb30 313f
000003b0: 9500 a63e 36d2 6d3f 58d7 613f 4df0 793d
000003c0: 866f 0a3f 1a5f 1340 5fd3 b23f 9683 543e
000003d0: 23b9 ffbe 18e3 863e 2795 f5bf b85f c43f
000003e0: c80d aa3f 8773 273f 3584 e63e 05dd 5d3f
000003f0: 2590 82be dfca 1e3f 04f6 1540 f763 ea3f
1.1100316 -0.014798756 2.5339735 0.35324147 0.050122607 0.8491318 0.8242335 1.5126354
2.6840854 0.57912344 0.92677456 0.3332661 0.043174908 0.4440742 -0.05088033 1.1525545
0.7320701 0.32750353 0.70601165 1.5761329 1.0476366 1.6571187 0.10403852 1.0187496
0.48849112 0.46027872 1.0375628 -0.05299018 0.7261625 0.22960518 0.20380767 0.679942
0.91002905 0.9227425 0.6187954 0.72669554 0.33635744 1.6442904 1.621466 0.11253907
-1.7336637 0.42524466 0.12130774 0.33885357 0.53667873 0.74447376 1.2863933 1.4208155
0.9768359 0.24454394 0.8194152 1.7648108 0.9168147 -0.041884433 0.8373349 -0.18635435
-0.1519627 -1.7895495 0.3160569 2.059088 -0.2023942 2.6863222 0.5446593 0.77271646
-0.09761017 0.46547902 1.1687717 0.34953967 0.78404343 0.724272 0.30504742 0.331304
0.45021164 1.6207775 0.4516283 0.23610838 0.38694626 -0.31590146 1.1541445 0.31617552
0.65982765 0.687427 -0.8300539 0.29020175 0.6708021 -0.22318901 0.6796257 1.43267
-0.053358927 0.54188967 1.241813 0.88850623 0.84365505 1.5771981 0.6516358 0.5650685
1.513319 0.24812481 0.76030535 -1.4788344 -0.0035349582 -0.16977884 1.4726704 0.36660478
0.5610238 0.5331036 0.5769916 0.1579879 1.268283 1.7382375 0.5356537 0.68628937
1.1430327 1.0379308 0.7563359 1.6946154 2.524413 0.30891198 -1.6805333 1.0888476
1.0170957 0.31925568 0.4850873 0.8202276 2.6823542 0.32542387 1.3320572 1.4095181
2.457434 0.26259413 0.49981257 0.046007928 0.55087835 0.5896187 -0.31238675 1.2224941
0.36825275 0.40903968 -0.04893401 0.3466765 0.35319847 1.0777489 0.82537717 2.1103227
0.56360984 0.8879445 0.52900755 0.20162995 1.6149979 1.0444348 0.7609719 0.8637372
0.6790208 0.6862596 1.0168372 0.50959617 0.32941955 0.55829185 0.15828937 1.9171907
0.72417855 1.2840226 1.142929 0.4531737 1.3026284 1.3021322 0.9751876 0.6302263
-1.976724 0.67006904 0.46140248 0.7503945 0.6229397 0.7107328 1.8726996 0.62184405
1.8529643 0.28850275 0.12732054 1.274192 0.7615858 0.353202 0.8850814 0.49908262
0.96297723 -1.9894701 -0.0077362475 1.6385592 0.07313952 0.4233259 0.3808425 0.5074329
-0.15697041 0.37332532 1.6958895 0.42934018 1.9899249 -0.19645016 1.1874157 0.83297503
0.8740299 0.4991177 0.42155135 0.488328 0.94063365 0.69363487 0.62962395 1.1425618
1.1010818 -0.16521922 0.45528996 0.38317797 0.7153527 0.36690602 0.3865894 0.47564605
0.8963377 0.9336748 0.26600632 0.819844 0.27450964 -0.36320284 -0.23410761 0.7031435
0.56561965 0.9242283 1.058214 1.3157039 0.97509027 0.577789 1.6362594 1.0836768
0.762464 0.70919657 0.5356153 0.6921508 0.3242232 0.9289888 0.88219213 0.061020184
0.5407642 2.3026795 1.3970755 0.20753321 -0.49945936 0.26345134 -1.9186143 1.5341711
1.3285456 0.65410656 0.4502274 0.86665374 -0.255006 0.62028307 2.3431406 1.8311757

net.2.bias f4 [256]
00000000: 1632 e13e 7786 b13e c059 503e f98d ac3e
00000010: ce45 ad3e 9d84 cf3e 2d67 6fbe 54ff ac3e
00000020: 81b3 e53f fc9d 01be f592 0dbe 6198 c23d
00000030: b67b b23e 1573 8c3e a62b 953e 3f7d 903e
00000040: 790e ab3e d7a2 9d3e 1dce 2bbe ecb8 723e
00000050: 9d08 2abe 9f66 c03e 065c 593e f416 073e
00000060: dcd2 bd3e f48d 913e 3a49 893e 2a82 a23e
00000070: 77aa 983e 653c c93e cfc0 7c3e 44d9 d13e
00000080: 3d10 13be 2ace 6dbe 96fd a33e 2bca ddbd
00000090: 4bf3 103f b6d9 7abc 07b1 aa3e f87a 763e
000000a0: 43e7 4b3e 6ee2 8c3e 9600 6d3e a607 b93e
000000b0: 9bf3 a03e 7e96 d03e a0d3 9c3e 90b5 173e
000000c0: 103e a73e 526a a43e 42e3 4bbe aee6 d53e
000000d0: d72f 56be 2e78 b43e f5ad 01be 4e52 9c3e
000000e0: a442 693e 6a68 7b3e 5870 68be 93d8 aa3d
000000f0: 691b 8e3e b1b0 a63e 54c9 e53e ee22 bc3e
00000100: 67a6 793e 861c dd3f 864a f63e 8608 6b3e
00000110: f387 803e 9607 593e 46b6 de3e 5149 25be
00000120: b33f 983e 47fd 843e 2fe7 2dbf 85d5 de3e
00000130: 7eee 0f3f 54af a23f eb9e bd3e 28ec c63e
00000140: 647c 4abe 00d6 3b3e 33e9 18be 683e 703e
00000150: 5bb2 873e 2bc1 5b3e 8494 493e fd92 773e
00000160: 3bd7 6f3e 660b 273f ae19 9d3e e0d6 ba3e
00000170: 851a 3f3e 5c78 dd3f 6bec e23e ce24 533e
00000180: 5cb7 333e c12d d83e a2e2 ce3e fddd c33e
00000190: dd67 b2bd 1a2a 2e3e 416f b13e 7f5a e8bd
000001a0: 1e59 823e a8c8 e83e 2e50 ba3e c2af b93e
000001b0: 3527 bf3e a515 853e f371 0e3f d0fd 603e
000001c0: cab2 563e a527 693e 2cf4 893e 5227 29bc
000001d0: c222 343e cb01 80be 0aea c3be 2e81 ecbb
000001e0: fdee b03e 531d 573e 5b37 2abe 72c0 ae3e
000001f0: 2af4 e93e da9b b43e d104 543e 6113 883e
00000200: 6702 963e 3e75 a43e 53e3 923e 5ce8 d03e
00000210: 40be 2f3e 886a a33e c79c 9a3e fd53 513e
00000220: 8da3 f83e c358 903e a523 883e e5bc 973e
00000230: 1433 dc3e c8b7 923e 1883 a83e ec73 c03e
00000240: 9836 633e c7e7 c43e 45b6 26be 3d99 2a3d
00000250: 078a d83e 1a70 c33e 331a 0b3f 2e17 2e3e
00000260: 4283 763e ff33 993e 5d19 3f3e 080e 813e
00000270: 3c89 d83e c369 833e 0392 c23e 8fd0 8e3e
00000280: 5efc 19be fe4b c33e ad80 ab3e 57b3 d03e
00000290: 4de9 963e 935d 9e3e df54 42bd 9ab4 773e
000002a0: ff93 a43e a03a 64be 7965 bc3e ab7f 953e
000002b0: 4104 c83f 007f 923e 4a5e c73e cc08 093e
000002c0: 7863 983e 710e 523e 9aab b83e a6c0 523e
000002d0: 34c9 583e 5de5 9c3c 4aaa 683e d90f 9f3e
000002e0: de8b ee3d be08 313e 815b 413f 3c18 873e
000002f0: f394 67bd 01bf c43e 8ebd 23be 5444 873e
00000300: 52db cf3e d5ea c3bf 7206 c03e 95a1 9d3e
00000310: 4034 bf3e f84f cc3e 1973 bb3e ab17 9d3e
00000320: 334c ad3e a187 4fbe d6e3 b73e 972e 963e
00000330: 545b ac3e a60f a2bd 960d c4be 28ad a03e
00000340: 488b 8b3e b6e6 8a3e a66a 933e e812 b43e
00000350: f0c7 a13e 9ae9 9a3f 99cc 9b3e d126 353f
00000360: e635 af3e 4bad 9a3e 59f1 c03e e47b b93e
00000370: 1b83 743e 693f c23e ede3 893e 44e8 703e
00000380: d115 a03e f3c7 543e feb2 c63e 0562 1c3e
00000390: b41e a73e d851 853e 1ca2 e4bd 542f 7d3e
000003a0: 9ca1 743e 8daa 9c3e b4ca 03be 7bc9 0f3f
000003b0: 98b4 a43e 6300 833e 4c5f a03e 8b71 663f
000003c0: 8f3a 903e f291 763e e102 41be 686b 9d3e
000003d0: 3894 9a3e 71fd f23e 7fcb ae3e 9b71 8b3e
000003e0: 0b3a 78bd c7d8 50be ae77 bf3e 357f babc
000003f0: 6e3a aa3e 3759 823e c2c2 e53e 86df 103f
0.43983525 0.346729 0.20346737 0.33702067 0.3384232 0.40530863 -0.23379202 0.3378855
1.7945405 -0.12657923 -0.13825591 0.0950172 0.3486001 0.2743155 0.29134864 0.28220555
0.3340948 0.307883 -0.16777845 0.23703355 -0.16604848 0.37578294 0.2122651 0.1319235
0.37074935 0.28428614 0.2681368 0.31739932 0.29817554 0.3930389 0.24682926 0.40986073
-0.14361663 -0.23223177 0.32029408 -0.10829576 0.56621236 -0.015310695 0.33338186 0.24070346
0.19912438 0.27516502 0.23144755 0.36138648 0.31435856 0.40739816 0.30630207 0.14815354
0.32664537 0.32112366 -0.1991091 0.41777557 -0.20916687 0.3524794 -0.12664016 0.30531543
0.22779328 0.2455155 -0.22699106 0.083420895 0.27755287 0.3255668 0.44880164 0.367454
0.24379884 1.727433 0.48103732 0.2295247 0.2510372 0.211943 0.4349844 -0.16141249
0.297361 0.25974485 -0.67930883 0.43522277 0.56223285 1.2709756 0.37035307 0.38852048
-0.19774014 0.18343353 -0.14932708 0.23461306 0.26503262 0.21460406 0.1968556 0.24177165
0.23421948 0.6525177 0.30683655 0.36492062 0.1866246 1.7302356 0.44320998 0.20619509
0.17550415 0.42222407 0.40407282 0.382553 -0.087112166 0.17008248 0.34655192 -0.11345386
0.25458616 0.4546559 0.36389297 0.36266905 0.373346 0.25993076 0.5564262 0.21971822
0.2096664 0.2276903 0.269441 -0.010324316 0.17591384 -0.25001368 -0.38264495 -0.007217548
0.34557334 0.2100728 -0.16622679 0.341312 0.45694095 0.35275155 0.20704962 0.26577285
0.29298708 0.321207 0.2868906 0.40802276 0.17162418 0.31917214 0.30197737 0.20442195
0.4856228 0.2819272 0.26589695 0.29636303 0.4300772 0.2865584 0.32912517 0.3758844
0.22188795 0.38458082 -0.16280468 0.041650046 0.42292807 0.38171464 0.5433685 0.1700103
0.24073508 0.29922482 0.18662019 0.25206017 0.42292202 0.25666627 0.38002023 0.27893493
-0.15037677 0.38143915 0.3349661 0.40761825 0.2947487 0.30930766 -0.04744422 0.24189988
0.32144162 -0.22287989 0.36796167 0.29198965 1.5626298 0.28612518 0.38939124 0.13382262
0.2976339 0.20513321 0.36068422 0.20581302 0.21170503 0.019152338 0.2272121 0.31066778
0.11647771 0.17288491 0.7553025 0.26385677 -0.056538533 0.38426974 -0.15990278 0.26419318
0.40597016 -1.530604 0.37504917 0.3078734 0.3734455 0.3990476 0.3661125 0.3068212
0.33847198 -0.20266582 0.35916013 0.2933242 0.33663428 -0.07913141 -0.38291615 0.31382108
0.272547 0.27129143 0.28792304 0.35170674 0.31597853 1.210254 0.30429533 0.70762354
0.3422081 0.30210337 0.37684134 0.36227334 0.23878138 0.37939003 0.26931706 0.23526102
0.31266645 0.207794 0.38808435 0.15271766 0.32640612 0.26039004 -0.111637324 0.24725085
0.23889774 0.3059887 -0.12870294 0.5616681 0.32169032 0.25586233 0.31322706 0.90017
0.28169677 0.24079111 -0.18848754 0.30746007 0.30191207 0.47458985 0.3413963 0.27235112
-0.06060223 -0.20395194 0.37395996 -0.022765735 0.33247703 0.2545869 0.4487515 0.5659107

net.4.weight f4 [27, 256]
00000000: 54ac 803e 6c6c 023f 562a 063f 70b8 e33e
00000010: bd76 ed3e 4f86 f93e 1772 153f 8988 043f
00000020: 9dff 4abf c32f 173f 83c7 103f cd81 173f
00000030: 6549 0b3f a37e d03e 160c ea3e 32e0 de3e
00000040: 4b0f e93e af40 f93e aa53 043f b300 f13e
00000050: 1acb 1d3f 3cd5 b33e 00f7 f73e 2445 113f
00000060: 9fde c43e 4635 f33e 078b fb3e ef3a ba3e
00000070: 2699 bc3e 929c d93e 76ca f83e 2f95 c23e
00000080: 4180 1c3f 354d 043f 176c da3e 2c89 fa3e
00000090: d501 c23e 5084 57bd 80e5 e83e bcc7 7a3f
000000a0: 5877 053f dfda d23e e812 043f d51d e03e
000000b0: 305c db3e 3156 ec3e e422 00bd dd25 fb3e
000000c0: fd18 e73e 82c5 de3e 2772 163f 0e72 f53e
000000d0: 254c 1a3f ff93 7d3f f0bd 143f 83db fa3e
000000e0: 2b20 cf3e 7b51 f93e e01b 033f 12e5 a23e
000000f0: 033c eb3e e5b8 e83e ddc2 093f d2c5 e33e
00000100: 8d99 e93e 9f43 37bf 0d2c b03e c9a4 fd3e
00000110: deb1 c73e 159c 073f c96f c73e dce1 ee3e
00000120: 3111 ef3e 1692 bb3e 1d63 2b3f cdac fb3e
00000130: 37a2 053e 3a23 03bf a747 cf3e 754e c43e
00000140: 7435 123f a0a6 d83e 315b 0f3f 110b d43e
00000150: 6e7f c73e 6e8a cf3e 04cb fe3e a074 f33e
00000160: 9866 f83e 1439 90bf f153 113f ef8d a13e
00000170: 1341 f83e dd67 30bf 4eed ca3e c682 2c3e
00000180: aaef 0b3f 27c3 b33d fa70 843e 521d d83e
00000190: e31a f73e 696e ba3e 37ec 053f c4df f43e
000001a0: 1439 de3e 4cfe 843e d03b e53e 7ba3 da3e
000001b0: b896 ed3e fe80 ec3e 9172 17be 71b9 f63e
000001c0: 8644 db3e 1370 0c3f 4cc1 063f f80f 58bc
000001d0: 4b08 ed3e 44ce fb3e 90ac 323f 57d4 013f
000001e0: 5f31 37be bc2d 993e da2c 1a3f a0e1 d03e
000001f0: fc5b a73e da77 c53e f5a4 fc3e f04a e33e
00000200: e714 cb3e b1cb cd3e 1c5c b23e 3ecf e33e
00000210: 5c25 e93e 35bb f63e f0cd 833e a77c c53e
00000220: ac50 903e 015c 063f 213b 003f 743a f93e
00000230: b245 e43e 2789 883e 4ea2 be3e 0b6d da3e
00000240: bae5 fd3e 103a 0a3f 85a8 083f f6dc b03e
00000250: 7a74 063f 4e53 e33e bcb8 393f 87ab c33e
00000260: 6e07 c83e d82f da3e a223 cb3e d696 f43e
00000270: 9ca5 e53e 9245 043f e6ba d13e 5b7e ce3e
00000280: 2fec 0d3f 57a2 cc3e 534a bf3e 1489 ac3e
00000290: c1f2 e33e 18d0 fa3e d14a 183f a025 003f
000002a0: a85d fc3e 2c8e f83e 4323 d83e 8bdd 023f
000002b0: 3d1b 54bf 809a af3f ae1c cd3e 0235 983f
000002c0: 5421 ee3e e958 063f 84ae de3e 7214 f43e
000002d0: dc0d ed3e 2c3b a73f cb9f ed3e 5963 c33e
000002e0: 9aa2 f03e 51aa d33e 8176 60bf 0e3f ec3e
000002f0: f0b5 023f 6abd 823e 86a3 153f a054 033f
00000300: 3203 bf3e e230 803e 1eac d13e 297f 993e
00000310: c477 fd3e 95e9 fa3e 0adf e73e 7042 f03e
00000320: 533c e43e e2e6 143f 39f6 e63e d0b0 033f
00000330: 267a 013f d666 053f 018a 073f 1f95 063f
00000340: eed4 c73e 2084 cb3e 8673 ec3e 05e4 e93e
00000350: 2fd2 f03e 288e 5abf 555c dc3e 7698 4dbe
00000360: 6191 e93e 6ee2 e83e f7c1 b73e 6fd1 be3e
00000370: 0994 e03e d679 c83e 16de 053f cdf6 ea3e
00000380: d5f7 b53e 9cc3 073f 5f59 d23e 1f8d 9c3f
00000390: ce16 a53e 9f24 fb3e ecfd 0c3f 63c7 043f
000003a0: 31a2 d83e f0df eb3e 627e fd3e 7ecf 37be
000003b0: bbec e83e 585b d03e e700 d63e 2a16 bcbd
000003c0: 47e1 d23e b846 083f 2e0d 213f 4fca cd3e
000003d0: ed64 de3e 312f bb3e 40af fa3e 9c73 cd3e
000003e0: 52ee 823f 815d 183f 3250 d03e 2796 003f
000003f0: 7d53 e13e 5036 ef3e b769 ea3e d2eb 3abe
0.25131476 0.5094669 0.5240835 0.44476652 0.46379653 0.48735282 0.5837721 0.51770836
-0.79296285 0.59057254 0.5655443 0.59182435 0.54408866 0.40721616 0.45712346 0.43530422
0.4551948 0.48682162 0.5169016 0.47070846 0.61638033 0.35123622 0.48430634 0.56746125
0.38451096 0.47501582 0.49129507 0.36373088 0.36835593 0.42502266 0.48591965 0.38004443
0.611332 0.5168031 0.4266059 0.4893278 0.37892023 -0.052616417 0.45487595 0.9796102
0.5213523 0.4118261 0.5159135 0.4377276 0.4284377 0.4615951 -0.031283274 0.49052325
0.45136252 0.43510062 0.5876793 0.4793858 0.6027244 0.9905395 0.5810232 0.489956
0.4045423 0.48694977 0.5121441 0.31815392 0.45944223 0.45453563 0.5381296 0.44486862
0.45624962 -0.71587557 0.34408608 0.49539784 0.3900289 0.5297254 0.38952473 0.46656692
0.46692804 0.36634892 0.6694811 0.49155274 0.13050161 -0.51225626 0.40484354 0.38341108
0.57112813 0.42314625 0.5599852 0.41414693 0.3896441 0.405353 0.49764264 0.47549915
0.48515773 -1.1267419 0.5676871 0.315536 0.48487148 -0.6890848 0.39634174 0.16846761
0.54662573 0.08777457 0.25867444 0.4220987 0.482627 0.3641236 0.5231356 0.4782697
0.43402922 0.25975263 0.44772196 0.4270285 0.46404052 0.46192163 -0.14789797 0.48188356
0.42825717 0.5485851 0.526387 -0.013187401 0.4629539 0.49180806 0.6979456 0.5071463
-0.17889927 0.29917705 0.6022469 0.40797138 0.32687366 0.38568002 0.49344602 0.4439311
0.39664385 0.40194467 0.348359 0.4449405 0.45536315 0.48189703 0.25743055 0.38571665
0.28186548 0.52484137 0.50090224 0.4867741 0.44584423 0.2666714 0.37233204 0.42661318
0.4958933 0.53994846 0.5338214 0.3454358 0.5252148 0.44399494 0.7254751 0.38216802
0.39068168 0.42614627 0.39675623 0.4777133 0.44852912 0.51668656 0.40962905 0.40330777
0.5543851 0.39967605 0.37361392 0.33698332 0.44521144 0.48986888 0.5948916 0.5005741
0.49290204 0.4854597 0.42214403 0.511193 -0.8285406 1.3719025 0.40060943 1.1891177
0.46509802 0.52479416 0.4349252 0.4767185 0.46299636 1.3064933 0.46410975 0.38161734
0.46999055 0.4134088 -0.8768082 0.46141857 0.51058865 0.25535136 0.5845264 0.51301
0.37307125 0.25037295 0.40951627 0.29979828 0.49505436 0.49006334 0.45287353 0.46925688
0.44577274 0.581648 0.45109728 0.5144167 0.5057701 0.5211004 0.5294495 0.5257129
0.3902964 0.3974924 0.46181887 0.45681778 0.47035357 -0.85373163 0.43039194 -0.2007769
0.45618728 0.45485252 0.3589017 0.3726916 0.43862942 0.39155453 0.52292 0.4589142
0.35540643 0.5303285 0.4108381 1.2230567 0.3224396 0.49051377 0.55074954 0.5186674
0.42311242 0.46069288 0.49510485 -0.17950246 0.4549311 0.4069469 0.41797563 -0.09183915
0.41187498 0.5323291 0.62910736 0.40193412 0.43436375 0.36559442 0.4896183 0.40127265
1.022898 0.59517676 0.40686184 0.50229114 0.4400901 0.46721125 0.4578378 -0.18254021

net.4.bias f4 [27]
00000000: 7f8e 4cbd dbd6 3e3e 0488 24bd e286 2a3d
00000010: 7609 ab3d 2cef 1b3e 9a2d b13d 200f 3e3e
00000020: 5ebf 13bd 89c5 db3e 8c98 b13d 91ef 173e
00000030: 4a3c 583d 65d2 5e3e c2c7 d83d 675d ae3d
00000040: 88d9 dabc ce54 1bbd f218 8a3e b92c 013f
00000050: ab53 e13e 9ea8 7c3d 7f61 ef3d 3bc6 1c3e
00000060: eec9 b43c a20d 373e 2aca 863d
-0.049940582 0.18636648 -0.040168777 0.04163254 0.08351414 0.15227956 0.08651276 0.18560457
-0.036071174 0.42924145 0.08671674 0.14837481 0.05279187 0.21759947 0.10584976 0.08513909
-0.026715055 -0.037922673 0.26972157 0.50458866 0.44009146 0.061684243 0.11688518 0.15309994
0.022068944 0.17876294 0.065815285
