model/dqn_policy_net_episode_890.pt (torch, 334295 bytes, 6 tensors)

net.0.weight f4 [128, 336]
000000 62 9e b9 3d 29 c3 2d be 46 c2 f4 3d 63 34 da 3c
       0.09063412 -0.16968979 0.11951117 0.026636308
000010 d5 5a ae bc 22 38 24 be 21 a9 35 3d a8 e0 b5 bd
       -0.021283546 -0.16037038 0.044350747 -0.088807404
000020 70 44 04 3e 86 1a 9c bd 5c 25 f7 bc cd dc 91 bd
       0.12916732 -0.076222464 -0.030169182 -0.071221925
000030 9c 58 49 3d 32 da a0 bc 19 64 fa bc 15 a8 e0 bc
       0.04915677 -0.019635294 -0.030565308 -0.027423898
000040 b2 2e 20 be d2 d4 89 bd 46 c2 24 3e c4 51 08 be
       -0.15642813 -0.067300454 0.16089734 -0.13312441
000050 25 69 48 3e c8 10 ae 3d 7a bc 82 bd 2e f1 d4 bc
       0.1957136 0.084992945 -0.06383605 -0.02599391
000060 98 cb 2a be 00 10 8a bd c4 b3 ed bd df 51 d0 3b
       -0.16679227 -0.06741333 -0.11606553 0.006357416
000070 b1 12 92 3d 16 78 8e 3d 98 09 0a ba 4b d5 36 3d
       0.07132471 0.06956498 -0.0005265712 0.044637006
000080 8d b8 de be be 31 a1 bd 94 4f a7 3d 37 fb a2 3c
       -0.43500176 -0.07870816 0.08169475 0.01989518
000090 97 90 a1 3c 40 62 93 3d 08 b0 0d 3e e6 ce ba bd
       0.019722266 0.07196474 0.13836682 -0.09121494
0000a0 23 ff 6f bd 88 ad 25 bc 64 22 5d be b5 06 96 3c
       -0.058592927 -0.010112174 -0.2159515 0.018313745
0000b0 64 f2 94 bd cc 22 26 3e 86 a8 9f bd 20 dd 1f 3d
       -0.07272795 0.16224211 -0.07795815 0.03902924
0000c0 fe 82 46 be 53 49 0e 3e 5b d2 68 3d 43 68 34 3b
       -0.19385907 0.13895158 0.056841236 0.0027527965
0000d0 f8 e2 26 3b 33 8f 19 3e cd 4c a9 3d 33 12 af 3c
       0.0025464874 0.14996032 0.08266602 0.021370983
0000e0 52 dd 36 3e c4 58 de 3c a8 35 e7 bd 0e 90 b6 bd
       0.17857864 0.027141936 -0.11289531 -0.08914195
0000f0 fb 5b 7d 3d 3d eb ee ba d0 17 b3 bb 8d 47 82 bd
       0.061855298 -0.0018228065 -0.005465485 -0.063613035
000100 3c 45 0b be c5 c6 77 bd b1 c7 01 bc 73 e0 cb bb
       -0.1360063 -0.060492296 -0.007921145 -0.006221825
000110 49 64 5d 3a b3 be 27 3c 54 97 67 3c f6 b5 87 bd
       0.00084454246 0.010238337 0.0141352005 -0.06626503
000120 66 ce 0b be ad e0 97 3d 29 72 06 3e e4 dc 08 3e
       -0.13652954 0.074159004 0.13129486 0.13365513
000130 62 e4 ea bd ef 3a 40 3d b0 9b a2 bd 98 bd f8 3d
       -0.11469342 0.046931203 -0.07939851 0.12145537
000140 a9 29 1f 3e 42 25 28 be 57 98 41 3d 8e f7 ac 3c
       0.15543236 -0.16420463 0.047264423 0.021114137
000150 38 33 83 be 6f 99 91 bb 4c 52 9d 3d 81 92 27 be
       -0.25625014 -0.0044433395 0.076817125 -0.1636448
000160 80 53 97 3d 40 d7 00 be 88 1c ba 3d 40 7f 4e bc
       0.07388973 -0.12582111 0.09087473 -0.012603581
000170 33 65 09 3a 36 84 f4 bd 4a 82 c7 bc be e9 f1 bd
       0.0005241215 -0.1193928 -0.024354119 -0.11812161
000180 8c 98 65 3e fd 21 a0 bd a2 26 a0 3d b4 c2 99 3b
       0.22421473 -0.07818983 0.078198686 0.0046924
000190 c9 ed 0d bd 5c c6 02 3d 4b e9 28 be ae 0e b0 bd
       -0.034650598 0.03192745 -0.16495244 -0.0859655
0001a0 08 d2 28 bf 13 8f 10 3d 50 cb 3e 3e ac 4f 1e 3d
       -0.6594548 0.035292696 0.18632245 0.0386502
0001b0 c8 07 a3 3e 86 e0 b0 3d ce d4 e8 3c f4 80 1e 3c
       0.31841874 0.086365744 0.028421786 0.0096742995
0001c0 f2 7d 1c 3e 14 3c 77 bd 7f 5a 39 bd 99 cb b7 bc
       0.1528242 -0.06036003 -0.04525232 -0.02243595
0001d0 3e 01 98 ba 81 61 c3 bd 99 e2 ef bd 66 fa c8 bd
       -0.001159705 -0.09540082 -0.11713142 -0.09813385
0001e0 3e 8f 9b bf e9 24 64 3d e3 27 f0 3d 80 27 2b bc
       -1.2153089 0.055699263 0.11726358 -0.010446429
0001f0 f9 f0 06 3e 63 ea 74 3d 68 6a cf 3d 19 7f 32 bb
       0.13177861 0.05979384 0.10127717 -0.00272364
000200 a2 d7 a0 3e 32 87 61 bd 2d 7d ff bd 99 ee 02 be
       0.31414515 -0.055060573 -0.12475047 -0.1278633
000210 ee aa 02 be 17 41 b9 bd 14 f8 50 bd d4 7c 40 bd
       -0.12760517 -0.09045618 -0.051017836 -0.046994045
000220 11 2e e3 be da b4 97 bd ca 51 ff bd 87 65 9c 3d
       -0.44371083 -0.074075416 -0.12466772 0.07636552
000230 73 b6 01 3d 91 0c fe 3d ae f8 c1 3d 3d 3a a4 3d
       0.031668138 0.124047406 0.0947126 0.080189206
000240 be 23 be 3e 90 a5 a0 3c 9f 42 15 bd 92 1f 85 be
       0.37136644 0.019610196 -0.036440488 -0.2600065
000250 2b 1d a8 3d ae 25 c3 bc ee 17 84 bc 5e 39 36 be
       0.08208688 -0.023821678 -0.016124692 -0.17795321
000260 ed 18 6e 3d ce cf 45 be b2 13 a9 3c e1 05 d3 3c
       0.05812924 -0.19317552 0.020639274 0.02575964
000270 ed e9 92 3c 9a 03 b9 3d c1 fd 98 3c 6f 8b 38 bd
       0.01793381 0.0903389 0.018675687 -0.04505485
000280 75 7a dd 3d e4 78 8c bd 90 10 88 bd 36 03 3a 3d
       0.108143725 -0.068589956 -0.06643784 0.04541322
000290 d2 47 96 3b e5 5a c8 bc 12 b4 49 bd 67 aa a9 bd
       0.0045861984 -0.024457404 -0.049243994 -0.08284455
0002a0 e7 bb 10 3f 2f 61 77 be 1a 0c b5 bd 00 a0 57 bd
       0.56536716 -0.24158166 -0.08840199 -0.052642822
0002b0 de d6 38 be 5e 77 56 be 2d 57 e9 bd 33 d7 15 be
       -0.18050715 -0.20943972 -0.113935806 -0.14632873
0002c0 b7 a7 fe 3e e3 2a ef 3d 2d a4 6d bb bb 7b 3a be
       0.4973733 0.11678102 -0.0036261186 -0.18211262
0002d0 57 9f 0a 3d 59 4b 8c be 42 4a 4f 3d ba 25 06 be
       0.033843365 -0.27401236 0.050607927 -0.13100329
0002e0 e0 a5 52 3f 55 c1 7c 3d b7 be ca bd 91 64 f6 bd
       0.82284355 0.061707813 -0.09899657 -0.120309
0002f0 5f 6b 0f bd a6 f8 62 be ee 02 0e 3b db 25 3c bd
       -0.035014506 -0.22165164 0.0021669227 -0.04593454
000300 8c f3 51 bf 30 e7 ce 3d ce c5 26 3e ae 4b bf 3d
       -0.8201225 0.10102689 0.16286394 0.09340607
000310 ff 35 83 3e 7c 88 d4 3e 0b 72 8a 3e 9f 28 85 3e
       0.25627133 0.4151038 0.27040133 0.26007554
000320 25 7c 41 3f 36 65 17 bd 03 20 1b be e8 1b ca bd
       0.75580055 -0.036961757 -0.1514893 -0.09868604
000330 fc 86 a5 3d 84 77 e7 be cd f6 79 bd d1 ed aa 3d
       0.08082387 -0.4520837 -0.061026383 0.08346141
000340 3b ad d1 bf 56 ee 46 3e a2 d6 a8 3e 35 1a c3 3e
       -1.6380991 0.19426855 0.32976252 0.38105932
000350 59 6b 90 3e 5d 30 82 3e 8a cf d4 3d 3b 57 89 3e
       0.282069 0.25427523 0.103911474 0.26824364
000360 46 dc 2c 3f 76 90 ad bd 0b 78 f4 bd 1c 3d c4 3c
       0.6752361 -0.08474819 -0.11936959 0.02395492
000370 77 fc 4d bd a9 f9 d1 be f6 49 b1 bd 71 e0 8b bb
       -0.050289597 -0.41010788 -0.08656685 -0.004268699
000380 1b c1 15 bf ab 45 38 3e 6f 42 91 3e 4a 2e 82 3e
       -0.5849778 0.17995326 0.28370997 0.2542594
000390 05 5a 24 3e 94 51 2d 3e 3e 3b 83 be ea d0 82 3e
       0.16049965 0.16925651 -0.25631136 0.25550014
0003a0 3f f6 f5 3e f7 62 ec 3d 31 d2 69 bd c6 95 c7 bc
       0.48039433 0.115423135 -0.05708522 -0.02436341
0003b0 2c 81 22 3e 39 3d c4 bd aa 27 db 3d e3 39 93 bd
       0.15869588 -0.0958199 0.10700925 -0.071887754
0003c0 92 e6 36 3f f9 bf 90 3c d3 e8 ae 3c 13 29 ac 3b
       0.7144557 0.017669665 0.021351254 0.00525392
0003d0 9f c9 20 3b 06 bc 2b be 5d 60 fe bd bb 9b 9f bd
       0.0024534238 -0.16770944 -0.124207236 -0.07793375
0003e0 57 1a 6d bf 9c a7 ac 3e 5d 49 6d 3d 04 05 87 3e
       -0.92618316 0.33721626 0.057931293 0.26371014
0003f0 0d 56 db 3d 03 f4 ad 3e 9e 04 e3 3d dd 25 d9 3e
       0.10709772 0.3397523 0.11084865 0.424117

net.0.bias f4 [128]
000000 3a ab 03 3e b5 0f f5 3d 17 9c a3 3d 8b 27 9b 3d
       0.12858286 0.119658865 0.07988756 0.075759016
000010 36 dd 20 3e e7 c7 61 3d a1 6d ab 3e 67 b4 2a 3e
       0.15709385 0.055122282 0.33482078 0.1667038
000020 29 78 b5 ba 25 6b 16 3e 43 29 de 3d fa 23 35 3d
       -0.0013845015 0.1468931 0.10847714 0.044223763
000030 75 1a bf 3d 12 b4 8c 3d 91 a8 e3 3d 60 4e d3 3d
       0.09331218 0.06870283 0.11116136 0.10317683
000040 71 ff 5c 3d 90 ea 34 3e 23 c2 0d 3e 3a 28 86 3d
       0.053954545 0.17667603 0.13843589 0.06550641
000050 fe 57 92 3d a5 cc 33 3d c3 f7 53 3e 1b 9b e0 3d
       0.071456894 0.043896336 0.20699982 0.10967084
000060 81 50 20 3e 46 1a fc 3d 6b a3 da 3d 94 4a 06 3e
       0.1565571 0.12309699 0.10675701 0.13114387
000070 09 7c b4 3d 68 a8 97 3e 62 30 07 3e ab 42 b2 3d
       0.0881272 0.2962067 0.1320205 0.08704122
000080 26 68 eb 3d 0f 99 a9 3d 29 43 ae 3d 4d dd 6a 3d
       0.11494474 0.08281147 0.085089035 0.057339955
000090 f2 86 c7 3d 1f a3 19 3e 11 db 30 3e e2 08 f7 3d
       0.09742536 0.15003632 0.17271067 0.12062241
0000a0 e9 3f 5e bc c9 00 9c 3d 1d c0 4b 3d bb 58 e8 3d
       -0.013565042 0.07617337 0.04974376 0.11345049
0000b0 64 47 98 3d d5 26 16 3e 4d 26 b8 3d cd 8a 2d 3e
       0.07435492 0.1466325 0.0899168 0.1694748
0000c0 5e cb f2 3d c2 16 e0 3d 93 b6 a1 3c eb 43 c8 3d
       0.118551955 0.10941841 0.019740378 0.09778579
0000d0 41 d3 4a 3d dc 54 93 3d 4f 47 e1 3d 89 04 d0 3d
       0.049517874 0.0719392 0.10999929 0.10157115
0000e0 fc ae 03 3e ae f5 87 bb e0 47 23 3e 62 77 b4 3d
       0.1285972 -0.0041491603 0.15945387 0.08811833
0000f0 17 1a 0f 3e ef 33 ff 3d d0 7e df 3c 5c ab d3 3d
       0.13974796 0.124610774 0.027282149 0.103354186
000100 6c 43 dd 3d f5 e5 0a 3e d1 ac 59 3e 6c 9f bf 3d
       0.10803875 0.13564284 0.2125733 0.09356579
000110 77 7d be 3d 0d d8 97 3c 3e 19 11 3e 9e 13 19 3e
       0.09301274 0.018535638 0.14169785 0.1494889
000120 94 46 27 3e 81 32 12 3e 1c 93 d1 3d b8 df 79 3e
       0.16335517 0.14277078 0.10233137 0.24401748
000130 cb b6 fa 3d 30 e0 1a 3e 2a 7f 23 3e 30 f5 dc 3d
       0.12241896 0.15124583 0.15966478 0.10788953
000140 64 bf 71 3d ba af 50 3f 08 eb 0b 3e b1 4a 62 3e
       0.059020415 0.8151814 0.13663876 0.22098805
000150 c4 1f 09 3e 11 01 02 3e e5 1f 1e 3e 1b be 1f 3d
       0.13391024 0.1269572 0.15441854 0.038999658
000160 0e b9 94 3e c6 20 e5 3d 4f c6 f9 3d ae f5 4f 3d
       0.29047436 0.11187892 0.121960275 0.050771408
000170 9a 31 fa 3d 53 5a 6f 3c 29 ca 3c 3e ec fd 86 3d
       0.12216492 0.014608937 0.18436493 0.065914005
000180 33 7f 32 3b 5e e4 1a 3e 9d e4 9c 3d f3 5f bb 3d
       0.0027236461 0.15126178 0.07660792 0.0914916
000190 27 c0 1e 3e 5c 24 76 3e 03 9f ad 3d 97 4c 1d 3e
       0.15502988 0.24037308 0.08477595 0.15361248
0001a0 84 24 83 3d eb f5 d1 3d 47 cb ca 3d 05 e6 7e 3d
       0.06403449 0.10251983 0.09902053 0.062231082
0001b0 30 5c de 3d b2 87 09 3e 3a bc f2 3c 4a 12 f6 3d
       0.10857427 0.1343067 0.029630769 0.12015207
0001c0 80 be ea 3c 77 9b 09 3e b4 5e ed 3d e7 fe 3e 3d
       0.02865529 0.13438211 0.11590329 0.046629813
0001d0 04 0d 05 bd 6b f6 41 3e b1 00 cc bc 1c 5a 2f 3e
       -0.032483116 0.18941657 -0.024902673 0.17124218
0001e0 d9 2d e5 3d cc df 11 3e 0b 01 30 3e 29 bb 35 3e
       0.11190385 0.14245528 0.17187898 0.17747177
0001f0 c9 cb 0d 3e 33 59 a7 3d b6 76 8f 3d fa fa b0 3d
       0.13847269 0.0817131 0.07005064 0.0864162

net.2.weight f4 [256, 128]
000000 a3 72 a0 3f 3d d6 a3 3d da 67 ed 3f 55 f1 bc 3e
       1.2534984 0.07999847 1.8547318 0.36902872
000010 c1 7f a9 bd 6a 6d e8 3e 79 6a 2a 3f 56 43 dd 3f
       -0.0827632 0.45395976 0.66568714 1.7286174
000020 4e 88 29 40 ce 74 0d 3f 53 3a 5a 3f 23 8d 9d 3e
       2.6489444 0.55256355 0.85245246 0.3077174
000030 44 92 2f 3d 90 90 c4 3d 21 18 83 be 5a 7f 6f 3f
       0.0428641 0.095978856 -0.25604346 0.935537
000040 81 d6 09 3f 59 18 1f bd 76 f5 08 3f f1 93 c1 3f
       0.5384293 -0.03884158 0.53499544 1.5123273
000050 ec 3d 93 3f c5 80 e5 3f 71 13 34 bd fe c5 2e 3f
       1.1503272 1.7929922 -0.043963853 0.6827086
000060 38 bc c1 3e 6d 71 2c 3e 53 cf 4f 3f d5 f0 3c be
       0.37838912 0.16840144 0.81175727 -0.18451245
000070 55 3c db 3e 35 34 9f 3d ec 97 47 3e e4 25 27 3f
       0.42819467 0.077736296 0.19491547 0.6529219
000080 08 24 47 3f be 68 03 3f 2d f7 bf 3e d5 bd 28 3f
       0.77789354 0.513317 0.37493268 0.6591466
000090 87 0b d0 bd b8 bf a2 3f 3d 91 ac 3f 51 0c e1 3c
       -0.10158449 1.2714758 1.3481823 0.027471693
0000a0 0f 94 55 bf 37 dd 81 3e 07 50 ac 3d 04 89 0b 3d
       -0.83429044 0.25364086 0.084137015 0.034066215
0000b0 a6 2f 80 3e ac ab ac 3e 72 55 84 3f d2 96 8d 3f
       0.25036353 0.33724725 1.0338576 1.1061652
0000c0 64 3a 42 3f c9 7e 34 3e 6b 52 3d 3f 0e 2b ce 3f
       0.7587035 0.1762649 0.73953885 1.6106889
0000d0 96 c3 02 3f d0 26 9a 3d 0b c0 03 3f 45 a1 5e be
       0.5107969 0.07526934 0.5146491 -0.21741207
0000e0 30 e2 af be 92 bb 55 bf 6a d7 a4 3e c4 97 9d 3f
       -0.34352255 -0.83489335 0.32195598 1.231194
0000f0 06 5a 5d 3c af c2 08 40 6f eb b0 3e d8 78 fb 3e
       0.013510233 2.1368825 0.34554622 0.49115634
000100 37 64 91 3d df f6 03 3f 17 2f 86 3f c0 c3 03 3e
       0.070991926 0.5154857 1.0483121 0.12867641
000110 ef de 90 3f d9 1f d0 3e b7 3a 65 be b5 d3 14 3e
       1.1318034 0.40649298 -0.22385679 0.14533885
000120 42 92 92 3e fc a0 87 3f 71 6f ed 3e 4c 6b f9 3d
       0.2862721 1.0596004 0.46374086 0.121786684
000130 fb bc ad 3e 46 11 a4 be c4 34 17 3f 2e ee 84 3e
       0.33933243 -0.3204443 0.5906489 0.25962967
000140 5c e5 1d 3f 2c e9 01 3f d6 05 0e bf 99 91 10 3e
       0.616781 0.5074642 -0.55477655 0.14118041
000150 28 a3 ec 3e 9b 73 7d be 56 05 33 3f 9d c3 24 3f
       0.46218228 -0.24751131 0.69930017 0.6436098
000160 b9 c5 66 be eb 06 06 3e 7f 7f 39 3f c2 38 10 3f
       -0.22536363 0.13088576 0.7246017 0.56336606
000170 ca f0 3d 3f ce d7 ad 3f 38 88 0b 3f 77 42 04 3f
       0.7419554 1.3581483 0.5450473 0.5166392
000180 df 57 60 3f 80 c7 8d 3d 14 e8 9e 3e dc de 6f bf
       0.8763408 0.06922817 0.31036437 -0.9369943
000190 a6 9f 29 be 9c 07 89 be bb 85 bf 3f 22 5e 97 3e
       -0.16564807 -0.26763618 1.4962686 0.29564005
0001a0 e7 4f 3b 3e e4 09 a5 3e a2 28 04 3f 5e 36 5d bb
       0.18292199 0.32234108 0.516245 -0.003375433
0001b0 bf 52 79 3f 85 37 c5 3f c2 05 5a 3e 06 cd 16 3f
       0.97391886 1.5407568 0.21291259 0.5890659
0001c0 e5 7a 24 3f 4f 8a 40 3f d5 bc 11 3f 49 73 79 3f
       0.6425002 0.7521104 0.5692876 0.97441536
0001d0 d6 ce ec 3f 73 24 4b 3e b5 37 67 bf b7 00 3e 3f
       1.8500621 0.19838123 -0.9031938 0.7421984
0001e0 2f 6b 75 3e 96 38 06 3c 5c 1e a2 3e e8 ae e9 3e
       0.23966669 0.008192202 0.31663787 0.45641255
0001f0 2c 57 0c 40 53 54 54 3d ca c0 8f 3f f4 c3 b2 3f
       2.1928205 0.05183823 1.123071 1.396605
000200 49 ac 13 40 20 5d 1e 3e a1 78 47 3f 57 e6 d5 bd
       2.3073905 0.15465212 0.7791844 -0.104443245
000210 96 77 ec 3e 18 34 1a 3f 43 4c dd be e6 6f 86 3f
       0.46184987 0.6023574 -0.43222246 1.0502899
000220 b6 4a a0 3e b2 3f 95 3e b6 8f 72 be cc d0 cb 3d
       0.31307 0.29150158 -0.23687634 0.09951934
000230 2e 2b a4 3e 1d f0 40 3f cf ba 49 3f 40 d6 66 3f
       0.32064193 0.75366384 0.7880067 0.9017067
000240 ec 2f b2 3e 2b 13 48 3f 77 77 84 3e 5d cc fb 3d
       0.34802186 0.7815425 0.25872394 0.122948386
000250 9c 5b c4 3f 06 94 7a 3f b1 04 2d 3f 7f 11 3d 3f
       1.5340457 0.97882116 0.67585284 0.7385482
000260 83 4d 15 3f e2 1e f7 3e c3 63 5e 3f 70 5c dc 3e
       0.583214 0.4826575 0.86870974 0.43039274
000270 b0 b5 57 3e 56 3f ed 3e 55 19 b6 3d 8d 0c e0 3f
       0.21065402 0.46337384 0.088915505 1.750383
000280 eb 08 d8 3e 01 32 6a 3f 7e a6 19 3f 42 8f 49 3e
       0.42194304 0.9148255 0.6001967 0.19683555
000290 54 c0 72 3f db 47 9b 3f d4 e0 7c 3f ef 52 15 3f
       0.9482472 1.2131304 0.9878056 0.5832967
0002a0 11 0e 8e bf 04 f6 cd 3e e5 01 ba 3e 94 10 3e 3f
       -1.1098043 0.40226758 0.3632957 0.74244046
0002b0 d4 39 14 3f ee b7 29 3f d1 8b e2 3f 33 0b 21 3f
       0.5790074 0.6629628 1.7698919 0.62907714
0002c0 51 0b d4 3f 90 d5 64 3e 8c 39 b2 bd 72 09 4c 3f
       1.6565953 0.22347093 -0.087023824 0.7970191
0002d0 7a 94 28 3f 90 e3 8f 3e 69 8d 23 3f af d2 ff 3e
       0.6585156 0.28103304 0.6388765 0.49965426
0002e0 82 c8 5f 3f 59 52 84 bf 8a 38 8f bd 34 69 ab 3f
       0.87415326 -1.033763 -0.06993206 1.339148
0002f0 b6 fd f2 3c e9 c7 ae 3e ae 1b ca 3d 7e 06 fe 3e
       0.029661994 0.34136894 0.09868561 0.49614328
000300 5a d7 22 be 67 9a aa 3d 7b 8f b1 3f 4a a9 80 3e
       -0.15902463 0.08330231 1.3871912 0.25129157
000310 fc 3c cc 3f f5 76 f1 be 28 d2 61 3f 45 c5 3f 3f
       1.5956111 -0.4716107 0.882113 0.74910384
000320 1a a0 56 3f 36 c6 78 3e 4a f8 a3 3d ca 35 c9 3e
       0.83838046 0.24294361 0.08006342 0.3929885
000330 6d 86 5d 3f 0b d1 1a 3f 36 2a 1c 3f 9f a3 7e 3f
       0.8653324 0.60475224 0.6100191 0.99468416
000340 8a 98 4a 3f 02 49 97 be 6e d3 e5 3e 2b 41 94 3e
       0.79139006 -0.29547888 0.4488787 0.2895597
000350 07 40 3c 3f 6d 7a b7 3e 0f 97 ad 3d e1 c3 b9 3e
       0.735352 0.3583559 0.08476078 0.36282256
000360 ee ee 4f 3f f3 4f 2a 3f 12 d9 16 bd fb ca 7c 3e
       0.8122395 0.6652824 -0.036828108 0.24686806
000370 8c 1a d7 bc 71 93 2c bf 76 97 a6 be 50 3c b6 3e
       -0.026257776 -0.6741248 -0.3253743 0.3559289
000380 19 a0 d7 bd 69 ff 6e 3f 88 e1 0d 3f f2 50 83 3f
       -0.10528583 0.93358475 0.5542226 1.0259078
000390 28 93 68 3f 0a 44 00 3f 72 94 c5 3f c4 a8 3e 3f
       0.9084954 0.5010382 1.5435927 0.74476266
0003a0 23 d1 06 3f ef a4 b8 3e e0 ee 5c 3e 8d c2 2b 3f
       0.5266287 0.36063334 0.21575499 0.67093736
0003b0 00 42 4a bd ec 1b 68 3f 0f 05 5f 3f 4a d6 28 bd
       -0.04937935 0.90667605 0.87117094 -0.041219987
0003c0 9b 57 6b bd 5e ab d1 3f 4f 62 37 3f bb 63 11 be
       -0.057456594 1.6380422 0.7163438 -0.141982
0003d0 12 71 5d bf 3e 11 30 3e 03 53 8f bf 8d d1 88 3f
       -0.86500657 0.17194077 -1.1197208 1.068895
0003e0 a0 2d 78 3f a8 4a 03 3f ae 13 b4 3e 29 6b ff 3e
       0.9694462 0.5128579 0.35171264 0.49886444
0003f0 d6 b9 96 3d 14 66 f6 3e d6 f6 10 40 ef 10 d5 3f
       0.07359664 0.48124754 2.2650657 1.6645793

net.2.bias f4 [256]
000000 d4 6f 85 3e 99 f0 54 3e 16 a4 4c 3d 55 4e 28 3e
       0.2606188 0.20794906 0.049961172 0.16436131
000010 53 2b 26 3e 21 9d 78 3e cc 8a ae be 9e 97 3a 3e
       0.16227464 0.2427869 -0.3409027 0.182219
000020 a7 c4 b7 3f 23 c5 68 be 46 35 6a be 72 22 47 3d
       1.4356889 -0.22731452 -0.22871885 0.048616834
000030 1d bc 3d 3e c7 ad e4 3d a9 a9 07 3e b0 8b f1 3d
       0.18528791 0.11165958 0.13248314 0.117942214
000040 4b 71 39 3e 28 3b 06 3e 8d 0d 83 be 97 07 a7 3d
       0.18109624 0.13108504 -0.25596276 0.081557445
000050 92 a8 8b be 95 ae 5a 3e a9 b8 44 3d 6a 3a bd bc
       -0.27277046 0.2135566 0.04802767 -0.023099143
000060 75 42 a4 3e ba 1c 05 3e 8b d7 c1 3d 59 47 12 3e
       0.32081953 0.1299924 0.0946494 0.1428503
000070 12 86 74 3e e7 87 5f 3e fc 0c 98 3d 08 32 6d 3e
       0.23879269 0.21829186 0.074243516 0.23163617
000080 42 2e 8b be ac 8e 9d be cc 7b 16 3e 5f de 40 be
       -0.2718373 -0.30772913 0.14695662 -0.18834828
000090 fa a9 c0 3e b6 d9 7a bc 27 33 2d 3e 07 d1 00 3e
       0.37629682 -0.015310695 0.16914044 0.12579738
0000a0 cc 8b 2d 3d d8 b5 e0 3d a3 9b a1 3d 07 68 4f 3e
       0.04236965 0.10972184 0.078910135 0.20254527
0000b0 b7 3a 11 3e 15 75 80 3e 29 57 65 3e 88 4a bc bc
       0.14182554 0.25089327 0.2239653 -0.022984758
0000c0 32 c9 1b 3e 5f 1d 1e 3e 08 c6 a3 be be 21 83 3e
       0.15213469 0.15440892 -0.31987023 0.2561168
0000d0 76 ea 9f be 2a f3 67 3e 78 3c 88 be d9 ed 1f 3e
       -0.31233567 0.22651353 -0.26608634 0.15618075
0000e0 7f d1 69 3d 6b 20 a8 3d d2 18 a4 be 5d 52 eb bb
       0.057084557 0.08209308 -0.32050186 -0.0071814493
0000f0 71 b9 fa 3d 84 fa 1f 3e 1e 16 b7 3e 3a c3 4e 3e
       0.122424014 0.15622908 0.35759062 0.2019166
000100 08 7d 91 3d 9d 99 b0 3f 0d 12 9e 3e 8f 93 6f 3d
       0.07103926 1.3796879 0.30873147 0.058490332
000110 0b d6 a5 3d fe dd 5b 3d bf 5f 86 3e 52 43 8d be
       0.08097466 0.053678505 0.26244923 -0.27590424
000120 8f 56 fb 3d 90 64 c4 3d 8e 77 10 bf 8e 12 8a 3e
       0.12272369 0.09589493 -0.56432426 0.2696728
000130 73 6b ca 3e f6 6a 85 3f 6b 5e 52 3e d9 de 61 3e
       0.39535102 1.0423267 0.2054383 0.22057666
000140 d4 93 92 be 78 75 17 3e 28 33 79 be bb 21 81 3d
       -0.2862841 0.14790905 -0.24335921 0.06305262
000150 41 49 b2 3d f2 b8 13 3d f0 d3 3f 3d 00 ac 9e 3d
       0.08705378 0.03606505 0.04683298 0.0774765
000160 07 97 ac 3d a9 1b 04 3f 90 ec 24 3e 84 bd 2e 3e
       0.08427244 0.51604706 0.16105866 0.17064482
000170 a5 e7 bf 3c 15 75 b0 3f ea 21 9c 3e 84 95 8c 3d
       0.023425886 1.3785731 0.30494624 0.06864455
000180 36 0c 20 3d d1 fe 9a 3e 93 63 9b 3e 01 e9 5c 3e
       0.039074145 0.30272534 0.30349407 0.21573259
000190 73 bf 53 be d6 c4 98 3d dc ed b2 3e f6 34 46 be
       -0.20678501 0.074594185 0.34947097 -0.1935614
0001a0 96 72 b0 3d e0 0d af 3e 49 ee 43 3e 76 5c 5a 3e
       0.086156055 0.34190273 0.19133867 0.21324334
0001b0 ca 2f 5f 3e 24 c5 af 3d 67 8e ca 3e 69 c4 74 3d
       0.21795574 0.085825235 0.3956177 0.059757624
0001c0 e6 b9 2f 3d a2 3e 8b 3d fd 4e df 3d 52 27 29 bc
       0.042901896 0.06799056 0.10903738 -0.010324316
0001d0 9c 0b 11 3c 1d 71 a4 be e8 20 bb be c1 5d 39 be
       0.008852866 -0.3211755 -0.36548543 -0.1810217
0001e0 bf 0a 9a 3e c4 aa 36 3e aa 61 71 be c0 e1 23 3e
       0.30086324 0.1783858 -0.23572412 0.16004086
0001f0 ce 2b ac 3e 99 65 49 3e c8 9c 11 3d cc 2c cb 3d
       0.3362717 0.19667663 0.03554991 0.09920654
000200 15 40 04 3e 47 43 16 3e 02 4c d3 3d f5 87 6f 3e
       0.1291507 0.14674102 0.10317232 0.23391707
000210 03 0c a3 3c 93 36 3e 3e 5f 12 5b 3e 10 6c 17 3d
       0.019903189 0.18575506 0.21393727 0.03696829
000220 2f a3 e2 3e 04 b6 f1 3d 70 a6 d1 3d da 90 16 3e
       0.44265124 0.11802295 0.102368236 0.14703694
000230 c7 ee 89 3e ea bb 7c 3e 80 44 2a 3e af 89 49 3e
       0.26939985 0.24681059 0.16627693 0.19681428
000240 5c 1f 65 3d 7e 62 5f 3e 2a c7 8b be f5 58 16 be
       0.05593811 0.21814916 -0.27300388 -0.14682372
000250 20 fb 9a 3e ef b6 5f 3e 78 c2 d5 3e 32 b3 e0 3a
       0.30269718 0.21847127 0.4174993 0.0017143248
000260 0d f2 ab 3d fc 49 05 3e f6 da 51 3c 80 09 be 3d
       0.08395777 0.13016504 0.012808552 0.09279156
000270 75 11 86 3e 9c b5 c0 3d 97 da 59 3e 57 19 f1 3d
       0.26185194 0.09409639 0.21274792 0.11772411
000280 e1 12 5b be 80 59 4f 3e 9d 6e 29 3e ba c4 a0 3e
       -0.2139392 0.20248985 0.16546102 0.3140009
000290 c0 47 0e 3e e4 be 1c 3e 4b 02 05 be 4e 77 90 3d
       0.13894558 0.15307194 -0.12989156 0.070540056
0002a0 58 84 2f 3e 79 6d a4 be 94 2d 48 3e 3d da 0e 3e
       0.17140329 -0.3211477 0.19548637 0.13950439
0002b0 76 91 99 3f 9d b4 49 3e e0 2d 5f 3e 74 03 20 3d
       1.1997516 0.19697805 0.21794844 0.039065793
0002c0 1e 88 03 3e e5 5f 32 3d 6b 81 3e 3e ac 29 3f 3d
       0.12844893 0.043548483 0.18604057 0.0466706
0002d0 71 6c 19 3d 8a 78 13 bd 9f 25 8f 3d 07 c2 10 3e
       0.037456933 -0.036003627 0.069895975 0.14136516
0002e0 b3 e8 6a bd d1 75 52 bb 56 38 1b 3f 8a d7 c7 3d
       -0.057350826 -0.003211368 0.60632837 0.09757908
0002f0 8b 71 3a be 49 f1 b7 3e 81 93 9c be 10 0c 00 3e
       -0.18207376 0.35926273 -0.30581287 0.12504601
000300 51 5b 68 3e 6e 20 b0 bf 86 b2 53 3e 73 66 5d 3e
       0.22691084 -1.3759897 0.2067357 0.21621113
000310 c9 5b 5b 3e 43 d3 81 3e 33 df 44 3e 5f c9 0f 3e
       0.21421732 0.25356492 0.19225769 0.1404166
000320 e4 6d 2e 3e 7e c0 ab be 27 df 3f 3e 01 f9 0f 3e
       0.17034107 -0.33545297 0.1873747 0.14059831
000330 2a 05 3d 3e 18 3d 21 be 89 48 8b be f8 b5 1e 3e
       0.18459001 -0.15745962 -0.27203777 0.15499103
000340 7e be bf 3d 3b da ce 3d b4 fa f9 3d d4 ef 36 3e
       0.093625054 0.10100218 0.12206021 0.17864925
000350 93 5c 16 3e 00 2f 82 3f e1 c8 09 3e 37 4b 0d 3f
       0.14683752 1.0170593 0.13455535 0.55192894
000360 34 e3 40 3e 82 8d 08 3e 62 b3 4a 3e 76 d9 33 3e
       0.18836671 0.13335231 0.19794992 0.17563424
000370 65 69 a6 3d 21 97 64 3e 1b a8 e6 3d 4b e4 7a 3d
       0.08125571 0.22323276 0.11262532 0.061252873
000380 66 63 16 3e 8f bf 6e 3d 31 cf 5e 3e 2b 0b 5d 3d
       0.14686355 0.058288153 0.21758725 0.05396573
000390 8d 15 15 3e 65 4a e5 3d fe a2 76 be e9 b4 9a 3d
       0.14559002 0.1119583 -0.24085614 0.07554037
0003a0 48 66 94 3d 38 35 15 3e f3 98 4c be 7c c1 bb 3e
       0.07246071 0.14571083 -0.1998022 0.36671054
0003b0 c9 69 7c 3e 82 59 a4 3d 03 dd 08 3e 2b 91 35 3f
       0.24649729 0.08024885 0.1336556 0.70924634
0003c0 1d 80 fc 3d a6 03 ad 3d 3f 2c 99 be d9 22 0b 3e
       0.12329123 0.084479615 -0.2991657 0.13587512
0003d0 14 92 11 3e 1a 01 a0 3e 01 d4 3a 3e ae 57 ea 3d
       0.1421588 0.3125084 0.18244936 0.11442505
0003e0 1a b2 af bc 18 f7 a4 be ea b1 4f 3e d1 61 3e be
       -0.02144723 -0.32219768 0.20282713 -0.18592001
0003f0 28 51 19 3e 2b 7c 9e 3d 1d 39 97 3e 24 25 df 3e
       0.14972365 0.07738527 0.2953576 0.43583024

net.4.weight f4 [27, 256]
000000 4c c1 3d 3e 88 fa e0 3e e2 79 df 3e 1f 87 c3 3e
       0.18530768 0.4394114 0.43647677 0.38189027
000010 ae 80 c4 3e 85 e1 d1 3e 90 3b f1 3e 06 ae d8 3e
       0.38379425 0.4099237 0.47115755 0.4232027
000020 35 95 81 bf b7 56 f3 3e 1a ba e4 3e ff 33 c8 3e
       -1.0123659 0.47527096 0.44673234 0.3910217
000030 6a c6 eb 3e 44 16 a3 3e 51 68 bf 3e e0 75 b6 3e
       0.46049815 0.31852925 0.37384275 0.35636806
000040 73 82 bb 3e 08 72 ce 3e 42 54 d1 3e d6 cb c5 3e
       0.36622962 0.40321374 0.40884596 0.38632077
000050 c4 12 fd 3e 03 57 8e 3e b7 e3 c9 3e c5 eb f5 3e
       0.4942838 0.2780076 0.39431545 0.4803144
000060 c2 82 a7 3e 4b 3d c8 3e 8f 81 d2 3e 2a ab 98 3e
       0.32716948 0.39109263 0.4111447 0.29818088
000070 d3 96 68 3e a7 15 b4 3e 5c b3 cf 3e 24 39 aa 3e
       0.22713785 0.3517277 0.40566528 0.3324672
000080 8f e0 fb 3e e3 89 d0 3e a4 34 b6 3e 9f 0e be 3e
       0.49194762 0.407302 0.35587037 0.3712053
000090 cc 57 f9 3e 50 84 57 bd 6a e4 c1 3e 27 86 58 be
       0.48699796 -0.052616417 0.3786958 -0.21144925
0000a0 8d 62 dd 3e 24 47 a8 3e fa d5 d9 3e 88 9e b3 3e
       0.4323925 0.32866776 0.42546064 0.35081887
0000b0 e7 05 b2 3e 15 c1 c2 3e fa ac 77 ba c2 8a c9 3e
       0.34770128 0.38037935 -0.0009448078 0.39363676
0000c0 31 f1 bf 3e 1a b0 b3 3e cf eb f3 3e 96 a3 ca 3e
       0.37488702 0.35095292 0.47640845 0.3957793
0000d0 62 31 f3 3e 4b bb 63 3f 78 d8 ea 3e b4 49 cb 3e
       0.47498614 0.8895766 0.45868278 0.3970467
0000e0 02 f7 a6 3e 6a 6e cf 3e 00 4d ca 3e de 43 55 3e
       0.32610327 0.40513927 0.3951187 0.2082667
0000f0 9d d5 bb 3e 99 66 c3 3e 81 ab ed 3e 24 a2 b7 3e
       0.36686411 0.38164213 0.4641991 0.3586589
000100 c5 ef bf 3e 1e 84 6f bf 42 f1 90 3e 45 1a d8 3e
       0.37487617 -0.9356097 0.28309065 0.42207542
000110 d3 e1 a0 3e e9 57 e0 3e 38 20 a8 3e cf 28 bf 3e
       0.3142229 0.4381707 0.3283708 0.37335822
000120 1d 9e cc 3e 32 09 93 3e b5 bf e6 3e dc f8 d8 3e
       0.3996438 0.28717953 0.45068136 0.42377365
000130 57 b0 26 3e 98 05 97 be 8b cf a2 3e 7a 0a 9b 3e
       0.16278206 -0.29496455 0.31798968 0.3028143
000140 5b c4 e6 3e 07 b4 8a 3e 03 bb e4 3e 0e 53 aa 3e
       0.45071682 0.27090475 0.4467393 0.3326649
000150 08 46 a6 3e d3 cd a7 3e e8 67 ce 3e ba 67 c9 3e
       0.32475305 0.3277422 0.4031365 0.3933695
000160 cc 1a c5 3e 68 4c 14 bf 9c f9 f1 3e f3 42 7a 3e
       0.38497007 -0.57929087 0.4726075 0.24439602
000170 4a 66 c8 3e 0c c2 68 bf 8e a3 01 3e 23 18 04 3e
       0.3914054 -0.9092109 0.12660047 0.12899832
000180 64 c0 dc 3e 32 85 00 3e 73 db f0 3b f6 ec ae 3e
       0.43115532 0.1255081 0.007350379 0.34165162
000190 15 3d be 3e af b3 80 3e 49 73 dc 3e 2a 79 be 3e
       0.37155977 0.25137088 0.43056706 0.37201816
0001a0 6d 86 b2 3e d6 23 6c 3e 8d 54 c4 3e 67 bb ae 3e
       0.34868184 0.23060545 0.38345757 0.34127352
0001b0 85 02 c3 3e aa e8 c5 3e ce 00 a3 3c f7 fe cb 3e
       0.3808786 0.3865407 0.019897845 0.3984296
0001c0 f5 ba ac 3e 0a 72 ec 3e f6 c4 e0 3e f8 0f 58 bc
       0.33736387 0.46180755 0.4390027 -0.013187401
0001d0 5a 88 be 3e 40 c7 c4 3e 33 6a 00 3f ed 9c cd 3e
       0.37213403 0.38433266 0.5016205 0.40158787
0001e0 80 bb b1 bd 02 c3 19 3e 37 81 f9 3e c6 bc a9 3e
       -0.08678341 0.15015796 0.48731396 0.33151835
0001f0 8d e8 ae 3e b3 44 9b 3e f0 4b d4 3e 7f 68 bc 3e
       0.34161797 0.3032585 0.41464186 0.36798474
000200 d7 fe a4 3e b3 4b a8 3e 4c 7f 90 3e 8d 36 c2 3e
       0.32225677 0.32870254 0.2822212 0.37932244
000210 48 bb ba 3e a0 24 d4 3e 21 cc 48 3e 5a 63 98 3e
       0.3647101 0.41434193 0.19609119 0.297633
000220 ed 14 4c 3e ea ec e2 3e a1 95 d6 3e 13 e4 c9 3e
       0.19929858 0.44321376 0.41911033 0.3943182
000230 8a 09 bb 3e 98 2f ce 3d 7e da 97 3e d0 e2 b7 3e
       0.36530715 0.100676715 0.29658884 0.35915232
000240 81 a6 d0 3e 42 0e ee 3e c2 73 d7 3e 2e 2c 6d 3e
       0.40752032 0.46495253 0.42080504 0.23161384
000250 c6 10 03 3f 5e 45 b5 3e 50 97 2f 3f 1f c2 95 3e
       0.5119747 0.35404485 0.6859026 0.29249665
000260 bf 4e 98 3e b7 63 b3 3e f0 77 a0 3e 85 ff c4 3e
       0.29747579 0.35037014 0.31341505 0.38476196
000270 84 e0 c1 3e de f6 db 3e 3c 76 a5 3e ff 44 a6 3e
       0.37866604 0.42961782 0.32316768 0.32474515
000280 26 1b e5 3e 76 75 a7 3e 23 1b 9c 3e 1b 2f a8 3e
       0.44747275 0.32706803 0.30489454 0.3284844
000290 86 25 b8 3e 58 5c cd 3e bb 44 f3 3e 87 49 de 3e
       0.35966128 0.40109515 0.47513375 0.43415472
0002a0 13 bf d3 3e 78 9e bf 3e 29 1e b1 3e 12 96 d6 3e
       0.41356716 0.3742559 0.34593323 0.4191137
0002b0 96 ca 87 bf f8 19 6e 3f f4 5d a1 3e 81 89 8a 3f
       -1.0608699 0.93008375 0.31516993 1.0823213
0002c0 eb 74 c5 3e c6 1d e0 3e b7 5b b5 3e 4c 93 c4 3e
       0.38565764 0.43772715 0.35421535 0.3839363
0002d0 39 22 c3 3e 23 55 9a 3f e5 59 be 3e 9b db 9a 3e
       0.38112047 1.2057232 0.3717796 0.3024567
0002e0 bf 5e c6 3e 16 87 a8 3e 9a 85 45 bf 42 44 c0 3e
       0.3874416 0.32915562 -0.77156985 0.37552077
0002f0 4a 9c ca 3e 4c 4e dd 3d c0 fd eb 3e 88 91 d6 3e
       0.39572364 0.108059496 0.46092033 0.41907907
000300 0f fc 98 3e 68 a4 71 3d 9a 72 a8 3e ce 00 3c 3e
       0.29879805 0.05899468 0.32899934 0.18359682
000310 4a e4 ce 3e 7f e3 ca 3e c6 80 c5 3e 29 d8 c5 3e
       0.40408546 0.3962669 0.3857481 0.3864148
000320 1b 1d c1 3e 86 4b e8 3e e2 d6 bb 3e 58 15 d6 3e
       0.37717518 0.4537012 0.3668738 0.4181316
000330 82 78 d3 3e 67 46 cc 3e e8 34 af 3e 21 0d de 3e
       0.41302878 0.39897463 0.34220052 0.43369392
000340 6f f0 a2 3e 59 c3 a0 3e 97 5f c5 3e 45 55 c3 3e
       0.3182406 0.31399038 0.38549492 0.38150993
000350 70 f4 c6 3e 50 59 f7 be 7e 90 b6 3e 47 0a 76 bd
       0.38858366 -0.48310328 0.35657114 -0.060068395
000360 86 4e bc 3e bd 1b c0 3e 04 0b 93 3e 08 18 ac 3e
       0.3677866 0.37521163 0.28719342 0.33612084
000370 bb f0 ae 3e 17 f4 a4 3e 2d 3a df 3e 2f 35 c3 3e
       0.34168038 0.32217476 0.43599072 0.38126513
000380 09 cc 90 3e a4 4c e0 3e dd e0 ac 3e 81 62 91 3f
       0.28280666 0.43808472 0.33765307 1.1358186
000390 94 30 7a 3e 26 6d cd 3e 73 85 da 3e ad 8a e1 3e
       0.24432594 0.40122336 0.4267994 0.44051114
0003a0 80 00 ac 3e d0 5b c2 3e 74 ff c2 3e aa 8b 86 3e
       0.3359413 0.37960672 0.3808552 0.2627843
0003b0 80 57 9f 3e 46 e7 ac 3e 1e f0 b0 3e 96 dd 8c bd
       0.31121445 0.33770198 0.34558195 -0.06878202
0003c0 52 cf a4 3e 87 c5 e5 3e e8 53 02 3f f2 7b a4 3e
       0.32189423 0.44877264 0.5090928 0.32125813
0003d0 cd 1b b1 3e 8c a9 96 3e a1 44 ce 3e 8c ed 9e 3e
       0.34591523 0.2942623 0.40286735 0.3104061
0003e0 6a 40 63 3f f3 98 ef 3e db c4 a9 3e a5 90 d0 3e
       0.88770163 0.46796378 0.33158 0.40735355
0003f0 cf ee be 3e 0e a6 c8 3e 78 d0 c5 3e ca d8 4b bd
       0.37291571 0.3918919 0.38635612 -0.049767293

net.4.bias f4 [27]
000000 c1 a8 56 bd f9 db b0 3d df b4 6c bd 59 b3 17 bb
       -0.05240703 0.086357065 -0.05778968 -0.002314767
000010 d8 2c 85 bc 25 9b 2c 3d 78 ca 8c bc 9c 3a 4f 3e
       -0.016256735 0.042140145 -0.017186388 0.20237201
000020 68 ae 8c bd 3f 68 8d 3e 1f cc 97 3d e4 1e d6 3d
       -0.06869203 0.27618596 0.0741198 0.10455111
000030 9b 2c 21 bd 15 48 b9 3d 48 f1 40 3d 49 0e 22 3d
       -0.03934918 0.09046952 0.047105104 0.039564405
000040 f2 d7 3b bd 59 f0 6e bd 7b 7d 7e 3e 86 15 b6 3e
       -0.04586024 -0.058334682 0.24852555 0.35563296
000050 c5 77 d0 3e 79 21 0e bd 6c 8a 12 3d b5 73 1f 3e
       0.40716377 -0.03469989 0.03577654 0.15571482
000060 57 a7 3a bd 19 9a cc 3d 74 ee 5d 3d
       -0.045569744 0.09990329 0.054182485
