model/dqn_policy_net_episode_270.pt (torch, 334295 bytes, 6 tensors)

net.0.weight f4 [128, 336]
000000 5e e9 5c bb 9c 67 94 bd 0c 98 25 3d 79 1a bd bd
       -0.0033708434 -0.072463244 0.040428206 -0.09233565
000010 d5 d8 24 3c 37 4a 90 3d 43 12 39 3d df 1c b5 bd
       0.010061462 0.07045405 0.04518343 -0.08843397
000020 d3 0f 30 3e b7 3a cf bd 81 20 5c bd f9 bb 81 bd
       0.17193536 -0.10118621 -0.053741936 -0.06334681
000030 ff 75 1c 3d 3d 26 09 be 9b 2c f4 bc 84 70 56 bd
       0.038198467 -0.13393493 -0.029806426 -0.052353397
000040 b7 af a6 be 49 c8 44 3d d6 bf 0c 3e 03 6b a6 bd
       -0.32555935 0.04804257 0.13745055 -0.081258796
000050 da e7 7d 3e b1 b0 cd 3d 7b 0b 9a bb 15 55 99 3d
       0.24795476 0.10043467 -0.0047010756 0.07486931
000060 39 c9 88 bd f5 cd 4a bd 9e a6 20 bd 73 1b c5 bc
       -0.06679005 -0.049512822 -0.0392214 -0.02406094
000070 d9 31 23 3e 50 c3 9d bc 25 95 e3 bd ca c2 2d 3d
       0.15936984 -0.019258171 -0.111124314 0.042422093
000080 94 dc 16 bf 12 cc 85 3d 68 a0 ce 3b 18 1b 95 3d
       -0.58930326 0.06533064 0.006305743 0.07280558
000090 f9 de 07 3e ec a4 99 3d d3 fd ea 3d c4 e2 00 3d
       0.13268651 0.075021595 0.114741944 0.03146626
0000a0 5f 0e e8 3b 49 2a b1 bc 4e f1 cf bd 7d 2e 34 bd
       0.0070817913 -0.021626608 -0.10153447 -0.043989647
0000b0 7f 21 fb 3d e1 25 c9 bd f2 e9 4d bd 79 73 b4 3d
       0.12262248 -0.09821678 -0.050271936 0.08811087
0000c0 87 04 bd bd 1b 8b 0b bd 23 d5 69 3c af 9a 95 3d
       -0.09229379 -0.03406821 0.014272007 0.07304894
0000d0 37 6c 99 bb cc 2f 8e 3c bb 24 2f 3c a5 f0 f3 bb
       -0.0046820897 0.017356776 0.01068991 -0.0074444585
0000e0 43 50 23 3e 35 a9 f7 3d 53 da ea bd a9 ba f7 bd
       0.15948586 0.120928206 -0.11467423 -0.120961495
0000f0 cd f7 13 3e 8b 8b e3 bb 98 a6 5b 3c fa f9 17 3d
       0.14449997 -0.006944125 0.013406418 0.03710363
000100 fd ab a7 bc b9 c1 e5 bd 3a e1 98 bd 46 54 a7 bc
       -0.020467753 -0.1121859 -0.074648336 -0.020425927
000110 f0 bc 73 bc b0 7e 9e 3c fa b9 47 bc eb 29 b9 bd
       -0.014876589 0.019347519 -0.012190336 -0.09041198
000120 78 95 c2 3d 8c de ca 3a 3e ef ab 3c 23 15 37 bd
       0.09501165 0.0015477701 0.020988103 -0.044697892
000130 50 02 e9 bb 8b 53 0f 3e 8c e3 5a bd 60 cc 7c 3d
       -0.0071108714 0.13996713 -0.05343966 0.061718345
000140 6c 07 29 3e 49 43 a2 ba 25 80 a4 bd ed 2a 92 3d
       0.16506737 -0.0012379672 -0.08032254 0.07137094
000150 f7 0b a8 bd a6 21 2a be b0 1b bd bd a1 d4 56 be
       -0.08205407 -0.16614398 -0.092337966 -0.20979549
000160 f6 06 49 3c 0e d5 2b bc cf 86 c0 bc 22 96 c5 bc
       0.012269726 -0.010487808 -0.023501782 -0.02411944
000170 cb 6d b7 bd e8 14 bc bd 09 14 b6 3d 29 1c bc 3c
       -0.08956488 -0.09183675 0.0889054 0.022962647
000180 23 5d 43 3e d5 ef b9 bd 88 36 74 3d 44 2e 2e bd
       0.19078498 -0.090789475 0.059622318 -0.04252459
000190 6e 9e 7f 3b 46 c4 9a bc a6 90 18 bd 39 28 38 bd
       0.0039004344 -0.018892419 -0.037247322 -0.044960234
0001a0 86 05 34 bf 3d 38 73 3d d3 f4 a3 3d e2 54 94 3d
       -0.7032093 0.059379805 0.08005681 0.072427526
0001b0 74 92 10 3e f9 9a 6a 3e e5 3c 23 bd 09 3d 04 3e
       0.14118367 0.2291068 -0.039852995 0.12913908
0001c0 fe 45 00 3e 61 61 0c bc 3d a3 12 be 3d 05 82 bc
       0.125267 -0.008568139 -0.14320083 -0.015871638
0001d0 7b f6 76 3d f2 5b b6 bd f6 7b f4 bd 28 fc c5 bd
       0.060293656 -0.08904256 -0.11937706 -0.096672356
0001e0 28 78 ba bf 1b 6d f6 3c 1c a9 1f 3e 86 00 08 3e
       -1.4567919 0.030081322 0.15591854 0.1328145
0001f0 d5 04 94 3c 42 19 a1 3d 6e ea 66 3d 4d e7 4a 3e
       0.01806871 0.07866146 0.056375913 0.19814797
000200 5b 90 1a 3e 9d b8 16 be 54 f6 bb bd 7f 67 88 bb
       0.1509413 -0.14718862 -0.09177843 -0.0041627283
000210 2c 0d 6c 3d 5b f6 af bd cd fd 0c be 6a c5 46 bc
       0.05762975 -0.085919105 -0.13768692 -0.012132028
000220 c1 5b 72 be 23 cb 1f be a2 d6 0d 3d 7f 1c 9b bc
       -0.23667814 -0.15604834 0.034628518 -0.018934486
000230 b3 80 3a 3d 14 f8 f1 3c ab ae 57 3d c5 7c 2a 3d
       0.045532893 0.029537238 0.05265681 0.041622896
000240 9f 7f 8f 3e 56 68 86 bc 07 de ad bc ce f7 06 be
       0.28027055 -0.016407173 -0.021224035 -0.13180467
000250 7b 50 05 3e 9e 77 0a be ac 88 6a bd 04 29 5a 3c
       0.13018982 -0.13522193 -0.057259247 0.013315443
000260 c4 23 36 3e 65 ae 96 3c 5f 2e f9 3c fe d8 06 bd
       0.17787081 0.018393705 0.03041762 -0.032921784
000270 d6 31 88 bd d7 4a 37 3d 3e 45 ba bd 57 65 bf bd
       -0.066501305 0.044749107 -0.09095238 -0.09345501
000280 e8 e9 04 3e 5b 63 15 be 8d 50 d3 3d dc d2 32 bd
       0.12979853 -0.14588682 0.10318098 -0.043658122
000290 3b 8b ad 3d a8 7f 81 bd a2 3e be ba e9 60 ac 3c
       0.08473822 -0.063231766 -0.0014514516 0.021042304
0002a0 ac af 28 3f e7 a6 a2 bc 71 20 13 be 0b bb ef bd
       0.65893054 -0.019854976 -0.14367844 -0.117055975
0002b0 ee 38 d8 bd 27 21 54 be 6e 30 1b be 11 8e 5c be
       -0.105577335 -0.20715772 -0.15155193 -0.21538569
0002c0 e1 a3 63 3e 19 b2 8a 3d 4b 1b 57 3c 7f fe 1d be
       0.22230484 0.06772251 0.013129066 -0.15429114
0002d0 7a b5 d2 3d cb 1c b7 bd bb d1 5d 3d 10 dc 45 bd
       0.1028852 -0.08941039 0.054155093 -0.04830557
0002e0 81 27 08 3f 10 a3 63 3d 80 c5 32 be e1 6c 5c bd
       0.5318528 0.05557543 -0.17458153 -0.053814773
0002f0 44 e5 41 bd 45 f7 cb bb ad 22 ed 3c cf e4 67 bd
       -0.047337785 -0.006224545 0.028947199 -0.056614693
000300 36 b8 f3 be cc df 48 3e 88 5e e9 bc fe a5 1b 3e
       -0.4760148 0.19616622 -0.028487459 0.1520004
000310 19 48 af bc e1 57 4b 3e b6 3f 13 bd cb 81 96 3e
       -0.021396684 0.19857742 -0.03594943 0.293959
000320 23 8b 1f 3f 5c fc b7 bd 73 c5 d7 bd 84 6b d5 bd
       0.6232168 -0.089836806 -0.10535707 -0.104208976
000330 36 40 c2 3c 40 01 9f be 8c b5 14 be 1f 31 81 bd
       0.023712259 -0.3105564 -0.1452238 -0.06308197
000340 df d2 76 bf 61 93 cf 3d 5e a4 f6 3d 5c ca 3f 3e
       -0.96415514 0.10135532 0.12043069 0.18729538
000350 bc b8 5c 3d 4b b9 e4 3d 69 33 c0 bc 72 2f 8e 3e
       0.053887114 0.11168154 -0.023462014 0.27770573
000360 b2 5a 1d 3f cf e4 4c be a9 4d 17 bd a6 3f c3 bd
       0.61466515 -0.20009159 -0.036939297 -0.09533624
000370 c7 2c f0 bb 4b d4 2c be fb 8f ed bd 08 02 0f be
       -0.0073295566 -0.16877858 -0.11599728 -0.13965619
000380 75 f5 95 be 67 d7 5c 3e 6c 87 91 3d dc a3 ba 3d
       -0.2928883 0.21566544 0.07105908 0.09113285
000390 53 dd 83 bd 52 64 0b 3b f0 b9 93 bc 2d 0f 27 3e
       -0.064386986 0.0021269512 -0.018032998 0.16314383
0003a0 87 c0 ee 3e b4 9c 59 3d 1a 3c 72 3d 11 ef c0 bc
       0.46631262 0.05312796 0.05913935 -0.023551496
0003b0 a7 ea 12 3e f4 e2 8a be cf f4 20 3c a3 c7 8d 3d
       0.14347325 -0.27126276 0.009823992 0.06922843
0003c0 b9 a3 10 3f 5b 9b a6 3d fc fa 5d bc 47 70 52 bc
       0.5649982 0.081351005 -0.013548609 -0.012844152
0003d0 36 50 3f bd b6 65 f8 bd 46 08 27 bd 99 62 9a bd
       -0.046707354 -0.12128775 -0.040779375 -0.07538337
0003e0 b7 c9 1f bf b5 7a 0d 3e d5 3f 06 3e ed 9e 42 3e
       -0.6241717 0.1381634 0.13110287 0.19005938
0003f0 f5 54 d3 bc 36 bf 0b 3e 94 84 57 3c 34 af 98 3e
       -0.025797347 0.1364716 0.013154168 0.2982117

net.0.bias f4 [128]
000000 94 d8 a9 3d f1 1f e1 3d 5b 8c 0f 3d 50 fa 5d 3d
       0.08293262 0.109924205 0.035045963 0.054193795
000010 de 93 59 3d 0a 71 e6 3b 97 05 26 3e fc a2 03 3e
       0.053119533 0.0070325183 0.1621307 0.12855142
000020 b3 8c a2 3c fe 49 f2 3d 9d 84 db 3d 3b ee 7b 3d
       0.019842481 0.11830519 0.10718653 0.06150649
000030 41 50 4f 3d 65 84 4c 3d f6 9c 80 3d 68 13 6f 3d
       0.050613645 0.04993095 0.06279938 0.058368117
000040 02 20 23 3d 73 55 0e 3e 2f e5 c7 3d 5f 35 8c 3d
       0.039825447 0.13899784 0.0976051 0.06846117
000050 c5 f7 20 3d fb ff 33 3d 8c 62 a3 3d be a1 3c 3d
       0.03929879 0.043945294 0.07977781 0.046052687
000060 41 d8 e3 3d 63 a5 e8 3d 41 0d 75 3d 49 50 2e 3d
       0.111252315 0.1135967 0.059827093 0.042557035
000070 25 e6 ad 3d 74 b5 f8 3d 5b c1 44 3d 75 81 de 3c
       0.08491162 0.121439844 0.04803596 0.02716134
000080 6a e3 94 3d 2f f7 5d 3d 03 8d 39 3d 7c 57 0b 3d
       0.07269938 0.05419081 0.045300495 0.03401898
000090 03 a7 5b 3d f5 77 d7 3d 72 cc a0 3d 51 cf b3 3d
       0.05362607 0.10520927 0.07851495 0.08779777
0000a0 16 b7 67 3d 0e 1e 9c 3d bb 77 81 3d 53 53 a5 3d
       0.05657109 0.0762292 0.06321665 0.080725335
0000b0 d0 6b a0 3d d6 ba fd 3d 79 7d b5 3d a3 eb e6 3d
       0.078330636 0.12389152 0.08861823 0.11275413
0000c0 52 27 6b 3d 6c 3f 44 3d 9b 25 0d 3d 42 de ab 3d
       0.057410546 0.047912046 0.03445969 0.08392002
0000d0 e9 25 c8 3c aa eb 67 3d 28 f5 b7 3d 6a e7 a0 3d
       0.02443214 0.05662123 0.08982307 0.07856639
0000e0 d2 9f a9 3d 8b 96 83 3d e4 10 a9 3d 24 6b fa 3c
       0.082824364 0.06425198 0.08255175 0.030568667
0000f0 17 08 09 3e 71 8b 86 3d 01 4d 09 3d ea d7 57 3d
       0.13381992 0.06569565 0.033520702 0.052696146
000100 8d f6 e1 3d 99 45 eb 3d b4 1c 0d 3e d0 0f ac 3d
       0.11033354 0.11487884 0.1378048 0.084014535
000110 ec 29 11 3d cf fe e3 3c 3e df c5 3d 4f f2 b8 3d
       0.03544037 0.027831463 0.09661721 0.09030592
000120 11 a1 ab 3d a7 08 d3 3d a0 96 7d 3d 31 01 b9 3d
       0.0838033 0.10304385 0.061911225 0.0903343
000130 19 21 be 3d 62 ca d0 3d 7c e2 03 3e 36 c2 72 3d
       0.092836566 0.101948515 0.12879366 0.059267245
000140 45 6d a4 3c fe fb cf 3e de 8b b3 3d 5e 17 da 3d
       0.020071635 0.40621942 0.08766912 0.10648988
000150 64 b0 8d 3d fc b7 ea 3d eb dc 04 3e 42 a7 8c 3c
       0.069184095 0.114608735 0.12974899 0.017169598
000160 34 3e 08 3e 6a dd 4d 3d 84 2c 04 3e 5a 38 90 3d
       0.13304979 0.050259985 0.12907606 0.07041998
000170 97 91 c5 3d 06 64 8e 3c 23 f3 92 3d 53 da 2a 3d
       0.0964691 0.01738168 0.07175281 0.041712116
000180 c6 2f 08 3c 36 dc bb 3d 84 c0 67 3d ee e5 b6 3c
       0.008312171 0.09172861 0.05658008 0.022326436
000190 50 65 f7 3d 18 03 06 3e 9f eb 25 3d 1f c2 be 3d
       0.12079871 0.13087118 0.04050791 0.093143694
0001a0 56 2e 8d 3d 17 0e 84 3d 28 8c 50 3d d6 0e f4 3c
       0.068936035 0.06448 0.050914913 0.02979223
0001b0 14 61 dc 3d 0f f1 e6 3d 0e ef a0 3c 76 f9 99 3d
       0.10760704 0.11276447 0.01964524 0.07518284
0001c0 a4 11 36 3d 4c 31 b8 3d fa 3d 9d 3d b5 4b 4c 3d
       0.044450417 0.08993778 0.07677837 0.049876887
0001d0 76 d0 04 bd ee 62 4a 3d 71 bb 99 3c e3 02 db 3d
       -0.032425366 0.049410753 0.018766137 0.1069391
0001e0 22 bf a4 3d 74 06 c6 3d ad 5b c4 3d af 5b 06 3e
       0.08044268 0.096691996 0.09587798 0.13120912
0001f0 a9 e5 a8 3d 85 a2 16 3d 51 f8 85 3d bf 4b 32 3c
       0.08246929 0.036776084 0.06541503 0.010882317

net.2.weight f4 [256, 128]
000000 21 53 54 3f 4e ec 20 3e bd 1e 88 3f 0f 91 a3 3e
       0.82939345 0.15715143 1.063438 0.31946608
000010 85 54 01 bd 1f 0f 3c 3d 3f bf eb 3e cf ff a6 3f
       -0.031574745 0.045912858 0.46044347 1.3046817
000020 80 e4 b8 3f 21 d1 dd 3e 87 bb 14 3f 1b 17 89 3e
       1.4444733 0.43323615 0.58098644 0.2677544
000030 f0 09 c4 3d fc d2 0f bd 6b 3f 9a be 8e eb 30 3f
       0.09572208 -0.03511332 -0.3012651 0.6910943
000040 32 4e c0 3e 1e a8 ae bd b7 a4 85 3e dc 29 78 3f
       0.37559658 -0.085281596 0.2610223 0.9693887
000050 d5 b5 bf 3e 9b f1 ca 3f 02 2a 93 bc 56 94 e1 3d
       0.37443414 1.5854982 -0.017964367 0.11014621
000060 f9 02 35 3e d9 b4 7e 3d 4d 4a f1 3e aa 12 21 be
       0.17676915 0.06218419 0.47127 -0.15729776
000070 bd 5b 4c 3e b3 c1 07 3d 6e e7 3f 3e 2b c4 09 3f
       0.1995687 0.03314371 0.18740627 0.53814954
000080 dd 10 18 3f 77 5e a9 3e cb 7f 44 3e 04 0a 17 3f
       0.5940073 0.33079883 0.19189374 0.5899966
000090 6a 47 39 bc 63 29 7b 3f 8f 5f 4e 3f fd b4 50 3d
       -0.01130853 0.98110026 0.8061456 0.050953854
0000a0 a8 4a 9c be 1a 49 9b 3e 97 1d 7d 3e 25 9d 3f be
       -0.30525708 0.3032921 0.24718319 -0.1871229
0000b0 3d ac 67 3d 23 38 30 bd f7 a9 37 3f 6e 30 22 3f
       0.056560744 -0.043022286 0.7174372 0.6335515
0000c0 7e dc 11 3f da b1 5c 3e 40 78 d2 3e a3 26 27 3f
       0.5697707 0.2155222 0.41107368 0.6529333
0000d0 da 8c 46 3e af 7f 87 3e 32 0c 50 3e f3 1f 8f bd
       0.19389668 0.26464602 0.20317152 -0.06988516
0000e0 d5 6d ad be 5c 7f aa be 9f ea 9a 3e 48 bf 90 3d
       -0.33872858 -0.33300292 0.30257127 0.07067734
0000f0 5b 9c 08 3e 86 74 3a 3f 26 55 9f 3e be fc 68 3e
       0.13340895 0.7283405 0.3111965 0.22752663
000100 59 45 0b 3e 0e 22 04 3f 62 2d 53 3f da 70 55 3e
       0.13600673 0.51614463 0.82491124 0.2084383
000110 0f 62 76 3f 69 b1 9d 3e 29 55 68 bd db 92 28 bc
       0.96243376 0.30799416 -0.05672184 -0.010288919
000120 8d c3 73 3e 9d f7 ae 3e 87 6b d2 3e f0 4e 9b 3d
       0.23805065 0.3417329 0.41097662 0.075834155
000130 83 63 a6 39 6e 05 0e be 6e ad 3b 3e 13 5e aa 3e
       0.0003173613 -0.13869259 0.18327877 0.33274898
000140 68 d8 04 3f 2a 75 9c 3e 5f 64 1d be 77 db 91 3d
       0.5189271 0.3055814 -0.1537032 0.07121938
000150 f8 9b 79 3e d7 71 f8 bd 7e 00 1d 3f b0 8e cc 3e
       0.24375904 -0.12131088 0.61328876 0.39952612
000160 0f c3 5f be ec 64 a0 bc 83 cd b3 3e 71 95 96 3e
       -0.21851753 -0.019579373 0.3511773 0.2941089
000170 b0 7b 25 3f 84 ff 88 3f d0 a4 be 3e 08 b8 da 3e
       0.6464186 1.0702977 0.37235117 0.4271853
000180 52 c6 22 3f 29 e0 30 bd f4 e5 44 3e 7e 58 f2 be
       0.6358386 -0.043182526 0.19228345 -0.4733314
000190 03 60 01 be 80 f2 c6 bd 1e 06 76 3f 01 d9 77 3e
       -0.12634282 -0.09714222 0.96103084 0.24203874
0001a0 62 cc 70 3e 43 50 56 3e 3e 9e d3 3e a9 e8 b3 3c
       0.23515466 0.20929055 0.41331667 0.021961527
0001b0 bb 99 cc 3e 3a 31 41 3f b9 2f d6 bd 8d 34 e9 3e
       0.39961037 0.7546574 -0.10458321 0.45547906
0001c0 c3 65 9e 3e ed 55 4c 3e 64 06 01 3f f8 d0 f8 3e
       0.30937013 0.19954653 0.50400376 0.4859693
0001d0 64 07 ab 3f 5a ca 1b 3e c9 bf bd be ab fd 5c 3e
       1.336163 0.1521391 -0.37060383 0.21581142
0001e0 aa 69 20 be 6f 48 2d be de a3 61 3e 25 98 5e 3e
       -0.15665308 -0.16922162 0.22035167 0.21737726
0001f0 38 3c 97 3f 39 38 79 3d 1b f3 39 3f 7b 03 8a 3f
       1.1815252 0.060844634 0.72636575 1.0782312
000200 23 fb dd 3f fe e9 a0 3d 6b e8 2c 3f 77 ef 1c be
       1.7342266 0.078571305 0.6754214 -0.15325724
000210 be 46 9c 3e c1 46 0b 3f 07 49 a4 be 23 73 3c 3f
       0.30522722 0.54404837 -0.32086965 0.73613185
000220 bb 66 ec 3e 86 4b e1 3d 07 b4 94 be 7a 46 f6 bc
       0.46172127 0.11000733 -0.290436 -0.030062903
000230 ed 53 6c 3e 21 5e f2 3e e7 a1 25 3f 13 ad c0 3e
       0.2307889 0.4733744 0.6470017 0.37632045
000240 06 d1 b1 3d 33 05 23 3f f1 2f 16 3e 91 2b e8 3b
       0.08682446 0.6367981 0.14666726 0.0070852716
000250 f7 8b a5 3f 65 82 3b 3f 83 a1 f8 3e e5 41 09 3f
       1.2933339 0.7324584 0.48560724 0.5361617
000260 b5 a6 92 3e 0c 85 82 3e 2b e7 19 3f 66 a6 8d 3e
       0.28642812 0.25492132 0.6011836 0.27666014
000270 0e d9 ab 3c 5a 67 a9 3e 57 ec 8f 3d 1b 56 bc 3f
       0.020977523 0.33086663 0.070275 1.4713777
000280 82 2e 36 3e 78 c4 b7 3e 3f 68 63 3e 28 c7 86 bd
       0.17791179 0.3589208 0.22207735 -0.06580955
000290 ea e6 fc 3e c3 a5 5c 3f d7 25 32 3f d9 48 ce 3e
       0.49394923 0.8619043 0.6958899 0.40289953
0002a0 8a c6 cf be 30 78 1f 3e ac 1b 84 3e 9a 8a 09 3f
       -0.4058116 0.15573192 0.25802362 0.53727114
0002b0 13 0d 8f 3e e7 31 cf 3e f5 12 5c 3f 77 9a 42 3f
       0.27939662 0.4046776 0.85966426 0.76016945
0002c0 d0 72 45 3f b7 59 fe 3d 44 af 7f be 08 40 60 3e
       0.77128315 0.124194555 -0.24969202 0.21899426
0002d0 66 c0 f0 3e b6 40 10 3e 6c ad a5 3e cd c7 b5 3e
       0.47021788 0.14087185 0.32358873 0.35503998
0002e0 d0 57 38 3f 97 87 b7 be 27 99 4d bd 32 97 e9 3e
       0.7200899 -0.35845634 -0.050194886 0.45623165
0002f0 91 93 84 3d ef 86 8b 3e b8 52 77 bd 7c bf f3 3e
       0.064734586 0.27251384 -0.06038162 0.47607028
000300 74 df 27 bd fc e3 9d bd 6a 86 91 3f ca 56 c0 3d
       -0.040984586 -0.077095 1.1369145 0.09391554
000310 85 85 32 3f 8b 21 b4 be fb 52 21 3f 8e fc 29 3f
       0.69734985 -0.3518184 0.63017243 0.6640099
000320 c8 cf 49 3f a0 da 6a be 70 25 4f bd ad be a9 3e
       0.78832674 -0.22934961 -0.050572813 0.33153287
000330 07 8b eb 3e 0a 60 c3 3e e4 da 84 3e 08 78 2e 3f
       0.46004507 0.3815921 0.2594825 0.68151903
000340 2f 42 b6 3e 9d 71 89 be 2c fc 63 3e 4a 32 65 3e
       0.3559737 -0.26844493 0.22264165 0.22382465
000350 df 00 41 3f d0 e7 5e 3e b3 b2 04 be a1 ac f2 3d
       0.75391954 0.21768117 -0.12958793 0.118493326
000360 f2 b6 1e 3f 27 06 cb 3e 8f e1 28 be b2 a9 eb 3d
       0.619979 0.3965313 -0.16492294 0.11506976
000370 26 60 6d be 32 16 dc be 63 18 24 be a7 95 38 3d
       -0.23181209 -0.42985684 -0.16024928 0.045064595
000380 0a 89 1e 3b 82 fd 6a 3f 2e ef e3 3d c7 d3 2c 3f
       0.0024190568 0.9179307 0.11129604 0.67510647
000390 62 76 36 3f c3 de 81 3e 79 50 96 3f f0 f5 b2 3e
       0.7127439 0.25365266 1.1743308 0.3495326
0003a0 44 4e 52 3e de 03 a2 3d de 59 56 3d c1 39 ff 3e
       0.20537668 0.07910894 0.052331798 0.4984875
0003b0 b7 7a 37 be 9c 3e 0b 3f f2 4f ea 3e db 2d 07 bd
       -0.17917906 0.5439241 0.45764118 -0.033002716
0003c0 8c 2b 40 bd fc ab 59 3f dd af a8 3e 3a c2 07 be
       -0.04691653 0.8502805 0.32946673 -0.13257685
0003d0 79 63 24 bf 58 ed ff 3d db 8e d9 be 60 10 c3 3e
       -0.64214283 0.124964416 -0.42491803 0.3809843
0003e0 64 00 36 3f 24 cc c8 3e ca 2c 60 3e 2e 32 0e 3e
       0.71094346 0.39218247 0.21892086 0.1388633
0003f0 69 80 e3 3e ca e7 8a 3e e9 8a 92 3f d9 be 9d 3f
       0.44433907 0.27129966 1.1448642 1.2323867

net.2.bias f4 [256]
000000 02 9c 14 3e 2b e3 02 3e 5a 30 e2 bc 07 cf 58 3d
       0.14512637 0.1278197 -0.027610946 0.05293181
000010 d6 f1 83 3d 4e 48 05 3e af eb 30 be 5f 62 bd 3d
       0.06442611 0.13015863 -0.17277406 0.092472784
000020 ff 3d 7f 3f 84 38 68 bd 54 33 83 bd 96 e8 41 bc
       0.99703974 -0.056694523 -0.064062744 -0.011835238
000030 cc 73 c1 3d 70 f5 f0 3c db a7 0d 3d e4 86 8d 3b
       0.094459146 0.029413909 0.034583908 0.0043190587
000040 a6 9e c3 3d ea 54 11 3d 33 4f c2 bd b5 10 25 bc
       0.09551744 0.03548137 -0.09487762 -0.010074784
000050 68 94 f1 bd 62 9f d8 3d 50 72 18 bd 50 92 d9 bd
       -0.11795884 0.10577275 -0.037218392 -0.1062361
000060 72 c3 7d 3e 5a bd 20 3d a7 01 41 bc 58 e2 08 3d
       0.24781588 0.03924308 -0.011780179 0.033418983
000070 03 b2 57 3e be 29 e5 3d d2 ac c6 bc b2 fb fd 3d
       0.21064 0.11189602 -0.024252329 0.12401523
000080 36 59 f4 bd 82 a7 13 be c8 a1 0c 3d b9 bb d3 bb
       -0.11931078 -0.14419368 0.034333974 -0.0064615873
000090 15 2d 2c 3e b6 d9 7a bc 2f 53 92 3d ac 6a 1c bd
       0.16814072 -0.015310695 0.07144772 -0.038187668
0000a0 c0 4f 53 bd 51 4b 94 3c dc 1f c2 ba bb b0 fe 3d
       -0.051589727 0.01810232 -0.001481052 0.124360524
0000b0 6b 3d 27 3d 7e 57 24 3e 06 70 19 3e 3e ab 80 bd
       0.040830057 0.16049 0.1498414 -0.06282662
0000c0 1d 43 41 3d 98 1d 96 3d b0 97 11 be 9b 74 1b 3e
       0.047183145 0.07329863 -0.1421802 0.151812
0000d0 6a 3c 23 be 3f ed f5 3d 1f 6a df bd 8b 02 85 3d
       -0.15941015 0.12008142 -0.10908913 0.06494626
0000e0 92 38 54 bd 19 e0 91 bc e5 cd 1b be 98 bf 32 3d
       -0.051811762 -0.017807053 -0.15215261 0.04363975
0000f0 0b 8c d2 3c 57 7a 34 3d a7 ab 96 3e 7c 28 d2 3d
       0.025701543 0.044061985 0.29427835 0.10261628
000100 27 64 a3 bc 01 16 72 3f 64 c3 42 3e ac 12 30 bd
       -0.019945217 0.94564825 0.19019848 -0.042986557
000110 7c 80 97 bc 85 c6 0c bd a0 be 0b 3e be b8 e0 bd
       -0.018493883 -0.03436901 0.13646936 -0.10972737
000120 af ce 83 3c ff b1 70 3b d5 97 81 be ea 40 1e 3e
       0.016089765 0.0036727188 -0.2531115 0.1545445
000130 2d 3f 98 3e 2e 66 1a 3f 9d 0f e4 3d ee 61 f3 3d
       0.297357 0.60312164 0.111357905 0.11883913
000140 e4 91 dc bd 02 50 e7 3d 2d 3b 8b bd 94 30 f9 bc
       -0.10770014 0.11294557 -0.06798396 -0.030418672
000150 06 70 02 bd db fb 48 bd 08 04 b5 bc b0 6d 73 bc
       -0.031845115 -0.049068313 -0.022096649 -0.0148576945
000160 43 2b 54 3b d3 33 8d 3e 28 d3 b9 3d 6a f7 9e 3d
       0.0032374419 0.275786 0.09073478 0.07762034
000170 5b 7b 65 bd 1a 3d 63 3f 98 58 5a 3e ee a4 63 bc
       -0.056025844 0.8876511 0.21322858 -0.013894303
000180 f1 49 20 3c ae b2 2d 3e f3 21 5e 3e 9a 5c d7 3d
       0.009783254 0.16962692 0.21692638 0.10515709
000190 6f 79 37 bd b8 19 9e 3d 5b 5b 6d 3e 5a 3f 1b bd
       -0.044793542 0.07719749 0.2317938 -0.037902214
0001a0 b7 6e ae bc c2 dd 6d 3e 53 10 a5 3d 5e 15 04 3e
       -0.021293027 0.23229125 0.08059754 0.12898776
0001b0 2c 76 f6 3d 07 2f 80 bc 38 6b 7d 3e 6a 42 93 bc
       0.12034258 -0.015647424 0.24747932 -0.017976005
0001c0 c9 0d 56 bd dd 60 10 bc 74 a3 d1 3c 52 27 29 bc
       -0.05225924 -0.0088121565 0.025590636 -0.010324316
0001d0 68 5c aa bd bc ee 1b be ed dc 85 be 41 20 30 be
       -0.08318406 -0.15227789 -0.26145115 -0.17199804
0001e0 00 b7 f0 3d 63 c7 07 3e 63 10 71 bd 21 6c 51 3d
       0.117536545 0.13259654 -0.05885352 0.05112851
0001f0 0b af 68 3e 90 10 fa 3d f7 e4 86 bd a5 63 87 3b
       0.22723024 0.1221019 -0.0658664 0.0041317516
000200 b9 d6 e1 3c a9 46 2b 3d 8f b4 57 bc 25 b6 fd 3d
       0.027568208 0.041815434 -0.013165607 0.12388257
000210 5d 19 66 bd 55 8b cb 3d ef 5c fd 3d a9 82 26 bd
       -0.056176532 0.09938685 0.12371241 -0.04065195
000220 fd d1 b6 3e 0a 39 60 3c 3d 2a b3 3b 90 75 7a 3d
       0.35707083 0.013685474 0.0054676817 0.061147273
000230 5a 6c 2f 3e 55 02 66 3e 53 a6 77 3d da 43 94 3d
       0.17131177 0.22461827 0.060461354 0.07239504
000240 b8 36 de bc 06 6f ea 3d c7 05 c6 bd c4 39 1b bd
       -0.027125701 0.11446957 -0.09669071 -0.037896886
000250 fa 83 d6 3d 16 21 0e 3e 3a 1e 86 3e 2e fa a1 bd
       0.10474391 0.13879809 0.26194936 -0.07909046
000260 0f 9e 6c 3b 49 ee 0e 3d b7 33 ae bd bb f6 ac 3c
       0.0036104952 0.034895215 -0.085059576 0.021113744
000270 a2 38 17 3e 1d 38 54 bc 80 d6 02 3e 17 9c 3c 3d
       0.14767697 -0.012952832 0.12777138 0.046047296
000280 a3 b2 43 bd 7e 4d af 3d 71 f3 50 3d ba 22 59 3e
       -0.047777783 0.08559702 0.051013414 0.21204653
000290 84 86 15 3d 92 64 7d 3d 20 04 2a bc 20 aa 17 bd
       0.036505237 0.06186349 -0.01037696 -0.03702748
0002a0 a6 eb 76 3d bf 4a 10 be 5f 2e d2 3d a6 a5 63 3d
       0.060283326 -0.14091013 0.10262751 0.055577897
0002b0 73 38 54 3f b8 3a 4f 3e 51 a4 f4 3d ea c3 4d 3c
       0.82898635 0.20237243 0.11945403 0.012558917
0002c0 53 ed 8b 3c af 62 0d bd 1c d7 c4 3d e2 09 4e bd
       0.017080938 -0.03451794 0.09611341 -0.050302394
0002d0 44 87 8b bd 1c 14 8f bd 1d 69 36 3a eb d1 61 3d
       -0.06812909 -0.069862574 0.0006958412 0.055131834
0002e0 b4 41 16 be b8 8e c1 bd d2 07 88 3e 8c 9e 3d 3b
       -0.14673501 -0.094510496 0.26568466 0.0028933613
0002f0 8a b9 c1 bc 8a 05 a9 3e aa 2c 0e be e6 b7 29 3d
       -0.023648042 0.33012038 -0.13884225 0.041435145
000300 01 37 04 3e ee 8d 8a bf f4 c9 ed 3d 2f 7d 36 3e
       0.12911607 -1.0824564 0.11610785 0.17821191
000310 17 69 ec 3d e4 d3 1b 3e 83 6d b5 3d 01 e9 18 3d
       0.11543482 0.15217549 0.08858778 0.037331585
000320 e0 72 64 3d 0c b7 37 be 95 23 a1 3d e5 f0 94 3d
       0.055773616 -0.1794092 0.07868115 0.072725095
000330 4b 82 b8 3d c3 87 82 3c 4a 15 e0 3b 1b 52 8f 3d
       0.090092264 0.015933877 0.0068384754 0.06998082
000340 86 d3 e9 ba cf c6 2d 3b 8f 7a af 3c f9 2f 8d 3d
       -0.0017839528 0.0026516204 0.021420745 0.06893916
000350 59 6f 70 3d 6c e1 0e 3f f4 b0 ff 3c 12 62 af 3e
       0.05869994 0.55812716 0.031212308 0.3425451
000360 79 61 d5 3d 4e 9e cc 3c b7 80 ab 3d 66 52 71 3d
       0.10418982 0.02497783 0.0837416 0.058916472
000370 ea 3d 7d 3a bd 0b df 3d 14 77 d4 3c 4d 3d 5b bd
       0.000966041 0.10890911 0.025935687 -0.053525258
000380 c7 22 23 3d 15 c4 f2 bc 00 fa fc 3d 00 24 ba 3c
       0.039828088 -0.029634515 0.12352371 0.022722244
000390 16 4b 0a 3d dc 2d 0d 3d aa f8 95 bd 53 36 ff bc
       0.033763014 0.034467563 -0.073228195 -0.031153833
0003a0 4c aa 7d bc df 36 82 3d 0d ea 0c bd d8 93 4d 3e
       -0.0154824965 0.06358122 -0.034402896 0.20075929
0003b0 1d b0 61 3e 0e e9 d3 bc fa a3 04 3d ab d3 62 3e
       0.22039838 -0.025867965 0.032382943 0.22151057
0003c0 a1 76 05 3d 7a 55 a0 bc 2c 4d 13 be c4 d6 27 3d
       0.032583836 -0.019572008 -0.14384907 0.0409763
0003d0 83 45 68 3d b6 e6 56 3e 4a e9 be 3d 02 be 94 3c
       0.056706917 0.20986447 0.0932184 0.018157009
0003e0 a8 fe 7a bd 1b f7 1d be a5 bf c1 3d b1 bd 54 be
       -0.061278015 -0.15426295 0.094603814 -0.20775487
0003f0 a8 70 38 3d 9e b7 ec bc 67 aa 46 3e f0 75 8e 3e
       0.045029312 -0.02889615 0.19400941 0.27824354

net.4.weight f4 [27, 256]
000000 d3 43 16 3e 74 4c 48 3e 58 b8 9d 3e 51 34 5b 3e
       0.1467431 0.19560415 0.30804706 0.21406676
000010 5e 7e 8a 3e de 6d 9a 3e a9 7d 8f 3e 16 1d 8c 3e
       0.27049536 0.30161947 0.2802556 0.2736594
000020 bb 3e 32 bf 6e e1 8f 3e aa b0 80 3e ad 14 15 3e
       -0.6962697 0.28101677 0.25134784 0.14558668
000030 e3 ce a7 3e c7 d1 39 3e 4a 60 5c 3e ce 78 5c 3e
       0.3277503 0.1814643 0.21521106 0.21530458
000040 cc a7 7b 3e 37 ec 93 3e 6e 6f 50 3e 1a 7a 8f 3e
       0.24575728 0.28891155 0.20355007 0.28022844
000050 18 50 a4 3e f7 d2 18 3e b2 a6 8f 3e f3 5e a8 3e
       0.32092357 0.14924227 0.28056866 0.3288494
000060 70 76 06 3c 7f a5 82 3e 29 96 8f 3e 6b 48 3f 3e
       0.008206949 0.25516888 0.2804425 0.18679969
000070 90 f6 63 3e 4f c2 74 3e 10 bd 8e 3e d8 3a 0d 3e
       0.22262025 0.23902248 0.27878618 0.13791978
000080 a3 ee b0 3e ac c8 4f 3e e7 be 5d 3e b3 a8 3c 3e
       0.34557065 0.20291394 0.21654855 0.18423729
000090 ab 5b cd 3e 50 84 57 bd 0d a0 7e 3e 58 59 72 3c
       0.40109 -0.052616417 0.24865742 0.014791809
0000a0 a7 2f 94 3e 4e e7 4a 3e 13 7d 86 3e 03 e8 54 3e
       0.28942606 0.19814798 0.262673 0.2079163
0000b0 e8 36 58 3e c7 8c 72 3e 69 75 79 3d 0e c4 9b 3e
       0.21114695 0.23686515 0.060902987 0.30423015
0000c0 1c 62 71 3e 4a 87 68 3e 9b 64 9a 3e 26 67 8a 3e
       0.23572582 0.22707859 0.3015488 0.2703182
0000d0 d6 b1 a8 3e 66 c8 24 3f 8a fb a2 3e 65 82 6e 3e
       0.32948178 0.64368284 0.31832534 0.23291929
0000e0 64 9c 3c 3e 47 2b 86 3e 41 ce 62 3e 76 c0 e4 3d
       0.18419033 0.26204893 0.22148992 0.111695215
0000f0 4a 42 64 3e 60 9c 72 3e 5c c8 3f 3e 9f f3 65 3e
       0.22290912 0.23692465 0.18728775 0.22456215
000100 ed 58 81 3e 26 c9 1f bf 74 03 59 3e 49 c1 88 3e
       0.25263157 -0.62416303 0.21192724 0.26709965
000110 b2 63 1e 3e f4 34 92 3e ea d7 75 3e d9 fc 14 3e
       0.15467718 0.28556025 0.24008146 0.14549579
000120 ed 39 6d 3e b3 44 38 3e d9 87 7d 3e 82 59 98 3e
       0.23166628 0.17994957 0.24758853 0.2975579
000130 af ec 45 3e d9 dc 16 be 43 a9 78 3e ca 55 4c 3e
       0.19328569 -0.14732684 0.24283318 0.19954601
000140 d0 04 92 3e fb 3d 67 3e 08 c4 7c 3e be 0b 4b 3e
       0.28519297 0.22582237 0.24684155 0.19828698
000150 19 00 54 3e 8f 8c 47 3e e8 a3 83 3e af 36 82 3e
       0.20703162 0.19487213 0.25710988 0.25432345
000160 ef 5b 7d 3e 56 d5 0b bf e8 b3 ab 3e f6 82 80 3e
       0.24742101 -0.546224 0.33535695 0.25099915
000170 2c 77 7c 3e 1c 40 14 bf bc d2 36 3e dd 16 1a bd
       0.24654835 -0.57910323 0.17853826 -0.03761946
000180 18 fd af 3e 9f d2 a3 3d 0e 39 08 be 6e 0c 53 3e
       0.34372783 0.07999157 -0.13303015 0.2061021
000190 f8 53 65 3e b9 65 03 3e 6c 35 a9 3d e5 e8 2d 3e
       0.22395313 0.12831773 0.082621425 0.16983373
0001a0 09 00 62 3e 01 29 3d bd 7f a1 6f 3e 9e 83 4b 3e
       0.22070326 -0.046181682 0.2340145 0.19874427
0001b0 ed 8c 6e 3e 15 16 7c 3e a3 b6 d0 bc 50 48 71 3e
       0.23295946 0.24617799 -0.025477713 0.23562741
0001c0 a8 fb 60 3e 73 8f 9a 3e 9f 56 9b 3e f8 0f 58 bc
       0.21970999 0.30187568 0.30339524 -0.013187401
0001d0 91 47 6c 3e 37 df 2b 3e a8 fc b4 3e 73 2b a1 3e
       0.23074175 0.16784368 0.3534901 0.31478462
0001e0 c1 f0 6c 3e 3c e0 a6 3d 71 64 93 3e c9 2a 72 3e
       0.23138715 0.08148238 0.28787568 0.23649134
0001f0 93 72 8d 3d e2 d0 34 3e a9 15 87 3e 00 9b 69 3e
       0.06906619 0.17657807 0.26383713 0.22813034
000200 b5 28 1c 3e ae 29 1f 3e 11 3d 57 3e 57 25 72 3e
       0.15249904 0.15543243 0.21019389 0.23647057
000210 cc 46 4f 3e 64 27 1f 3e 62 43 1b bd c0 3d 30 3e
       0.2024185 0.1554237 -0.037906058 0.17211056
000220 cc b3 92 bd b5 6a 94 3e 67 a4 98 3e 7a 67 70 3e
       -0.071632 0.2898766 0.2981293 0.23476973
000230 48 4f 60 3e bd 5a 5e 3d ab 26 1d 3e 6b 69 5f 3e
       0.21905243 0.054285754 0.15346782 0.21817558
000240 cd d8 82 3e b5 18 9a 3e 7a 9b 72 3e 0d cb 4f 3e
       0.2555603 0.30096975 0.23692122 0.20292301
000250 eb 2e c7 3e c6 ae 74 3e 9f 72 d7 3e 29 3a 42 3e
       0.38902983 0.23894796 0.42079636 0.18967499
000260 74 7f 67 3e 79 6e 3b 3e bb c2 3f 3e 19 2d 6e 3e
       0.22607213 0.1830386 0.18726628 0.23259391
000270 ab 56 69 3e 4d 99 ad 3e 41 d1 41 3e 79 51 22 3e
       0.22786967 0.33906022 0.1892748 0.15851392
000280 b6 01 68 3e 41 a8 3f 3e b8 64 37 3e 35 45 da 3c
       0.22656903 0.18716528 0.17909515 0.026644329
000290 89 61 74 3e 77 b6 8d 3e 25 26 92 3e a1 a9 93 3e
       0.23865332 0.27678272 0.28544727 0.28840354
0002a0 51 43 94 3e a7 f9 4f 3e 97 30 68 3e 41 1d 88 3e
       0.28957608 0.20310079 0.22674786 0.2658482
0002b0 02 45 40 bf 7d d0 fa 3e d8 84 55 3e 00 46 28 3f
       -0.751053 0.4898719 0.20851457 0.6573181
0002c0 74 88 8e 3e 8c 18 a1 3e a2 e0 5e 3e 2b 52 87 3e
       0.2783848 0.3146404 0.21765378 0.26429877
0002d0 46 18 88 3e 59 38 3b 3f c5 e2 61 3e f2 04 1e 3e
       0.2658102 0.73132855 0.22059162 0.15431574
0002e0 45 6a 86 3e 3e 2d 51 3e 8b 38 f3 be 8e 2c 70 3e
       0.26252952 0.20427415 -0.47504076 0.23454496
0002f0 b9 76 80 3e f9 44 b2 3d ce 40 ad 3e 60 e6 90 3e
       0.25090578 0.08704562 0.33838505 0.28300762
000300 2a 97 3d 3e 1c 8e 80 be ad 85 3c 3e 01 2f 2b 3e
       0.18514696 -0.2510842 0.18410368 0.1671715
000310 6a 18 97 3e 68 ca 80 3e 67 b1 71 3e a0 77 85 3e
       0.29510814 0.25154424 0.2360283 0.2606783
000320 20 c8 7a 3e c3 46 a5 3e 9f 5c 82 3e da 2d 97 3e
       0.24490404 0.3228055 0.2546129 0.2952717
000330 b6 e1 8c 3e 67 52 43 3e 98 1f 6c 3d bf 83 8f 3e
       0.27515954 0.19074403 0.057647318 0.28030202
000340 5b 56 46 3e 2b 52 4e 3e 86 af 80 3e ef c2 74 3e
       0.1936888 0.20148532 0.25133914 0.23902486
000350 cf 73 75 3e d2 3e b5 be 85 09 67 3e b5 d3 22 3d
       0.23969959 -0.3539949 0.22562225 0.03975268
000360 50 ce 5a 3e 5b 62 72 3e 80 ae 45 3e e5 f1 66 3e
       0.21367764 0.23670332 0.19304848 0.22553213
000370 84 49 54 3e 9e 7b 26 3e 52 2d 92 3e 36 82 89 3e
       0.20731169 0.16258094 0.28550202 0.26857156
000380 b4 5c 17 3e be 50 a4 3e b8 9d 38 3e aa bc 2f 3f
       0.14781457 0.3209285 0.18028915 0.68647254
000390 96 96 82 3e 38 0c 8e 3e 69 80 90 3e 12 1a b7 3e
       0.25505513 0.27743697 0.2822297 0.35762078
0003a0 43 95 5e 3e 32 b7 75 3e 11 b1 32 3e 3e d5 df 3d
       0.21736626 0.23995665 0.17450358 0.109293446
0003b0 76 a7 95 3e 8e 9a 5c 3e e6 67 6a 3e e8 99 e2 3e
       0.29229325 0.21543333 0.22891197 0.44258046
0003c0 61 d1 3a 3e a3 f2 99 3e 60 f0 b3 3e 1c 61 46 3e
       0.18243934 0.3006793 0.3514433 0.19372982
0003d0 f5 bb 54 3e 05 b2 12 3e 82 b0 89 3e 84 f3 3e 3e
       0.20774825 0.14325722 0.26892477 0.18647581
0003e0 4d 65 df 3e 2a 9b aa 3e 2f 4c 32 3e c5 a9 89 3e
       0.43631974 0.33321506 0.17411874 0.26887336
0003f0 69 8b 78 3e e9 d2 8e 3e 3a d3 50 3e 49 cf 81 3d
       0.24271931 0.27895287 0.20393077 0.06338365

net.4.bias f4 [27]
000000 f4 ff 7e bd 8e 1a e1 3c a5 46 d2 bc 6f f3 69 3c
       -0.062255815 0.027478483 -0.025668452 0.0142792305
000010 38 0f 51 3d 10 9e 16 3d 5f 0e 07 bb 04 41 ee 3d
       0.051039904 0.036771834 -0.002060793 0.116334945
000020 a7 19 1a be 7e 7a e5 3d 88 b8 1a 3e 17 a4 bf 3d
       -0.15048848 0.11205004 0.15109456 0.093574695
000030 61 e7 73 bd c2 91 0b 3d 3e fb f3 3c 83 9e 7f 3c
       -0.059546832 0.034074552 0.029782888 0.015601757
000040 67 5c b0 3c 51 c0 c4 bd 63 4d 38 3e 93 9a 79 3e
       0.021528436 -0.09606994 0.1799827 0.24375372
000050 7f 21 cd 3e 6b 82 a9 bc fc bb 35 3d c7 b6 f4 3d
       0.40064618 -0.020692071 0.04436873 0.119489245
000060 13 e2 5e bd 9c 7e 97 3d fc 29 4d bd
       -0.05441482 0.07397196 -0.050088868
