model/dqn_policy_net_episode_1830.pt (torch, 334295 bytes, 6 tensors)

net.0.weight f4 [128, 336]
0	0x3d99daf4	0.07512465
1	0xbe3892df	-0.18024777
2	0xbd17af63	-0.037032496
3	0x3cc289a8	0.02374728
4	0xbd1bbc28	-0.038021237
5	0xbe2f1892	-0.17099217
6	0x3d97f053	0.07418885
7	0xbd9b62c7	-0.075872
8	0x3e39e2ea	0.18152967
9	0xbdc08602	-0.0940056
10	0xbe906e19	-0.28208998
11	0xbdf73803	-0.1207123
12	0x3e0f6784	0.14004332
13	0xbdb61703	-0.08891108
14	0x3d8b32b4	0.0679678
15	0x3ccd8611	0.025088342
16	0xbe2bac91	-0.16765048
17	0xbe0ec69e	-0.13942954
18	0xbd3e3469	-0.0464367
19	0x3bd5b7da	0.006522161
20	0xbcc94ae0	-0.024571836
21	0x3ce46039	0.027877914
22	0xbddbbac1	-0.1072898
23	0x3d85dd68	0.065363705
24	0xbe574b1f	-0.2102475
25	0xbe465aa8	-0.1937052
26	0xbe21c33b	-0.15797131
27	0x3d8992a0	0.067174196
28	0x3db53601	0.08848191
29	0x3c826cdc	0.015921049
30	0x3cc438d7	0.023952885
31	0x3dfae91d	0.12251494
32	0xbea869cb	-0.32893214
33	0xbdaad761	-0.083418615
34	0x3d0aaabb	0.033854228
35	0xbd03d66b	-0.032186907
36	0x3d8fc902	0.07020761
37	0xbdef8c67	-0.116967015
38	0x3dbd80de	0.09253095
39	0xbd8fca82	-0.07021047
40	0x3ccd0d96	0.025030892
41	0xbe88c299	-0.26710966
42	0x3d9a4158	0.075319946
43	0xbc1441c7	-0.009048886
44	0x3d9086fc	0.07056996
45	0xbe757565	-0.23970564
46	0xbdaaac02	-0.08333589
47	0x3cf04df1	0.02933404
48	0xbd314291	-0.043276373
49	0x3d1c1a32	0.03811092
50	0x3da3bc86	0.07994942
51	0x3c17813c	0.0092471205
52	0xbde8d1d8	-0.113681495
53	0xbe329d93	-0.17442922
54	0x3ded0b06	0.11574368
55	0x3d9968ad	0.074906684
56	0x3e4da5c0	0.2008276
57	0xbe0c3b32	-0.13694456
58	0xbe2ec9da	-0.17069188
59	0xbdf73b3d	-0.12071846
60	0x3d7d76a0	0.061880708
61	0x3e2ac9ef	0.16678594
62	0xbd12502f	-0.035721
63	0xbde223df	-0.11041998
64	0xbe3bd803	-0.1834412
65	0x3e0218e1	0.12704803
66	0xbdfd9b84	-0.12383178
67	0x3d4efbf7	0.05053326
68	0xbc84d5d3	-0.01621524
69	0x3d2bbc1d	0.041927446
70	0xbdc8d293	-0.09805789
71	0xbd9da596	-0.07697599
72	0xbe1a5524	-0.15071541
73	0xbe09975d	-0.13436647
74	0x3da0b440	0.0784688
75	0x3e0cb583	0.13741116
76	0x3d5e1b57	0.054225292
77	0x3e0c8d33	0.13725738
78	0xbe300add	-0.17191644
79	0xbd2bc39d	-0.0419346
80	0x3deaf2b7	0.114720754
81	0xbce6de56	-0.02818219
82	0x3dedee1d	0.11617682
83	0xbca4a966	-0.020100307
84	0xbe1b8b36	-0.15189824
85	0xbc2d349d	-0.010571626
86	0x3d1e38f8	0.03862855
87	0xbd7f6b9a	-0.062358476
88	0x3daa9922	0.08329989
89	0xbdf33a3c	-0.11876342
90	0xbd2efe1b	-0.042722803
91	0xbd28fd85	-0.0412574
92	0xbd9b94b7	-0.075967245
93	0xbceb3ebb	-0.028716436
94	0xbcf9a931	-0.030476185
95	0xbd6f8c7d	-0.05848359
96	0x3e998c9c	0.2999009
97	0xbe36f6f2	-0.1786764
98	0x3da8f19e	0.0824921
99	0xbe10346c	-0.14082497
100	0x3bef1d25	0.0072971755
101	0x3d15c99f	0.036569234
102	0x3cfa69dd	0.030568058
103	0x3c62d96e	0.013845785
104	0xbf3d1c1b	-0.7387101
105	0x3dbb415a	0.09143324
106	0x3e25a142	0.16174796
107	0x3e2ad4f1	0.16682793
108	0x3eb15b46	0.3463995
109	0xbd40b1fc	-0.04704474
110	0xbe3faa79	-0.18717374
111	0x3de1e325	0.110296525
112	0x3daa82f6	0.0832576
113	0xbe3ea572	-0.186178
114	0xbdd1b9b7	-0.102405004
115	0xbcdd228a	-0.026994009
116	0xbdd1dc74	-0.10247126
117	0x3ca1a911	0.019733937
118	0x3dc0b936	0.09410326
119	0x3d818163	0.06323507
120	0xbf81890c	-1.0119948
121	0x3e00fc3a	0.12596217
122	0xbdfd06a8	-0.12354785
123	0xbde2d5f6	-0.11075966
124	0x3cb4b11d	0.02205711
125	0x3d8cc7b6	0.06874029
126	0x3d836d96	0.06417386
127	0xbd0116f4	-0.03151603
128	0x3ec30e50	0.38096857
129	0xbeaf6868	-0.34259343
130	0xbdaa1602	-0.08304979
131	0xbe16b90f	-0.14719032
132	0xbe056e50	-0.13030362
133	0xbdb3c877	-0.0877847
134	0xbdf280ae	-0.1184095
135	0xbbf6c3da	-0.0075306715
136	0xbedc14e2	-0.42984682
137	0x3d929443	0.07157185
138	0xbc91f23c	-0.017815702
139	0x3d36afd5	0.04460128
140	0xbc3080af	-0.010772868
141	0x37ba9f1a	2.2247015e-05
142	0x3df93af2	0.12169446
143	0x3d37bb6b	0.04485647
144	0x3edf7e9f	0.43651292
145	0xbe7ceace	-0.24698946
146	0xbda48330	-0.080328345
147	0xbe9036b6	-0.2816674
148	0x3cefd37e	0.029275652
149	0x3da2a0ff	0.07940864
150	0x3cc064aa	0.0234855
151	0xbe14564c	-0.14486045
152	0x3dccb062	0.0999458
153	0x3ca7201f	0.020401059
154	0xbbee17a9	-0.007266004
155	0x3d4eb43b	0.05046485
156	0xbdba7e5f	-0.091061346
157	0xbd0e6fe6	-0.034774683
158	0xbc137a94	-0.009001393
159	0xbd1dc85f	-0.038521167
160	0x3c6ed61f	0.014577418
161	0xbe68738c	-0.22700328
162	0x3d0f6ed8	0.03501782
163	0x3d969ff5	0.07354728
164	0x3e0cfc6c	0.13768166
165	0x3c791e27	0.015204943
166	0xbdae7ce8	-0.08519918
167	0xba28e2db	-0.00064424955
168	0x3f20da5b	0.62833184
169	0xbe06d535	-0.1316727
170	0xbd5a1a01	-0.053247456
171	0xbd9c0b69	-0.07619364
172	0xbeae0576	-0.3398854
173	0xbe85a620	-0.26103306
174	0xbdbff19e	-0.09372257
175	0xbd8a64e3	-0.06757524
176	0x3f03589d	0.5130709
177	0x3dc3aa6d	0.095539905
178	0xbd6639a2	-0.056207307
179	0xbe3253f8	-0.17414844
180	0xbcee4602	-0.029086117
181	0xbe384cad	-0.17998
182	0xbde8e821	-0.113724
183	0xbe281c32	-0.16417006
184	0x3f566891	0.83753306
185	0xbdfbb339	-0.122900434
186	0xbd6dd82e	-0.058067493
187	0xbdad1a52	-0.08452286
188	0xbda62b60	-0.08113742
189	0xbd1ed19d	-0.03877412
190	0xbddc9c2a	-0.107719734
191	0x3dd5da96	0.104420826
192	0xbf35aba9	-0.7096506
193	0x3db5c892	0.088761464
194	0x3e0200cb	0.12695615
195	0x3dea2bce	0.11434136
196	0x3e1b3322	0.15156224
197	0x3e9f7a5e	0.31148046
198	0x3df07b01	0.11742211
199	0x3e83fe79	0.25780085
200	0x3f15ddff	0.58541864
201	0xbdb77485	-0.08957771
202	0xbdfb9c54	-0.122856766
203	0xbc6065f4	-0.0136961825
204	0x3d943c4e	0.07238065
205	0x3a8852d9	0.0010400667
206	0xbe09db40	-0.13462543
207	0x3e8ad043	0.27112016
208	0xbfd7478d	-1.681871
209	0x3eb54888	0.354069
210	0x3ebb1c04	0.36544812
211	0x3eafc32c	0.34328592
212	0x3ea65aa3	0.32491025
213	0x3e3ecb09	0.1863214
214	0x3e093e32	0.13402632
215	0x3e6c9cdb	0.2310671
216	0x3f07661c	0.5289018
217	0xbdcac7be	-0.09901379
218	0xba93798f	-0.0011251437
219	0x3d50baec	0.050959513
220	0xbdc3aed4	-0.0955483
221	0xbaf1e0ce	-0.0018453838
222	0xbd284530	-0.041081607
223	0x3e09671e	0.13418242
224	0xbf28b28b	-0.65897435
225	0x3eca8b68	0.39559484
226	0x3e2a9164	0.16657025
227	0x3e7f7265	0.24945982
228	0x3e02b1f0	0.1276319
229	0x3e1bf04c	0.15228385
230	0xbca58ce5	-0.020208785
231	0x3e8a7b32	0.27047116
232	0x3f361501	0.711258
233	0x3c3f62ff	0.011681317
234	0x3d4f56ee	0.050620012
235	0xbdd5856f	-0.10425841
236	0xbcade935	-0.021229366
237	0xbe4482cd	-0.19190522
238	0xbe119393	-0.14216451
239	0xbe38e2f9	-0.18055333
240	0x3f57f0ae	0.84351623
241	0x3e0fdeaf	0.14049791
242	0xbd25f215	-0.04051407
243	0xbdefdece	-0.117124185
244	0xbddec7f0	-0.10877979
245	0xbe746d61	-0.2386985
246	0x3d7f3adf	0.062312003
247	0xbe98348b	-0.29727587
248	0xbf62de97	-0.88620895
249	0x3e3ec0f0	0.18628287
250	0x3e48837d	0.19581409
251	0x3eb2d0c6	0.34924906
252	0x3e0ac580	0.13551903
253	0x3e977cbb	0.2958735
254	0xbe84a25a	-0.25905114
255	0x3ea71a05	0.3263704

net.0.bias f4 [128]
0	0x3e06735b	0.13129942
1	0x3e19637b	0.14979355
2	0x3dead215	0.11465851
3	0x3e07ed45	0.13274105
4	0x3e9a89e4	0.30183327
5	0x3dcc2ae9	0.09969122
6	0x3f0a6c30	0.5407133
7	0x3e722d26	0.23650035
8	0x3c46fac5	0.012144749
9	0x3e58be00	0.21166229
10	0x3e0fc77f	0.14040945
11	0x3d9404e4	0.07227495
12	0x3e2d1ae9	0.16904797
13	0x3e01a958	0.12662256
14	0x3e1ae25e	0.15125415
15	0x3e12bb3a	0.14329234
16	0x3de8ad9f	0.113612406
17	0x3e51b0a6	0.20477542
18	0x3e2f86d1	0.17141272
19	0x3db6159e	0.08890842
20	0x3dfd144b	0.12357386
21	0x3da3409e	0.07971309
22	0x3ebc11bc	0.3673228
23	0x3e323767	0.17403947
24	0x3e5da31a	0.2164425
25	0x3e24dec3	0.16100602
26	0x3e25211f	0.16125916
27	0x3e83e1c2	0.25758177
28	0x3e19adf5	0.15007766
29	0x3ef2da6b	0.47432265
30	0x3e86a5ba	0.26298314
31	0x3e2b7a41	0.16745855
32	0x3e50f8d4	0.2040742
33	0x3d9bbbb0	0.07604158
34	0x3e52ed42	0.20598319
35	0x3db361a4	0.08758858
36	0x3dd2dec7	0.10296398
37	0x3e4e164f	0.20125698
38	0x3e75b4e7	0.2399479
39	0x3e2432bb	0.16034977
40	0xbdb2e1e8	-0.087344944
41	0x3dd32a9a	0.1031086
42	0x3d373283	0.044725906
43	0x3e1ec8c5	0.15506275
44	0x3daae56e	0.083445415
45	0x3e6ba805	0.23013313
46	0x3df4e2e6	0.1195734
47	0x3e72f835	0.23727496
48	0x3e1a191b	0.1504864
49	0x3e685292	0.22687748
50	0x3d2a2cc6	0.041546606
51	0x3e3f45dc	0.18678993
52	0x3dbf3b6e	0.09337507
53	0x3dcbf0a7	0.0995801
54	0x3e210295	0.15723641
55	0x3df3f950	0.11912787
56	0x3e04f0da	0.12982503
57	0xbd7d7131	-0.061875526
58	0x3e96baad	0.29439297
59	0x3e233e12	0.15941647
60	0x3e476ab5	0.19474299
61	0x3e144eb0	0.14483142
62	0x3d912e02	0.070888534
63	0x3e2149b2	0.15750769
64	0x3e5a9959	0.2134756
65	0x3e41b73a	0.18917552
66	0x3e9291aa	0.28626758
67	0x3df67dbd	0.120357014
68	0x3e08e95d	0.13370271
69	0x3da5b4fd	0.080911614
70	0x3e1fd7f1	0.15609719
71	0x3e683b90	0.22678971
72	0x3e7feadf	0.2499194
73	0x3e127c43	0.14305215
74	0x3e2631f6	0.16229996
75	0x3ed8b0b9	0.4232233
76	0x3e2d7786	0.16940126
77	0x3e33b406	0.17549142
78	0x3e394a20	0.18094683
79	0x3e3f84eb	0.18703048
80	0x3de2bca8	0.110711396
81	0x3f8e63ee	1.1124246
82	0x3e3b7df1	0.18309762
83	0x3ec21f01	0.3791428
84	0x3e411126	0.18854198
85	0x3e34bcb1	0.17650105
86	0x3e42e4a9	0.1903254
87	0x3d89dc00	0.06731415
88	0x3ee551ac	0.44788873
89	0x3e5eee3e	0.2177057
90	0x3e1cd434	0.15315324
91	0x3dd0f37f	0.10202693
92	0x3e2cab8b	0.16862313
93	0x3d4b6e37	0.049665656
94	0x3eaf2c60	0.34213543
95	0x3ddbaf28	0.10726768
96	0x3cf27dd2	0.029601011
97	0x3e5c429a	0.21509781
98	0x3e0939f9	0.13401021
99	0x3d03ce87	0.03217938
100	0x3e468ab5	0.1938885
101	0x3ec6719a	0.38758546
102	0x3e0b11d8	0.13581026
103	0x3e61b9ba	0.22043505
104	0x3dc16662	0.09443356
105	0x3e0bfbaa	0.13670221
106	0x3e45856a	0.19289175
107	0x3de777b5	0.11302129
108	0x3e3bf9b8	0.18356979
109	0x3e138555	0.14406331
110	0x3d4275e6	0.047475718
111	0x3e8581cd	0.26075593
112	0x3dad2955	0.08455149
113	0x3e84325b	0.25819668
114	0x3e2ca123	0.16858344
115	0x3dd4cedd	0.103910185
116	0xbd573da6	-0.052549027
117	0x3eb833ad	0.35976925
118	0xbdd92ddb	-0.10604449
119	0x3e60a4ad	0.21937819
120	0x3df8f581	0.12156201
121	0x3e3a42a6	0.18189487
122	0x3ea0c9e6	0.31404036
123	0x3e6b4f9a	0.22979584
124	0x3e2001a9	0.15625633
125	0x3e175acb	0.14780729
126	0x3dbfe5a8	0.09369975
127	0x3e3bcfef	0.18341039

net.2.weight f4 [256, 128]
0	0x3f9547a4	1.1662488
1	0xbbb044c1	-0.00537929
2	0x401d5b51	2.4586985
3	0x3eb1596f	0.34638545
4	0x3c99152f	0.018686859
5	0x3f486809	0.78283745
6	0x3f4b3b14	0.7938702
7	0x3fbe51ad	1.4868675
8	0x40336f05	2.803651
9	0x3f11a7cc	0.5689666
10	0x3f6c862a	0.9239222
11	0x3eace720	0.33770084
12	0x3d351dbd	0.044217814
13	0x3e969371	0.29409364
14	0xbdeb79a5	-0.11497811
15	0x3f944bc5	1.1585623
16	0x3f374134	0.7158387
17	0x3e6aaac5	0.22916706
18	0x3f28afa7	0.65893024
19	0x3fc874e6	1.5660675
20	0x3f8f3190	1.1187
21	0x3fdc65e4	1.7218595
22	0x3d95c337	0.07312625
23	0x3f783cd4	0.96967816
24	0x3ef14a7d	0.47127143
25	0x3ec7a4bb	0.38992867
26	0x3f83a747	1.0285424
27	0xbdac0ff7	-0.084014826
28	0x3f202e1b	0.6257035
29	0x3e472eef	0.19451497
30	0x3e4ba3e5	0.1988674
31	0x3f306302	0.68901074
32	0x3f64e51f	0.8941211
33	0x3f52cc22	0.8234273
34	0x3f16ad3d	0.5885809
35	0x3f31005d	0.6914118
36	0x3de9084b	0.11378535
37	0x3fc4faad	1.5389
38	0x3fcc1233	1.5943054
39	0x3d21cd45	0.0395024
40	0xbfc6d26c	-1.5532966
41	0x3ea80489	0.3281596
42	0x3dcd6c09	0.10030372
43	0x3e78f963	0.24313883
44	0x3ee52ecd	0.4476227
45	0x3f1e6314	0.6186993
46	0x3fa22d15	1.2670008
47	0x3fb1029e	1.3828924
48	0x3f678331	0.9043456
49	0x3e6e6c1f	0.23283432
50	0x3f44ead6	0.7692083
51	0x3febc435	1.8419253
52	0x3f6164cd	0.88044435
53	0xbd81e9ba	-0.06343408
54	0x3f4499c7	0.76797146
55	0xbe3f0f36	-0.18658146
56	0xbe8fc347	-0.28078672
57	0xbfd29048	-1.6450281
58	0x3ea03d5d	0.31296816
59	0x3ffa225b	1.9541734
60	0xbe15e1e1	-0.14636947
61	0x4020eb0f	2.5143468
62	0x3ef6b06a	0.48181468
63	0x3f2a0f25	0.6642936
64	0xbd64c5bc	-0.055852637
65	0x3ef0134e	0.46889728
66	0x3f8e5222	1.1118815
67	0x3e5d6c7d	0.21623416
68	0x3f57b0d8	0.8425422
69	0x3f220414	0.6328747
70	0x3da0e36a	0.07855876
71	0x3e8c1208	0.27357507
72	0x3ed6ea73	0.41975746
73	0x3fc8c102	1.5683901
74	0x3eea34e8	0.4574349
75	0x3e51fe29	0.2050711
76	0x3ec76faf	0.38952395
77	0xbeb33412	-0.35000664
78	0x3f960d27	1.1722764
79	0x3e9b6e49	0.30357578
80	0x3f2d8794	0.67785
81	0x3f26b8dc	0.65125823
82	0xbf4beec5	-0.7966121
83	0x3e84cae3	0.2593604
84	0x3f22a782	0.63536847
85	0xbe5eccf7	-0.21757875
86	0x3f2ecbc2	0.6827966
87	0x3fa2c331	1.2715818
88	0xbdc1149c	-0.09427759
89	0x3eeb1005	0.4591066
90	0x3f8fba11	1.1228658
91	0x3f440c8a	0.76581633
92	0x3f47f734	0.7811158
93	0x3fc54bc8	1.5413752
94	0x3f21e300	0.63237
95	0x3f0c6e1d	0.5485552
96	0x3fb2ff17	1.3984097
97	0x3e506b56	0.20353445
98	0x3f35e31d	0.7104967
99	0xbfa76207	-1.307679
100	0xbd262443	-0.040561926
101	0xbe536ba6	-0.20646533
102	0x3fc09024	1.5043988
103	0x3eb665b8	0.3562448
104	0x3edc7b8f	0.43063018
105	0x3f04e2f9	0.5190883
106	0x3f0d8ba3	0.55291194
107	0x3ddc9668	0.10770875
108	0x3fa52efb	1.2904962
109	0x3fd9d7f0	1.7019024
110	0x3ed17878	0.40912223
111	0x3f2b5e23	0.66940516
112	0x3f8f3ffb	1.11914
113	0x3f7d5824	0.98962617
114	0x3f2cb967	0.674704
115	0x3fc8bf0d	1.5683304
116	0x40231c4d	2.5486023
117	0x3e8f3f2b	0.2797788
118	0xbfc2b068	-1.5210085
119	0x3f9194a8	1.1373491
120	0x3f36e331	0.71440417
121	0x3e4436d0	0.19161534
122	0x3eea705b	0.45788845
123	0x3f613a98	0.8798003
124	0x4027c10e	2.6211581
125	0x3e85f4d3	0.2616335
126	0x3fa89348	1.3169947
127	0x3fb442b8	1.4082861
128	0x40175407	2.3645036
129	0x3e49153d	0.19637008
130	0x3f1533ca	0.5828215
131	0xbaebfa10	-0.0018003602
132	0x3f0bf787	0.5467457
133	0x3f160143	0.58595675
134	0xbea99850	-0.33124018
135	0x3f9b00d2	1.2109625
136	0x3eabc462	0.33548266
137	0x3eb6a595	0.35673204
138	0xbdb7e949	-0.089800425
139	0x3e98f109	0.29871395
140	0x3eb6b0a4	0.3568164
141	0x3f81fac1	1.0154649
142	0x3f5450bc	0.8293569
143	0x4002dd94	2.044774
144	0x3f009012	0.50219834
145	0x3f585b07	0.84513897
146	0x3ef08cbe	0.46982378
147	0x3e5efccb	0.2177612
148	0x3fcc0fc0	1.5942307
149	0x3f7723c4	0.9653895
150	0x3f419906	0.7562412
151	0x3f5738f4	0.8407128
152	0x3f2aaff7	0.6667475
153	0x3f2f0097	0.68360275
154	0x3f814c03	1.0101322
155	0x3f017ad6	0.5057806
156	0x3ea8c4d6	0.32962674
157	0x3f0e1ba2	0.55510914
158	0x3e1fff00	0.15624619
159	0x3ff3623a	1.9014351
160	0x3f31fc9c	0.69526076
161	0x3f94a0a1	1.161152
162	0x3f8c8895	1.0979182
163	0x3eb5caeb	0.35506377
164	0x3f9a83bb	1.2071451
165	0x3fa3977d	1.2780606
166	0x3f800051	1.0000097
167	0x3f1d8f49	0.6154676
168	0xbfefbfd3	-1.8730415
169	0x3f14a94d	0.5807083
170	0x3ee9296d	0.45539418
171	0x3f46f7c1	0.7772179
172	0x3f1d6be7	0.6149277
173	0x3f407338	0.7517581
174	0x3ff1302f	1.884283
175	0x3f1cf88a	0.6131674
176	0x3feacab4	1.834311
177	0x3e8f3d7e	0.27976602
178	0x3e47ae74	0.19500142
179	0x3f91e4f1	1.1397992
180	0x3f3ac90c	0.72963023
181	0x3eaf2614	0.3420874
182	0x3f4d33b9	0.8015705
183	0x3f021863	0.5081846
184	0x3f6fab14	0.9362042
185	0xbfee427a	-1.8614037
186	0xbbf99d36	-0.007617618
187	0x3fc73ebf	1.5566024
188	0x3d813518	0.06308955
189	0x3eb8a3f1	0.36062577
190	0x3e8a3ba3	0.26998624
191	0x3efafb65	0.49019924
192	0xbe2b706f	-0.16742109
193	0x3e96274d	0.2932686
194	0x3fcee283	1.6162876
195	0x3ed6643e	0.41873354
196	0x3ffd4c63	1.9788936
197	0xbe9c3b34	-0.30513918
198	0x3f8ce989	1.1008769
199	0x3f53286f	0.8248357
200	0x3f5b2b63	0.8561308
201	0x3ef3f8a2	0.4765063
202	0x3eb01d28	0.34397244
203	0x3ef6b534	0.48185122
204	0x3f6acb0d	0.9171608
205	0x3f2a6c87	0.6657185
206	0x3f1d4ef9	0.6144863
207	0x3f8b6b25	1.0892073
208	0x3f8310ed	1.023954
209	0xbe3b199d	-0.1827149
210	0x3eeedc34	0.46652377
211	0x3ec006fe	0.37505335
212	0x3f36f5ee	0.7146901
213	0x3ebb33e3	0.36563024
214	0x3eb31786	0.34978884
215	0x3f052e30	0.520236
216	0x3f65e460	0.898016
217	0x3f63384c	0.8875778
218	0x3e73cf1e	0.23809478
219	0x3f420c5b	0.758001
220	0x3e3623de	0.1778712
221	0xbebe3b8f	-0.37154815
222	0xbe809404	-0.25112927
223	0x3f1fd3ff	0.62432855
224	0x3f11a6a3	0.5689489
225	0x3f6f1d3e	0.93403995
226	0x3f80f4ac	1.0074668
227	0x3f982ca2	1.1888621
228	0x3f798c08	0.97479296
229	0x3f135ec2	0.57566464
230	0x3fd0a5e3	1.6300625
231	0x3f7e4faa	0.9934031
232	0x3f2bc19e	0.6709231
233	0x3f25720d	0.6462715
234	0x3eebd0af	0.4605765
235	0x3f319ac7	0.69376796
236	0x3e6aa981	0.22916223
237	0x3f7492a4	0.95536256
238	0x3f5b9ec3	0.85789126
239	0x3d0b4c54	0.03400834
240	0x3eeb93ad	0.46011105
241	0x401042f7	2.2540872
242	0x3f9f07c1	1.2424241
243	0x3e4a2dce	0.19744036
244	0xbef1e1bd	-0.47242537
245	0x3e847b2f	0.25875232
246	0xbfe3dd83	-1.7801975
247	0x3fbaf2f7	1.4605397
248	0x3f9bd52f	1.2174433
249	0x3f19e6f4	0.6011803
250	0x3ee80a1e	0.4532022
251	0x3f54cb7e	0.83123004
252	0xbe7e3d5b	-0.24828093
253	0x3f1bd32b	0.6086909
254	0x401694b4	2.352826
255	0x3fe61806	1.7976081

net.2.bias f4 [256]
0	0x3ece7117	0.40320656
1	0x3ea51968	0.32245946
2	0x3e2b514d	0.16730233
3	0x3e9ab4b9	0.30216005
4	0x3e9b04ef	0.30277202
5	0x3ebe483a	0.3716448
6	0xbe89ad31	-0.26889947
7	0x3e9e9487	0.30972692
8	0x3fde1f5f	1.7353324
9	0xbe240b8e	-0.16020033
10	0xbe303606	-0.17208108
11	0x3dcb7a40	0.09935427
12	0x3ea1ec41	0.3162556
13	0x3e73f49f	0.23823784
14	0x3e8465a5	0.258588
15	0x3e7fafe9	0.24969448
16	0x3e9b4c75	0.3033177
17	0x3e8b4789	0.27203014
18	0xbe507956	-0.20358786
19	0x3e50c52d	0.20387717
20	0xbe4c326e	-0.19941112
21	0x3eaf6fca	0.34264976
22	0x3e349518	0.17635
23	0x3dc9cef4	0.09853926
24	0x3ec1626c	0.37770402
25	0x3e807fb0	0.25097418
26	0x3e710788	0.23538029
27	0x3e8ebabe	0.27876848
28	0x3e9050a7	0.28186533
29	0x3eb6c1c8	0.35694718
30	0x3e596449	0.21229662
31	0x3ebf8585	0.37406555
32	0xbe3805b4	-0.17970926
33	0xbe88be24	-0.26707566
34	0x3e931da9	0.28733566
35	0xbe1517df	-0.14559887
36	0x3f0a3b88	0.5399709
37	0xbc7ad9b6	-0.015310695
38	0x3e9931d1	0.2992082
39	0x3e698e53	0.22808199
40	0x3e2a2df3	0.1661909
41	0x3e75b637	0.2399529
42	0x3e4da13b	0.20081036
43	0x3ea82b73	0.3284565
44	0x3e8e8e53	0.2784296
45	0x3ec172ee	0.37782997
46	0x3ea0857a	0.31351835
47	0x3ddfc448	0.109261096
48	0x3e951e6b	0.2912477
49	0x3e919651	0.28434995
50	0xbe70a251	-0.23499419
51	0x3ec4f0b6	0.38464898
52	0xbe7a30fe	-0.24432752
53	0x3eab960c	0.33512914
54	0xbe292b23	-0.16520362
55	0x3e8ccf8b	0.27502093
56	0x3e465475	0.19368155
57	0x3e59449a	0.21217576
58	0xbe879b16	-0.2648551
59	0x3d386bdb	0.045024734
60	0x3e7abefe	0.2448692
61	0x3e962354	0.29323828
62	0x3ee15a4b	0.440142
63	0x3eaae973	0.33381233
64	0x3e54fc56	0.20799384
65	0x3fd5e03f	1.670906
66	0x3ee330fd	0.44373313
67	0x3e4788b2	0.19485739
68	0x3e5bbd10	0.2145884
69	0x3e3843d4	0.17994624
70	0x3ecbd9a7	0.39814493
71	0xbe4c148e	-0.19929716
72	0x3e85c185	0.26124206
73	0x3e62f8bb	0.22165196
74	0xbf2d3af4	-0.6766808
75	0x3eceec0c	0.40414464
76	0x3f055f13	0.52098197
77	0x3f9b62d4	1.2139535
78	0x3eab7747	0.3348944
79	0x3eb3f852	0.3515039
80	0xbe71a5c1	-0.23598386
81	0x3e35601f	0.17712449
82	0xbe3d8fda	-0.18511906
83	0x3e48c064	0.19604641
84	0x3e6a041a	0.22853127
85	0x3e3380d6	0.17529616
86	0x3e27429a	0.16334
87	0x3e539fc1	0.2066641
88	0x3e4f51db	0.20246069
89	0x3f279fb2	0.6547805
90	0x3e8d233c	0.27565944
91	0x3ea4a3c8	0.32156205
92	0x3e1a1315	0.15046342
93	0x3fd62186	1.672898
94	0x3ed2f495	0.41202226
95	0x3e3720b2	0.17883566
96	0x3e0eb569	0.1393639
97	0x3ec92eb9	0.3929346
98	0x3ec778e0	0.38959408
99	0x3eb251b1	0.3482795
100	0xbe02f789	-0.1278974
101	0x3e0fd263	0.140451
102	0x3ebc050f	0.3672261
103	0xbe18ad5c	-0.14909881
104	0x3e60dcfc	0.21959299
105	0x3ee46e04	0.44615185
106	0x3ea89c89	0.32931927
107	0x3ea9deaf	0.33177707
108	0x3eafa0f2	0.3430248
109	0x3e655a7c	0.22397798
110	0x3f072c8a	0.52802336
111	0x3e3f14f1	0.18660332
112	0x3e30cda9	0.17265953
113	0x3e484eea	0.19561353
114	0x3e72d614	0.23714477
115	0xbc292752	-0.010324316
116	0x3e12573c	0.1429109
117	0xbe912b07	-0.2835314
118	0xbeb4958f	-0.35270354
119	0xbd42b865	-0.047539134
120	0x3ecc36b6	0.3988549
121	0x3e576505	0.2103463
122	0xbe4e0268	-0.20118105
123	0x3e9a8dd0	0.3018632
124	0x3ee3b94f	0.44477317
125	0x3ea215f1	0.31657365
126	0x3e3159b1	0.17319371
127	0x3e6a22a3	0.22864775
128	0x3e860f75	0.26183668
129	0x3e92dcec	0.28684175
130	0x3e7c9cf8	0.24669254
131	0x3ebe6337	0.3718507
132	0x3e0fa85b	0.14029066
133	0x3e994222	0.29933268
134	0x3e98a9d9	0.29817083
135	0x3e28a302	0.16468433
136	0x3efce276	0.49391526
137	0x3e7f378a	0.2492353
138	0x3e6bee2f	0.23040079
139	0x3e8856c2	0.2662869
140	0x3ecbc173	0.39796028
141	0x3e9351a0	0.28773212
142	0x3e988c16	0.29794377
143	0x3eafec61	0.3436003
144	0x3e40a6af	0.18813585
145	0x3eb4f744	0.353449
146	0xbe4c8b40	-0.19974995
147	0xbbbd7664	-0.0057819355
148	0x3ed9b299	0.42519072
149	0x3eb170a1	0.34656242
150	0x3ef366c5	0.47539344
151	0x3e07d702	0.13265613
152	0x3e521e67	0.2051941
153	0x3e879ffa	0.2648924
154	0x3e190f37	0.1494721
155	0x3e5fb8b9	0.2184781
156	0x3ec8c062	0.39209276
157	0x3e664a8d	0.22489376
158	0x3eb062a5	0.3445026
159	0x3e79211e	0.2432904
160	0xbe3d11e8	-0.18463862
161	0x3eb10665	0.3457519
162	0x3e99ef41	0.3006535
163	0x3ecfbb8e	0.4057278
164	0x3e8714b6	0.2638299
165	0x3e8dd253	0.27699527
166	0xbda704b5	-0.08155195
167	0x3e555381	0.20832635
168	0x3e962d41	0.293314
169	0xbe869db8	-0.26292205
170	0x3eaa17c2	0.3322125
171	0x3e866fc3	0.26257142
172	0x3fc03a36	1.5017765
173	0x3e7515ca	0.23934093
174	0x3eb56b64	0.35433495
175	0x3dfb581a	0.122726634
176	0x3e874f74	0.26427805
177	0x3e2fc203	0.17163853
178	0x3ea65619	0.32487562
179	0x3e336139	0.17517556
180	0x3e368c87	0.17827044
181	0x3c3def17	0.011592648
182	0x3e447e48	0.19188797
183	0x3e8ce5cf	0.2751908
184	0x3d9f24d6	0.07770698
185	0x3e0b2858	0.13589609
186	0x3f42b9cc	0.76064754
187	0x3e6a9ad2	0.22910622
188	0xbdbfd097	-0.09365957
189	0x3ec4cd0f	0.38437697
190	0xbe4a2eed	-0.19744463
191	0x3e72729e	0.23676535
192	0x3ebd20fb	0.36939225
193	0xbfc59a20	-1.543766
194	0x3eaf1f33	0.3420349
195	0x3e8fb284	0.28065884
196	0x3eaf9274	0.34291422
197	0x3ebe089f	0.37115952
198	0x3ea8906b	0.32922682
199	0x3e8afcc4	0.2714597
200	0x3e9c86dd	0.30571643
201	0xbe744bcf	-0.23857044
202	0x3ea7502b	0.3267835
203	0x3e85da14	0.26142943
204	0x3e9e65bd	0.30936995
205	0xbdea5041	-0.114410885
206	0xbed270b0	-0.411016
207	0x3e90865c	0.28227508
208	0x3e6d113a	0.23151103
209	0x3e70c4f2	0.23512629
210	0x3e829a7a	0.2550848
211	0x3ea21f56	0.31664532
212	0x3e9098df	0.2824163
213	0x3f96b152	1.1772864
214	0x3e8a7eca	0.27049857
215	0x3f2da80a	0.6783453
216	0x3e9f422d	0.31105176
217	0x3e8886a4	0.26665223
218	0x3eacda11	0.3376012
219	0x3ea5c458	0.3237636
220	0x3e51d07d	0.20489688
221	0x3eb35061	0.35022262
222	0x3e75312b	0.23944537
223	0x3e4c749b	0.19966356
224	0x3e8dc0a1	0.27686027
225	0x3e347c16	0.1762546
226	0x3eb45069	0.35217598
227	0x3e10b9ae	0.14133331
228	0x3e931221	0.2872477
229	0x3e69c927	0.2283064
230	0xbe181fbd	-0.14855857
231	0x3e58826e	0.21143505
232	0x3e4dc906	0.20096216
233	0x3e8bf884	0.2733804
234	0xbe260edb	-0.16216604
235	0x3efc1e17	0.49241707
236	0x3e9a5632	0.30143887
237	0x3e60d1cd	0.21955033
238	0x3e8d1120	0.27552128
239	0x3f55315d	0.8327845
240	0x3e7e8f8e	0.2485945
241	0x3e57c108	0.2106973
242	0xbe65ae78	-0.22429836
243	0x3e8bcbe8	0.27304006
244	0x3e89c6ee	0.26909584
245	0x3ee1d3d7	0.44106933
246	0x3e9da143	0.30787095
247	0x3e74ee68	0.2391907
248	0xbdba41cf	-0.09094583
249	0xbe771fb5	-0.24133189
250	0x3eadf051	0.3397241
251	0xbd78ed69	-0.060773287
252	0x3e972eb2	0.29527813
253	0x3e5fa82f	0.218415
254	0x3ed71b70	0.4201312
255	0x3efbee24	0.49205124

net.4.weight f4 [27, 256]
0	0x3e6f3e9a	0.23363724
1	0x3f00b433	0.5027496
2	0x3f0232ea	0.5085894
3	0x3edd422c	0.43214548
4	0x3ee46e88	0.4461558
5	0x3ef0f73a	0.4706362
6	0x3f0ff3c6	0.56231344
7	0x3f001e10	0.5004587
8	0xbf8ca9d1	-1.0989324
9	0x3f1167aa	0.56798804
10	0x3f0ad50a	0.5423132
11	0x3f116078	0.56787825
12	0x3f076f79	0.5290447
13	0x3ec81574	0.39078867
14	0x3ee1555f	0.44010445
15	0x3ed61d6e	0.41819328
16	0x3ee0059d	0.43754283
17	0x3ef11137	0.47083446
18	0x3efe0699	0.4961441
19	0x3ee8f238	0.45497298
20	0x3f180920	0.59388924
21	0x3eab8301	0.33498386
22	0x3eef95b9	0.46793917
23	0x3f0dc779	0.55382496
24	0x3ec27403	0.37979135
25	0x3eeb34c8	0.45938706
26	0x3ef3f120	0.476449
27	0x3eb32934	0.34992373
28	0x3eb0fbef	0.3456721
29	0x3ed18a75	0.40925947
30	0x3ef172de	0.4715795
31	0x3ebeb585	0.37247863
32	0x3f164302	0.58695996
33	0x3efdb03d	0.49548522
34	0x3ed3ce6a	0.4136842
35	0x3eeea10b	0.4660724
36	0x3ed511a9	0.41615036
37	0xbd578450	-0.052616417
38	0x3ee1e9db	0.4412373
39	0x3ef30024	0.47461045
40	0x3f0189cb	0.5060088
41	0x3ecb5cb6	0.3971917
42	0x3effe232	0.4997726
43	0x3ed81bbb	0.42208657
44	0x3ed330fd	0.41248313
45	0x3ee51a28	0.44746518
46	0xbda3f12c	-0.08004984
47	0x3ef1bca3	0.4721423
48	0x3edf455b	0.43607602
49	0x3ed6d7ff	0.41961667
50	0x3f10aada	0.565107
51	0x3eece037	0.46264812
52	0x3f147c03	0.58001727
53	0x3f77f13f	0.9685249
54	0x3f0e8c41	0.5568276
55	0x3ef296c1	0.4738064
56	0x3ec717cf	0.38885352
57	0x3ef11724	0.47087967
58	0x3efa7330	0.48916006
59	0x3e9f2045	0.31079307
60	0x3ee217e0	0.4415884
61	0x3ee16a52	0.44026428
62	0x3f08b445	0.5340007
63	0x3eda1251	0.425921
64	0x3ee26049	0.44214085
65	0xbf82f189	-1.0229961
66	0x3ea8d210	0.32972765
67	0x3ef764cd	0.48319092
68	0x3ec0e80c	0.37677038
69	0x3f03b0a5	0.51441413
70	0x3ebfdde8	0.3747399
71	0x3ee84527	0.4536526
72	0x3ee8d03d	0.45471373
73	0x3eb36f44	0.35045826
74	0x3f25d078	0.64771223
75	0x3ef4eaec	0.4783548
76	0x3e1109d2	0.14163902
77	0xbf0b51ab	-0.5442149
78	0x3ec6202c	0.3869642
79	0x3ebc1b0e	0.3673939
80	0x3f0c2481	0.547432
81	0x3ecf4e8f	0.40489623
82	0x3f0a2eec	0.5397785
83	0x3ecce38a	0.4001735
84	0x3ebffb65	0.37496486
85	0x3ec8b840	0.39203072
86	0x3ef66c17	0.4812934
87	0x3eeba690	0.46025515
88	0x3eee9a98	0.4660232
89	0xbf46444b	-0.77447957
90	0x3f0d4b90	0.55193424
91	0x3e9743d4	0.29543936
92	0x3eefeba4	0.46859467
93	0xbf802121	-1.001011
94	0x3ecdd48e	0.4020123
95	0x3e35d518	0.1775707
96	0x3f089c7c	0.53363776
97	0x3da64a04	0.08119586
98	0x3e4a4201	0.19751741
99	0x3ecf01d3	0.4043108
100	0x3eebbf24	0.46044266
101	0x3eb4b15d	0.35291567
102	0x3f04f483	0.51935595
103	0x3ee98cb1	0.45615152
104	0x3ed494b4	0.415197
105	0x3e86a3d1	0.26296857
106	0x3edf31e6	0.43592757
107	0x3ed2a6c2	0.4114285
108	0x3ee56842	0.44806105
109	0x3ee4c3b6	0.44680566
110	0xbe32fdf7	-0.17479692
111	0x3ef00238	0.46876693
112	0x3ed2320c	0.41053808
113	0x3f08e0c3	0.5346796
114	0x3f029467	0.51007694
115	0xbc580ff8	-0.013187401
116	0x3ee52e46	0.44761866
117	0x3ef1b4ae	0.4720816
118	0x3f2b1e57	0.6684317
119	0x3ef8b268	0.48573613
120	0xbe223836	-0.15841755
121	0x3e92cc0f	0.2867131
122	0x3f148c49	0.5802656
123	0x3ec9c0ae	0.39404815
124	0x3eafde99	0.34349516
125	0x3ebccab3	0.36873397
126	0x3ef5cb3b	0.48006615
127	0x3edbd77b	0.42937836
128	0x3ec34dba	0.38145238
129	0x3ec764b0	0.38944006
130	0x3eaacfc1	0.3336163
131	0x3edd4c12	0.432221
132	0x3ee20da8	0.44151044
133	0x3ef437ee	0.4769892
134	0x3e83760d	0.25676003
135	0x3ebd150a	0.36930114
136	0x3e8dffd9	0.2773426
137	0x3f024d33	0.50899047
138	0x3ef81f91	0.48461583
139	0x3ef01e65	0.4689819
140	0x3edc73d6	0.43057126
141	0x3e7ce677	0.2469729
142	0x3eb7344a	0.3578208
143	0x3ed2476a	0.4107011
144	0x3ef69456	0.48160046
145	0x3f06e053	0.5268604
146	0x3f03ae81	0.51438147
147	0x3ea3ae25	0.319688
148	0x3efc7780	0.4930992
149	0x3eda1bd1	0.42599347
150	0x3f3d3641	0.7391091
151	0x3eba91bd	0.36439314
152	0x3ebdd797	0.37078544
153	0x3ed407ed	0.41412297
154	0x3ec3b693	0.3822523
155	0x3eec5a9f	0.46162888
156	0x3edeff66	0.4355423
157	0x3eff6ad7	0.498862
158	0x3eca1e5d	0.3947629
159	0x3ec874ff	0.3915176
160	0x3f09111b	0.53541726
161	0x3ec4c56d	0.38431874
162	0x3eb814aa	0.35953265
163	0x3eb18405	0.34671035
164	0x3edb0968	0.42780614
165	0x3ef2268c	0.47295034
166	0x3f12a01a	0.57275546
167	0x3efaa220	0.48951817
168	0x3ef310ae	0.47473663
169	0x3eee7425	0.46572986
170	0x3ed0d270	0.4078555
171	0x3efd6482	0.49490744
172	0xbf91f436	-1.1402652
173	0x3fd54442	1.6661456
174	0x3ec41c8f	0.38303038
175	0x3f96a042	1.1767657
176	0x3ee50938	0.44733596
177	0x3f0263f8	0.5093379
178	0x3ed7718e	0.42078823
179	0x3eea766a	0.45793468
180	0x3ee4a7ce	0.44659275
181	0x3fa62f41	1.2983171
182	0x3ee41ee6	0.44554824
183	0x3ebbfe9d	0.36717692
184	0x3ee9b1e4	0.45643532
185	0x3ecbfd1e	0.3984155
186	0xbf5c0d2b	-0.8595759
187	0x3ee41e50	0.44554377
188	0x3ef9ec24	0.48812973
189	0x3e757b26	0.23972759
190	0x3f0f23d2	0.5591403
191	0x3efe1b45	0.4963018
192	0x3eb71ed6	0.35765713
193	0x3e75e40f	0.24012779
194	0x3eca93e7	0.39565966
195	0x3e92e59f	0.28690812
196	0x3ef41a50	0.47676325
197	0x3ef15978	0.47138572
198	0x3ee21ce1	0.44162658
199	0x3ee7a5a2	0.45243555
200	0x3edda4cb	0.4328979
201	0x3f0e74d7	0.55647033
202	0x3ede75d7	0.4344928
203	0x3eff179c	0.498227
204	0x3ef92219	0.48658827
205	0x3eff5034	0.49865878
206	0x3f03a303	0.5142061
207	0x3f025b8b	0.50920933
208	0x3ec2012a	0.37891513
209	0x3ec3473d	0.38140288
210	0x3ee52ce8	0.44760823
211	0x3ee1b8c6	0.44086283
212	0x3ee9d3f7	0.4566953
213	0xbf5052ed	-0.81376535
214	0x3ed47e24	0.41502488
215	0xbdd6da62	-0.10490872
216	0x3ee16d27	0.4402859
217	0x3ee0bb19	0.43892744
218	0x3eb04621	0.34428504
219	0x3eba19b2	0.3634773
220	0x3ed7b190	0.42127657
221	0x3ec031d8	0.37538028
222	0x3f01eeb5	0.50754863
223	0x3ee213b3	0.44155654
224	0x3eaed868	0.3414948
225	0x3f02ee77	0.5114512
226	0x3eca5d18	0.3952415
227	0x3f9b5787	1.2136086
228	0x3e996101	0.2995682
229	0x3ef3057e	0.47465128
230	0x3f06e4f2	0.5269309
231	0x3f00b993	0.50283164
232	0x3ed08c36	0.40731972
233	0x3ee5173e	0.44744295
234	0x3ef28fee	0.47375435
235	0x3d012de7	0.031537917
236	0x3edaf18b	0.42762408
237	0x3ec9007c	0.39258182
238	0x3eceb028	0.40368772
239	0xbe19b328	-0.15009749
240	0x3ec9f32c	0.39443338
241	0x3f0432fb	0.5164029
242	0x3f1acdbe	0.6047019
243	0x3ec68452	0.38772827
244	0x3ed5bb92	0.41744667
245	0x3eb4adbf	0.35288808
246	0x3ef24f01	0.473259
247	0x3ec463b0	0.38357306
248	0x3f800cb8	1.0003881
249	0x3f125007	0.5715336
250	0x3ec92360	0.392848
251	0x3ef84a36	0.48494118
252	0x3edb2cef	0.4280772
253	0x3ee7f579	0.45304468
254	0x3ee46544	0.4460851
255	0xbd9d3736	-0.07676546

net.4.bias f4 [27]
0	0xbd05ee1b	-0.03269778
1	0x3e2a277f	0.16616629
2	0xbd584901	-0.052803997
3	0x3d000d69	0.03126279
4	0x3d4d7f15	0.050170023
5	0x3df37bdb	0.11888858
6	0x3d238fa7	0.03993192
7	0x3e457311	0.19282176
8	0xbd8ef972	-0.06981172
9	0x3eced935	0.4040009
10	0x3d946d05	0.07247356
11	0x3e13e427	0.14442502
12	0x3c0bc941	0.008531869
13	0x3e40f4ab	0.18843333
14	0x3d9a0d38	0.075220525
15	0x3dadb606	0.08481984
16	0xbd23354f	-0.03984576
17	0xbd2bec53	-0.041973423
18	0x3e887988	0.2665522
19	0x3f05f48c	0.52326274
20	0x3eeb1be7	0.45919725
21	0x3d0053d3	0.03132994
22	0x3d998dd8	0.07497758
23	0x3e08a604	0.1334458
24	0x3bfb5dca	0.0076710926
25	0x3e16ea74	0.14737874
26	0x3cce3a6a	0.025174338
