model/dqn_policy_net_episode_1120.pt (torch, 334295 bytes, 6 tensors)

net.0.weight f4 [128, 336]
00000000: 9573 c73d 9ce7 18be 8a49 413d 7d60 383d
00000010: d6b6 a93c 0087 3ebe 139b 8abc 452b 8abd
00000020: e584 263e 37fe bbbd da23 fb3a 01c1 d1bd
00000030: 71cd 23bd b1aa 2eba 96a2 8dbd 7507 91bc
00000040: ee62 efbd 7784 55bc de3f 5b3d bba0 18be
00000050: 2953 9e3d 54b8 123e 6cd0 e2bd 2e01 88ba
00000060: d6ea 27be e143 34bd ec66 f5bc e20b 09bd
00000070: 2f68 6b3b 1717 623d 2952 ae3c b157 e93d
00000080: bc04 cabe 4502 edbc ba8f 2c3d e47b eebc
00000090: 2277 6d3d 2956 cb3d c650 7e3d 9630 9fbd
000000a0: ec6e 81bd d787 70bd fc0b f1bc f671 6c3c
000000b0: 9929 90bd 265d 1f3e 733b 29be 54f5 ae3d
000000c0: 723d c8bd aebf 453e 73d8 ec3c ac9d 6abd
000000d0: 132b 97bc 20a6 a83d c8d2 b23d 4613 853c
000000e0: 1fc2 433e d2db 74bc c81d 2abc 19da 98bd
000000f0: 70a2 4b3d a84b 74bd 3871 00be ae6f 60bc
00000100: d198 c6bd 0dc8 8b3c 6b8e cbbb 1c9c 52bd
00000110: d242 8abd 02ce 8b3d a7a5 b6bd 4c0d b1bd
00000120: 9270 0fbe c5f8 a13d 0651 113e d85c 033e
00000130: 9cc9 adbc 24d7 663c 1cd3 53be 9dee 4f3d
00000140: d2a1 583e 8e93 e0bd 0c60 c03d 81c6 94bc
00000150: 359d 5cbe 6bcc 11bd 5a68 34bd d046 bcbd
00000160: a8e4 843d 2c21 d8bd 1458 0b3d c03e 93bd
00000170: bb95 263d 3ee0 c7bd d20a e23c b868 02bd
00000180: 017c 8a3e e380 d1bd 9742 a83d 0140 5fbd
00000190: 28ce 53bd 92b9 f63c 5fe1 dcbd 9858 3f3c
000001a0: 81e9 33bf 8440 cd3d 932b 2f3e dbb0 043d
000001b0: 8186 6e3e f29f 2b3e 7f5b 20bd b64a 8a3d
000001c0: 5d52 c23d 613b f9bc 6a69 013e 7ebd 44bd
000001d0: b9de 7dbd 9104 d9bd 8604 12bd 5657 433d
000001e0: 7e50 94bf 6194 d03d aa8d 3c3d ce64 02bd
000001f0: 94d8 9d3d 7103 aa3d 2241 4a3d be0a 6cbc
00000200: b61a a83e 0772 ffbd bd1a a2bd e764 f9bd
00000210: dcde 7fbe 2585 1fbd ce7b 9fbd b56e 483d
00000220: 4722 c4be b1ac 6e3d 3baf 7abd 2cae f0bb
00000230: d7a8 72bd e302 423d 5b4e 283e 631c 183d
00000240: 5e06 c43e 6793 93bc 9e83 8c3c 4dd1 8cbe
00000250: 36a1 773d eef7 e2bb 1d1b 56bd 6c84 c6bd
00000260: 4243 ed3d f2e2 e0bd e5e7 aebb c52d 2fbd
00000270: e1ed 42bd c567 ba3d 1fdc c5ba 4369 62bd
00000280: 8393 d83c 2e34 a6bd d383 dcbc 6721 e63d
00000290: 03dc 49bb a445 94bd dab5 cbbd e322 6b3a
000002a0: f3e9 183f 0979 48be 7126 bfbd b1db c8bd
000002b0: de64 4abe 2c37 30be 86c3 17be 7af6 c8bd
000002c0: fc00 e53e 15bc 183e 6648 90bd a2c2 4abe
000002d0: b841 f73c ab49 ecbd 1f94 143d 0793 e2bd
000002e0: fb58 493f fa53 9f3d 3994 a6bd 93c6 d1bd
000002f0: 3fb7 41bd bae5 1abe 8b57 24bd 0c4a 733d
00000300: 6896 52bf 236d 013e c50c d43d 9328 1f3e
00000310: bac3 3f3e 7cc4 b03e 5a93 823e 904e 843e
00000320: 5170 2e3f 3b46 51bd fdb1 a23b a8c0 c7bd
00000330: 4206 7e3d c0fe 70be 3e9d 3cbe 000e 3a3e
00000340: cade d8bf 1117 953e 477e 9e3e aa26 c53e
00000350: f7bc 793e 097b 993e d01c 013e e0c4 4c3e
00000360: d40b 2b3f 2eb4 c0bd 8eef c1bb 9b10 8bbd
00000370: 8d61 afbd c17a 17be f5cc 05be 6037 823d
00000380: 6d11 2bbf 11a9 8d3e 97fe 433e d6e3 983e
00000390: dfcb 083e 8b9a 663e dcee 90be ccf8 3f3e
000003a0: 5a7e 213f 2a94 0c3e 6722 8bbd ff39 01be
000003b0: a74d 3f3d effd 9ebd 88b6 5a3d 0003 2cbd
000003c0: 064c 303f 0f78 5c3d df69 c63d 67fd 05bc
000003d0: dee5 19bc ee3d b2bd 6999 26be 371a 19be
000003e0: e9fc 67bf b332 9d3e f31c 113d 4e37 933e
000003f0: 73aa df3d 042c ab3e 7dfb a63c 2d05 dd3e
0.097388424 -0.14932102 0.047189273 0.045013893 0.020717066 -0.18606186 -0.016919648 -0.06746534
0.16261633 -0.09179347 0.0019160465 -0.10241891 -0.039990846 -0.0006663008 -0.069157764 -0.017703751
-0.11688791 -0.01303207 0.053527705 -0.14905064 0.07730705 0.14328128 -0.110749096 -0.0010376328
-0.16398177 -0.044010047 -0.029956304 -0.033458598 0.0035920253 0.0551978 0.021279411 0.11393679
-0.39456737 -0.028931746 0.042129256 -0.02911181 0.057974942 0.09928543 0.06208875 -0.07772939
-0.06319985 -0.058723297 -0.02942466 0.014431467 -0.07039184 0.15562877 -0.16526584 0.085428864
-0.09777345 0.19311401 0.028911805 -0.057279274 -0.018453157 0.08234811 0.087316096 0.016244542
0.1911702 -0.014944987 -0.010383077 -0.07463474 0.04971546 -0.059642464 -0.1254319 -0.0136985015
-0.09697116 0.017063165 -0.006212046 -0.05141841 -0.06751026 0.06826402 -0.089183144 -0.08645114
-0.14007786 0.07908777 0.14191064 0.12828386 -0.021214299 0.014089379 -0.20686 0.05076467
0.2115548 -0.10965644 0.093933195 -0.01816106 -0.21544345 -0.03559534 -0.04404483 -0.09193194
0.06488925 -0.10553202 0.034019545 -0.07189703 0.040670138 -0.09759568 0.02759305 -0.03183815
0.27047732 -0.10229661 0.08215826 -0.0545044 -0.051710278 0.030117784 -0.107851736 0.011678837
-0.70278174 0.10022071 0.17106466 0.032395225 0.23293497 0.16760233 -0.039149757 0.06752531
0.09488366 -0.030423822 0.12637869 -0.048032276 -0.061979983 -0.10596574 -0.035648845 0.047690712
-1.1587064 0.10184551 0.04603354 -0.031834416 0.077073246 0.08301438 0.04937852 -0.014406858
0.3283288 -0.12472921 -0.07915256 -0.12177449 -0.24987358 -0.038945336 -0.07787286 0.048933703
-0.38307402 0.05827016 -0.06120227 -0.0073449817 -0.05924305 0.047366034 0.1643614 0.037136447
0.38286108 -0.018014623 0.017152604 -0.27503434 0.060456477 -0.006926528 -0.05227195 -0.09693226
0.11585094 -0.109807864 -0.0053377026 -0.04276826 -0.04759014 0.09101824 -0.0015095508 -0.055276167
0.026437527 -0.08115421 -0.026918327 0.1123684 -0.0030801303 -0.072398454 -0.09946795 0.0008969737
0.5973198 -0.19577421 -0.09333504 -0.09807528 -0.1976504 -0.17208546 -0.1482068 -0.09812637
0.44727314 0.14915498 -0.07045059 -0.19800809 0.030182704 -0.115374885 0.03627407 -0.110631995
0.786514 0.07779689 -0.0813374 -0.10242953 -0.047293898 -0.15126696 -0.04012255 0.05939679
-0.8226075 0.12639289 0.10353998 0.15542822 0.18727008 0.34524906 0.25503045 0.25841188
0.6814013 -0.051092368 0.0049650655 -0.09753543 0.062017687 -0.2353468 -0.18419358 0.18169403
-1.694299 0.2911916 0.30955717 0.3850606 0.2438849 0.2997668 0.12608647 0.19996977
0.66814923 -0.094093665 -0.0059184497 -0.067902766 -0.08563528 -0.1479292 -0.13066466 0.06358218
-0.66823465 0.2766805 0.19140087 0.29861325 0.1335902 0.22519891 -0.28307235 0.18747252
0.6308342 0.13728395 -0.06793671 -0.1261978 0.046704914 -0.07763278 0.05339673 -0.04199505
0.68866 0.053825434 0.09688162 -0.008178092 -0.0093931835 -0.087032184 -0.16269459 -0.14951406
-0.90620285 0.30702743 0.035428 0.28753132 0.109211825 0.3343202 0.02038359 0.4316801

net.0.bias f4 [128]
00000000: fefd 043e 23a0 043e 8511 a83d 58d9 ce3d
00000010: 8afa 4e3e 5aab 363d 8727 cf3e 5ecf 3e3e
00000020: 6682 04bb 8e1d 363e f51d f83d f1b2 533d
00000030: 3140 e53d 5ef0 bd3d f7e6 e63d ba1a f33d
00000040: f5ef 803d 70f3 3a3e 8092 0d3e 908d 9d3d
00000050: 5748 cc3d 54e8 643d 1497 853e 474d eb3d
00000060: 32c4 2d3e b374 0b3e e696 fa3d 272d 2e3e
00000070: b393 dd3d c434 b83e bfbb 383e 319d e63d
00000080: 788b 103e 3afa b43d 7083 fd3d 9da8 923d
00000090: 28d5 cc3d 1f3d 303e 38ea 4c3e f004 063e
000000a0: d9b8 64bd fd6f 983d 5644 6f3d 845b dd3d
000000b0: bcfe 993d 9f35 173e fd36 cc3d 6f88 3c3e
000000c0: 570c 093e 67e8 143e 9a5c b03c bf3f fd3d
000000d0: ad73 543d 1e6b a23d 736c f73d 1d70 e63d
000000e0: 9a0a fb3d 145b 1ebd 3ab8 563e 16bd d13d
000000f0: 23dd 103e 846a ed3d 8b58 1e3d 9e52 f73d
00000100: 54b7 103e 2e27 193e a284 783e 4f26 d93d
00000110: 5b51 df3d 589e 0c3d 0da1 1a3e 44e7 353e
00000120: 072b 3f3e 2de7 003e b1cc 003e 96cf 9c3e
00000130: 8a62 0f3e 9a92 263e 77f1 163e 46c0 023e
00000140: 0bb7 a43d 94e8 6c3f 8176 2a3e 9e37 8c3e
00000150: 38e7 1a3e dfc6 0d3e 95f8 333e 31a8 e53c
00000160: 3899 af3e 1162 113e ae98 f03d cd55 883d
00000170: 0c06 173e f58c 873c 4611 6f3e 2832 bc3d
00000180: 41f5 123c 8ecf 263e 2889 ce3d c1a0 a23d
00000190: 1abf 223e f2df 943e 037d ac3d 00ab 3a3e
000001a0: f18c 8f3d 3ab9 db3d c0ed 0c3e a87c 983d
000001b0: b759 d83d be0f 043e aba9 a83c 45b1 2a3e
000001c0: 9ddb 3e3d a7b0 403e fc61 093e 89dc 8b3d
000001d0: 17b3 0ebd d6d4 7e3e 01b8 a5bd f83b 433e
000001e0: 1c0c e13d fac1 153e ea16 573e 6719 403e
000001f0: 4078 203e d769 b93d d393 923d 6608 fe3d
0.12987515 0.12951712 0.082064666 0.10100049 0.2021276 0.044597007 0.40459844 0.18633792
-0.0020219325 0.17784712 0.12115089 0.051684324 0.11193884 0.09274362 0.11274522 0.11870332
0.06295768 0.18256927 0.13825417 0.076930165 0.09974735 0.055885628 0.26091826 0.11489349
0.16969374 0.13618736 0.12235813 0.17009412 0.10819187 0.35977757 0.1804037 0.11260451
0.14115703 0.088367894 0.12378585 0.07161067 0.10001594 0.17210816 0.20011222 0.13087821
-0.055840347 0.07443235 0.05841478 0.10808471 0.0751929 0.14766549 0.09971426 0.1841142
0.13383614 0.1454178 0.02152853 0.12365674 0.05186813 0.07930587 0.12081232 0.11251853
0.122578815 -0.038661078 0.20968714 0.102411434 0.14146857 0.11592582 0.03865866 0.12076305
0.14132434 0.14956352 0.24269345 0.1060301 0.10904189 0.034330696 0.15100498 0.17764002
0.18668757 0.12588187 0.12578084 0.30627126 0.14002433 0.16266862 0.14740549 0.12768659
0.08042725 0.92542386 0.16646768 0.27386183 0.15127265 0.13845395 0.17575295 0.028034301
0.34296584 0.14197566 0.11747871 0.0665699 0.147484 0.016546706 0.23346433 0.09189254
0.008969606 0.16290113 0.10084754 0.079408176 0.15893212 0.29077107 0.084222816 0.18229294
0.07009304 0.107286885 0.1376257 0.07445651 0.10563987 0.1289663 0.020588716 0.16669185
0.04659616 0.18817388 0.13416284 0.06829173 -0.034838762 0.24885878 -0.080917366 0.19065845
0.10988638 0.14624777 0.21004835 0.1875969 0.15670872 0.090533905 0.071571015 0.124039456

net.2.weight f4 [256, 128]
00000000: 4548 963f 4dbf 643d c026 0640 20a7 c13e
00000010: 8b5f 6ebd ce06 123f 20c9 353f 7131 d83f
00000020: 1dd8 2940 d574 113f 6f8e 5b3f 9dc6 a53e
00000030: a5bb 243d 44b6 1c3e c0d0 65be 5f08 753f
00000040: b88e 1a3f 0c56 473d 4e60 0a3f 22ed cb3f
00000050: 8b01 943f b9c3 e33f 76a0 d7ba c4dd 4a3f
00000060: 3d12 d03e 82f4 5e3e 9881 5f3f 8029 1bbe
00000070: 9bd3 ed3e 5c84 f73d 0d40 4a3e 53ed 2d3f
00000080: f0c8 4d3f b32f 0e3f 3997 ee3e cdde 2d3f
00000090: 5967 eabd 240e ac3f f24d b63f 55ea f63c
000000a0: 9e3b 81bf 4750 953e e61f db3d 3201 033e
000000b0: 2ac6 a13e bd9b e23e e18c 8c3f e8cb 933f
000000c0: 77b3 433f c4c7 513e e98a 433f f10e d03f
000000d0: fa3f 173f 6b78 233d a3de 1e3f 7f68 6cbe
000000e0: d4ee b0be 4e3e 81bf be34 a43e aa56 cb3f
000000f0: 45a8 febc 8ba0 1340 ec5d c43e 8ed4 0b3f
00000100: e83c f43c 094c 023f 802d 8a3f 78d1 e23d
00000110: 9379 853f 96fb fa3e a261 36be c03d 213e
00000120: 7596 9c3e 8bef 9b3f b0ae ee3e 3e26 1b3e
00000130: 3ea9 ae3e 58f6 aebe 6d22 5b3f cf2c 8c3e
00000140: b40c 283f 26d6 0e3f 60e3 22bf ef3f 383e
00000150: e48d fb3e d50d 84be 990b 373f 14af 5f3f
00000160: ef1b 3cbe cd1d 673e 6275 5c3f d793 243f
00000170: 6924 463f 7fc9 b73f 280e 153f f59a 043f
00000180: e30c 783f 0b48 b63d f56d f93e 4ca5 85bf
00000190: b78b 02be 7d59 7fbe 9878 bf3f aedd a83e
000001a0: 3c4d 673e 5ef1 c43e 0fa9 093f de80 043d
000001b0: 0b17 943f e86a cb3f 8293 9a3e c3a4 1f3f
000001c0: c55c 433f 4e99 533f 04fd 113f bdda 943f
000001d0: ce68 fd3f 6817 663e 25ec 86bf 9b0e 603f
000001e0: 7c7f ac3e 9580 013d afef ba3e cc22 213f
000001f0: b712 1640 ef90 0c3e 2c51 963f 0cf2 b93f
00000200: b5e3 1240 fc11 3d3e 6769 293f bf0c 83bd
00000210: ebe6 fe3e 938a 1f3f cfda cbbe 1031 8c3f
00000220: 6293 8d3e 0f94 9e3e 2a03 33be 5ca0 253e
00000230: 7bdb ad3e 3852 643f 070d 4c3f 4fe2 a13f
00000240: d436 cc3e af41 523f b7d2 9e3e 6e90 113e
00000250: fa5e c63f 8895 793f 7912 333f 9bf5 4a3f
00000260: e08c 1e3f df90 083f 714c 693f ee42 ec3e
00000270: 7f3c 883e 90a7 fd3e c4f3 ee3d bc33 e33f
00000280: 0b6e ff3e 9764 703f d1ea 373f 51d2 763e
00000290: ed77 853f 0c7d 993f d64d 803f f1d7 1e3f
000002a0: 2a97 a2bf 8808 f53e e246 d83e 9e00 403f
000002b0: c26c 1b3f 491d 333f fc3e ec3f 8674 213f
000002c0: b0da de3f c44f 7c3e ae79 c43c 4a92 5b3f
000002d0: 6966 353f 40e1 a53e 6ef4 303f 0d61 053f
000002e0: 1b0f 6a3f 95a8 97bf 3242 3abd 63a6 b83f
000002f0: d7e3 463d 819e a63e a4e1 1f3e df67 fe3e
00000300: 1ad1 16be 2c03 133e 9a91 b93f 7371 ab3e
00000310: 1939 e53f b29f d7be abd2 6e3f f71d 473f
00000320: 004e 5c3f 33b6 9d3e 536d 123e e426 da3e
00000330: e549 683f 8e1f 213f 56cf 203f a7ba 803f
00000340: 468d 593f 6c80 85be 44f4 ef3e 85ac a33e
00000350: 66eb 3c3f 4963 c83e 01bb 313e 5bc7 dd3e
00000360: 887d 583f cd7b 3c3f e54d 173d 5400 d93e
00000370: 8d53 f53c fdea 15bf 11f5 99be 039e d73e
00000380: fe9d 5fbd 7ab7 733f 893a 563f 9e25 8c3f
00000390: 04d4 6f3f 5ab0 063f 4151 c93f fa25 4f3f
000003a0: e232 1b3f 9a80 d63e d05b 983e dba9 2f3f
000003b0: 5092 b93c 83ad 6a3f 4a88 5e3f 290f b6bb
000003c0: 764d c33d 2edb ee3f 2a75 593f 1b92 01be
000003d0: 5af5 53bf 501d 513e 45a3 a1bf 946c 8d3f
000003e0: 603e 843f be17 0e3f 5b45 c53e 02c6 183f
000003f0: d5f3 51bd b543 053f ebb9 1440 05ca da3f
1.1740805 0.0558465 2.096115 0.3782282 -0.058196586 0.57041633 0.7101002 1.6890088
2.6538155 0.56818897 0.8576421 0.32378092 0.040218014 0.15303904 -0.22442913 0.957159
0.6037402 0.048666045 0.540532 1.5931742 1.1562971 1.7794105 -0.0016451019 0.7924464
0.40638915 0.2177296 0.8730712 -0.1515255 0.46450505 0.120857924 0.19750996 0.67940253
0.8038473 0.55541533 0.4659975 0.6791809 -0.11445493 1.3441815 1.4242537 0.030141035
-1.0096319 0.2916281 0.106994435 0.12793425 0.315965 0.44259444 1.0980493 1.1546602
0.76445717 0.20486361 0.76383835 1.625456 0.59081995 0.03990976 0.62058467 -0.23086737
-0.3455721 -1.0097139 0.3207149 1.5885823 -0.031086097 2.3066738 0.38352907 0.5462121
0.029814199 0.5089727 1.0795135 0.11075109 1.0427727 0.4902007 -0.17810681 0.15746212
0.3058354 1.2182478 0.4661765 0.15151307 0.34113497 -0.3417232 0.85599405 0.27377936
0.65644383 0.55795515 -0.63628197 0.17993139 0.4913169 -0.25791803 0.7150207 0.87376523
-0.18370031 0.22569962 0.8611661 0.64288086 0.7739931 1.4358367 0.58224726 0.51798946
0.96894664 0.0890046 0.48716703 -1.044107 -0.1274861 -0.24936481 1.4958677 0.32981628
0.22588056 0.384654 0.5377359 0.03234946 1.1569532 1.5892 0.30190665 0.6236078
0.7631343 0.826558 0.57026696 1.1629254 1.9797609 0.22469866 -1.0540816 0.87522286
0.33691013 0.031616766 0.3651099 0.6294372 2.3448923 0.13727163 1.1743522 1.4526992
2.2951481 0.18463892 0.66176456 -0.063989155 0.4978555 0.6232082 -0.39815375 1.0952473
0.27651507 0.30972335 -0.17481676 0.16174453 0.33956513 0.89187956 0.7970738 1.2647189
0.3988558 0.82131475 0.31020138 0.14215252 1.5497735 0.9749379 0.6995006 0.79281014
0.6193371 0.53346056 0.91132265 0.46144813 0.26608655 0.49541903 0.11667588 1.7750163
0.49888644 0.9390349 0.71842676 0.24103667 1.0427223 1.1991286 1.0023754 0.6204825
-1.2702382 0.4785807 0.4224158 0.7500094 0.60712826 0.6996656 1.8456721 0.63068426
1.7410488 0.24639803 0.023983803 0.85770094 0.7085939 0.32398415 0.6912297 0.5210121
0.914293 -1.1848322 -0.045473285 1.4425777 0.04855713 0.32542804 0.15613419 0.49688622
-0.14728203 0.14356679 1.4497559 0.33484992 1.790805 -0.42114025 0.93290204 0.777801
0.8605652 0.3080307 0.14299516 0.42607796 0.90737754 0.62938774 0.6281637 1.0056962
0.8498119 -0.2607454 0.46866047 0.3196756 0.7379669 0.3913825 0.17356493 0.4331616
0.84566545 0.73626405 0.03693952 0.42383063 0.029947067 -0.5856169 -0.30069783 0.4211274
-0.054594032 0.9520184 0.8368307 1.094898 0.93682885 0.5261284 1.5727922 0.8091732
0.60624516 0.4189499 0.29757547 0.68618554 0.022652775 0.9167101 0.8692671 -0.0055560065
0.09536259 1.8660638 0.84944403 -0.12653391 -0.8279625 0.20421338 -1.2627951 1.104876
1.0331535 0.5550498 0.38529477 0.59677136 -0.051257927 0.5205644 2.3238475 1.7092901

net.2.bias f4 [256]
00000000: 0065 9d3e d93d 803e 2c77 bc3d 6369 593e
00000010: 9f96 563e 8988 923e d1bf a6be ca18 6a3e
00000020: 5bac c03f 38d3 58be 496d 64be 3670 283d
00000030: 6c3f 6d3e e514 1f3e f033 383e 082c 283e
00000040: ac67 663e 844c 373e bbef 7cbe ff3c ff3d
00000050: 7ea1 85be 8467 853e e085 c13d 5511 ae3c
00000060: 648d b03e e213 313e c48d 123e 8870 423e
00000070: b52f 7d3e e184 883e e706 f73d 9b4e 8e3e
00000080: 1559 80be 9462 96be e8af 473e 4346 35be
00000090: 34f4 e03e b6d9 7abc 9812 5c3e 6499 053e
000000a0: bfad b13d 9eb3 1e3e f5ad ff3d 762d 7f3e
000000b0: 2f10 3f3e ae64 973e 48e3 723e f571 b73c
000000c0: 2e00 4e3e 4f67 4e3e 389b 99be 59d7 993e
000000d0: 4a93 95be 72d0 893e 5b5d 77be f513 4b3e
000000e0: 9d7a d83d 7f39 043e 779b 9ebe b691 373c
000000f0: 6dd3 2b3e 239b 523e 82f2 c73e fb08 803e
00000100: 1a14 ef3d bb46 b93f 3ccb b43e 1098 d93d
00000110: 15d1 023e 7fb3 c93d a959 9d3e 0667 84be
00000120: ebd3 2c3e 8196 103e 290f 1cbf 9a22 a23e
00000130: 256a db3e 5735 8f3f 9c0d 803e 901e 883e
00000140: 4117 8cbe 6c76 1a3e 533d 6fbe 9331 de3d
00000150: c3a4 0a3e 5bbd a73d 5d2d b93d 6a86 fb3d
00000160: 6361 033e 69ec 1c3f e818 503e 2f98 5c3e
00000170: 9dfa 873d da4f b93f e1af a93e 6012 be3d
00000180: 60ba 8e3d b25a ab3e 3096 a83e c80f 873e
00000190: 812c 45be 1066 ba3d 676c b93e 8ddd 3ebe
000001a0: cd91 063e dcd9 c03e 48df 753e f663 843e
000001b0: ccb1 873e 5a18 093e eac1 d93e 4077 d33d
000001c0: 03c2 b33d 030b ec3d 7241 1e3e 5227 29bc
000001d0: 49ed 5f3d 7fe4 9cbe 7972 abbe 21db 0cbe
000001e0: d0c6 bf3e 43a1 413e 3865 66be 5d04 503e
000001f0: 5be1 ba3e e495 773e d538 a83d 7082 143e
00000200: 4433 353e a3bf 463e e9c9 193e e3c0 903e
00000210: cce4 873d 0be5 643e aa2d 793e ad9f a83d
00000220: 1c77 ed3e 10a8 273e ebf9 163e 9c8d 453e
00000230: bea9 a13e 55cf 853e 28a2 593e 8da0 7b3e
00000240: df38 d03d 24e3 873e 259f 82be 87a8 f9bd
00000250: 4e84 b53e 722f 873e 39f8 f13e edd7 3b3d
00000260: 504a 033e bdb1 363e 6dc6 6e3d 95e6 0c3e
00000270: cc39 9d3e c099 0d3e 84c8 843e 371f 273e
00000280: 4999 51be 0e48 803e 61a2 593e 3afc af3e
00000290: d876 3c3e 89d3 4a3e 0245 fbbd c9d5 ee3d
000002a0: b2ff 5d3e e71c a1be 4fa6 783e 647e 3b3e
000002b0: 49c7 a33f 6ac8 603e 2d03 873e f62b 6d3d
000002c0: 0217 333e 7d52 b63d ca47 6d3e 2c0b bc3d
000002d0: 5c8e ac3d be29 31bd 8a6f ed3d 475b 403e
000002e0: 952b 2fbc 9ce1 2f3d 286e 2f3f ac3c 123e
000002f0: b306 29be 9cba ba3e b5ef 8dbe 2ead 2c3e
00000300: b3de 8c3e fc87 b9bf 58b9 813e b26f 693e
00000310: 8923 863e 3f9e 983e 481f 753e 0b32 3d3e
00000320: 590f 5e3e baae 9dbe 2072 6f3e b067 3d3e
00000330: 495b 6b3e c35b 10be ac17 a2be 1df2 4d3e
00000340: 81d4 0e3e f88d 163e 315a 2c3e b096 663e
00000350: f223 483e a38f 8a3f be20 3a3e c38a 293f
00000360: 70c0 6f3e 14a4 363e af02 7a3e 5129 633e
00000370: b431 023e 08c4 883e efdc 223e 403c e03d
00000380: c14e 453e 41ca cf3d d393 883e 29ed 9e3d
00000390: 49aa 413e e40b 213e 6308 5fbe 8718 f73d
000003a0: 7fb7 f03d dc18 443e 3e8b 3cbe 40d8 d73e
000003b0: d037 803e 2da7 013e 14b5 393e 62f4 543f
000003c0: 4897 2a3e be7e 023e 458a 93be 5352 3c3e
000003d0: a5f2 3f3e fdd4 b73e 9a9d 693e 6bc0 223e
000003e0: 1d38 1abd 14f2 99be a531 803e b419 12be
000003f0: 182f 4c3e 9211 ff3d 8945 af3e 0d53 e53e
0.3074112 0.25047186 0.09202418 0.21231608 0.20955895 0.28619793 -0.3256822 0.22861019
1.5052599 -0.21174324 -0.22307314 0.041122638 0.23168725 0.15535314 0.17988563 0.16423047
0.22500485 0.17900282 -0.24700825 0.12462806 -0.2609977 0.2605554 0.09449363 0.021248499
0.34482872 0.17292741 0.14311892 0.1898824 0.2472523 0.2666388 0.120618634 0.27794346
-0.25067964 -0.29372084 0.19500697 -0.17702584 0.43936312 -0.015310695 0.21491468 0.13046795
0.086757176 0.15498206 0.124843515 0.24919686 0.18658517 0.29569 0.23719513 0.022393206
0.20117256 0.20156597 -0.30001235 0.3004711 -0.29213935 0.26916844 -0.24156706 0.19831832
0.105702616 0.12912558 -0.30977985 0.011204174 0.16779871 0.20566992 0.39052206 0.25006852
0.11673756 1.447471 0.35311306 0.10624707 0.12775071 0.09848689 0.30732468 -0.2585985
0.16877715 0.14119913 -0.6096063 0.31667024 0.4285442 1.1188153 0.25010383 0.26585817
-0.2736149 0.15084237 -0.23363237 0.10849299 0.13539414 0.081904136 0.090418555 0.12281497
0.12830119 0.61298233 0.20322001 0.21542428 0.066395976 1.4477494 0.33141997 0.092808485
0.06969142 0.33467633 0.32927084 0.26379228 -0.19255258 0.09101498 0.36215517 -0.18639202
0.13141556 0.37666214 0.24010956 0.25857514 0.26502836 0.13388196 0.42530757 0.103254795
0.08777239 0.11525538 0.15454653 -0.010324316 0.054669652 -0.3064308 -0.33485773 -0.13755466
0.3745637 0.18909173 -0.2249955 0.20314164 0.36500058 0.24178272 0.08213965 0.14502883
0.17695338 0.19409041 0.15018429 0.2827216 0.066354364 0.22352998 0.24333826 0.08233581
0.46379936 0.16372705 0.14743774 0.19292301 0.31574816 0.26134744 0.21253264 0.24572964
0.10167097 0.26540482 -0.25512043 -0.12190347 0.35452503 0.26403385 0.4725969 0.04586022
0.12821317 0.1784124 0.058294702 0.13759835 0.30708158 0.13828182 0.2593423 0.16320501
-0.2046863 0.25054973 0.21253349 0.3437212 0.1840471 0.19807257 -0.122690216 0.1166187
0.21679571 -0.31467363 0.24282192 0.18309933 1.2795192 0.21951452 0.2636961 0.057903253
0.17489246 0.08902452 0.23171917 0.09181818 0.084255904 -0.0432527 0.1159354 0.1878482
-0.010691543 0.042939767 0.6852746 0.14280957 -0.16506462 0.36470497 -0.27721944 0.16862938
0.27513656 -1.4494624 0.2533672 0.22796515 0.26198986 0.29808232 0.23937714 0.18476121
0.21685542 -0.30797368 0.23383379 0.18496585 0.22984041 -0.14097504 -0.31658685 0.2011189
0.13948251 0.14702594 0.1683128 0.2251842 0.19544962 1.0825084 0.18176553 0.6622736
0.23413253 0.17836028 0.24415086 0.2218373 0.12714273 0.2671206 0.15904592 0.10948992
0.19268323 0.10145999 0.2667528 0.077600785 0.18912615 0.15727192 -0.21780543 0.12065225
0.11753749 0.19150108 -0.18412492 0.42157173 0.25042582 0.12661429 0.18135482 0.831854
0.16659272 0.12743661 -0.2881643 0.18390779 0.18744905 0.35904685 0.22814026 0.15893714
-0.03765117 -0.30067503 0.25037876 -0.14267617 0.1993984 0.12454523 0.3423274 0.44789925

net.4.weight f4 [27, 256]
00000000: 71e0 413e 0b66 ee3e 44af ea3e 70b4 ca3e
00000010: 1d98 cd3e 454c da3e 99b9 fc3e 563e e73e
00000020: 0a1e 81bf 0374 ff3e 66be f13e 499c 013f
00000030: 03bc f73e e365 af3e 0621 ca3e ae25 c03e
00000040: ee18 c73e 25d7 d83e e8db dc3e 2394 d03e
00000050: 47a0 053f 359c 963e 49af d53e 484c 013f
00000060: 32c4 ba3e e24d d33e 0323 de3e 2d91 9e3e
00000070: 6cab 8c3e 3617 ba3e 1bd4 da3e 4b2d b03e
00000080: 7972 033f 81da db3e e5d7 bf3e 97d8 c93e
00000090: d176 ff3e 5084 57bd 4c24 cc3e 018f 2dbd
000000a0: b2ce ea3e b573 b33e 3908 e73e c05a bf3e
000000b0: 7e8c bc3e c4d8 ce3e a962 df3b 9ba6 d33e
000000c0: da1d c93e 721f be3e c29f fe3e 46b0 d43e
000000d0: 3414 013f fbd6 6b3f bf37 f73e f3ba d93e
000000e0: 9323 b13e 40bc d93e 5e49 d63e 1a1b 7b3e
000000f0: 6744 c83e 930e cd3e 410b 013f c055 c23e
00000100: 0fd3 ca3e a43c 6fbf 3d8a 943e eeb2 e23e
00000110: a1ab ab3e d2e9 ed3e fe37 ac3e cc2d ca3e
00000120: eb03 d53e a938 9b3e 4977 0e3f 8269 e13e
00000130: 70af fb3d e4ba c6be 2275 ac3e 0b02 a43e
00000140: b110 f23e b09c ac3e 469b f13e 055a b53e
00000150: c45f ac3e 2387 b13e 90ad db3e 688d d43e
00000160: 2131 d33e 56f2 4cbf f222 003f 5d4f 773e
00000170: 0db9 d53e a594 68bf 72ba 713e eaa6 1b3e
00000180: 05bd ef3e c74c 8c3d 2530 e23d 39fc b73e
00000190: c3da c63e e020 943e cfff fb3e 21c3 c63e
000001a0: aca3 bb3e 2752 833e a7e9 cb3e 2202 bb3e
000001b0: bb62 ce3e 0cc7 ce3e 8c67 41bd 34c5 d83e
000001c0: dbc5 b73e f547 f93e e79d ec3e f80f 58bc
000001d0: 0b68 cc3e 5890 d03e 924b 123f 929c d73e
000001e0: 0ed1 dfbd dad3 6a3e 38c2 023f 3d5a b23e
000001f0: b736 b83e 4d49 a43e 72bb df3e 7e16 c53e
00000200: d7fc ad3e 4a23 b33e 48c8 953e 7218 ca3e
00000210: c15b c93e 111d e43e 36f7 733e 4773 a33e
00000220: 3354 803e 87a2 ed3e 00ee df3e eb1f d73e
00000230: a00b c63e 93a5 313e 5577 a13e 89c3 be3e
00000240: 8bc3 dd3e 34df f83e c0cf e43e 7911 723e
00000250: 6c28 003f 6d76 c03e 5f60 3c3f 5446 a03e
00000260: 990b a23e 8178 be3e 82e2 ab3e f60a d33e
00000270: 066c cb3e b727 e63e 73b7 b13e ae84 b23e
00000280: 2bf3 f03e 5d46 b03e bfe1 a33e 0db1 b43e
00000290: 98cc c33e 3307 d93e 8b11 003f cb3b e73e
000002a0: ca5b dc3e 1aee c93e ef9b ba3e e80d e53e
000002b0: 1326 87bf 33a9 843f 6fbf ab3e 11b1 903f
000002c0: 5c1b ce3e e806 ec3e 3fa4 bf3e 487b d03e
000002d0: d8ee cc3e f4e5 a03f 6415 c93e f4c4 a53e
000002e0: ad04 d13e 14be b33e 71e9 4abf 5865 cb3e
000002f0: cb10 d53e 2428 313e e920 f73e 619d e43e
00000300: b665 a13e 2b81 233e 1142 b43e ceda 613e
00000310: 11e1 da3e b1bf d83e d73f ce3e bd97 cf3e
00000320: 80b7 c93e 4f8b f53e 620c c73e 015e e43e
00000330: 87f4 df3e c2a1 db3e 742f de3e 1976 eb3e
00000340: 885a ac3e 8992 aa3e 9ef1 ce3e 4711 cc3e
00000350: 5cc4 d23e 8bda 1ebf 32d1 be3e bcc0 83bd
00000360: c9a6 c83e 1732 ca3e 90f2 993e 7b64 ab3e
00000370: 416c bc3e 93ea ab3e f694 ec3e d438 cb3e
00000380: 0f32 993e 5305 ec3e 40d1 b43e 173d 963f
00000390: c5b8 7c3e 1008 da3e 2949 e83e 7e56 e93e
000003a0: 92cd b73e 40bb ce3e 5fda cf3e f06e 633e
000003b0: 86e1 b43e 6025 b43e 26e6 b83e 8654 e2bd
000003c0: 5cf4 b03e 689c f13e de2c 083f 8d8b af3e
000003d0: 507e bd3e 3e10 a03e 439d d93e 23d6 ab3e
000003e0: 420c 743f 3f38 fd3e 877a b43e 42a3 db3e
000003f0: 93cc c63e 5cae d13e 9355 d13e db35 3cbe
0.18933274 0.46562228 0.45836842 0.39590788 0.40155116 0.42636314 0.4936035 0.45164746
-1.0087292 0.49893197 0.47215575 0.506291 0.4838563 0.3425742 0.3947832 0.37528747
0.38886207 0.42351642 0.43136525 0.4073802 0.5219769 0.29416052 0.41735294 0.5050702
0.3647781 0.41270357 0.43386087 0.30970135 0.27474535 0.36345834 0.4273995 0.34409556
0.51346546 0.42940143 0.37469402 0.39423057 0.49895337 -0.052616417 0.39871442 -0.042372707
0.4586082 0.35049215 0.4512346 0.37373924 0.36825937 0.40399754 0.006817181 0.41338047
0.39280587 0.37133366 0.4973126 0.41540736 0.5042145 0.9212491 0.48284718 0.42525443
0.34597453 0.42526436 0.4185285 0.24522057 0.39114687 0.40050182 0.504078 0.37956047
0.3961415 -0.93451905 0.29011717 0.44277138 0.3352938 0.46467453 0.3363647 0.39488065
0.41604552 0.30316666 0.55650765 0.4402581 0.122893214 -0.3881446 0.33683115 0.3203281
0.4727836 0.33713293 0.47188777 0.35420242 0.33666813 0.34673414 0.42905855 0.41514134
0.4124842 -0.80057275 0.5005332 0.24151368 0.41742745 -0.90851814 0.2360628 0.15200391
0.46823898 0.068505816 0.11044339 0.35934618 0.38838777 0.28931332 0.49218604 0.38820747
0.3664831 0.25648615 0.398267 0.36525065 0.403097 0.40386236 -0.04721789 0.42337954
0.3589314 0.4868771 0.4621422 -0.013187401 0.39923128 0.40735126 0.5714656 0.4211164
-0.10928546 0.22932377 0.51077604 0.3483447 0.35979244 0.32087174 0.43697697 0.38493723
0.33981964 0.3498786 0.29254365 0.39471775 0.39327815 0.44553426 0.23824772 0.31923887
0.2506424 0.4641306 0.43736267 0.4201654 0.38680744 0.17348318 0.31536356 0.37258556
0.4331325 0.4860779 0.4468975 0.23639478 0.5006168 0.37590352 0.7358455 0.31303656
0.31649473 0.37201312 0.3357125 0.412193 0.39730853 0.44952175 0.34710273 0.34866852
0.47060522 0.34428683 0.32008168 0.3529133 0.3824203 0.42388305 0.5002677 0.45162806
0.4303878 0.3943947 0.36447093 0.44737172 -1.0558494 1.0364136 0.3354449 1.1304036
0.4025525 0.4609902 0.37429997 0.40719056 0.40025973 1.2570176 0.39274132 0.32376826
0.4082388 0.35105956 -0.79262453 0.39725757 0.41614375 0.17300469 0.48267296 0.4465132
0.31522912 0.15967242 0.35206655 0.22056124 0.42749837 0.4233375 0.4028308 0.40545455
0.39397812 0.47957847 0.38876635 0.4460297 0.43741247 0.4289685 0.4339558 0.4598854
0.3366282 0.33314922 0.40418714 0.39856932 0.41165435 -0.6205222 0.37268978 -0.064332455
0.39189747 0.3949134 0.30067873 0.33475098 0.3680134 0.33577403 0.46207398 0.39691794
0.29921004 0.46097812 0.35315895 1.1737393 0.24679859 0.42584276 0.45368317 0.455738
0.35899025 0.40377235 0.4059629 0.22210288 0.3532831 0.35184765 0.3611309 -0.11051278
0.3456143 0.4718964 0.5319346 0.34286156 0.3701043 0.31262392 0.42502794 0.3356181
0.95331204 0.49456975 0.3524973 0.42897993 0.38827953 0.40953338 0.408856 -0.18379919

net.4.bias f4 [27]
00000000: 3513 fcbc 74d1 e13d 457a a5bd 4532 91bb
00000010: 951e c3bc 685e 823d c4d8 ffba c84b 523e
00000020: 2981 96bd eb16 9d3e 15a2 b43d 0eea 053e
00000030: 4079 0abc cba2 f13d 0721 b43d c714 4e3d
00000040: 5664 9bbd e2a0 90bd a678 883e ce6e da3e
00000050: b66e df3e 5829 4fbd e817 1a3d fe4a 263e
00000060: 8327 18bd 363d 2f3e 38d9 223d
-0.030770877 0.11026278 -0.08079962 -0.0044310414 -0.023818294 0.06365663 -0.0019519557 0.20536721
-0.07348854 0.30681548 0.08819977 0.13077566 -0.00845176 0.117986284 0.08795362 0.050312784
-0.07587497 -0.07061936 0.26654547 0.42662662 0.43639153 -0.050576538 0.037620455 0.16239545
-0.037147056 0.17113194 0.039757937
