model/dqn_policy_net_episode_2000.pt (torch, 334295 bytes, 6 tensors)

net.0.weight f4 [128, 336]
00000000: ef71 663d 0dc0 66be e686 2b3d 63e9 f83b
00000010: 9044 11be 51e1 49be 473d b23d fbc1 e2bc
00000020: 225a 3e3e 39d6 e6bd 53f4 c6be 82fc ebbd
00000030: cfe1 083e 0b39 01be e299 963d 9f85 65bb
00000040: 1b98 17be 76e5 c0bd a2ad c5bd f87b bbbd
00000050: eed3 8fbd cd19 173e 5ccf d9bd 9610 733d
00000060: 4128 32be e4e2 8fbe 5e13 10be e533 143c
00000070: d3b1 753c cc6e e2bc 973d 7f3d 62e7 9a3d
00000080: 8d98 88be 4b2f 28bc 1a81 d43d 33cc 01be
00000090: f86b d03b 2a4c 38be 4a22 213d 7b41 1fbd
000000a0: 8ac7 7c3d 4138 9fbe 5016 133e e0a2 adbd
000000b0: ac23 813d abf9 8cbe 2b83 76bd 1dd0 c2bc
000000c0: 0baf f9bb 8302 a33a d01e 743d b14d 71bd
000000d0: 05d7 aabd 1d96 debd d664 353d da9a ca3d
000000e0: 01f7 743e ca4f 49be add8 34be 60b7 15be
000000f0: 2876 013d 69c1 8c3d 0579 17bd ec16 20be
00000100: d133 01be b9a3 a33d 33a4 f9bd de76 21bd
00000110: 9e2c abbd 6bf0 9e3d 79fb fabd 7f20 82bd
00000120: 715b 11be 34f1 28bd 7f57 9c3d 214e 053e
00000130: 98dc dcbc 065a 483d 7337 28be 421f 6dbd
00000140: d944 1b3e b0c8 003d 68be c13d 7ac1 8abd
00000150: 1d53 f2bd 9eac 2cbd 501b a9bd a39c c6bc
00000160: 5cab 4a3d 5174 28be 3d8f 23bd a016 afbc
00000170: 0866 d2bd f11e 50bc 7540 0f3c 9943 75bd
00000180: e623 8b3e 176c 28be 2d6f 533c 7731 0fbe
00000190: 0296 0c3d 0fbb 9b3d 5f3f 9b3d 0051 07bb
000001a0: 3a71 3abf aea3 193d 253a 073e b9f6 163e
000001b0: d15d ab3e 2768 6ebd 7d2f 01be 8107 013e
000001c0: 8f0c 793d bc0e 62be 73b7 1cbe 656a 1a3d
000001d0: 15b0 e8bd 351b 54bd a951 843d af9b 063d
000001e0: d74b 74bf 4a3c 123e 4309 25be c4e3 15be
000001f0: ee8c 743b 2a45 253d b9ee e03c f758 f4bc
00000200: f511 b83e ef87 b6be 440d 01bd 5f8c d1bd
00000210: 2524 f5bd 4029 4abe 5d99 3ebe dfed 0abd
00000220: a5a7 e6be bb07 e83d 300a a03d fb55 863d
00000230: 4075 a1bd 4a39 73bd 8d3b cc3c d854 873d
00000240: e181 de3e 23ec 62be 7880 b8bd fc6f 8bbe
00000250: 9266 6d3c 3879 823b 3719 2a3d 3118 41be
00000260: 2774 9d3d 3a7e c53d a10e 813d b4c3 493d
00000270: 6642 a2bd c96c d73c 926b 25be 405b e6bc
00000280: 98dd bf3c c88e e5bd 0d82 463d 5d54 813c
00000290: 8413 203e ad25 c73d 70d4 bfbd 1ef5 cdbd
000002a0: a1fd 2a3f bbb7 16be 8c1f 413c 7734 35be
000002b0: dd01 25be 8e9a 8bbe 6e86 a7bd 4a5c d1bd
000002c0: 3173 fd3e b019 113d 7914 a9bc 8b48 33be
000002d0: 8f71 95bd 5bf3 4cbe 3650 3a3c 5513 2abe
000002e0: 5c76 523f 6e81 f3bd 6558 4fbd c47b f4bd
000002f0: 2ee4 00be 497d a03d 6a01 57bd 3ac1 9f3d
00000300: 4ad6 39bf 394e 8a3b 37de 053e bd7b 1e3e
00000310: 6a97 f63d af30 8a3e b965 3b3e aa3a 923e
00000320: e029 123f c1ab 633c 20f3 37be f3f3 87bc
00000330: 1b9c a93d 618a 8f3d 7364 0abe 6933 6c3e
00000340: 104c dbbf 83da c63e fe50 c03e 31aa b33e
00000350: 84f4 923e 965d 803e 6101 013e c323 753e
00000360: d905 0f3f 4da3 9fbd 1cd0 88bd ee82 883d
00000370: acf3 0dbe 76f1 cbbc 2001 febd 4765 cc3c
00000380: 039f 31bf a3be 0b3f 7cd2 a03e 05b5 5c3e
00000390: ea3b b43c 99e4 003e 466b 54bb 0c31 933e
000003a0: 283f 3f3f 84d9 0d3d 1ba3 4fbd fed3 00be
000003b0: fec4 a1bd 5f6e 11be 94f5 38bd 4a6d 92be
000003c0: 0e7a 5a3f e886 723e f0ce 253d 065c 1abe
000003d0: f412 a33b 6d0b a1be f845 a13a a2b1 acbe
000003e0: b4a5 5cbf 6f79 833e c26f 5c3e d084 9a3e
000003f0: 7dad f03d b541 b93e acc7 42be f179 933e
0.056261 -0.22534199 0.041876696 0.0075961812 -0.14186311 -0.19714858 0.08703094 -0.027680388
0.1858907 -0.112713285 -0.3885828 -0.115227714 0.13367389 -0.12619416 0.073535696 -0.0035022271
-0.14804117 -0.09418766 -0.096522585 -0.091545045 -0.07022844 0.14755936 -0.10635254 0.05934199
-0.17398168 -0.2810279 -0.14069888 0.009045576 0.01499601 -0.027640723 0.062314596 0.07563664
-0.26678887 -0.010265182 0.10376187 -0.12675552 0.006360527 -0.17997804 0.03933934 -0.038880806
0.061713733 -0.31097606 0.1436398 -0.084783316 0.06305632 -0.27534232 -0.060183685 -0.023780877
-0.0076197437 0.0012436662 0.059599698 -0.058911983 -0.08341793 -0.108684756 0.044285618 0.09892817
0.2392235 -0.19659343 -0.1766078 -0.14620733 0.031606823 0.068728276 -0.036980648 -0.15633744
-0.12617423 0.07990212 -0.12189522 -0.03942 -0.083581194 0.077607 -0.12254996 -0.063538544
-0.14195038 -0.041245654 0.07633876 0.13018085 -0.026960656 0.048913978 -0.16427402 -0.057891138
0.15162982 0.03144139 0.09460145 -0.06775184 -0.11832259 -0.042156808 -0.082571626 -0.024244612
0.049479827 -0.16450621 -0.039931525 -0.021373093 -0.10273367 -0.0127026895 0.008743395 -0.05987892
0.27175826 -0.16447483 0.012904924 -0.13983713 0.034322746 0.07604038 0.075804465 -0.0020647645
-0.7282902 0.037509613 0.13205774 0.14742555 0.33470014 -0.058204796 -0.12615772 0.12600519
0.060802992 -0.22075933 -0.15304355 0.037699122 -0.1136171 -0.05178376 0.06460888 0.032863315
-0.9542822 0.14280811 -0.16116814 -0.14637667 0.0037315446 0.040349163 0.027457582 -0.029827578
0.359512 -0.35650584 -0.03150679 -0.10231852 -0.11969785 -0.19742298 -0.18613191 -0.033918258
-0.45049778 0.113295995 0.07814443 0.06559368 -0.07883692 -0.059380807 0.02493074 0.066079795
0.43458465 -0.22160392 -0.090088785 -0.27233875 0.014489787 0.0039817356 0.041527953 -0.18856885
0.0768817 0.096432164 0.06301618 0.049258903 -0.07922821 0.02629699 -0.16154316 -0.028119683
0.023421094 -0.11208874 0.04846387 0.015787298 0.15632445 0.09723983 -0.09366691 -0.10056518
0.66793257 -0.14718525 0.0117873065 -0.17695795 -0.16113992 -0.27266353 -0.08179937 -0.10222681
0.49501947 0.035424888 -0.020639645 -0.17508142 -0.0729705 -0.20014708 0.011371663 -0.16608937
0.8221185 -0.11889921 -0.05062141 -0.11937669 -0.12587044 0.07836396 -0.052491583 0.07800527
-0.72592604 0.0042207506 0.1307305 0.1547689 0.12040599 0.26990268 0.18300523 0.28560382
0.57095146 0.01389593 -0.17963839 -0.016595816 0.08281728 0.070088156 -0.13514881 0.23066486
-1.7132587 0.38838586 0.37561792 0.35090783 0.28702176 0.250714 0.12598182 0.23939423
0.558683 -0.07794819 -0.06680319 0.06665598 -0.13862485 -0.024895411 -0.12402558 0.024950637
-0.6938326 0.54587764 0.31410587 0.21553428 0.022001226 0.12587203 -0.0032412573 0.28748357
0.74705744 0.034631267 -0.05069266 -0.12580869 -0.078989014 -0.1420226 -0.045156077 -0.28599006
0.8534249 0.23684275 0.040480554 -0.15074167 0.0049766246 -0.3145403 0.0012304178 -0.33729273
-0.8619034 0.25678584 0.21527007 0.30179453 0.1175184 0.36182943 -0.19021481 0.2880397

net.0.bias f4 [128]
00000000: c64e 083e 625d 143e ad17 e93d f17a 0b3e
00000010: 56c2 a13e 814e d73d 04db 0f3f 02e6 703e
00000020: 00ad 073c 6496 583e 5d48 043e 6792 8c3d
00000030: 323d 363e 2d9f 023e 289a 243e eb9c 143e
00000040: f44c 023e 98fb 553e bb42 2a3e 4a04 bd3d
00000050: 7f48 f63d 5327 a73d 8349 c33e 8d48 333e
00000060: 54ef 603e 094c 173e 3359 3f3e 309a 8a3e
00000070: 2332 123e 9644 fa3e c3c8 8c3e 5bb3 2a3e
00000080: c3be 6a3e f4b5 b03d 613e 5b3e 86b1 c23d
00000090: 995c d53d 86bf 4d3e 0090 773e 9078 203e
000000a0: cffe acbd a3d4 f43d bb39 6d3d f8d7 273e
000000b0: 4b26 a63d c69e 763e fa16 dc3d 42f9 833e
000000c0: f0bc 203e d6b3 773e 43c2 e53c c0e9 433e
000000d0: 902e c53d 224c e83d 4dd1 283e 0686 163e
000000e0: 725e 0b3e 2ee2 82bd eca7 9d3e 1c50 1a3e
000000f0: ff55 533e 42b6 063e a9d9 953d 5ef7 1f3e
00000100: 722b 543e 0499 4a3e a04a 933e a0c0 ee3d
00000110: 84cf 153e e049 af3d 0a55 253e 6794 6e3e
00000120: 9e11 7e3e 9426 1d3e 438b 2d3e 0a93 e03e
00000130: 5955 333e 8695 373e aad7 373e fcf9 453e
00000140: 34f9 f83d 6a7a 913f 2fa2 313e 8ab1 c93e
00000150: 648e 4e3e c9f1 3f3e a2c2 463e 9ff7 a13d
00000160: 61e7 ea3e e4c7 663e a518 283e 61b6 f43d
00000170: 9394 1b3e cfd7 7d3d ce93 b93e ca03 033e
00000180: 6d74 523d c9da 613e b0bf 003e ff25 703d
00000190: 1260 553e d432 cc3e ab3e f93d 8c28 723e
000001a0: 8cff c63d f9d6 143e 25b2 463e d329 ff3d
000001b0: 478d 4a3e 28cf 173e d618 643d c855 8e3e
000001c0: 49cc c83d 05be 873e b773 343e aadd ee3d
000001d0: 75d3 2fbd 71a6 bf3e 4b5d d2bd 1ea6 673e
000001e0: 8b68 f43d 669d 3e3e 2ba4 a23e 0bda 6d3e
000001f0: 8983 123e 6ca0 2e3e 4f0a de3d 4bd9 3e3e
0.133113 0.14488748 0.11381469 0.13621117 0.3159358 0.1051302 0.56193566 0.23525241
0.0082809925 0.2115112 0.1291823 0.068638615 0.17796782 0.12756033 0.16074431 0.14512984
0.12724668 0.20896757 0.16627018 0.09229334 0.12025546 0.081617974 0.38142022 0.17508145
0.21966296 0.14775099 0.1868637 0.2707076 0.14276938 0.48880452 0.2749692 0.16669981
0.22924332 0.08628455 0.21410514 0.09506516 0.10418052 0.20092592 0.24176025 0.15670991
-0.084470384 0.1195462 0.057916384 0.1639098 0.081127726 0.24084005 0.1074657 0.25776106
0.15697074 0.24189696 0.028046733 0.19132137 0.09628022 0.11342646 0.16486092 0.14699563
0.13610247 -0.063907966 0.30792177 0.15069622 0.20638274 0.13155463 0.07316906 0.15621707
0.20719698 0.19784933 0.28767872 0.11657834 0.14629942 0.085590124 0.16145721 0.23298799
0.24811408 0.15346748 0.16947655 0.43862182 0.17513026 0.17928132 0.17953363 0.19333643
0.12156907 1.1365483 0.17347024 0.39393264 0.20171505 0.18744577 0.19410184 0.07908558
0.45879653 0.2253719 0.16415651 0.119488485 0.15193395 0.06197339 0.3624558 0.12794414
0.051380564 0.22056116 0.12573123 0.058629986 0.20837429 0.3988253 0.12170156 0.2364828
0.097167104 0.1453513 0.19403894 0.12459149 0.19780456 0.14825118 0.055687748 0.2779982
0.09804589 0.2651216 0.17622267 0.11663373 -0.04292627 0.37431672 -0.102717005 0.22621962
0.119340025 0.1861473 0.31765875 0.23227708 0.14307989 0.17053384 0.1084181 0.18637578

net.2.weight f4 [256, 128]
00000000: 9ffa 973f 09ee 46bc a2aa 2040 7da8 af3e
00000010: a9dc 2c3d 1aab 4d3f 98e4 4f3f 7fc9 be3f
00000020: 7896 3040 12d9 153f 9832 6d3f 4c52 a83e
00000030: d033 623d 1de2 ab3e c21d b5bd 3db6 9a3f
00000040: 1328 373f 826c 863e 62a3 323f 143f c53f
00000050: ef49 8c3f 290e d73f df8b bf3d 84c6 7c3f
00000060: df44 f83e e7bf d53e 7900 833f 2e36 86bd
00000070: 3468 213f 94b1 5b3e 0183 533e aae6 283f
00000080: 2e13 673f 1734 5a3f 3aa1 213f 4d99 2d3f
00000090: 4d8d 363e d57a c83f 91e8 d13f 0ec7 253d
000000a0: d3b5 d6bf e32d a23e 56a6 ca3d c01d 863e
000000b0: 31e0 e63e 2f00 243f 76ef a53f e05f b33f
000000c0: 92cd 6e3f d60b 793e da24 453f a07d e83f
000000d0: 7739 663f a422 b3bd cebc 553f eb41 41be
000000e0: e233 79be defd dfbf d631 a33e 606f f83f
000000f0: 7635 26be 7a68 2040 1cc5 f63e 653b 353f
00000100: eef3 84bd 2d77 e83e fbce 923f a162 7c3e
00000110: 36a0 603f dfed 263f 9c75 2d3e 1263 9d3e
00000120: 1b35 df3e 03cf c73f 77bf e63e 5787 623e
00000130: b0ed bf3e 0cc8 abbe 8338 963f 8c51 9e3e
00000140: 9a0b 2a3f e380 2b3f 41c9 4ebf 3fcc 8d3e
00000150: c7e6 263f b3cf 66be cf3f 2a3f 1393 ad3f
00000160: 6f66 8fbd 3ebc f63e c234 933f 4d37 513f
00000170: 2de5 463f 366c ca3f 9b91 253f 1740 123f
00000180: 31bb b23f 3b21 6d3e 7f80 3c3f 35fa abbf
00000190: 4409 10bd 00c1 46be 98e7 bd3f 44d5 b53e
000001a0: 1149 f03e 54e2 063f 5049 0b3f 15d3 e93d
000001b0: 9332 a63f aa54 d93f 69c8 d03e 2f4a 2f3f
000001c0: 9dcd 8d3f 87c5 803f 3d2f 323f daf0 cf3f
000001d0: ba4c 2040 435a 973e ca64 d3bf 4c50 983f
000001e0: 07eb 563f 7ade 6f3e 0f13 f53e c31e 5b3f
000001f0: 62a1 2840 e569 8c3e ab54 ac3f 1dda b73f
00000200: 2af7 1840 eaae 503e 6189 193f bb7a 523c
00000210: 0c16 0c3f ca65 163f d352 a9be 0e36 9d3f
00000220: 98fe a03e 12fa b53e 9a2d 95bd a5e2 a03e
00000230: fd86 b33e 34cf 853f 1b49 553f e7e5 0740
00000240: 141b 063f 7ad9 5a3f b6b4 063f f005 413e
00000250: 349c cf3f cfce 803f c263 423f bb0d 553f
00000260: 0c41 2e3f 079f 363f 726e 803f dc8a 013f
00000270: 2fee b23e 8462 0e3f 7c12 1e3e b631 f83f
00000280: a03a 2a3f c7aa 993f d8e7 8c3f 4224 c63e
00000290: 2dd7 9e3f a5b0 a53f 0287 7a3f bc22 1f3f
000002a0: ada9 fbbf cf30 1a3f 34eb f43e a77c 473f
000002b0: 7107 213f 51c6 3e3f 09c8 f23f 9550 1b3f
000002c0: 4698 ea3f f2fa 8f3e a855 403e a46a 983f
000002d0: b98d 3e3f a6df b33e af47 553f a4be fd3e
000002e0: 99ef 713f 0865 febf 999f 0abc d9b8 c73f
000002f0: 7a45 683d 0273 c63e fa74 973e 2ec6 fd3e
00000300: 4ab1 2cbe 58ba 9b3e 1e39 ce3f 6e3e e03e
00000310: 6a6f fd3f 785e 91be d303 963f 3fe9 533f
00000320: 0c39 5b3f 9043 f03e 8dd0 b73e 0388 f73e
00000330: af91 6b3f 0c8c 2c3f da3d 1c3f 2670 8c3f
00000340: cd3c 863f 7c4f 36be eebf ee3e dc83 c03e
00000350: c400 373f 4923 ba3e 2879 c03e d32e 053f
00000360: 9f3b 663f 461c 673f c585 8c3e 6320 4c3f
00000370: 73e9 593e 0305 9fbe 95a2 81be 6c79 263f
00000380: ee53 173f 242f 6e3f d288 8c3f db5e 9f3f
00000390: c228 7a3f 2d61 153f 1b01 cf3f 5b36 823f
000003a0: 0471 343f c34a 283f 9d20 fc3e 7f57 313f
000003b0: 2f64 753e 7202 723f ed36 613f ad81 0c3d
000003c0: 6b6b 013f 61be 0f40 9c7f a63f 2596 153e
000003d0: c5dc d7be de0a 843e 7989 f2bf 8a0f bd3f
000003e0: 898e a13f 5534 213f 7b24 e53e 9e4b 5c3f
000003f0: d910 99be de37 1c3f d766 1740 1506 e43f
1.1873358 -0.012141713 2.5104146 0.34308234 0.042202625 0.80339205 0.8120818 1.4905242
2.759184 0.5853435 0.92655325 0.32875288 0.055225194 0.33570948 -0.088435665 1.2086865
0.71545523 0.2625466 0.6978055 1.5409875 1.0960063 1.6801196 0.0935285 0.9874041
0.48490044 0.41747972 1.0234519 -0.06553303 0.63049626 0.2145446 0.20655443 0.65976965
0.9026364 0.8523573 0.6313664 0.67812043 0.1782734 1.5662485 1.6399099 0.040473036
-1.6774238 0.31675634 0.09895007 0.26194572 0.4509292 0.6406278 1.2963703 1.4013634
0.93282425 0.24320921 0.77009356 1.8163338 0.89931434 -0.087468415 0.8349122 -0.18872802
-0.24336198 -1.7499349 0.3187396 1.9408989 -0.16231331 2.5063767 0.48197258 0.70793754
-0.064918384 0.45403424 1.1469415 0.24646999 0.8774446 0.6520671 0.16939396 0.30739647
0.43595204 1.561005 0.4506795 0.2212194 0.3748603 -0.3355106 1.1735996 0.3092159
0.6642395 0.6699354 -0.8077584 0.2769489 0.6519589 -0.22540168 0.66503614 1.3560508
-0.070019595 0.48190492 1.1500475 0.8172501 0.77693444 1.5814273 0.646753 0.57129043
1.3963376 0.23157208 0.7363357 -1.3435732 -0.035165086 -0.19409561 1.4836302 0.3551427
0.46930745 0.526891 0.5440874 0.11417214 1.2984184 1.6978962 0.407779 0.6847257
1.1078373 1.006028 0.6960333 1.6245377 2.504683 0.29561052 -1.6515133 1.1899505
0.83952373 0.23424712 0.47866103 0.85593814 2.63485 0.2742454 1.3463339 1.4363438
2.3900857 0.20379224 0.5997525 0.012846644 0.5472114 0.5874907 -0.33071002 1.2282121
0.3144424 0.3554235 -0.072840884 0.31422916 0.35063925 1.0453858 0.83314675 2.1234071
0.5238507 0.8548809 0.52619493 0.18849921 1.6219544 1.0063113 0.7593347 0.83224076
0.68068004 0.71336406 1.0033705 0.5060251 0.34947345 0.5561907 0.15436739 1.939017
0.66495705 1.2005242 1.1008253 0.38699538 1.2409416 1.2944533 0.97862256 0.62162375
-1.9661156 0.60230726 0.47835696 0.7792458 0.6290198 0.74521357 1.8967296 0.60669833
1.832772 0.28121144 0.18782675 1.1907544 0.74435 0.35131568 0.83312505 0.4955951
0.9450622 -1.9874582 -0.008460903 1.5603286 0.056706883 0.3875962 0.29581434 0.49565262
-0.16864505 0.30415606 1.6111181 0.4379763 1.9799626 -0.28392386 1.1719917 0.8277778
0.8563392 0.46926546 0.359013 0.48345956 0.9201917 0.67401195 0.6103188 1.0971725
1.0487305 -0.17803758 0.46630806 0.376006 0.71485543 0.36355045 0.37592435 0.52024573
0.89934725 0.90277517 0.27445808 0.7973692 0.2128046 -0.3105851 -0.25319353 0.65029025
0.5911244 0.9304068 1.0979254 1.2450823 0.9771844 0.58351403 1.6172212 1.0172838
0.7048495 0.6573908 0.49243632 0.69274133 0.23963998 0.9453498 0.87974435 0.034303356
0.5055453 2.2459948 1.3007693 0.14608057 -0.4216062 0.2578954 -1.8948203 1.4770367
1.2621623 0.6297048 0.44754395 0.8605288 -0.29895666 0.61022747 2.3656518 1.7814356

net.2.bias f4 [256]
00000000: 2d66 d83e 1182 a83e 9c18 3a3e ddd2 a13e
00000010: 4286 a33e 7c67 c53e 37d9 82be f5bc a43e
00000020: c989 e03f de5b 18be 10db 23be 31d5 bf3d
00000030: e8a5 a83e 10d8 803e dea1 8a3e 2a83 863e
00000040: fdfd a13e 355d 943e f31c 44be c4fe 5f3e
00000050: 530d 40be 3e1d b63e 4347 443e b181 e53d
00000060: a466 bc3e 3280 873e 8251 7f3e 8351 973e
00000070: 148d 963e 3c57 bf3e a22c 693e 5cbe c63e
00000080: a1d1 29be da10 83be ba2f 9a3e 9fff 06be
00000090: 6eed 133f b6d9 7abc c618 a03e 46c4 7f3e
000000a0: 4ffc 363e 8159 813e 298e 583e a73e af3e
000000b0: d746 963e e0ae c73e 6886 9e3e 04e8 013e
000000c0: cb0e 9d3e 6080 993e cc32 63be 3d10 cc3e
000000d0: d5f8 6cbe 3b1a ae3e 1e31 19be 9455 923e
000000e0: 67c8 543e 8f95 673e 2f62 80be cd60 813d
000000f0: 3415 843e 87e0 9c3e 48ca e03e 589e b13e
00000100: de84 653e c398 d83f e3e8 eb3e adec 543e
00000110: 8c0e 6a3e c7fe 443e 8453 d43e a9a6 3ebe
00000120: f76c 8d3e 3c50 733e f5ea 2fbf 227f d63e
00000130: 3dc9 0b3f eabe 993f c5e1 b33e 7e48 bc3e
00000140: 3338 62be 5f25 3c3e 7cc8 30be 5e38 5a3e
00000150: 5495 7a3e 1ce9 443e edfc 343e e18a 623e
00000160: 41f8 5b3e 3d33 293f 8f7f 933e 03dc b03e
00000170: b5e5 283e 3029 d83f 237c d23e 13ad 463e
00000180: ef74 1f3e f96e d13e dd6e d13e 92b5 b93e
00000190: b04f e4bd 112f 1b3e 61d1 b33e 6a35 0cbe
000001a0: 39fd 703e 645a e43e 9e5c af3e 2f08 b03e
000001b0: d2d4 b53e e69e 753e 9829 0d3f 7555 4c3e
000001c0: 7555 413e e887 553e 8432 803e 5227 29bc
000001d0: 6383 1f3e d501 8cbe c411 b8be a9cb e9bc
000001e0: 8653 ba3e 44be 5a3e ab69 42be 0149 a43e
000001f0: df6a e53e e0d2 a93e 61e9 3f3e f962 793e
00000200: 4a77 8c3e d89a 993e a842 883e 30b5 c53e
00000210: cd7c 1b3e 74cf 9c3e 4d49 993e 92e1 393e
00000220: 585e f93e b56f 863e c089 7b3e a0a5 8d3e
00000230: 741d d23e af07 943e 3811 9f3e 8ab9 b73e
00000240: 7302 4f3e 0b7f bb3e 316e 3ebe 99fc d83c
00000250: 6bf0 da3e 8c10 b93e 600c 003f c901 1a3e
00000260: 2dcc 623e c56d 8e3e d5f0 293e 09a6 6c3e
00000270: d603 cf3e 06ea 753e d916 b83e c535 833e
00000280: e27b 32be 46b1 b83e 8308 a13e 00e9 cd3e
00000290: efa1 8d3e a883 943e f951 8dbd 927e 643e
000002a0: b025 9c3e b33c 7cbe 9d03 b23e 82c8 8b3e
000002b0: e4ec c13f 3b95 843e 2663 bd3e 3291 f83d
000002c0: 2be2 8e3e c94e 3e3e 32ad ae3e bb3a 413e
000002d0: 301e 463e 7f83 f73b ef3b 513e d252 943e
000002e0: a709 c13d 04d3 1a3e 0d56 423f 46e9 793e
000002f0: 1a73 a1bd 33ff c73e 78ec 39be 19da 7c3e
00000300: bfea c53e 602b c7bf 5cd9 b53e b275 983e
00000310: 8c5d b63e 3dc9 c33e 399f b03e eb5c 933e
00000320: 1194 a33e fb17 65be 45a5 ae3e 16ec 8c3e
00000330: 7e1e a43e fa44 d2bd 1e8b cbbe d74f 973e
00000340: 58a1 7f3e 91ea 803e 24f3 893e b53f aa3e
00000350: 72a0 973e c385 943f f12b 923e daa9 2c3f
00000360: 6952 a53e 252c 903e 4780 b63e e5f1 ae3e
00000370: 6dde 5f3e c22a b93e 0f82 803e ac0d 5d3e
00000380: 6da7 953e 4291 413e 6a2a bc3e 7d3d 103e
00000390: 479a 9e3e 2a2b 773e 4056 09be b0e5 693e
000003a0: 935c 5d3e 7083 923e a6a5 1bbe 7d20 073f
000003b0: fa53 a13e 9759 703e 1efe 953e 335c 603f
000003c0: 178a 853e fade 633e 2378 57be 2bb9 933e
000003d0: 5887 903e 86de e83e 9cb2 a43e a62d 813e
000003e0: 8595 bcbd ad99 67be 83b8 b43e 3c00 3ebd
000003f0: 388a 9f3e 9c85 6f3e 3bf9 db3e ff04 053f
0.42265454 0.32911733 0.1817345 0.31606188 0.31938368 0.38555515 -0.25556347 0.32175413
1.7542049 -0.14878795 -0.16001534 0.09366835 0.32939076 0.25164843 0.2707662 0.26271945
0.3163909 0.2897736 -0.19151668 0.21874529 -0.18755083 0.35569185 0.19167809 0.11206377
0.3679706 0.26464993 0.24933437 0.29554376 0.2940451 0.37371242 0.22770932 0.38817108
-0.16583873 -0.25598794 0.30114537 -0.13183449 0.57784164 -0.015310695 0.312689 0.24977216
0.17869686 0.252636 0.2114798 0.34227487 0.29350922 0.39000607 0.3096192 0.12686163
0.3067535 0.29980755 -0.22187346 0.3985614 -0.23141797 0.34004387 -0.14960143 0.28580916
0.20779572 0.22615646 -0.25074908 0.063172914 0.25797427 0.3064005 0.43904328 0.3469112
0.22413966 1.6921619 0.46076116 0.2079341 0.22857112 0.19237815 0.41469967 -0.18618263
0.27622196 0.23761076 -0.6871789 0.4189387 0.5460394 1.2011387 0.35133186 0.36774057
-0.22091751 0.18373631 -0.17263979 0.21310565 0.24471027 0.19229549 0.17674609 0.2212329
0.2148142 0.6609381 0.28808257 0.34542856 0.16493876 1.688757 0.41110334 0.1940196
0.1557195 0.40904978 0.40904894 0.3627134 -0.11148012 0.15154673 0.3512068 -0.13692251
0.23534097 0.44600213 0.3425035 0.34381244 0.35513932 0.23986396 0.5514159 0.19954474
0.18880256 0.20852625 0.2503854 -0.010324316 0.15577464 -0.27345148 -0.35951054 -0.028539496
0.36391848 0.21361643 -0.18985622 0.32086948 0.448081 0.33168697 0.1874137 0.24354161
0.2743476 0.3000095 0.26613355 0.38614798 0.15184326 0.30627024 0.29938737 0.18152454
0.4870479 0.262571 0.24564266 0.27665424 0.41038096 0.28912112 0.31067824 0.35883743
0.20215778 0.36620364 -0.18596722 0.026487635 0.4276155 0.36145437 0.5001888 0.15039743
0.221482 0.27818123 0.16595776 0.23110212 0.40432614 0.24015054 0.3595493 0.2562696
-0.1743007 0.3607275 0.31451806 0.40216827 0.27662608 0.29006696 -0.06900401 0.22313908
0.30497503 -0.2463253 0.34768382 0.27301413 1.5150418 0.25895104 0.36989707 0.12137069
0.27906927 0.18584742 0.34116513 0.1887006 0.19347453 0.0075535174 0.20433019 0.28969437
0.09425669 0.15119559 0.75912553 0.24405393 -0.07883282 0.3906189 -0.18156612 0.24692573
0.3865566 -1.5560112 0.35517395 0.29777294 0.35618246 0.3823947 0.34496477 0.28781828
0.31948903 -0.22372429 0.34110466 0.2752387 0.32054514 -0.102670625 -0.39754575 0.295531
0.24963892 0.2517896 0.26943314 0.3325173 0.29614598 1.1603321 0.2854915 0.6744667
0.32289436 0.2815868 0.35644743 0.34168926 0.21862192 0.36165434 0.25099227 0.21587247
0.29229298 0.18903068 0.3675111 0.14085956 0.3097708 0.2413756 -0.13411808 0.22841525
0.21617346 0.28615904 -0.15199909 0.5278395 0.31509382 0.23471676 0.2929544 0.87640685
0.26081917 0.22253028 -0.21041922 0.2885221 0.2822826 0.45482272 0.32167518 0.2523014
-0.09208206 -0.22617216 0.3529702 -0.046386942 0.3116014 0.23390812 0.42963585 0.5196075

net.4.weight f4 [27, 256]
00000000: 5759 793e 1d77 013f 7e62 043f 44ad df3e
00000010: 0cc8 e73e f3c5 f43e 5698 123f 15e9 013f
00000020: 9ff6 88bf 0f44 143f 9376 0d3f cc38 103f
00000030: b100 093f 16f8 cb3e f793 e43e 2799 d93e
00000040: 2905 e43e 5b7a f43e 3b57 013f d82c ed3e
00000050: b3cb 1a3f bf2c af3e 57ab f33e 0ea4 0f3f
00000060: 1a92 c03e 1318 ef3e e6ff f63e 207b b63e
00000070: 8d8a b73e 9f72 d53e 72b8 f43e 729a bf3e
00000080: 9f53 193f 064a 013f da41 d63e f743 f43e
00000090: e4fd b83e 5084 57bd 9ced e43e 8f0b 2c3f
000000a0: fc43 033f ee4f cf3e 28be 013f 4b01 dc3e
000000b0: b496 d63e 7820 e83e edfa e5bd 9afc f63e
000000c0: 7e98 e23e eadb da3e 9756 133f 01a3 f03e
000000d0: 228d 173f 1f3b 793f a7a9 113f 203d f63e
000000e0: 3af4 c93e ccb7 f43e 1e14 003f 20a9 a53e
000000f0: 815c e63e d525 e43e bb83 083f 4fd5 dd3e
00000100: dfce e53e 55a2 7ebf f5ad ac3e ad00 fa3e
00000110: d5cd c33e 5380 053f b834 c33e 109d eb3e
00000120: 8569 eb3e 76ba b73e 2c5b 283f 5451 f73e
00000130: 5bda 153e daa6 1abf c096 ca3e e937 c03e
00000140: e337 0f3f 390e d53e 3aa1 0c3f 0649 d03e
00000150: 81f4 c23e 8e0e cc3e 98cd fa3e 0103 ef3e
00000160: 8a56 f33e f502 47bf 6247 0f3f 7c2c 9d3e
00000170: f40e f43e a7cd 78bf 2166 b83e bb54 343e
00000180: dcbb 0a3f ae65 d43d e253 623e 97e1 d23e
00000190: aa07 f23e 9a35 ba3e 5d3e 043f ede3 ee3e
000001a0: 41d7 d83e 0f33 833e 61e3 e13e 4042 d63e
000001b0: d68a e83e c022 e83e b636 80be e4ec f23e
000001c0: f467 d63e e4a6 0a3f bf77 043f f80f 58bc
000001d0: b4ba e83e e248 f63e 8335 2f3f eba2 fe3e
000001e0: 386f 50be c2d5 963e b357 173f ab1f cd3e
000001f0: 5aa6 a73e 6a2a c13e afaa f83e 7991 df3e
00000200: c823 c63e a88e c93e a46d ae3e 2bfa df3e
00000210: e677 e53e 335c f43e 12b7 803e 2c9c c13e
00000220: 6f19 8c3e 3df4 033f 255c fc3e 71f5 f33e
00000230: 89d2 df3e 36e1 833e 8278 ba3e 5fff d43e
00000240: 2413 fa3e 5b2d 083f ec16 063f e78f a93e
00000250: beab fd3e 6f2e de3e 6d11 3a3f ce27 bf3e
00000260: 1f45 c33e 71e9 d63e ce2a c73e 050c f03e
00000270: 8087 e13e 74ae 013f 51ca cd3e b340 cb3e
00000280: e931 0b3f d0b6 c73e 11ec ba3e 4ec1 ac3e
00000290: 29cb de3e 894e f63e ee91 153f d8ea fc3e
000002a0: 1320 f73e f7c1 f33e 290e d43e 6152 003f
000002b0: e882 8ebf 2454 bb3f 6fd8 c73e 14d5 963f
000002c0: 79c1 e83e 613a 043f acfa da3e b5a5 ee3e
000002d0: 6f69 e83e 9a39 a63f d0e7 e83e cf2c bf3e
000002e0: ef71 ed3e e887 cf3e 3e74 6cbf 28a1 e73e
000002f0: 26a4 ff3e da2e 803e b65e 123f 5905 013f
00000300: d496 ba3e 21eb 7d3e 8ba4 cd3e f4fd 973e
00000310: 1e56 f83e 6917 f53e a3ed e43e 3874 eb3e
00000320: 0e5d e03e bbb0 113f 10ce e13e 4098 013f
00000330: bbf3 fc3e 5e1e 023f 0eeb 053f 7f2f 043f
00000340: f846 c53e b290 c73e e696 e83e 36d4 e43e
00000350: 8afe ec3e 017d 5ebf 13dc d73e a096 09be
00000360: 0038 e53e 2bf7 e33e dbee b33e 8bef bb3e
00000370: ed17 dc3e 0f5c c33e 337e 033f 9526 e63e
00000380: e711 b23e 7711 053f 81b1 cd3e 3e75 9b3f
00000390: 0558 9f3e c512 f73e 34b4 093f 54b7 023f
000003a0: 055d d43e 4043 e83e 584d f73e c33d 25be
000003b0: 3b87 e03e 3828 cc3e 70f8 d13e 7e91 3abe
000003c0: 93c3 cd3e abea 053f eba6 1d3f b1ca c93e
000003d0: 6a54 d93e 3faf b73e 4d3a f63e 2033 c83e
000003e0: b95e 803f 8370 153f 75f6 cb3e d632 fd3e
000003f0: 7fde dd3e 166b eb3e 11ac e63e e750 eebd
0.24350487 0.5057238 0.5171279 0.4368688 0.4526981 0.47807273 0.57263696 0.5074628
-1.0700263 0.5791635 0.55259055 0.56336665 0.5351668 0.39837712 0.44644138 0.42499658
0.44535187 0.477496 0.5052373 0.46323276 0.6046707 0.34213826 0.4759166 0.561097
0.37611467 0.46698055 0.4824211 0.35640812 0.35847893 0.4168901 0.4779697 0.3742252
0.5989322 0.50503576 0.41847116 0.47708103 0.36131203 -0.052616417 0.44712532 0.67205137
0.5127561 0.4049067 0.5068078 0.42969736 0.41911852 0.45337272 -0.11229501 0.48239595
0.44256967 0.42745906 0.57554 0.46999362 0.59199727 0.97355837 0.56899494 0.4809351
0.39444143 0.47796476 0.50030696 0.32355595 0.4499245 0.44560114 0.53326005 0.43326804
0.44884393 -0.9946645 0.3372647 0.4882864 0.38242975 0.5214893 0.3812616 0.46018267
0.45978943 0.35884446 0.6576412 0.48304236 0.14634077 -0.60410845 0.39568138 0.37542656
0.5594465 0.41612414 0.5493351 0.40680712 0.38077167 0.39854854 0.4898498 0.4668198
0.47526962 -0.7773889 0.55968297 0.30698 0.47667658 -0.971888 0.36015418 0.17610447
0.541929 0.10370956 0.22102311 0.41187736 0.47271472 0.3636902 0.5165766 0.4665827
0.42351726 0.25624892 0.4411879 0.4184742 0.45418423 0.45339012 -0.2504174 0.47446358
0.41876185 0.54160905 0.5174522 -0.013187401 0.45454943 0.4810248 0.6844103 0.49733672
-0.20354927 0.2945996 0.59118193 0.40063223 0.32744104 0.37727672 0.4856772 0.43665674
0.38699174 0.3936665 0.34068024 0.4374555 0.44818038 0.47726592 0.25139672 0.37814462
0.27363154 0.51544553 0.4928905 0.47648194 0.43715313 0.2575776 0.36420065 0.41601083
0.48842728 0.53194207 0.52378726 0.331176 0.4954509 0.433948 0.7268284 0.37335056
0.38138673 0.41974977 0.38899845 0.4688417 0.4404869 0.5065682 0.40193418 0.396978
0.5437303 0.39006662 0.3650823 0.3374123 0.43514374 0.48106793 0.58425796 0.49397922
0.48266658 0.4760892 0.41417053 0.501257 -1.11337 1.4635053 0.39032313 1.1783776
0.45460108 0.5165158 0.42769372 0.466108 0.4539294 1.2986329 0.4548936 0.37338874
0.46375987 0.40533376 -0.9236487 0.4524014 0.49929923 0.25035745 0.5717577 0.50398785
0.36443198 0.24796726 0.401646 0.29685938 0.48503202 0.47869423 0.44712552 0.45987105
0.43820995 0.56910294 0.44102526 0.5062294 0.49404702 0.50827587 0.5231179 0.51634973
0.38530707 0.3897758 0.45427626 0.44693154 0.46287948 -0.8690949 0.4216009 -0.13436365
0.44769287 0.44524512 0.3514317 0.36706194 0.42987004 0.38156173 0.5136444 0.4495131
0.34779283 0.51979774 0.40174487 1.2145154 0.3112184 0.48256508 0.53790593 0.51060987
0.41477218 0.45363808 0.48301196 -0.16136841 0.43853173 0.39874434 0.41009855 -0.18219563
0.40188274 0.523112 0.6158282 0.39412454 0.42447215 0.3587589 0.48091355 0.39101505
1.0028907 0.58374804 0.3983647 0.49452847 0.43333814 0.45980138 0.4505315 -0.11636525

net.4.bias f4 [27]
00000000: f8ac 20bd bcbf 203e 5525 7fbd c680 193d
00000010: 777a 863d 6236 053e 05c5 7a3d 7133 3f3e
00000020: fb29 81bd d927 db3e ba18 893d 7874 1e3e
00000030: a7a4 c73c 8b5e 443e 2644 de3d e9e7 a73d
00000040: 0f3c 28bd 85ba 84bd 19b2 7b3e facf 043f
00000050: 5c58 e63e 3d12 4c3d 76ad c03d 16b2 0f3e
00000060: 75b1 893c 15c7 163e 7f19 193d
-0.039227456 0.15698141 -0.062291462 0.037476324 0.06566327 0.13009027 0.06122305 0.18671967
-0.06306835 0.4280384 0.06694169 0.15474117 0.024370505 0.1917669 0.10852842 0.0819853
-0.0410729 -0.06480888 0.24579658 0.5187985 0.44989288 0.04982208 0.09408085 0.14032778
0.01680825 0.14724381 0.03737783
