model/dqn_policy_net_episode_1000.pt (torch, 334295 bytes, 6 tensors)

net.0.weight f4 [128, 336]
0.10157233 -0.15467797 0.07139318 0.026578827 -0.0034882315 -0.19545889 0.062829286 -0.080457635
0.16602023 -0.06270182 -0.034559846 -0.11164244 0.033110313 -0.034593478 -0.01310528 -0.04732058
-0.10649248 -0.03863501 0.09612643 -0.15038726 0.09021522 0.10061295 -0.06672729 -0.027745042
-0.17306486 -0.017348966 -0.054178704 -0.032578703 0.07757579 0.053200584 0.01955378 0.08317117
-0.40678066 -0.087576084 0.046049092 -0.025434813 0.054180145 0.12126387 0.16158219 -0.10178679
-0.07148781 -0.045219563 -0.11047362 0.024886692 -0.110903874 0.1832009 -0.090182915 0.065593764
-0.20037648 0.16943984 0.070166156 -0.0111028915 -0.014119447 0.15466414 0.13632192 0.020377992
0.19881794 9.979413e-05 -0.06731428 -0.0685472 0.034402374 -0.009354086 -0.12430314 -0.05684608
-0.125308 -0.07300369 -0.037547976 -0.011702281 -0.0660658 0.11562534 -0.005267135 -0.08969216
-0.19277696 0.10676735 0.13064629 0.16333725 -0.106425665 0.055881776 -0.13424796 0.12339748
0.20648235 -0.17481543 0.04755309 -0.0072301384 -0.27464432 0.03440378 0.05402986 -0.1544884
0.04044185 -0.13771822 0.053962126 -0.0043889224 -0.026823636 -0.12559853 0.035791192 -0.08107755
0.2836175 -0.09193693 0.06373762 -0.06579735 0.0131682195 0.004760422 -0.12071275 -0.08330145
-0.69513977 0.058409076 0.16883351 0.04514968 0.24886702 0.14680934 -0.021378135 0.0027859788
0.13239124 -0.037798475 0.031113707 -0.059405643 -0.025865303 -0.045601297 -0.12306375 -0.08509592
-1.2077216 0.05567593 0.08164651 -0.007842123 0.13952848 0.06745965 0.0900867 -0.033282068
0.29514813 -0.037117362 -0.07765029 -0.14399973 -0.18216209 -0.046212416 -0.048844732 -0.0153627535
-0.42198122 -0.030541899 -0.08844877 0.026931839 -0.04367537 0.13491452 0.15314202 0.046263177
0.38784212 -0.005238508 -0.029036678 -0.25413904 0.03335281 -0.054967295 -0.016226348 -0.14894351
0.08171569 -0.231422 0.04746056 0.019556541 -0.095218025 0.0975542 0.01212862 -0.054497994
0.028552921 -0.105770655 -0.0211526 0.09763862 0.040526845 -0.025892824 -0.10990865 -0.037966274
0.57518786 -0.26197314 -0.09565884 -0.0688342 -0.21547551 -0.10567196 -0.16289769 -0.14485762
0.47750875 0.13084522 -0.05183554 -0.16505928 -0.045412004 -0.2202344 0.035416 -0.1335177
0.78263324 0.0936055 -0.14749706 -0.0802915 -0.062136605 -0.1904557 -0.026339645 -0.0133432625
-0.79454565 0.1281382 0.10901656 0.1500767 0.21171133 0.32441163 0.20122959 0.21130747
0.7234638 -0.0029774583 -0.10736971 -0.09943308 0.09655179 -0.33663762 -0.19164826 0.058734376
-1.6588694 0.25916836 0.2816274 0.35759076 0.2730616 0.292181 0.16101044 0.2146714
0.6623083 -0.05991482 -0.099735 -0.023438597 -0.046211723 -0.31792066 -0.0724578 0.018731995
-0.6339412 0.21193758 0.2770447 0.26534894 0.10070093 0.20234962 -0.24596351 0.23489103
0.5973738 0.12734815 -0.07747324 -0.10970517 0.08665655 -0.07129522 0.059411783 -0.100833364
0.7143058 0.031163858 0.15085892 -0.006988356 -0.06446084 -0.16586237 -0.17891333 -0.09732536
-0.9064527 0.3297942 0.0537685 0.24613768 0.13620406 0.41067696 0.0033790693 0.40204924
00000000: 2705 d03d e763 1ebe 9636 923d d7bb d93c
00000010: d09a 64bb 6026 48be a4ac 803d f9c6 a4bd
00000020: 3501 2a3e d069 80bd a08e 0dbd cba4 e4bd
00000030: ae9e 073d e4b1 0dbd 87b7 56bc 39d3 41bd
00000040: bb18 dabd bf3f 1ebd efdd c43d 1eff 19be
00000050: c2c2 b83d 2a0e ce3d 51a8 88bd 9249 e3bc
00000060: ea37 31be 6b1f 8ebc 7dea 5dbd 3f71 05bd
00000070: 0ee0 9e3d dbe8 593d 402f a03c a555 aa3d
00000080: 8e45 d0be 175b b3bd f99d 3c3d ab5c d0bc
00000090: 00ec 5d3d 3159 f83d cd75 253e 9875 d0bd
000000a0: 3368 92bd 2638 39bd fe3f e2bd 2ddf cb3c
000000b0: 9221 e3bd 0499 3b3e d2b1 b8bd 0656 863d
000000c0: 7e2f 4dbe a381 2d3e 46b3 8f3d e7e8 35bc
000000d0: 4155 67bc 4760 1e3e f997 0b3e bfef a63c
000000e0: ee96 4b3e 9148 d138 12dc 89bd 7962 8cbd
000000f0: 81e9 0c3d e141 19bc a592 febd 6fd7 68bd
00000100: be50 00be f582 95bd e8cb 19bd edba 3fbc
00000110: 824d 87bd facc ec3d ee97 acbb 86b0 b7bd
00000120: 5367 45be d7a8 da3d 24c8 053e e141 273e
00000130: b3f5 d9bd 4ae4 643d 4c78 09be d1b7 fc3d
00000140: 1c70 533e d102 33be 07c7 423d ccea ecbb
00000150: 2e9e 8cbe faea 0c3d 6a4e 5d3d 3532 1ebe
00000160: 5aa6 253d 0106 0dbe 6407 5d3d f3d0 8fbb
00000170: 3ebd dbbc e79c 00be c999 123d fd0b a6bd
00000180: 5036 913e 6e49 bcbd df88 823d c3c0 86bd
00000190: 84bf 573c 50fd 9b3b 3f38 f7bd f399 aabd
000001a0: aef4 31bf 5b3e 6f3d b1e2 2c3e dfee 383d
000001b0: ffd6 7e3e 3055 163e 3321 afbc f894 363b
000001c0: 9291 073e 93d2 1abd 2ce2 fe3c 5553 73bd
000001d0: 79e3 d3bc 6dc8 3abd d908 fcbd c546 aebd
000001e0: 9f96 9abf 720c 643d 4936 a73d 3f7c 00bc
000001f0: 8ee0 0e3e 4928 8a3d 607f b83d c752 08bd
00000200: a81d 973e 6008 18bd 1e07 9fbd aa74 13be
00000210: b388 3abe 3b49 3dbd 6a11 48bd 0fb4 7bbc
00000220: ec0d d8be 0133 fabc a124 b5bd 29a0 dc3c
00000230: f2e4 32bd 0827 0a3e 43d1 1c3e 757e 3d3d
00000240: 3e93 c63e caa7 abbb 54de edbc 831e 82be
00000250: f59c 083d 6325 61bd 1eed 84bc a684 18be
00000260: 8e5a a73d e4f9 6cbe 0166 423d 0a35 a03c
00000270: ab01 c3bd 7fca c73d 1fb7 463c 4a39 5fbd
00000280: d1e7 e93c 499e d8bd 3848 adbc c2f6 c73d
00000290: 7aff 253d 301d d4bc c917 e1bd 8682 1bbd
000002a0: 833f 133f 5821 86be c8e8 c3bd f2f8 8cbd
000002b0: 9da5 5cbe 8a6a d8bd a7ce 26be 8e55 14be
000002c0: 077c f43e 4afc 053e 8151 54bd 4d05 29be
000002d0: f001 3abd 2085 61be 5e10 113d ddb8 08be
000002e0: a75a 483f 3eb4 bf3d 7809 17be df6f a4bd
000002f0: f482 7ebd d206 43be 3dc6 d7bc b39d 5abc
00000300: 5867 4bbf a936 033e 1344 df3d b5ad 193e
00000310: dbca 583e 4819 a63e 210f 4e3e fc60 583e
00000320: ec34 393f 7621 43bb a7e4 dbbd 92a3 cbbd
00000330: f2bc c53d c45b acbe 713f 44be 7593 703d
00000340: d555 d4bf b7b1 843e 7731 903e 2316 b73e
00000350: bbce 8b3e bf98 953e ecdf 243e d2d2 5b3e
00000360: 098d 293f 3e69 75bd dd41 ccbd 4d02 c0bc
00000370: 8148 3dbd 7fc6 a2be c164 94bd d773 993c
00000380: f849 22bf 2a06 593e ced8 8d3e d1db 873e
00000390: 4a3c ce3d bd34 4f3e dcdd 7bbe 4687 703e
000003a0: 7ded 183f 8e67 023e 4aaa 9ebd 1bad e0bd
000003b0: fd78 b13d 3a03 92bd c559 733d b981 cebd
000003c0: bfdc 363f 594b ff3c c37a 1a3e 94fe e4bb
000003d0: 0b04 84bd d3d7 29be 0e35 37be 8552 c7bd
000003e0: 490d 68bf c9da a83e 5c3c 5c3d 840b 7c3e
000003f0: 1479 0b3e 4044 d23e 6073 5d3b 66d9 cd3e

net.0.bias f4 [128]
0.12606472 0.12115499 0.06541009 0.080105565 0.17376034 0.04692126 0.36370325 0.16984959
-0.0066079297 0.15296635 0.11410946 0.038804546 0.09942527 0.07059999 0.108728394 0.09419594
0.047361087 0.16858506 0.13158292 0.05213753 0.07678695 0.05772068 0.22974177 0.10606062
0.15832533 0.12269032 0.10382442 0.14490408 0.09929763 0.3237466 0.1541154 0.10288715
0.12267892 0.07726284 0.09731288 0.058052473 0.09478805 0.15328646 0.18960881 0.12584306
-0.029378528 0.063674554 0.039487846 0.10655851 0.07647149 0.14489305 0.09151474 0.17091395
0.11022697 0.122370206 0.013740498 0.101900876 0.04856376 0.06972583 0.111828186 0.10494186
0.122549094 -0.023167303 0.1821409 0.08698586 0.1314995 0.12896007 0.02377175 0.101782024
0.1254122 0.14027631 0.2153624 0.09839016 0.086841024 0.030203424 0.14314307 0.15983774
0.17018773 0.12129268 0.11159289 0.2705428 0.13145077 0.14905697 0.15164837 0.109167285
0.06561743 0.8642084 0.15098839 0.24137753 0.13913175 0.124031216 0.16217189 0.03273071
0.3132827 0.1264286 0.11226598 0.04986623 0.13119458 0.0103532085 0.20241812 0.0727159
-0.0069396636 0.14658125 0.089686245 0.080420315 0.14891316 0.2619166 0.0837786 0.16258267
0.062484603 0.09681985 0.11239349 0.058766443 0.098529935 0.12915532 0.025894973 0.13502464
0.039453644 0.15921351 0.12990953 0.052109327 -0.03798112 0.21462186 -0.038869787 0.16998056
0.101256646 0.1374781 0.18589848 0.17629528 0.14767201 0.07564681 0.07188603 0.08668319
00000000: 1c17 013e 1b20 f83d baf5 853d 630e a43d
00000010: 3bee 313e 8230 403d 5037 ba3e 0ded 2d3e
00000020: 5587 d8bb 36a3 1c3e 38b2 e93d 84f1 1e3d
00000030: 7a9f cb3d ba96 903d feac de3d cde9 c03d
00000040: b3fd 413d 90a1 2c3e acbd 063e 2a8e 553d
00000050: 7a42 9d3d 856c 6c3d 6d41 6b3e 4f36 d93d
00000060: 0920 223e 1045 fb3d e6a1 d43d bc61 143e
00000070: 8e5c cb3d 1dc2 a53e 6dd0 1d3e 80b6 d23d
00000080: 163f fb3d fb3b 9e3d fa4b c73d 6ec8 6d3d
00000090: 3d20 c23d 20f7 1c3e d028 423e 01dd 003e
000000a0: 3dab f0bc ce67 823d 02be 213d 593b da3d
000000b0: 169d 9c3d d85e 143e 146c bb3d 1104 2f3e
000000c0: adbe e13d 3b9d fa3d d31f 613c 68b1 d03d
000000d0: cbea 463d 6acc 8e3d 2d06 e53d c2eb d63d
000000e0: 05fb fa3d 5bc9 bdbc 2583 3a3e a425 b23d
000000f0: cea7 063e 1c0e 043e f9bc c23c 1873 d03d
00000100: 0e6c 003e 98a4 0f3e f687 5c3e c880 c93d
00000110: b5d9 b13d 2c6d f73c 1994 123e 81ac 233e
00000120: b145 2e3e 4c68 f83d d08a e43d 9684 8a3e
00000130: 089b 063e 64a2 183e b649 1b3e 1993 df3d
00000140: 6e62 863d c33c 5d3f b39c 1a3e ac2b 773e
00000150: 8e78 0e3e 1404 fe3d 6310 263e a310 063d
00000160: 9766 a03e 8076 013e b5eb e53d 8840 4c3d
00000170: df57 063e 81a0 293c b246 4f3e 13ec 943d
00000180: 1e66 e3bb 6519 163e 6cad b73d 68b3 a43d
00000190: b17c 183e ef19 863e 1d94 ab3d 127c 263e
000001a0: dbef 7f3d 7c49 c63d 8f2e e63d 15b5 703d
000001b0: 10ca c93d 4b41 043e b221 d43c e643 0a3e
000001c0: 259a 213d de08 233e 0107 053e 9770 553d
000001d0: 1792 1bbd d5c5 5b3e ed35 1fbd 620f 2e3e
000001e0: a55f cf3d 0fc7 0c3e 2c5c 3e3e c086 343e
000001f0: 5537 173e b7ec 9a3d fc38 933d f586 b13d

net.2.weight f4 [256, 128]
1.2249765 0.07360937 2.0167751 0.36224067 -0.07000751 0.5310028 0.6826928 1.7186635
2.6777556 0.577575 0.8328517 0.340086 0.040830344 0.11885607 -0.22883505 0.90620846
0.59992653 -0.00013668506 0.5421394 1.5565397 1.1849293 1.7717854 -0.02118663 0.73441064
0.36150727 0.20566292 0.7766861 -0.16932197 0.4392301 0.098401286 0.19235392 0.6976485
0.7825253 0.5430786 0.40128535 0.66497946 -0.13764058 1.307533 1.3897407 0.028935844
-0.90889007 0.27867538 0.097685546 0.084862 0.28574282 0.34880954 1.0042112 1.1484782
0.72114444 0.18946917 0.7309929 1.5720631 0.5638152 0.039328195 0.5683316 -0.22685862
-0.3474733 -0.9133125 0.3191041 1.4374278 -0.010099882 2.2612612 0.37539902 0.5376421
0.052067447 0.5099883 1.0249351 0.1223759 1.068734 0.44608074 -0.20299923 0.15504463
0.2997892 1.1293848 0.45416144 0.13439356 0.31549937 -0.3266148 0.7258057 0.27184317
0.64396644 0.52952945 -0.6082421 0.15990822 0.4890139 -0.254883 0.7029653 0.7640726
-0.20248291 0.19401027 0.7438575 0.58994174 0.74669355 1.4038049 0.56033087 0.5128631
0.9161693 0.084841385 0.4084814 -1.0222672 -0.1375083 -0.26127532 1.4863136 0.3208904
0.19383344 0.3533721 0.52622056 0.029371884 1.0695468 1.5944101 0.23315978 0.60978967
0.7496639 0.7904155 0.5643095 1.0577968 1.888448 0.20867345 -0.95287156 0.79367447
0.2746489 0.028096115 0.34259683 0.56406796 2.2786362 0.08784195 1.1273345 1.4123783
2.30899 0.1664263 0.71428233 -0.07851975 0.47027868 0.60731465 -0.41930044 1.0942894
0.3208065 0.28970128 -0.21206424 0.14103208 0.3247272 0.8189223 0.7917108 1.0102642
0.35566953 0.8015546 0.28260872 0.10742265 1.5641345 0.9708481 0.68187857 0.7446384
0.5965882 0.50427586 0.8896293 0.44011483 0.21271975 0.4737307 0.104949266 1.755356
0.46594945 0.93500894 0.6670697 0.21582747 1.0047268 1.2008468 0.9903947 0.60457593
-1.1763636 0.44486913 0.40304315 0.74172854 0.57985055 0.6699189 1.8010048 0.6275164
1.6822501 0.23130383 -0.025389263 0.83342856 0.67727995 0.30807102 0.6534658 0.511634
0.8944973 -1.0976722 -0.055320434 1.3849838 0.047229394 0.29295975 0.12789796 0.4894872
-0.14927943 0.119856566 1.3641886 0.29795706 1.7070062 -0.42719167 0.9064269 0.7486879
0.84545445 0.23214492 0.123681396 0.40676582 0.8807987 0.60900307 0.60831493 0.99903727
0.81630975 -0.28497154 0.46142894 0.2974313 0.73648906 0.3760212 0.14145344 0.3920627
0.8222937 0.6959892 -0.036534823 0.33021468 0.007275719 -0.6620457 -0.31477845 0.39173833
-0.117633395 0.9448164 0.7435551 1.0665342 0.9215606 0.5084395 1.5811421 0.7761193
0.5652288 0.38090068 0.2683099 0.6725739 -0.078686565 0.93400574 0.86118954 -0.020946829
-0.012755535 1.7342472 0.79016143 -0.16637607 -0.8346079 0.18499444 -1.1750596 1.0592915
0.9920784 0.5233157 0.3692485 0.54468095 -0.032237586 0.49681914 2.3114126 1.6764007
00000000: 08cc 9c3f 82c0 963d d812 0140 9c77 b93e
00000010: 1960 8fbd cdef 073f f5c4 2e3f 2afd db3f
00000020: 5960 2b40 f5db 133f c535 553f c11f ae3e
00000030: b83d 273d d06a f33d bc53 6abe 47fd 673f
00000040: c994 193f 1e53 0fb9 a6c9 0a3f b13c c73f
00000050: c3ab 973f ddc9 e23f 958f adbc 5602 3c3f
00000060: 7b17 b93e 4d99 523e e6d4 463f bd62 2dbe
00000070: c5e2 e03e 9d86 c93d 6df8 443e 1899 323f
00000080: 9453 483f 3307 0b3f 4675 cd3e 183c 2a3f
00000090: a7f1 0cbe 3e5d a73f 06e3 b13f dd0a ed3c
000000a0: 05ad 68bf 8aae 8e3e 5c0f c83d 21cc ad3d
000000b0: e24c 923e 2a97 b23e fe89 803f 5501 933f
000000c0: ec9c 383f 3504 423e 5a22 3b3f 5d39 c93f
000000d0: 3156 103f 9a16 213d 2e7e 113f a04d 68be
000000e0: 05e8 b1be d9ce 69bf 9d61 a33e a2fd b73f
000000f0: fa79 25bc 81b8 1040 4d34 c03e eaa2 093f
00000100: ad44 553d 988e 023f 1331 833f 37a0 fa3d
00000110: 47cc 883f b264 e43e 08df 4fbe 05c4 1e3e
00000120: f87d 993e ae8f 903f d987 e83e 779e 093e
00000130: 2289 a13e 0e3a a7be 67ce 393f 072f 8b3e
00000140: fcda 243f 3e8f 073f c1b5 1bbf fbbe 233e
00000150: 0860 fa3e 0680 82be 89f5 333f 439a 433f
00000160: ae57 4fbe a1aa 463e 726d 3e3f 6c06 173f
00000170: 4f27 3f3f e1af b33f d871 0f3f ff4a 033f
00000180: 128a 6a3f 52c1 ad3d 7924 d13e a7d9 82bf
00000190: face 0cbe e1c5 85be 863f be3f bf4b a43e
000001a0: 467c 463e 30ed b43e 64b6 063f 4e9d f03c
000001b0: e9e6 883f a115 cc3f 70c1 6e3e 2d1b 1c3f
000001c0: f9e9 3f3f ac58 4a3f 9676 103f e365 873f
000001d0: aab8 f13f 7eae 553e 64ef 73bf 402e 4b3f
000001e0: c89e 8c3e d329 e63c da68 af3e c266 103f
000001f0: 2dd5 1140 7be6 b33d 7f4c 903f d0c8 b43f
00000200: 7ec6 1340 a86b 2a3e 35db 363f f6ce a0bd
00000210: 5ec8 f03e f978 1b3f 8cae d6be ad11 8c3f
00000220: c040 a43e ba53 943e 5e27 59be b76a 103e
00000230: a542 a63e e4a4 513f 8fad 4a3f 5650 813f
00000240: 511a b63e af32 4d3f 17b2 903e 6800 dc3d
00000250: 8f35 c83f 8089 783f 988f 2e3f 9fa0 3e3f
00000260: 01ba 183f 3918 013f bfbe 633f bb56 e13e
00000270: 35d3 593e d58c f23e a4ef d63d 81af e03f
00000280: ed90 ee3e bf5c 6f3f 14c5 2a3f e001 5d3e
00000290: e39a 803f 59b5 993f 828a 7d3f 7dc5 1a3f
000002a0: 1593 96bf e3c5 e33e ac5b ce3e ece1 3d3f
000002b0: 1671 143f ce7f 2b3f 5387 e63f eaa4 203f
000002c0: f953 d73f e9da 6c3e 25fd cfbc 935b 553f
000002d0: 3862 2d3f 7cbb 9d3e 8949 273f 72fa 023f
000002e0: c6fd 643f 8680 8cbf ae97 62bd 2647 b13f
000002f0: 9c73 413d d2fe 953e aff7 023e 119e fa3e
00000300: b5dc 18be 5c77 f53d bb9d ae3f d48d 983e
00000310: 2e7f da3f deb8 dabe 980b 683f 03aa 3f3f
00000320: b46f 583f 66b7 6d3e ac4c fd3d 9c43 d03e
00000330: 067c 613f a0e7 1b3f 87ba 1b3f e8c0 7f3f
00000340: adf9 503f cae7 91be 6a40 ec3e ea48 983e
00000350: 8c8a 3c3f da85 c03e 2cd9 103e 71bc c83e
00000360: d781 523f 592c 323f 8aa5 15bd e611 a93e
00000370: 2869 ee3b d47b 29bf a42a a1be ed91 c83e
00000380: c7e9 f0bd 7ddf 713f a159 3e3f 3184 883f
00000390: 65eb 6b3f 1729 023f dd62 ca3f c1af 463f
000003a0: d6b2 103f 6a05 c33e ea5f 893e ce2d 2c3f
000003b0: 6c26 a1bd 001b 6f3f eb76 5c3f af98 abbc
000003c0: 97fc 50bc d0fb dd3f 0548 4a3f 7d5e 2abe
000003d0: dda8 55bf 2f6f 3d3e 5a68 96bf dd96 873f
000003e0: daf8 7d3f 05f8 053f 240e bd3e 3670 0b3f
000003f0: 8f0b 04bd 145f fe3e 2fee 1340 4c94 d63f

net.2.bias f4 [256]
0.27934894 0.22234748 0.065233186 0.18315405 0.18078506 0.25746313 -0.33716515 0.20171295
1.4698973 -0.2257415 -0.22895788 0.035846625 0.20341885 0.12864986 0.15113012 0.13643195
0.19875355 0.14889094 -0.25875086 0.09845235 -0.2680802 0.2330592 0.06512103 -0.0063429205
0.332636 0.14436139 0.11335566 0.1594869 0.23970774 0.2358541 0.09191732 0.24776067
-0.26875937 -0.30891174 0.16559784 -0.18742338 0.39737326 -0.015310695 0.18686602 0.13033646
0.05905487 0.12549423 0.09675626 0.22196092 0.15920058 0.26775464 0.23103592 -0.006244295
0.17025757 0.17422824 -0.31760335 0.27143165 -0.308032 0.24476093 -0.2654277 0.1718508
0.07543275 0.10216029 -0.3178133 -0.00039051464 0.14103492 0.17622261 0.37250963 0.22193165
0.08738223 1.4108359 0.32461923 0.07659264 0.10007217 0.07162905 0.2782523 -0.27564245
0.13886103 0.11221677 -0.5790875 0.28779563 0.3961212 1.08879 0.22303219 0.237167
-0.2812958 0.15573046 -0.24433771 0.08045219 0.106018886 0.05317983 0.06489702 0.09474763
0.10148575 0.5811134 0.17779838 0.18654843 0.040395103 1.4110823 0.32024333 0.066100545
0.048646346 0.30687213 0.31662834 0.23541525 -0.2044061 0.082081795 0.35820407 -0.19894615
0.103943914 0.35637558 0.20924893 0.23395912 0.23754613 0.10550217 0.40726262 0.075427644
0.05952749 0.08727677 0.12655273 -0.010324316 0.02703879 -0.32073757 -0.33311266 -0.16506693
0.34976608 0.1902429 -0.23276113 0.17310177 0.34106153 0.21590623 0.05293054 0.11625447
0.1480531 0.16450502 0.11947779 0.25144422 0.038444977 0.19644727 0.22580129 0.05553175
0.45456904 0.13495344 0.11958294 0.16626726 0.2877208 0.25476512 0.1829169 0.21631217
0.07297903 0.23568045 -0.26630038 -0.147265 0.31670028 0.2379161 0.46111062 0.019397564
0.10396499 0.14758542 0.03006073 0.11022356 0.27767804 0.11044238 0.23238187 0.13608721
-0.21882516 0.2200764 0.18193796 0.3236362 0.15863782 0.17136481 -0.12655891 0.087314405
0.19020757 -0.3208702 0.21372044 0.15690213 1.2389491 0.21109441 0.23539132 0.05065506
0.1467049 0.061543204 0.20152323 0.063649796 0.0559738 -0.039157823 0.08761602 0.16021752
-0.04080581 0.012905832 0.64591545 0.115266934 -0.17745799 0.36833096 -0.30071265 0.14198536
0.2469652 -1.4109274 0.22417995 0.21868761 0.23550528 0.27177992 0.2099041 0.15718319
0.18745552 -0.32998753 0.20556478 0.158615 0.20415886 -0.15199642 -0.2938805 0.17285934
0.112147376 0.11882643 0.13972966 0.19713359 0.16569111 1.0620042 0.1523506 0.6221561
0.20621082 0.15132354 0.21452804 0.1899029 0.09771838 0.23823057 0.13128039 0.08045832
0.16421114 0.07479929 0.23760632 0.06542371 0.16332506 0.13145302 -0.23650424 0.09157334
0.08942891 0.16327712 -0.19936427 0.40567666 0.2453705 0.09665984 0.15249412 0.74904096
0.14029755 0.100259066 -0.29947203 0.15490371 0.15975575 0.33052593 0.20135713 0.13196698
-0.012109482 -0.31382313 0.22166719 -0.16927081 0.16792981 0.09337043 0.3149469 0.43660977
00000000: d306 8f3e 0faf 633e fa98 853d bc8c 3b3e
00000010: b81f 393e 35d2 833e e9a0 acbe d78d 4e3e
00000020: 9825 bc3f c828 67be ef73 6abe e9d3 123d
00000030: 084d 503e cabc 033e dbc1 1a3e d1b4 0b3e
00000040: 0d86 4b3e de76 183e fe7a 84be 63a1 c93d
00000050: cf41 89be 12a7 6e3e 2d5e 853d 46d8 cfbb
00000060: 444f aa3e 79d3 133e 0327 e83d 8950 233e
00000070: f275 753e bd83 713e 263f bc3d f9b4 7d3e
00000080: d49a 89be ae29 9ebe 7b92 293e eaeb 3fbe
00000090: 8274 cb3e b6d9 7abc ce59 3f3e ec76 053e
000000a0: 85e3 713d 8f81 003e 2528 c63d b949 633e
000000b0: 7a05 233e 2317 893e ae94 6c3e f19c ccbb
000000c0: 0058 2e3e e368 323e e89c a2be 17f9 8a3e
000000d0: 5fb6 9dbe 9ca2 7a3e 24e6 87be a8f9 2f3e
000000e0: 7c7c 9a3d 6a39 d13d 6db8 a2be fdbd ccb9
000000f0: 756b 103e b373 343e 95b9 be3e 0d42 633e
00000100: 74f5 b23d 4596 b43f 7e34 a63e 9adc 9c3d
00000110: a3f2 cc3d 40b2 923d 1677 8e3e 0221 8dbe
00000120: 9631 0e3e e8d1 e53d 143f 14bf f359 933e
00000130: 66d0 ca3e 795d 8b3f 8d62 643e e8db 723e
00000140: 0106 90be ce77 1f3e aa33 7abe 1ec4 a43d
00000150: 6e20 d93d 18d3 593d bbe8 843d 0c0b c23d
00000160: c3d7 cf3d d9c3 143f c710 363e 8d06 3f3e
00000170: 5675 253d 589e b43f eff6 a33e b95f 873d
00000180: 6441 473d 581e 9d3e 1c1d a23e b210 713e
00000190: d54f 51be 801a a83d 8666 b73e 8ab8 4bbe
000001a0: 8ce0 d43d dc76 b63e 5a45 563e fb92 6f3e
000001b0: 4b3f 733e 8611 d83d ba84 d03e cf79 9a3d
000001c0: 19d3 733d 2abe b23d 0a97 013e 5227 29bc
000001d0: 7480 dd3c b737 a4be be8d aabe 4e07 29be
000001e0: 8a14 b33e 09cf 423e ef58 6ebe 9741 313e
000001f0: 9e9f ae3e 8616 5d3e b2cd 583d d316 ee3d
00000200: 3b9b 173e 0174 283e c6b0 f43d 4cbd 803e
00000210: 7b78 1d3d 7929 493e 7438 673e 4375 633d
00000220: 46bd e83e 3c31 0a3e e7e7 f43d f741 2a3e
00000230: 2450 933e 9370 823e 914e 3b3e f080 5d3e
00000240: 0876 953d 3756 713e 8658 88be a3cc 16be
00000250: 8a26 a23e 47a0 733e b116 ec3e a4e7 9e3c
00000260: 99eb d43d a220 173e ec41 f63c e4bc e13d
00000270: d12b 8e3e 9d2f e23d 83f5 6d3e 725a 0b3e
00000280: b413 60be b55b 613e f24d 3a3e a5b3 a53e
00000290: f471 223e 427a 2f3e a998 01be e5d1 b23d
000002a0: c6c5 423e 1949 a4be 88d9 5a3e f4aa 203e
000002b0: e295 9e3f 2229 583e 6c0a 713e ae7b 4f3d
000002c0: cf39 163e ba14 7c3d 1b5c 4e3e d35a 823d
000002d0: c944 653d f463 20bd 0770 b33d 1010 243e
000002e0: fe23 27bd fc72 533c b75a 253f 1211 ec3d
000002f0: 8cb7 35be e095 bc3e 02f7 99be 9c64 113e
00000300: 72e4 7c3e 4599 b4bf 6e8f 653e a5ef 5f3e
00000310: 4c28 713e bd26 8b3e 1af1 563e a1f4 203e
00000320: 57f4 3f3e 20f4 a8be 937f 523e f86b 223e
00000330: 050f 513e f3a4 1bbe 8177 96be 0a02 313e
00000340: 86ad e53d 455b f33d 4b15 0f3e 63dd 493e
00000350: eeaa 293e c1ef 873f cc01 1c3e 9f45 1f3f
00000360: ee28 533e 8ff4 1a3e 3dad 5b3e e875 423e
00000370: 9320 c83d b7f2 733e 5e6e 063e 55c7 a43d
00000380: f726 283e 5f30 993d 124f 733e defc 853d
00000390: af3e 273e 9f9b 063e 2b2e 72be ce8a bb3d
000003a0: 8126 b73d 1e32 273e 2626 4cbe dab4 cf3e
000003b0: 6842 7b3e 98f5 c53d 6b27 1c3e 26c1 3f3f
000003c0: 29aa 0f3e a054 cd3d 6654 99be 149f 1e3e
000003d0: 0397 233e b23a a93e 9030 4e3e 5a22 073e
000003e0: d966 46bc 6dad a0be b9fc 623e 5455 2dbe
000003f0: cbf5 2b3e ff38 bf3d b840 a13e 518b df3e

net.4.weight f4 [27, 256]
0.18486467 0.44652092 0.44624016 0.38112676 0.38946354 0.41478682 0.47852647 0.43638468
-1.0153736 0.48492745 0.45708263 0.47154978 0.47029093 0.32892805 0.37987366 0.36141127
0.37622473 0.41199833 0.41575202 0.39572126 0.5075287 0.28112304 0.4051291 0.49132368
0.3370641 0.40004292 0.41991588 0.2990603 0.2720885 0.3531277 0.41405037 0.3278948
0.5021951 0.41350883 0.36043075 0.37989676 0.5299004 -0.052616417 0.38510472 -0.17803793
0.44386113 0.33773434 0.4362504 0.36069798 0.3544711 0.38990897 0.02380858 0.40534717
0.3795377 0.35933945 0.48416182 0.4029699 0.49223787 0.9003603 0.4715394 0.4096753
0.3317449 0.4116699 0.4048368 0.23570879 0.3772888 0.38554963 0.48094535 0.365692
0.38359278 -0.93961966 0.28221178 0.4282716 0.32034472 0.4499148 0.326605 0.3774072
0.40125614 0.29284883 0.53182364 0.42677805 0.12562378 -0.33594447 0.32779148 0.30903977
0.4599155 0.32650867 0.45725983 0.34129786 0.32486445 0.33435416 0.41575292 0.40146872
0.3989142 -0.7484083 0.48656836 0.24296547 0.4038863 -0.91226023 0.1473352 0.13621709
0.4596793 0.07477354 0.08741631 0.34607536 0.3772383 0.2776958 0.46051523 0.373761
0.35407054 0.23155212 0.38449642 0.35097754 0.38840604 0.39052716 0.016731706 0.40852505
0.34697938 0.47222787 0.44874483 -0.013187401 0.3849516 0.39079612 0.55615914 0.41325986
-0.08295051 0.2138884 0.49580887 0.33783847 0.3327744 0.3089607 0.42197004 0.37171692
0.32509583 0.33436415 0.28465256 0.38108906 0.377773 0.4245181 0.21425837 0.3070503
0.2252386 0.44993478 0.42541596 0.4051148 0.37236953 0.16131361 0.30132386 0.35860187
0.41869918 0.4710081 0.43215683 0.24127677 0.45752594 0.36446688 0.66632235 0.30224714
0.30829015 0.3567534 0.32282263 0.3973615 0.3825154 0.43855453 0.33355463 0.33385435
0.4533068 0.3305518 0.30772617 0.3246162 0.36922887 0.41107145 0.48581535 0.4375261
0.41765025 0.38176855 0.3518232 0.43197253 -1.0623728 1.0744427 0.32403907 1.1019537
0.39097857 0.4485657 0.36158267 0.39462107 0.3882705 1.2247968 0.3796095 0.30979237
0.39653188 0.33852345 -0.8068037 0.38383856 0.40465176 0.16323327 0.4724331 0.43296555
0.3036842 0.13186377 0.33802456 0.2192779 0.4152424 0.40830112 0.38878453 0.39324093
0.38010654 0.46888047 0.37628397 0.43324253 0.42372313 0.4125851 0.4083636 0.44570112
0.32427323 0.3219523 0.39123088 0.38477772 0.39757448 -0.559632 0.3604561 -0.09138099
0.37753007 0.38110086 0.29071885 0.3241533 0.3550245 0.32090577 0.4470025 0.38543063
0.28639928 0.44832712 0.33934042 1.1456864 0.2460186 0.4125768 0.44099844 0.44657803
0.34663597 0.38923782 0.38938555 0.32924727 0.3520117 0.3398551 0.34935188 -0.0693429
0.33171663 0.4572539 0.51932615 0.32968703 0.35612053 0.2986638 0.41172954 0.32171246
0.9162718 0.48395875 0.3379415 0.41746807 0.37598142 0.39775708 0.3917891 -0.06696453
00000000: 2a4d 3d3e 649e e43e 9779 e43e 0c23 c33e
00000010: c467 c73e f05e d43e 6c01 f53e d06d df3e
00000020: c3f7 81bf 6948 f83e bc06 ea3e f96e f13e
00000030: f9c9 f03e 4269 a83e cd7e c23e e60a b93e
00000040: 87a0 c03e 72f1 d23e 73dd d43e fa9b ca3e
00000050: 67ed 013f 5cef 8f3e 156d cf3e c78e fb3e
00000060: aa93 ac3e 6dd2 cc3e 37ff d63e 6f1e 993e
00000070: 2f4f 8b3e 27cd b43e 69fe d33e d4e1 a73e
00000080: dc8f 003f 6eb7 d33e 618a b83e d481 c23e
00000090: 8da7 073f 5084 57bd 722c c53e 934f 36be
000000a0: c441 e33e 84eb ac3e 365c df3e 68ad b83e
000000b0: 3c7d b53e 26a2 c73e 360a c33c aa89 cf3e
000000c0: c452 c23e 57fb b73e 0fe4 f73e 1252 ce3e
000000d0: 9a06 fc3e 037e 663f 9d6d f13e f6c0 d13e
000000e0: 78da a93e 66c6 d23e c546 cf3e a55d 713e
000000f0: ff2b c13e c366 c53e 783e f63e fb3b bb3e
00000100: 4666 c43e ea8a 70bf 107e 903e 6a46 db3e
00000110: 3904 a43e 3c5b e63e c538 a73e 843b c13e
00000120: 7271 cd3e 48f0 953e 9825 083f a782 da3e
00000130: 85a3 003e ea00 acbe 49d4 a73e 763a 9e3e
00000140: 0b7a eb3e 252c a73e f61d ea3e 98be ae3e
00000150: a254 a63e 7830 ab3e 91dd d43e 4f8d cd3e
00000160: 7b3e cc3e b097 3fbf 7d1f f93e f1cb 783e
00000170: 2fca ce3e e389 69bf 0adf 163e 7e7c 0b3e
00000180: 165b eb3e df22 993d 5307 b33d ca30 b13e
00000190: 6125 c13e 252e 8e3e a7c8 eb3e 9a5d bf3e
000001a0: bc48 b53e 001c 6d3e b7dc c43e 54b3 b33e
000001b0: 28dd c63e 2df3 c73e ee10 893c 322a d13e
000001c0: 48a7 b13e dac7 f13e e2c1 e53e f80f 58bc
000001d0: 6018 c53e 6e16 c83e 7260 0e3f cc96 d33e
000001e0: f5e1 a9bd 9005 5b3e a9da fd3e 2af9 ac3e
000001f0: 6861 aa3e 1930 9e3e 750c d83e ae51 be3e
00000200: f672 a63e c731 ab3e fbbd 913e 1b1e c33e
00000210: 766b c13e 705a d93e 8c66 5b3e b235 9d3e
00000220: f3a4 663e da5d e63e 1fd0 d93e 356b cf3e
00000230: 38a7 be3e 652f 253e 1f47 9a3e aa9a b73e
00000240: bd5f d63e f927 f13e a943 dd3e 4211 773e
00000250: d740 ea3e 679b ba3e 1a94 2a3f 23c0 9a3e
00000260: 35d8 9d3e 62a8 b63e 0249 a53e f772 cb3e
00000270: 0fd9 c33e 388a e03e acc7 aa3e f5ee aa3e
00000280: d417 e83e 163e a93e 498e 9d3e 1834 a63e
00000290: 910b bd3e f577 d23e cabc f83e 6c03 e03e
000002a0: 41d6 d53e 2b77 c33e 2c22 b43e 812b dd3e
000002b0: d5fb 87bf 5787 893f 73e8 a53e d20c 8d3f
000002c0: 582e c83e 67aa e53e 5d21 b93e c60b ca3e
000002d0: 64cb c63e 24c6 9c3f 2d5c c23e 1b9d 9e3e
000002e0: 3a06 cb3e f252 ad3e b08a 4ebf 7d86 c43e
000002f0: 842e cf3e 9f26 273e c0e2 f13e a9ad dd3e
00000300: 7f7c 9b3e 4c07 073e 8e11 ad3e 638a 603e
00000310: a79a d43e d80c d13e c40e c73e e056 c93e
00000320: 539d c23e 1a11 f03e 4ba8 c03e f7d1 dd3e
00000330: 3df2 d83e 5b3e d33e 0915 d13e f032 e43e
00000340: 2407 a63e efd6 a43e 6a4f c83e 9601 c53e
00000350: e28e cb3e 0b44 0fbf b48d b83e f525 bbbd
00000360: 9f4b c13e a71f c33e 1ad9 943e 6cf7 a53e
00000370: c5c5 b53e c34d a43e 83dd e43e 2a57 c53e
00000380: eda2 923e 228b e53e 07be ad3e daa5 923f
00000390: 4dec 7b3e 443d d33e 8cca e13e e0a5 e43e
000003a0: 457a b13e 2e4a c73e 8b5d c73e 1993 a83e
000003b0: e13a b43e 7d01 ae3e 40de b23e a603 8ebd
000003c0: c3d6 a93e 2f1d ea3e 8ff2 043f bdcc a83e
000003d0: 6e55 b63e 76ea 983e 37ce d23e 7fb7 a43e
000003e0: ca90 6a3f 71c9 f73e ab06 ad3e 60be d53e
000003f0: a380 c03e d1a6 cb3e 9598 c83e b324 89bd

net.4.bias f4 [27]
-0.044861335 0.11464479 -0.07798053 -0.012158273 -0.013590458 0.033566497 -0.008458123 0.20569071
-0.083378986 0.2829858 0.06667472 0.13801655 -0.026838861 0.12009482 0.04458778 0.060079373
-0.0478641 -0.08503303 0.2521264 0.4110507 0.41720575 -0.032818932 0.03935527 0.17386939
-0.04074146 0.13609499 0.03218579
00000000: 85c0 37bd e3ca ea3d 42b4 9fbd 7e33 47bc
00000010: 83aa 5ebc 067d 093d f093 0abc 96a0 523e
00000020: 9ac2 aabd 84e3 903e c18c 883d 3654 0d3e
00000030: 2cdd dbbc 46f4 f53d ada1 363d ca15 763d
00000040: 260d 44bd cc25 aebd b616 813e 3d75 d23e
00000050: fe9b d53e 256d 06bd fe32 213d d10a 323e
00000060: 84e0 26bd 7c5c 0b3e 3fd5 033d
