model/dqn_policy_net_episode_2950.pt (torch, 334295 bytes, 6 tensors)

net.0.weight f4 [128, 336]
0	0x3dc9752b	0.09836801
1	0xbdf4e4b1	-0.11957682
2	0x3d893fff	0.067016594
3	0x3d804d4e	0.06264745
4	0xbdcfe285	-0.10150627
5	0xbeb5768b	-0.35442004
6	0x3cf578e7	0.029964877
7	0xbcf76fe2	-0.030204717
8	0x3dadb9f9	0.08482737
9	0x3aae7245	0.0013309201
10	0xbe0afbff	-0.13572691
11	0x3d416d91	0.04722363
12	0x3b920e0a	0.00445724
13	0xbe311399	-0.17292632
14	0xbd9b29d9	-0.07576341
15	0x3d00aa73	0.031412553
16	0xbd9240b8	-0.0714125
17	0xbd36bf1f	-0.04461586
18	0xbd5cca1a	-0.053903677
19	0xbdfd4383	-0.123663925
20	0x3d5f9f55	0.05459531
21	0xbb3d9422	-0.0028927405
22	0xbdf5c1d4	-0.119998604
23	0x3d0694e8	0.03285685
24	0xbe2cfef5	-0.16894133
25	0xbded4a85	-0.11586479
26	0x3dba339d	0.09091876
27	0xbd12a1e2	-0.035798915
28	0xbe26538e	-0.16242811
29	0xbbee077a	-0.007264075
30	0x3b63a73f	0.0034737138
31	0x3c9f42b0	0.019440979
32	0xbe231b77	-0.15928446
33	0xbc5d6d66	-0.013514852
34	0xbc9af300	-0.0189147
35	0xbdd9897a	-0.10621925
36	0xbc99748b	-0.01873233
37	0xbe34de22	-0.17662862
38	0xbde648c3	-0.11244347
39	0xbcb093d6	-0.021554869
40	0xbd41d514	-0.047322348
41	0xbe92d8d7	-0.2868106
42	0x3e604e75	0.21904929
43	0xbdda547e	-0.10660647
44	0x3e450b1a	0.19242516
45	0xbe079bfa	-0.13243094
46	0xbd0ee240	-0.034883738
47	0xbc09f8ec	-0.008421164
48	0x3d678679	0.056524727
49	0x3d9a1bc2	0.07524826
50	0xbde82db9	-0.11336846
51	0xbd82a0fd	-0.06378362
52	0x3de714ce	0.11283265
53	0xbe097c6e	-0.13426372
54	0xbe0a4060	-0.1350112
55	0x3e3be3b5	0.18348582
56	0x3db8bc1a	0.090202525
57	0xbec1194b	-0.3771461
58	0xbde76389	-0.11298282
59	0xbcfae707	-0.03062774
60	0x3db5168d	0.08842192
61	0x3d2850cb	0.041092675
62	0xbd4c7c14	-0.049923018
63	0x3d1959db	0.03743921
64	0xbc2dcd56	-0.010608038
65	0xbdb68348	-0.08911759
66	0xbea70350	-0.32619715
67	0x3ca6874d	0.020328188
68	0xbe68178b	-0.22665231
69	0x3cf515c1	0.0299176
70	0xbe80f4f1	-0.25186875
71	0x3d8c45a1	0.06849218
72	0xbe078fee	-0.13238499
73	0xbb94ca37	-0.0045407075
74	0x3c9f406c	0.019439898
75	0x3d8c8773	0.068617724
76	0x3e0b0f71	0.13580109
77	0xbc0df4c9	-0.008664318
78	0x3b8b95c0	0.004259795
79	0x3e0150cc	0.12628478
80	0x3e32667f	0.17421912
81	0xbb222d00	-0.002474606
82	0x3d820e40	0.06350374
83	0xbd39af86	-0.045333408
84	0xbe0302fd	-0.12794109
85	0xbde32534	-0.1109108
86	0xbe266452	-0.16249207
87	0x3d9616cc	0.07328567
88	0xbc8ac2b3	-0.016938543
89	0xbd9fba0e	-0.07799159
90	0x3d182f8f	0.03715473
91	0x3d5d0553	0.053960156
92	0x3d4723c4	0.048618093
93	0xbe8037e6	-0.25042647
94	0x3dcd6bfc	0.10030362
95	0xbb539899	-0.0032287
96	0x3e480124	0.19531685
97	0xbe53beae	-0.20678207
98	0x3d3d13a2	0.0461613
99	0x3cca6d76	0.024710398
100	0xbc0d14f9	-0.008610957
101	0xbd7f9afc	-0.062403664
102	0x3c8a947b	0.016916504
103	0x3ce990c6	0.028511416
104	0xbf36f98d	-0.71474534
105	0x3d9c9e0b	0.07647332
106	0x3da015f6	0.07816689
107	0x3e30c3d4	0.17262203
108	0x3ea020d9	0.3127506
109	0xbdd6c7ae	-0.10487305
110	0xbe015ee9	-0.12633862
111	0x3e04420d	0.12915821
112	0xbb68c2bb	-0.003551646
113	0xbc800268	-0.015626147
114	0xbc103da8	-0.0088037625
115	0x3d0a95f0	0.033834398
116	0xbdd6b88c	-0.10484418
117	0x3d44fd08	0.048092872
118	0xbd91f73b	-0.071272336
119	0xbd097f1b	-0.033568483
120	0xbf3d8e51	-0.7404528
121	0xbc168f35	-0.009189417
122	0xbe27c370	-0.16383147
123	0xbe46cb69	-0.19413532
124	0x3d41c384	0.0473056
125	0xbd803ef9	-0.06262011
126	0xbe288a93	-0.16459112
127	0xbd32abc2	-0.043620832
128	0x3e736d24	0.23772103
129	0xbe4e9153	-0.20172624
130	0x3d101bb5	0.035182673
131	0xbd4a3cd7	-0.049374428
132	0xbe5e7740	-0.21725178
133	0xbd928b80	-0.07155514
134	0xbe02d360	-0.12775946
135	0xbcb40e36	-0.021979433
136	0xbf05bd1c	-0.52241683
137	0x3dc47916	0.09593408
138	0xbd5be9fe	-0.05368995
139	0x3e1fd1ae	0.1560733
140	0xbdc5e6b3	-0.09663143
141	0x3b83237d	0.0040020333
142	0xbe05c2b5	-0.13062556
143	0x3e69682e	0.22793648
144	0x3ea4a758	0.32158923
145	0xbdf9b8d6	-0.12193458
146	0xbdf41bd6	-0.11919372
147	0xbe0e6479	-0.13905515
148	0xbd350beb	-0.04420082
149	0xbd26511d	-0.0406047
150	0x3d0d72ef	0.034533437
151	0xbdfecc8f	-0.1244136
152	0x3d011eae	0.0315234
153	0xbdbcce1e	-0.09219001
154	0xbc604616	-0.013688585
155	0x3e1f7a5c	0.1557402
156	0xbe22dc79	-0.15904416
157	0x3da003ff	0.07813262
158	0xbe9bee8c	-0.30455434
159	0x3cd76473	0.026293015
160	0x3d1f1052	0.038833924
161	0x3d12cfcb	0.035842698
162	0x3b80f4ed	0.0039354474
163	0xbcba02be	-0.022706386
164	0x3e0a73cb	0.13520734
165	0x3d1d18c4	0.038353696
166	0xbc2e3c6f	-0.010634526
167	0x3ca07ea2	0.019591633
168	0x3f0b5faf	0.54442877
169	0xbe5a9301	-0.2134514
170	0xbb9e410f	-0.004829533
171	0xbdf3e81a	-0.11909504
172	0xbea436c8	-0.32073045
173	0xbdca6a97	-0.09883612
174	0xbdf80395	-0.12110058
175	0x3da99ac7	0.082814746
176	0x3f0cd70f	0.55015653
177	0xbd133316	-0.03593739
178	0x3d991601	0.074749
179	0xbe6709bd	-0.22562309
180	0xbe0f5fb7	-0.14001356
181	0xbe6453db	-0.22297613
182	0xbc73a583	-0.014871004
183	0xbea616de	-0.3243932
184	0x3f536104	0.8256991
185	0xbe600967	-0.21878587
186	0xbd15d8ec	-0.036583826
187	0xbe2ca2b3	-0.1685894
188	0x3cf6f8e8	0.030147985
189	0xbbfeb5d1	-0.007773139
190	0x3ac206b9	0.0014803029
191	0x3d31748b	0.043324035
192	0xbf194520	-0.598711
193	0xbc91b74c	-0.017787598
194	0x3d743ce3	0.05962838
195	0x3e0f7f89	0.14013495
196	0xbd68fd31	-0.056882087
197	0x3eaf777b	0.34270844
198	0x3cb30fd1	0.021858128
199	0x3e5c76d7	0.21529709
200	0x3f17b03e	0.592533
201	0xbdf11a45	-0.11772589
202	0xbd5424da	-0.051792957
203	0xbd56a3cf	-0.052402314
204	0x3e2e8026	0.17041072
205	0xbcf2156c	-0.02955123
206	0xbdee75e5	-0.1164358
207	0x3e36152f	0.17781518
208	0xbfe39403	-1.7779545
209	0x3e842ade	0.25813955
210	0x3ef4475b	0.4771069
211	0x3e80c079	0.25146845
212	0x3e7d13bc	0.2471456
213	0x3f08ed28	0.5348687
214	0x3dfbe836	0.1230015
215	0x3e3f216d	0.18665095
216	0x3f04ffca	0.51952803
217	0x3d8d70c9	0.06906278
218	0xbdaa482d	-0.08314548
219	0x3c31e0a7	0.010856784
220	0x3d0756ba	0.033041693
221	0x3d4e2732	0.05033035
222	0xbc0c76a7	-0.008573211
223	0xbd9f874a	-0.07789476
224	0xbf4be39e	-0.7964419
225	0x3ecd7f82	0.40136343
226	0x3eb7d9d9	0.35908392
227	0x3ea359f7	0.31904575
228	0xbdc8621d	-0.097843386
229	0x3e3ad821	0.18246509
230	0xbde0186f	-0.1094216
231	0x3ef6f78f	0.48235747
232	0x3f363765	0.71178275
233	0x3d328a5f	0.043588992
234	0xbe329dcd	-0.17443009
235	0xbdad8b5b	-0.084738456
236	0xbd986ca5	-0.07442597
237	0xbdca1567	-0.098673634
238	0x3dc8fde8	0.09814054
239	0xbea04688	-0.3130381
240	0x3f7aea7b	0.9801404
241	0x3c90e4ba	0.01768719
242	0xbd9e91ce	-0.07742654
243	0xbe2c40b5	-0.16821559
244	0xbe8d2fd6	-0.27575558
245	0xbe99e3fa	-0.30056745
246	0x3daa9bc5	0.08330492
247	0xbee319de	-0.44355673
248	0xbf615218	-0.8801589
249	0x3eb76141	0.35816386
250	0x3eb8a51a	0.36063462
251	0x3e3e0c0a	0.1855928
252	0x3e43b306	0.19111261
253	0x3ecdb4a3	0.40176877
254	0x3d2e7c7e	0.042599194
255	0x3eef673d	0.46758452

net.0.bias f4 [128]
0	0x3e047107	0.12933742
1	0x3e1dccaa	0.15410104
2	0x3de75626	0.112957284
3	0x3e1fb792	0.1559737
4	0x3eb567ce	0.3543076
5	0x3e0da20f	0.13831352
6	0x3f1d0eb0	0.61350536
7	0x3e84a8a6	0.2590992
8	0x3b8d9baf	0.0043215374
9	0x3e57a170	0.21057677
10	0x3e1fe8cd	0.1561615
11	0x3dd04310	0.10169041
12	0x3e4e4cc5	0.20146473
13	0x3e0482dc	0.12940544
14	0x3e32e2f2	0.17469385
15	0x3e1d763f	0.15377139
16	0x3e018ceb	0.12651412
17	0x3e71146b	0.23542945
18	0x3e422aa0	0.18961573
19	0x3dab4175	0.08362094
20	0x3df57156	0.11984508
21	0x3daffb88	0.08592898
22	0x3edc85f9	0.43070963
23	0x3e62cf32	0.22149351
24	0x3e73b9f3	0.23801403
25	0x3e22a4ba	0.1588315
26	0x3e64f300	0.22358322
27	0x3e9a0543	0.3008214
28	0x3e1f6657	0.15566383
29	0x3f0a202d	0.53955346
30	0x3eaaf389	0.33388928
31	0x3e3da096	0.1851829
32	0x3e80ce19	0.2515724
33	0x3debc490	0.11512101
34	0x3e60d11d	0.2195477
35	0x3e069255	0.13141759
36	0x3df32709	0.1187268
37	0x3e617dea	0.22020689
38	0x3e7e46fb	0.24831764
39	0x3e2f8823	0.17141776
40	0xbdb58968	-0.08864099
41	0x3e0c4037	0.13696371
42	0x3d6e6b06	0.058207534
43	0x3e46d83c	0.19418424
44	0x3da49832	0.080368415
45	0x3e5f6169	0.21814503
46	0x3db74af1	0.08949841
47	0x3e807dbe	0.25095934
48	0x3e13d547	0.14436828
49	0x3e8b1fb5	0.27172628
50	0x3d19a263	0.03750838
51	0x3e5c84b4	0.21534997
52	0x3df7ab1f	0.12093186
53	0x3dee5ee5	0.116391934
54	0x3e46f2e6	0.19428596
55	0x3e2133f7	0.1574248
56	0x3e2c4cf3	0.16826229
57	0xbd818a96	-0.06325261
58	0x3ebd8c30	0.37021017
59	0x3e5138bb	0.20431797
60	0x3e865bbb	0.2624186
61	0x3de31dc9	0.110896654
62	0x3dbb2875	0.09138576
63	0x3e330805	0.17483528
64	0x3e72034e	0.23634073
65	0x3e480e20	0.19536638
66	0x3ea8907d	0.32922736
67	0x3deb9544	0.115030795
68	0x3e1f42f0	0.15552878
69	0x3dcb3570	0.09922302
70	0x3e406386	0.18787965
71	0x3e880df7	0.26573154
72	0x3e7f00e5	0.24902685
73	0x3e10fe5e	0.14159533
74	0x3e48d5a1	0.19612743
75	0x3efd7a01	0.49507144
76	0x3e3e339a	0.18574372
77	0x3e2d9d27	0.1695448
78	0x3e66d6f5	0.22542937
79	0x3e42b30b	0.19013612
80	0x3debfec8	0.11523205
81	0x3f9a01fd	1.2031857
82	0x3e75239e	0.23939368
83	0x3ededc53	0.4352747
84	0x3e6453fc	0.22297662
85	0x3e2b2811	0.16714503
86	0x3e5e2e03	0.2169724
87	0x3d849638	0.064739645
88	0x3f0292bc	0.5100515
89	0x3e8a492d	0.27008954
90	0x3e42383c	0.18966764
91	0x3dfa2634	0.12214318
92	0x3e3f27d0	0.18667531
93	0x3da78652	0.081799164
94	0x3ed194bd	0.4093379
95	0x3e1452cb	0.14484708
96	0x3d87889e	0.066178545
97	0x3e6b103d	0.22955413
98	0x3e16e910	0.14737344
99	0x3d6fc6b5	0.05853911
100	0x3e400896	0.18753275
101	0x3ee8d08a	0.45471603
102	0x3e1b9ac5	0.15195759
103	0x3e818280	0.25294876
104	0x3dbd90a9	0.09256107
105	0x3e1e5473	0.15461902
106	0x3e6c283f	0.23062228
107	0x3e005226	0.12531337
108	0x3e598821	0.21243335
109	0x3e19b120	0.15008974
110	0x3d7ca2c3	0.06167866
111	0x3ea5f98c	0.32416952
112	0x3dc99cbb	0.09844347
113	0x3e8f29f8	0.27961707
114	0x3e58f8a9	0.21188606
115	0x3df75d38	0.12078327
116	0xbd9f5f1c	-0.077818125
117	0x3edb4376	0.42824906
118	0xbe20c8dd	-0.15701623
119	0x3e6f5751	0.23373152
120	0x3e09ae97	0.13445507
121	0x3e41498d	0.18875714
122	0x3ea9e5e9	0.3318322
123	0x3e5e0efb	0.21685402
124	0x3e086d8e	0.13323042
125	0x3e5b3e1c	0.21410412
126	0x3dfda937	0.12385791
127	0x3e7181d9	0.23584689

net.2.weight f4 [256, 128]
0	0x3f733125	0.94996864
1	0xbca9e32e	-0.02073821
2	0x4028a281	2.6349185
3	0x3eb71044	0.35754597
4	0x3d9e8528	0.07740241
5	0x3f600554	0.8750813
6	0x3f5a2bc5	0.85223037
7	0x3fc7ac95	1.5599543
8	0x402e190c	2.7202787
9	0x3f0f9bc0	0.5609703
10	0x3f6c90a8	0.9240823
11	0x3ea3835b	0.31936154
12	0x3d108daa	0.03529135
13	0x3f0ceee4	0.5505202
14	0xbd8ccb1f	-0.0687468
15	0x3f977898	1.1833677
16	0x3f476dc5	0.7790187
17	0x3eaa2525	0.33231464
18	0x3f4aaac8	0.7916684
19	0x3fd6fa58	1.6795149
20	0x3f810c88	1.0081949
21	0x3fc25498	1.5182066
22	0x3e04cc46	0.12968549
23	0x3f8de228	1.1084642
24	0x3f1514d9	0.58234936
25	0x3f17003d	0.5898474
26	0x3f8e3c6e	1.1112192
27	0xbcef8906	-0.029240143
28	0x3f6658ad	0.8997906
29	0x3e86d784	0.263363
30	0x3e591dd7	0.21202789
31	0x3f2f92f2	0.68583596
32	0x3f7694f9	0.96321064
33	0x3f5f9d98	0.87349844
34	0x3f318f14	0.69358945
35	0x3f3ce7f4	0.7379143
36	0x3ee2d0ae	0.44299835
37	0x3fcd5f3b	1.6044687
38	0x3fcaafbd	1.5834881
39	0x3df981ed	0.121829845
40	0xc001b282	-2.0265203
41	0x3eeb56eb	0.4596475
42	0x3e0b0b3a	0.13578501
43	0x3ec73546	0.38907832
44	0x3f2377ba	0.63854563
45	0x3f4af2e8	0.79276896
46	0x3faf40a8	1.3691607
47	0x3fb91b1b	1.4461397
48	0x3f7da230	0.99075603
49	0x3e82b46e	0.25528282
50	0x3f69600a	0.9116217
51	0x3fe03d59	1.7518722
52	0x3f733751	0.9500628
53	0xbcf4b3fc	-0.02987098
54	0x3f56cd24	0.8390677
55	0xbe314b13	-0.17313795
56	0xbdd75de5	-0.10515956
57	0xc0060efe	-2.094665
58	0x3ea4e35c	0.3220471
59	0x4005dcb3	2.0915954
60	0xbe627a01	-0.22116853
61	0x4032b8f8	2.7925396
62	0x3f0f83f4	0.5606072
63	0x3f48aab8	0.78385496
64	0xbdee96d0	-0.11649859
65	0x3ee524ae	0.44754547
66	0x3f9bd4b0	1.2174282
67	0x3ef00385	0.46877685
68	0x3f488e2c	0.7834194
69	0x3f4a0d81	0.78926855
70	0x3ebdc192	0.37061745
71	0x3ea39886	0.31952304
72	0x3ee74400	0.45169067
73	0x3fd91b10	1.6961384
74	0x3eecbab7	0.46236202
75	0x3e842122	0.25806528
76	0x3ee299f3	0.4425808
77	0xbea558de	-0.32294363
78	0x3fa9bd2f	1.3260859
79	0x3ebdd101	0.3707352
80	0x3f2c6ce9	0.67353684
81	0x3f38fd59	0.7226158
82	0xbf5dfa5e	-0.86710155
83	0x3ea40737	0.32036754
84	0x3f38a81a	0.721315
85	0xbe755ef2	-0.23962
86	0x3f30e1ba	0.6909443
87	0x3fc57bb1	1.5428373
88	0xbc7287c3	-0.014802876
89	0x3f2136c2	0.6297418
90	0x3fa6b042	1.302254
91	0x3f6bac42	0.9205972
92	0x3f5c18e2	0.8597547
93	0x3fd1efed	1.6401345
94	0x3f2c0044	0.67187905
95	0x3f14afa1	0.5808049
96	0x3fd43aa9	1.6580402
97	0x3e8935fe	0.26799005
98	0x3f42ba60	0.76065636
99	0xbfe1e666	-1.7648437
100	0xbd4a7e22	-0.049436696
101	0xbe154678	-0.14577663
102	0x3fb30e71	1.3988782
103	0x3ebe2fdb	0.37145886
104	0x3f33043f	0.69928354
105	0x3f1a311c	0.60231185
106	0x3f12b33f	0.5730476
107	0x3e36243d	0.17787261
108	0x3fa65973	1.2996048
109	0x3fd9335c	1.6968799
110	0x3f1b5c7d	0.60688
111	0x3f30ed59	0.69112164
112	0x3fb71530	1.4303341
113	0x3f989861	1.1921502
114	0x3f5aa2e2	0.8540479
115	0x3fd5c007	1.6699227
116	0x40285010	2.6298866
117	0x3eaa9b78	0.33321738
118	0xc003c6f6	-2.0590186
119	0x3fa3225c	1.2744861
120	0x3f9d3ff0	1.2285137
121	0x3ec9a4de	0.39383596
122	0x3f09f9fd	0.53897077
123	0x3f5efe7b	0.87107056
124	0x40326418	2.7873592
125	0x3e9d44f2	0.30716664
126	0x3fa3e5df	1.2804526
127	0x3fc1e66e	1.5148447
128	0x401df7b9	2.4682448
129	0x3e8942a9	0.2680867
130	0x3efb6634	0.49101412
131	0x3db91c62	0.09038617
132	0x3f0aa891	0.5416346
133	0x3f11c4d4	0.5694096
134	0xbea05c88	-0.31320596
135	0x3f989226	1.1919601
136	0x3f166b2e	0.58757293
137	0x3ecb8a8d	0.39754143
138	0xbc9b9ee2	-0.01899666
139	0x3eb55c95	0.35422197
140	0x3eb00e9a	0.3438614
141	0x3f93bef6	1.1542652
142	0x3f56bda2	0.83883107
143	0x401435b3	2.3157775
144	0x3f1c1b6a	0.6097933
145	0x3f5a2b96	0.85222757
146	0x3f1451fd	0.57937604
147	0x3e46656a	0.19374624
148	0x3fcd2dc3	1.602959
149	0x3f788013	0.97070426
150	0x3f414c6a	0.75507224
151	0x3f5d664c	0.8648422
152	0x3f3b3ca0	0.7313938
153	0x3f4ac967	0.79213566
154	0x3f88ff2b	1.0702871
155	0x3f018ca9	0.50605255
156	0x3ec1d5a6	0.37858313
157	0x3f0df540	0.55452347
158	0x3e20e47e	0.15712163
159	0x3ffadfc3	1.9599537
160	0x3f424312	0.7588359
161	0x3fa0aa8d	1.2552048
162	0x3f96c8de	1.178005
163	0x3efebe4e	0.49754566
164	0x3fb7a16b	1.4346136
165	0x3fa9d153	1.3267006
166	0x3f811c84	1.0086827
167	0x3f20e55a	0.6284996
168	0xc015793b	-2.3355243
169	0x3f3fc9b3	0.74917144
170	0x3f00658b	0.5015494
171	0x3f421545	0.75813705
172	0x3f273286	0.6531147
173	0x3f3842bf	0.71976846
174	0x3ff7e896	1.9367855
175	0x3f21b580	0.6316757
176	0x3fea88b0	1.8322964
177	0x3e92d1f6	0.28675812
178	0x3e5367af	0.20645021
179	0x3fa822a0	1.3135567
180	0x3f4bfb5a	0.7968041
181	0x3ebfe708	0.3748095
182	0x3f4fd027	0.8117699
183	0x3efb0786	0.49029177
184	0x3f731aa0	0.949625
185	0xc017d5b2	-2.372418
186	0xbc0fb817	-0.008771918
187	0x3fd1cd8e	1.6390855
188	0x3d83f6d3	0.06443562
189	0x3ee795eb	0.45231566
190	0x3ef39eea	0.4758218
191	0x3f035a9d	0.5131014
192	0xbe2c7dab	-0.16844814
193	0x3edd3672	0.432056
194	0x3fe760cb	1.8076414
195	0x3f02aa52	0.5104114
196	0x400482d1	2.0704844
197	0xbdc35b13	-0.095388554
198	0x3faf679c	1.3703494
199	0x3f518649	0.8184553
200	0x3f63d03f	0.88989633
201	0x3f154217	0.5830397
202	0x3ef6ff4d	0.48241654
203	0x3ef7b08f	0.4837689
204	0x3f72ebf9	0.94891316
205	0x3f3c37fa	0.73522913
206	0x3f2a6717	0.6656355
207	0x3f93bba0	1.1541634
208	0x3f93936d	1.1529366
209	0xbe2b906e	-0.16754314
210	0x3ee43492	0.44571358
211	0x3ec0e0f0	0.37671614
212	0x3f3ad892	0.7298671
213	0x3eb74a9d	0.35799113
214	0x3ee6e710	0.45098162
215	0x3f031e61	0.5121823
216	0x3f63dca5	0.8900855
217	0x3f80094a	1.0002835
218	0x3ea04483	0.3130227
219	0x3f62978f	0.8851251
220	0x3e9ac0a9	0.30225113
221	0xbeb08700	-0.34477997
222	0xbe7262c5	-0.2367049
223	0x3f52709c	0.8220308
224	0x3f083fed	0.53222543
225	0x3f694e0d	0.9113472
226	0x3f919950	1.1374912
227	0x3fbbafd4	1.4663033
228	0x3f8144a2	1.009907
229	0x3f12b8ff	0.5731353
230	0x3fd7220c	1.6807265
231	0x3f8eb4b6	1.1148899
232	0x3f4b781a	0.79480135
233	0x3f35f9cb	0.7108428
234	0x3f1833d7	0.594541
235	0x3f2e01d8	0.67971563
236	0x3ec2f1d7	0.38075134
237	0x3f7730ec	0.96559024
238	0x3f59df7d	0.8510664
239	0x3d64dcd2	0.055874653
240	0x3f305556	0.6888021
241	0x4018d546	2.3880172
242	0x3fca6a39	1.5813667
243	0x3f01b0e4	0.5066054
244	0xbedd9e4e	-0.4328484
245	0x3e84f8ad	0.25970975
246	0xc0132698	-2.2992306
247	0x3fd3cd88	1.6547098
248	0x3fce727b	1.6128687
249	0x3f37ef69	0.71849686
250	0x3ef114a8	0.47086072
251	0x3f65aad7	0.89713806
252	0xbe9096db	-0.28240094
253	0x3f266253	0.6499378
254	0x401a7342	2.4132848
255	0x3ff22b05	1.8919379

net.2.bias f4 [256]
0	0x3eeb4ec6	0.45958537
1	0x3eb5337f	0.3539085
2	0x3e605531	0.21907498
3	0x3eb2d4e8	0.3492806
4	0x3eb4d52b	0.35318884
5	0x3ed6a1cb	0.41920313
6	0xbe5d936e	-0.21638271
7	0x3eb3f959	0.35151175
8	0x3ff12753	1.8840126
9	0xbde03898	-0.109482944
10	0xbdf5475f	-0.119765036
11	0x3dd0d8dc	0.10197613
12	0x3ebaa482	0.36453635
13	0x3e953206	0.29139727
14	0x3e9a16f2	0.3009563
15	0x3e965926	0.2936489
16	0x3eb1d1c1	0.34730342
17	0x3ea4e27a	0.32204038
18	0xbe19a7df	-0.15005444
19	0x3e80f443	0.25186357
20	0xbe182a3c	-0.14859861
21	0x3ec75911	0.3893514
22	0x3e664c0a	0.22489944
23	0x3e147da8	0.14501059
24	0x3ebb668b	0.36601672
25	0x3e9871ed	0.29774418
26	0x3e918f4b	0.28429636
27	0x3ea8e8eb	0.32990202
28	0x3ea36757	0.3191478
29	0x3ecde454	0.40213263
30	0x3e864331	0.26223138
31	0x3ed6944c	0.41910017
32	0xbe017dfa	-0.12645712
33	0xbe5a27be	-0.21304223
34	0x3eabdfcc	0.3356918
35	0xbdb96368	-0.09052163
36	0x3f1bd3bb	0.6086995
37	0xbc7ad9b6	-0.015310695
38	0x3eb26389	0.34841564
39	0x3e7a500b	0.24444596
40	0x3e596085	0.21228226
41	0x3e96777d	0.29388037
42	0x3e7ad6ec	0.24496049
43	0x3ebfc561	0.37455276
44	0x3ea873e6	0.32900923
45	0x3ed6c6df	0.41948602
46	0x3ea167b8	0.31524444
47	0x3e283cba	0.16429415
48	0x3eacf9a7	0.3378422
49	0x3eac5218	0.33656383
50	0xbe3a2961	-0.18179847
51	0x3edb9f60	0.4289503
52	0xbe404a54	-0.18778354
53	0x3ebd884c	0.3701805
54	0xbddaf505	-0.10691265
55	0x3ea30f29	0.31847504
56	0x3e7828b9	0.24234284
57	0x3e840617	0.25785896
58	0xbe56a33a	-0.20960703
59	0x3dc423b5	0.09577123
60	0x3e9430cc	0.2894348
61	0x3eacda67	0.33760378
62	0x3ee5486f	0.44781825
63	0x3ec17e9f	0.37791917
64	0x3e84ba91	0.2592359
65	0x3fe96688	1.8234415
66	0x3eff836d	0.49904957
67	0x3e78e288	0.24305165
68	0x3e885c1c	0.26632774
69	0x3e661dac	0.22472256
70	0x3ee56e88	0.4481089
71	0xbe10f988	-0.14157689
72	0x3e9febf7	0.31234714
73	0x3e8be73e	0.2732486
74	0xbf2a47ac	-0.6651561
75	0x3ee46ab8	0.4461267
76	0x3f133158	0.5749717
77	0x3fa9a2f6	1.3252857
78	0x3ec6ff8c	0.38866842
79	0x3ece4231	0.40284875
80	0xbe38ada8	-0.18034995
81	0x3e4b774a	0.19869724
82	0xbe0734cc	-0.13203734
83	0x3e808814	0.2510382
84	0x3e8fa50d	0.2805561
85	0x3e6f1791	0.23348834
86	0x3e581429	0.2110144
87	0x3e8222f1	0.25417283
88	0x3e7ce0a6	0.24695072
89	0x3f28a210	0.6587229
90	0x3ea52a07	0.32258627
91	0x3ec4ef9b	0.38464054
92	0x3e4f3b86	0.2023755
93	0x3fe89a36	1.8172061
94	0x3ee3af51	0.44469693
95	0x3e57f2ea	0.21088758
96	0x3e4cc56b	0.19997184
97	0x3edb4ed9	0.42833593
98	0x3ec74db5	0.38926473
99	0x3eca437f	0.3950462
100	0xbd8b4819	-0.06800861
101	0x3e424825	0.18972833
102	0x3eaf66f1	0.34258226
103	0xbdc2d0ee	-0.095125064
104	0x3e894ba0	0.2681551
105	0x3eea500b	0.45764193
106	0x3ec05d4d	0.37571183
107	0x3ec115f1	0.37712052
108	0x3ec37270	0.38173246
109	0x3e8ba9c7	0.27277967
110	0x3f16808b	0.5878989
111	0x3e6e4121	0.23267032
112	0x3e65536b	0.22395103
113	0x3e745506	0.23860559
114	0x3e917a60	0.28413677
115	0xbc292752	-0.010324316
116	0x3e45a3a3	0.19300704
117	0xbe6c3a04	-0.23069006
118	0xbe99d7f4	-0.30047572
119	0x3c4adfaa	0.012382427
120	0x3ece2fcc	0.4027084
121	0x3e6c03cc	0.23048323
122	0xbe1b1f9e	-0.1514878
123	0x3eb6df6e	0.35717338
124	0x3eec9633	0.46208343
125	0x3ebbf4ce	0.3671021
126	0x3e625776	0.22103676
127	0x3e8ecbc8	0.27889848
128	0x3e994586	0.29935855
129	0x3eaac232	0.33351284
130	0x3e9bb0df	0.3040838
131	0x3ed71d05	0.42014328
132	0x3e397bf6	0.18113694
133	0x3ea513b8	0.32241607
134	0x3e99ca7a	0.3003729
135	0x3e5f9873	0.21835499
136	0x3ef735f6	0.48283356
137	0x3e96ca8a	0.294514
138	0x3e8e055f	0.27738473
139	0x3e9e39ab	0.30903372
140	0x3ee344f3	0.44388542
141	0x3e9e51b1	0.309217
142	0x3eaf7809	0.34271267
143	0x3ec78449	0.38968113
144	0x3e72499d	0.23660894
145	0x3ecb1e7c	0.39671695
146	0xbe1497b4	-0.14510995
147	0x3d54fcdf	0.05199897
148	0x3edd61a8	0.43238568
149	0x3ecb1cf2	0.3967052
150	0x3f1154f5	0.5677026
151	0x3e3ddd4d	0.18541451
152	0x3e84ef70	0.25963926
153	0x3e9fb3f7	0.3119199
154	0x3e4f9bb5	0.20274241
155	0x3e87a0cb	0.26489863
156	0x3edeabd4	0.4349047
157	0x3e8bc90a	0.27301818
158	0x3ecb33aa	0.39687854
159	0x3e960795	0.2930266
160	0xbe0a0676	-0.13479027
161	0x3ecaa6eb	0.39580473
162	0x3eb3491a	0.3501671
163	0x3ed15a01	0.4088898
164	0x3e9e79b9	0.30952242
165	0x3ea60d56	0.3243205
166	0xbd001ff4	-0.031280473
167	0x3e827db3	0.25486526
168	0x3eab38de	0.33441824
169	0xbe4f8d1d	-0.20268674
170	0x3ec2f976	0.3808095
171	0x3e9da3a0	0.30788898
172	0x3fd39153	1.6528724
173	0x3ea16d14	0.31528533
174	0x3ed0e891	0.40802434
175	0x3e1d84ae	0.15382645
176	0x3ea0dd09	0.31418636
177	0x3e629add	0.22129388
178	0x3ec115e6	0.3771202
179	0x3e61fb79	0.22068585
180	0x3e68d6dd	0.22738214
181	0x3d0f960e	0.035055213
182	0x3e75fb77	0.24021707
183	0x3ea669fe	0.3250274
184	0x3e05f8e0	0.1308322
185	0x3e43e5fd	0.19130702
186	0x3f4b5bb4	0.794368
187	0x3e8e807d	0.27832404
188	0xbd172d67	-0.036908533
189	0x3ecd47e4	0.4009391
190	0xbe0fd404	-0.14045721
191	0x3e8e70bc	0.27820385
192	0x3ed75740	0.42058754
193	0xbfc14e1e	-1.5101964
194	0x3ec8f991	0.39252904
195	0x3eaa3ec3	0.33251008
196	0x3ec5f306	0.38661975
197	0x3ed32e49	0.4124625
198	0x3ec25c23	0.3796092
199	0x3ea42af9	0.32064036
200	0x3eb30ecb	0.34972224
201	0xbe3bf47b	-0.1835498
202	0x3ec160e3	0.3776923
203	0x3e9de8ff	0.30841824
204	0x3eb2b662	0.34904772
205	0xbd7925b3	-0.06082697
206	0xbebbb44c	-0.36660993
207	0x3ea82590	0.32841158
208	0x3e9369d9	0.28791693
209	0x3e925ab9	0.2858484
210	0x3e99dd20	0.30051517
211	0x3ebbfb79	0.36715296
212	0x3ea9ecd2	0.33188492
213	0x3fa38f44	1.2778096
214	0x3ea2ea46	0.3181936
215	0x3f4b38d3	0.7938358
216	0x3eb40dae	0.35166687
217	0x3ea2048e	0.316441
218	0x3ec7fbc1	0.3905926
219	0x3ebfbe85	0.37450042
220	0x3e820095	0.2539107
221	0x3ec59831	0.38592675
222	0x3e9154ba	0.28384954
223	0x3e800f1e	0.25011533
224	0x3ea6aadd	0.32552233
225	0x3e64783d	0.22311492
226	0x3ecb42b8	0.3969934
227	0x3e2c4a51	0.16825224
228	0x3eaf5a32	0.342485
229	0x3e8c0517	0.27347633
230	0xbdbc4413	-0.091926716
231	0x3e879b9b	0.26485905
232	0x3e81b869	0.25336006
233	0x3ea45c48	0.32101655
234	0xbde1cdd8	-0.1102559
235	0x3f118059	0.5683647
236	0x3eb189dd	0.34675494
237	0x3e8aed04	0.27133954
238	0x3ea8a9eb	0.32942137
239	0x3f6b3eb2	0.9189254
240	0x3e98c6b8	0.2983911
241	0x3e826e27	0.25474665
242	0xbe2d0bb0	-0.1689899
243	0x3ea4838d	0.32131615
244	0x3ea1c07a	0.3159216
245	0x3ef94756	0.48687238
246	0x3eb4d83b	0.3532122
247	0x3e930e6f	0.2872195
248	0x3b8ea48d	0.004353112
249	0xbe3c08b2	-0.18362692
250	0x3ec73516	0.3890769
251	0xbbbc158e	-0.005739874
252	0x3eb216b9	0.3478296
253	0x3e8a18f1	0.26972154
254	0x3eea9636	0.45817727
255	0x3f0ffd0a	0.5624548

net.4.weight f4 [27, 256]
0	0x3e89a8ca	0.26886588
1	0x3f08bc8d	0.53412706
2	0x3f0bd035	0.54614574
3	0x3eef57e9	0.46746758
4	0x3ef84b11	0.4849477
5	0x3f018a4b	0.50601643
6	0x3f201100	0.6252594
7	0x3f0a9c55	0.54144794
8	0xbf764d6f	-0.96211904
9	0x3f217c98	0.6308074
10	0x3f1b7878	0.60730696
11	0x3f1f354b	0.62190694
12	0x3f10c5cd	0.5655182
13	0x3edbe38e	0.42947048
14	0x3ef68d98	0.48154902
15	0x3ee9fb65	0.4569961
16	0x3ef50a22	0.47859293
17	0x3f022890	0.50843143
18	0x3f0f0b01	0.55876166
19	0x3efb008c	0.49023855
20	0x3f27da91	0.6556788
21	0x3ebddcdf	0.37082574
22	0x3f01be83	0.5068132
23	0x3f16c7d9	0.58898693
24	0x3ecca97a	0.3997305
25	0x3efea186	0.49732608
26	0x3f02e9c6	0.5113796
27	0x3ec43fc6	0.38329905
28	0x3ebdb7c7	0.37054273
29	0x3ee5be58	0.44871783
30	0x3f01b57f	0.50667566
31	0x3ecd755b	0.40128598
32	0x3f25fbf2	0.64837563
33	0x3f0f66d9	0.5601631
34	0x3ee5344d	0.44766465
35	0x3f09020d	0.53518754
36	0x3eebc631	0.46049646
37	0xbd578450	-0.052616417
38	0x3ef3fead	0.4765524
39	0x3f816af1	1.0110761
40	0x3f0b1c09	0.54339653
41	0x3edd52ba	0.43227178
42	0x3f0a4adb	0.5402047
43	0x3eeb17b1	0.45916513
44	0x3ee6e6fd	0.45098105
45	0x3ef6b619	0.48185804
46	0xbda0f694	-0.07859531
47	0x3f03e9de	0.5152873
48	0x3ef333f1	0.47500566
49	0x3eea3bb3	0.45748672
50	0x3f2062b0	0.62650585
51	0x3f00b3cd	0.50274354
52	0x3f238b56	0.63884485
53	0x3f81986b	1.0124639
54	0x3f1dc7be	0.6163291
55	0x3f033952	0.5125934
56	0x3eda4d9c	0.42637336
57	0x3f02ba4f	0.51065534
58	0x3f0dd030	0.55395794
59	0x3ead7c7d	0.3388404
60	0x3ef7e578	0.48417258
61	0x3ef34230	0.47511435
62	0x3f0fd25f	0.56180376
63	0x3eeea712	0.4661184
64	0x3ef38acf	0.4756684
65	0xbf634414	-0.88775754
66	0x3eb8ec8d	0.36117974
67	0x3f040006	0.51562536
68	0x3ed2c08f	0.41162536
69	0x3f0da864	0.5533507
70	0x3ed0a253	0.40748844
71	0x3f028797	0.50988144
72	0x3ef9696e	0.4871325
73	0x3ec68869	0.38775948
74	0x3f33bef1	0.7021323
75	0x3f02e9a8	0.5113778
76	0x3e2937bd	0.16525169
77	0xbf1d38ca	-0.6141478
78	0x3ed8ffee	0.4238276
79	0x3ecf337f	0.40468976
80	0x3f1d52a2	0.6145421
81	0x3ed6ac22	0.41928202
82	0x3f19f9e2	0.60146916
83	0x3edf7cc2	0.4364987
84	0x3ed1f9e7	0.41010973
85	0x3edb2b37	0.42806408
86	0x3f059d8f	0.5219354
87	0x3efee482	0.49783713
88	0x3f0269af	0.5094251
89	0xbf9c0592	-1.21892
90	0x3f16fcef	0.58979696
91	0x3eaddc34	0.33957064
92	0x3f01995d	0.5062464
93	0xbf5b41ba	-0.85647166
94	0x3e8aad50	0.27085352
95	0x3e44ab47	0.19205962
96	0x3f10a850	0.56506824
97	0x3dd1bdf2	0.10241307
98	0x3e9ed1dd	0.31019488
99	0x3ee47382	0.44619375
100	0x3f05b4da	0.5222908
101	0x3ec344ac	0.3813833
102	0x3f098118	0.53712606
103	0x3f0627de	0.5240458
104	0x3eea5591	0.45768407
105	0x3e8b8c6f	0.2725558
106	0x3ef00d1d	0.46885005
107	0x3ee5eaf9	0.44905832
108	0x3ef9170b	0.48650393
109	0x3ef7e723	0.4841853
110	0xbeb8b807	-0.36077902
111	0x3f016390	0.50542545
112	0x3ee79828	0.45233274
113	0x3f1270a0	0.572031
114	0x3f0c5e81	0.548317
115	0xbc580ff8	-0.013187401
116	0x3ef89104	0.48548138
117	0x3f095c3e	0.53656375
118	0x3f3aaa05	0.7291568
119	0x3f08d3dd	0.5344828
120	0xbe74b349	-0.23896517
121	0x3e8f64b8	0.2800653
122	0x3f2584ac	0.64655566
123	0x3eda53bd	0.42642012
124	0x3ea89d75	0.3293263
125	0x3ed191b1	0.40931466
126	0x3f0423d8	0.51617193
127	0x3eef65d3	0.46757373
128	0x3ed89ffb	0.42309555
129	0x3ed9142a	0.42398196
130	0x3ebb60f7	0.36597416
131	0x3eeed52e	0.46647018
132	0x3ef57ffe	0.47949213
133	0x3f014802	0.505005
134	0x3e8d5f74	0.27611887
135	0x3ed194e7	0.40933916
136	0x3e9a4056	0.3012721
137	0x3f0c2bc3	0.54754275
138	0x3f060ee5	0.5236648
139	0x3f02cc8e	0.51093376
140	0x3eefdc03	0.46847543
141	0x3e88147f	0.26578137
142	0x3ec9d70d	0.39421883
143	0x3ee587f7	0.44830295
144	0x3f04ca04	0.5187075
145	0x3f0f7470	0.56037045
146	0x3f12cd4b	0.573445
147	0x3ec6637f	0.38747784
148	0x3efd831b	0.49514088
149	0x3eef035b	0.46682248
150	0x3f3a87ee	0.7286366
151	0x3ecfd1ba	0.40589696
152	0x3ed2c1c1	0.41163447
153	0x3ee5ec3d	0.44906798
154	0x3ed642a4	0.41847718
155	0x3f0079c5	0.50185806
156	0x3eef27cb	0.46710047
157	0x3f099813	0.5374767
158	0x3edcf92d	0.43158856
159	0x3ed9d4e1	0.42545226
160	0x3f199d80	0.6000595
161	0x3ed76cc0	0.42075157
162	0x3ec92a87	0.39290258
163	0x3eaffb24	0.34371293
164	0x3eee06af	0.46489474
165	0x3f02eb4e	0.51140296
166	0x3f236895	0.63831455
167	0x3f0514ab	0.5198466
168	0x3f03bf50	0.51463795
169	0x3f071e74	0.5278084
170	0x3ee36a50	0.44417048
171	0x3f08aec0	0.5339165
172	0xbf7e20f3	-0.99269027
173	0x3f994e11	1.1976949
174	0x3ed79892	0.4210859
175	0x3f9b67e3	1.2141079
176	0x3ef879f9	0.48530558
177	0x3f0be45e	0.54645336
178	0x3eea78bb	0.45795235
179	0x3efff55f	0.4999189
180	0x3ef79477	0.48355457
181	0x3faaa42f	1.3331355
182	0x3efb774b	0.4911445
183	0x3ecfc82c	0.40582407
184	0x3efbf751	0.49212125
185	0x3ede10af	0.43372104
186	0xbf7b01aa	-0.98049414
187	0x3ef88ca3	0.48544797
188	0x3f0c6d0f	0.5485391
189	0x3e829f7b	0.255123
190	0x3f1f33bf	0.62188333
191	0x3f08de98	0.5346465
192	0x3ec98ede	0.39366812
193	0x3e8f5963	0.27997884
194	0x3edc46b6	0.43022698
195	0x3e9bb809	0.30413845
196	0x3f03ebe3	0.5153181
197	0x3f02a4d6	0.5103277
198	0x3ef2a82e	0.47393936
199	0x3efbd137	0.49183056
200	0x3eeeee38	0.4666612
201	0x3f1e6900	0.6187897
202	0x3ef113cb	0.47085413
203	0x3f092d4d	0.5358475
204	0x3f076796	0.52892435
205	0x3f0ff272	0.5622932
206	0x3f0f5f15	0.5600446
207	0x3f0c95ae	0.54915893
208	0x3ed1e043	0.4099141
209	0x3ed6c091	0.41943792
210	0x3ef7f3d8	0.48428226
211	0x3ef606ed	0.4805216
212	0x3efb5f78	0.49096274
213	0xbf6da979	-0.9283672
214	0x3ee7c5bd	0.4526805
215	0xbe78fe5b	-0.24315779
216	0x3ef68601	0.48149112
217	0x3ef4b72d	0.47796002
218	0x3ec27592	0.37980324
219	0x3ec8e36a	0.39236003
220	0x3eed3984	0.46332943
221	0x3ed4277b	0.4143637
222	0x3f0b74c6	0.5447506
223	0x3ef5ceee	0.48009437
224	0x3ec14d60	0.37754345
225	0x3f0db966	0.5536102
226	0x3edf6c0f	0.4363713
227	0x3f9fe11f	1.2490577
228	0x3eaeef83	0.34167108
229	0x3f031929	0.51210266
230	0x3f16ac75	0.588569
231	0x3f098e75	0.53733
232	0x3ee3bdc2	0.4448071
233	0x3ef6db82	0.48214346
234	0x3f09fa44	0.538975
235	0xbe90369c	-0.28166664
236	0x3eee5bad	0.46554318
237	0x3edb8dda	0.42881662
238	0x3ee124fe	0.43973535
239	0xbea50cb0	-0.32236242
240	0x3ede9d4b	0.4347938
241	0x3f0da1eb	0.5532519
242	0x3f2af685	0.6678241
243	0x3ed9407f	0.4243202
244	0x3eea91c7	0.45814344
245	0x3ec5b8a6	0.38617438
246	0x3f030b18	0.511888
247	0x3ed81798	0.422055
248	0x3f86a10f	1.0517901
249	0x3f21d779	0.6321941
250	0x3edb09d5	0.4278094
251	0x3f071aa0	0.52775
252	0x3eec506d	0.4615511
253	0x3ef9fd99	0.48826292
254	0x3ef5e2cc	0.48024595
255	0xbe820e20	-0.25401402

net.4.bias f4 [27]
0	0xbd699188	-0.057023555
1	0x3e4a6638	0.19765556
2	0xbd1a0e77	-0.03761145
3	0x3d8426e2	0.06452729
4	0x3e010eb8	0.12603271
5	0x3e18ef39	0.14935006
6	0x3ddde24b	0.108341776
7	0x3e2a31b8	0.16620529
8	0xbc7dd127	-0.01549176
9	0x3edb16b5	0.42790762
10	0x3daf82ee	0.08569895
11	0x3e33e58e	0.17568037
12	0x3d55444d	0.05206709
13	0x3e5e785e	0.21725604
14	0x3deeaa7c	0.11653611
15	0x3da8f2a1	0.08249403
16	0xbce87086	-0.028373968
17	0xbd1bce34	-0.038038447
18	0x3ea35000	0.31896973
19	0x3f079cdf	0.5297374
20	0x3ef3341e	0.475007
21	0x3d808c60	0.062767744
22	0x3e162728	0.14663374
23	0x3e1277e0	0.14303541
24	0x3d90d8a2	0.070725694
25	0x3e0fc850	0.14041257
26	0x3da86aa6	0.082234666
