model/dqn_policy_net_episode_1300.pt (torch, 334295 bytes, 6 tensors)

net.0.weight f4 [128, 336]
0.05093868 -0.09854165 0.010976615 0.06326584 0.044415742 -0.16191325 -0.024167964 -0.05863122
0.124446824 -0.026704457 -0.124868505 -0.06729043 -0.026413472 -0.058287032 0.039276317 0.025015933
-0.16352348 -0.014637312 0.08788752 -0.08627849 0.088748746 0.0907966 -0.201353 0.036137316
-0.22014762 0.024903039 -0.1504341 0.03809545 -0.02345107 -0.0402621 0.09790768 0.12904471
-0.40917528 -0.021166604 -0.0208927 -0.00044507548 0.043683924 0.09238548 -0.006258135 -0.074976906
0.026735073 -0.12115377 -0.088788755 -0.003776291 -0.036628593 -0.060003538 -0.111716144 0.038533755
-0.08636928 0.16027005 -0.078265175 -0.027807295 0.024053562 -0.006527989 0.105726056 0.028074259
0.23825023 -0.03905622 -0.09219663 -0.103409156 0.002993444 -0.01809397 -0.14334816 -0.05534316
-0.104950495 0.022823578 -0.15741085 -0.035730697 0.011799373 0.025098005 -0.021063844 -0.049251877
-0.09868018 0.00907569 0.12714665 0.13109227 -0.12029124 -0.06922021 -0.17598687 0.00092726416
0.13055259 -0.14188963 0.05949659 0.023545552 -0.1343806 -0.06831125 -0.011253293 -0.06438303
0.08077984 -0.102899335 -0.036164958 -0.03269167 -0.014583342 -0.11974917 -0.02458441 -0.02323827
0.25351122 -0.072847806 0.040518764 -0.051779564 -0.046460006 0.0053265523 -0.05598785 0.04097629
-0.72338814 0.16348976 0.1975787 0.08052278 0.28369984 0.1608107 -0.28365627 0.072480574
0.08134721 0.013214063 0.016679417 -0.03790647 -0.099604495 -0.08295143 -0.017869284 0.06319337
-1.1415372 0.16269523 0.04246751 -0.09615693 0.062628984 0.05002995 0.11706977 0.014940041
0.36538625 -0.09648809 -0.1272089 -0.125858 -0.26891294 -0.10032441 -0.13611726 0.048214328
-0.40375856 0.13949817 -0.09924523 0.038447145 -0.12235856 -0.005425703 0.048585143 0.09119018
0.47533837 -0.043640736 0.03225146 -0.31504634 -0.06741056 -0.0714879 -0.07168737 -0.13098833
0.12293354 -0.13104813 -0.10507982 -0.024697607 -0.05837214 0.047787365 0.07400923 -0.014735151
0.09811536 -0.118926406 0.016263753 0.062142286 -0.039722037 -0.11191615 -0.07428424 -0.019424135
0.6011929 -0.21580864 -0.29920968 -0.04456586 -0.17076367 -0.27704448 -0.074748494 -0.100477874
0.5056032 0.18277583 -0.060252145 -0.21025863 0.0019398341 -0.16444983 -0.09648856 -0.12963822
0.8362498 0.061354537 -0.08207433 -0.084784165 -0.15938853 -0.23387706 -0.05743313 0.07975786
-0.7660951 0.1246706 0.12806204 0.088206284 0.14392468 0.3877946 0.19644086 0.25288928
0.69358456 -0.04310507 -0.09702549 -0.102573864 0.07225132 -0.20633577 -0.19064838 0.17786655
-1.6847135 0.3325128 0.30548468 0.3696233 0.2625822 0.25569803 0.061598606 0.17911685
0.6617456 -0.06183018 -0.044297483 -0.041482467 -0.19180886 -0.131445 -0.1414024 0.05009218
-0.6428953 0.27319264 0.06295779 0.28359148 0.11506941 0.21098404 -0.1332115 0.26760635
0.6635256 0.080376916 -0.052619457 -0.12334705 -0.018521834 -0.052744694 -0.03351921 -0.11362346
0.76170987 -0.06451695 -0.009844255 -0.037878882 -0.055020068 -0.09628793 -0.049088202 -0.096411556
-0.9287096 0.28212088 0.05240671 0.33485445 0.056676008 0.31170085 -0.0607271 0.40906507
00000000: 14a5 503d 34d0 c9bd 43d7 333c 8591 813d
00000010: 48ed 353d 96cc 25be e5fb c5bc 4a27 70bd
00000020: fadd fe3d 4ec3 dabc 0fbb ffbd 91cf 89bd
00000030: 1161 d8bc 62be 6ebd 34e0 203d 37ee cc3c
00000040: b372 27be 56d1 6fbc 5ffe b33d c7b2 b0bd
00000050: e7c1 b53d 91f3 b93d 7b2f 4ebe b904 143d
00000060: 616e 61be 7501 cc3c 660b 1abe f909 1c3d
00000070: 751c c0bc dfe9 24bd d283 c83d 4c24 043e
00000080: 6c7f d1be 9665 adbc 2b27 abbc 0559 e9b9
00000090: eaed 323d 9934 bd3d 0b11 cdbb 7e8d 99bd
000000a0: 8303 db3c 781f f8bd e1d6 b5bd a67b 77bb
000000b0: dd07 16bd 45c6 75bd 6fcb e4bd 92d5 1d3d
000000c0: 61e2 b0bd d51d 243e 7e49 a0bd 20cc e3bc
000000d0: fa0b c53c bee8 d5bb e786 d83d fdfb e53c
000000e0: def7 733e 6af9 1fbd 96d1 bcbd 2ec8 d3bd
000000f0: a82d 443b ce39 94bc dcc9 12be 82af 62bd
00000100: 49f0 d6bd 83f8 ba3c 4f30 21be 5a5a 12bd
00000110: 2852 413c 559a cd3c 158e acbc 56bc 49bd
00000120: d618 cabd 34b2 143c bb32 023e 0d3d 063e
00000130: 415b f6bd 53c3 8dbd e735 34be a513 733a
00000140: 94af 053e 844b 11be b2b2 733d 9ae2 c03c
00000150: 119b 09be c5e6 8bbd bb5f 38bc 40db 83bd
00000160: e76f a53d e3bc d2bd b521 14bd b3e7 05bd
00000170: f8ee 6ebc 0e3f f5bd 3f65 c9bc 2f5e bebc
00000180: 39cc 813e 3b31 95bd 01f7 253d cf16 54bd
00000190: d94c 3ebd 5c8a ae3b 8453 65bd c1d6 273d
000001a0: f72f 39bf dc69 273e 1252 4a3e 21e9 a43d
000001b0: 1b41 913e 8fab 243e 653b 91be b270 943d
000001c0: 5e99 a63d cc7f 583c 46a3 883c d143 1bbd
000001d0: 71fd cbbd 70e2 a9bd 9b62 92bc 876b 813d
000001e0: e41d 92bf 9499 263e 69f2 2d3d eded c4bd
000001f0: a043 803d 34ec 4c3d 47c2 ef3d 13c7 743c
00000200: e813 bb3e 8c9b c5bd 0d43 02be ebe0 00be
00000210: f5ae 89be e276 cdbd 5362 0bbe 637c 453d
00000220: 71b9 cebe 9cd8 0e3e 1541 cbbd c17a 1d3d
00000230: 2097 fabd 18ca b1bb 3701 473d ebc1 ba3d
00000240: 8d5f f33e a1c0 32bd 1b1a 043d c14d a1be
00000250: 8c0e 8abd 4068 92bd d4d0 92bd ce21 06be
00000260: 94c4 fb3d 7b31 06be 1734 d7bd a352 cabc
00000270: a017 6fbd afbc 433d 2792 973d b46b 71bc
00000280: b5f0 c83d b08f f3bd 903b 853c e988 7e3d
00000290: 93b3 22bd 4b34 e5bd 5622 98bd 5d1f 9fbc
000002a0: c7e7 193f f1fc 5cbe 0332 99be b18a 36bd
000002b0: acdc 2ebe c6d8 8dbe bd15 99bd 58c7 cdbd
000002c0: 366f 013f 9629 3b3e f4ca 76bd 0a4e 57be
000002d0: 0842 fe3a 8965 28be cb9b c5bd e2bf 04be
000002e0: 7814 563f e54e 7b3d 9616 a8bd 52a3 adbd
000002f0: bf36 23be 787d 6fbe 003f 6bbd 1758 a33d
00000300: cf1e 44bf 4d53 ff3d b222 033e 7fa5 b43d
00000310: fe60 133e 048d c63e cb27 493e b47a 813e
00000320: c28e 313f f18e 30bd 4db5 c6bd 3f12 d2bd
00000330: 80f8 933d af49 53be 5439 43be a622 363e
00000340: b1a4 d7bf 1e3f aa3e 7d68 9c3e 443f bd3e
00000350: 2d71 863e daea 823e d24e 7c3d 686a 373e
00000360: 2968 293f a541 7dbd 4771 35bd 85e9 29bd
00000370: 8b69 44be 8599 06be cacb 10be 752d 4d3d
00000380: c994 24bf e8df 8b3e 04f0 803d e732 913e
00000390: 83a9 eb3d 330c 583e 9868 08be b303 893e
000003a0: d0dc 293f a79c a43d 8087 57bd 619d fcbd
000003b0: 1abb 97bc d20a 58bd 704b 09bd 6bb3 e8bd
000003c0: 6bff 423f 7621 84bd cc49 21bc e326 1bbd
000003d0: b95c 61bd 9b32 c5bd b610 49bd 6c73 c5bd
000003e0: eabf 6dbf 2672 903e 6ba8 563d 0b72 ab3e
000003f0: 1a25 683d 4197 9f3e fbbc 78bd fa70 d13e

net.0.bias f4 [128]
0.12251806 0.13509236 0.080789894 0.09976268 0.22736059 0.062263783 0.4368687 0.18998139
0.009136104 0.17167084 0.12352995 0.05178701 0.12699533 0.10987507 0.122103766 0.121925905
0.07209386 0.1868481 0.13667297 0.09467637 0.104232915 0.0558275 0.2898067 0.11685237
0.18575414 0.14191419 0.1249782 0.19226857 0.1290272 0.39075392 0.20150676 0.13673303
0.15745229 0.079016484 0.15132271 0.068390585 0.09916239 0.16437848 0.21007942 0.13562456
-0.06855897 0.07972022 0.066291854 0.1267533 0.084297575 0.17565116 0.09416964 0.18586296
0.12567016 0.16541883 0.03260295 0.13606288 0.046252873 0.09381223 0.12572584 0.11077085
0.12150588 -0.057854738 0.22951496 0.11877415 0.16076194 0.11588457 0.033778027 0.12623703
0.1609554 0.154198 0.24314368 0.12884322 0.12004331 0.05892767 0.1488525 0.18151528
0.18612787 0.11836228 0.13098794 0.33690062 0.15857229 0.16264251 0.1518723 0.14123558
0.07791665 0.9768363 0.16397358 0.2992359 0.1418075 0.14389662 0.17768012 0.044214237
0.3729376 0.12905219 0.12825434 0.084011756 0.14409299 0.02891944 0.2573665 0.0810014
0.028699553 0.17103031 0.09462026 0.09022307 0.15436138 0.31754336 0.09080789 0.19064395
0.07678229 0.1130017 0.14262353 0.08050243 0.12885043 0.12962547 0.028178046 0.1840023
0.05036553 0.20487076 0.13871814 0.06771386 -0.033219423 0.27697423 -0.08359663 0.17435057
0.11426913 0.15243004 0.22799265 0.18015338 0.15651022 0.09184256 0.07262858 0.1464528
00000000: c0ea fa3d a755 0a3e 2c75 a53d 6050 cc3d
00000010: 37d1 683e 4f08 7f3d 41ad df3e 7b8a 423e
00000020: 99af 153c 7bca 2f3e 45fd fc3d 9e1e 543d
00000030: 100b 023e 2e06 e13d 8a11 fa3d 4ab4 f93d
00000040: f2a5 933d 1c55 3f3e 00f4 0b3e afe5 c13d
00000050: 1178 d53d 60ab 643d 8b61 943e 4c50 ef3d
00000060: 5536 3e3e f451 113e 92f4 ff3d 0de2 443e
00000070: b51f 043e e610 c83e ca57 4e3e be03 0c3e
00000080: 2c3b 213e 65d3 a13d 57f4 1a3e 5d10 8c3d
00000090: a715 cb3d d552 283e 0f1f 573e 2ae1 0a3e
000000a0: a568 8cbd 5b44 a33d 06c4 873d 9ecb 013e
000000b0: 35a4 ac3d e6dd 333e 03dc c03d dc52 3e3e
000000c0: aeaf 003e 8e63 293e ac8a 053d 1154 0b3e
000000d0: a773 3d3d a020 c03d 46be 003e d4db e23d
000000e0: 13d8 f83d 17f9 6cbd f805 6b3e dd3f f33d
000000f0: c79e 243e e454 ed3d d45a 0a3d 4844 013e
00000100: 7ed1 243e 15e6 1d3e a8fa 783e 7aef 033e
00000110: 44d9 f53d 245e 713d ca6c 183e 24df 393e
00000120: 4e98 3e3e ec67 f23d b421 063e 3d7e ac3e
00000130: c660 223e c28b 263e 6a84 1b3e 0fa0 103e
00000140: c492 9f3d f211 7a3f b1e8 273e 7335 993e
00000150: fc35 113e a359 133e c7f1 353e fd19 353d
00000160: adf1 be3e 4226 043e 1b55 033e 5b0e ac3d
00000170: 1d8d 133e 76e8 ec3c 8bc5 833e 10e4 a53d
00000180: 531b eb3c 9222 2f3e 44c8 c13d dfc6 b83d
00000190: e910 1e3e 0b95 a23e 7df9 b93d 2b38 433e
000001a0: 0940 9d3d 6f6d e73d e70b 123e 75de a43d
000001b0: 5ef1 033e 8abc 043e a5d5 e63c 196b 3c3e
000001c0: 164c 4e3d a4c9 513e 210c 0e3e 90ad 8a3d
000001d0: 1711 08bd 91cf 8d3e b634 abbd f588 323e
000001e0: ef05 ea3d 9f16 1c3e e876 693e 217a 383e
000001f0: 3744 203e f417 bc3d 4bbe 943d b9f7 153e

net.2.weight f4 [256, 128]
1.1668451 0.045149013 2.3080726 0.3717255 -0.045571722 0.6484714 0.73053926 1.6266943
2.718924 0.5712136 0.8943572 0.33937305 0.04934776 0.20834228 -0.18974008 0.97211564
0.64341205 0.09924088 0.60618895 1.6369684 1.1184516 1.8074319 0.017489353 0.84018326
0.4333687 0.2572789 0.9430092 -0.134594 0.54621905 0.13950756 0.20330912 0.70816433
0.82361376 0.636786 0.4587287 0.69442296 -0.080567375 1.4386367 1.4595579 0.04449598
-1.104349 0.33176666 0.08820217 0.19148289 0.36076078 0.5188566 1.197687 1.2089539
0.8110046 0.21020451 0.8162027 1.7467566 0.68906003 0.028670408 0.66081893 -0.21195894
-0.32510456 -1.1216459 0.3276157 1.7332275 -0.06537013 2.3914263 0.4125693 0.57065874
0.00872331 0.49645442 1.0737003 0.16365497 1.0151883 0.4954121 -0.13533527 0.18285082
0.3414302 1.3578144 0.4667626 0.16538621 0.3695738 -0.3320434 1.0320902 0.28593105
0.66469127 0.5800872 -0.6841657 0.20201494 0.5360887 -0.22545187 0.7125805 1.0078193
-0.16862094 0.2898399 0.9755936 0.62067515 0.77690464 1.5072421 0.5980797 0.5274819
1.0201404 0.1202307 0.53658944 -1.14136 -0.09848699 -0.24430496 1.4931928 0.33839685
0.30913898 0.4110888 0.5476309 0.05140885 1.2074724 1.6687192 0.35530707 0.6352032
0.90302926 0.82784474 0.58268756 1.2982215 2.2645988 0.23713575 -1.1272838 0.98911947
0.4052711 0.07556607 0.39456534 0.68322355 2.4206192 0.19397874 1.2208381 1.4251661
2.3556168 0.18335454 0.6355402 -0.056350704 0.52349645 0.6138575 -0.37214458 1.1056759
0.2773211 0.32768926 -0.16103616 0.19800946 0.34355828 0.90414214 0.81722033 1.5413463
0.43515033 0.8387512 0.35018325 0.19325913 1.5656761 0.94657344 0.72307354 0.7906693
0.61450183 0.5756163 0.98492175 0.48056394 0.2750769 0.5171129 0.12588471 1.8070216
0.5606703 0.9843672 0.8498799 0.2639949 1.0713402 1.2700135 1.0436617 0.6232772
-1.4145454 0.4940627 0.4322558 0.7519342 0.5998088 0.7096986 1.8794148 0.65290487
1.8307928 0.2586652 0.019537829 0.95560056 0.7179798 0.3234812 0.7283207 0.5191981
0.9210695 -1.3597782 -0.039074093 1.4915279 0.050585806 0.36205047 0.17862466 0.51045126
-0.16134347 0.18305242 1.5570394 0.35582 1.9373099 -0.40236592 0.95399415 0.8103985
0.8651579 0.33911747 0.18670772 0.44401783 0.8882825 0.6511743 0.6519336 1.033849
0.9008968 -0.22914758 0.47007877 0.34112626 0.7462091 0.38350105 0.21898243 0.41368166
0.8713942 0.7959708 0.0262552 0.5048727 0.0621814 -0.5436226 -0.2808907 0.46970227
0.03720039 0.9585109 0.95293534 1.1192088 0.95987123 0.54340684 1.5864626 0.85741824
0.6092007 0.48008007 0.3566552 0.69860137 0.090791136 0.93570656 0.8539989 -0.002476977
0.14357567 2.0394897 0.95849526 0.09350114 -0.7507625 0.22220096 -1.3595111 1.2379156
1.0655421 0.5816907 0.41281486 0.653108 -0.11920692 0.5102341 2.3242264 1.771131
00000000: 2e5b 953f 2cee 383d 76b7 1340 ce52 be3e
00000010: 6aa9 3abd 3902 263f 9f04 3b3f 8537 d03f
00000020: da02 2e40 0e3b 123f 98f4 643f 4ec2 ad3e
00000030: e020 4a3d ae57 553e 394b 42be 92dc 783f
00000040: a7b6 243f cd3e cb3d 332f 1b3f 2e88 d13f
00000050: 6c29 8f3f ee59 e73f d545 8f3c 4016 573f
00000060: 81e2 dd3e 0fba 833e 0d69 713f 02d3 09be
00000070: 03d5 0b3f 12db 0e3e 4430 503e 424a 353f
00000080: 5ad8 523f 6804 233f 7dde ea3e b4c5 313f
00000090: 8200 a5bd 3f25 b83f cbd2 ba3f 6b41 363d
000000a0: 4f5b 8dbf 52dd a93e 57a3 b43d 1714 443e
000000b0: a3b5 b83e c9d3 043f cf4d 993f 00bf 9a3f
000000c0: ff9d 4f3f da3f 573e a9f2 503f b895 df3f
000000d0: 3d66 303f 34de ea3c 6e2b 293f c40b 59be
000000e0: 1b74 a6be 1892 8fbf 3fbd a73e 66da dd3f
000000f0: c6e0 85bd 210d 1940 493c d33e b116 123f
00000100: 37ec 0e3c 462f fe3e 036f 893f 2b95 273e
00000110: b1f1 813f a8a6 fd3e 5495 0abe 3f3d 3b3e
00000120: f0cf ae3e ddcc ad3f 82fb ee3e 015b 293e
00000130: c738 bd3e 9801 aabe 881b 843f 8e65 923e
00000140: 3529 2a3f 9880 143f 7c25 2fbf 01dd 4e3e
00000150: 1c3d 093f dbdc 66be ad6b 363f 3900 813f
00000160: f8aa 2cbe e565 943e 81c0 793f 91e4 1e3f
00000170: 39e3 463f 4fed c03f c01b 193f 0e09 073f
00000180: f693 823f 833b f63d ed5d 093f 1618 92bf
00000190: 8cb3 c9bd 142b 7abe f120 bf3f 5a42 ad3e
000001a0: 7747 9e3e 3b7a d23e 8a31 0c3f 1692 523d
000001b0: 758e 9a3f 9798 d53f cfea b53e ad9c 223f
000001c0: ed2c 673f a2ed 533f 032b 153f 1f2c a63f
000001d0: 30ef 1040 b7d3 723e d64a 90bf ef36 7d3f
000001e0: b27f cf3e 62c2 9a3d 7804 ca3e bde7 2e3f
000001f0: 6deb 1a40 5da2 463e 6c44 9c3f d86b b63f
00000200: 6dc2 1640 4bc1 3b3e c3b2 223f ffcf 66bd
00000210: dd03 063f c425 1d3f bc89 bebe ca86 8d3f
00000220: 08fd 8d3e e3c6 a73e aae6 24be fec2 4a3e
00000230: dfe6 af3e dc75 673f 5a35 513f d64a c53f
00000240: 06cc de3e 66b8 563f 384b b33e b9e5 453e
00000250: 1368 c83f a352 723f 591b 393f 4e69 4a3f
00000260: fe4f 1d3f 975b 133f d523 7c3f 7a0c f63e
00000270: e1d6 8c3e 8361 043f ece7 003e 7c4c e73f
00000280: 1788 0f3f 7dff 7b3f bb91 593f 572a 873e
00000290: ad21 893f cd8f a23f b596 853f 188f 1f3f
000002a0: d30f b5bf c9f5 fc3e a250 dd3e c27e 403f
000002b0: 128d 193f cfae 353f aa90 f03f c624 273f
000002c0: 6b57 ea3f c46f 843e cc0d a03c 3da2 743f
000002d0: 86cd 373f 549f a53e 3a73 3a3f 2bea 043f
000002e0: 36cb 6b3f 360d aebf 280c 20bd 63ea be3f
000002f0: 1033 4f3d ae5e b93e 62e9 363e efac 023f
00000300: 3937 25be 1872 3b3e 114d c73f 0a2e b63e
00000310: c5f9 f73f e802 cebe f638 743f 4776 4f3f
00000320: fd7a 5d3f cea0 ad3e 4f30 3f3e 4e56 e33e
00000330: 7b66 633f 5cb3 263f 1fe5 263f 2a55 843f
00000340: 2ca1 663f aaa5 6abe 2aae f03e 1aa8 ae3e
00000350: 8f07 3f3f 405a c43e ee3c 603e 15ce d33e
00000360: b113 5f3f bec4 4b3f 2515 d73c 563f 013f
00000370: ecb1 7e3d da2a 0bbf e8d0 8fbe d17c f03e
00000380: 705f 183d f860 753f 92f3 733f 3c42 8f3f
00000390: 1fba 753f b61c 0b3f 3511 cb3f c37f 5b3f
000003a0: 94f4 1b3f 0ecd f53e 839b b63e 8ad7 323f
000003b0: b4f0 b93d 778a 6f3f ac9f 5a3f c754 22bb
000003c0: 8005 133e 0087 0240 f25f 753f 877d bf3d
000003d0: f931 40bf a688 633e 7604 aebf 0574 9e3f
000003e0: af63 883f afe9 143f 785c d33e 1632 273f
000003f0: c222 f4bd b49e 023f 20c0 1440 6cb4 e23f

net.2.bias f4 [256]
0.32560864 0.27279115 0.107944414 0.23308967 0.23088823 0.30480495 -0.33076987 0.24855928
1.588903 -0.2130166 -0.22661231 0.06463336 0.25128934 0.17401911 0.19708581 0.18337947
0.24153738 0.20027134 -0.25602084 0.14124101 -0.25838622 0.2780996 0.112046555 0.03916014
0.36402828 0.18923755 0.1651474 0.20734657 0.25635377 0.28680182 0.1426153 0.30290282
-0.24499235 -0.3082509 0.21702564 -0.18079531 0.48442706 -0.015310695 0.23355126 0.13658494
0.10487025 0.17438157 0.14371532 0.2669386 0.20788603 0.31498396 0.24746563 0.04216656
0.22159113 0.21987677 -0.30099526 0.31905738 -0.29261425 0.284601 -0.23406096 0.21548273
0.12451999 0.14770345 -0.3096489 0.023275644 0.18499073 0.22572143 0.4133521 0.27025694
0.13797405 1.5306019 0.3697927 0.12822166 0.14727174 0.11824808 0.32357872 -0.26778314
0.19066742 0.15688623 -0.63204867 0.3355677 0.4469741 1.1250241 0.26723698 0.28236473
-0.2803506 0.16062407 -0.23800588 0.12628525 0.15527792 0.10334045 0.10728986 0.14140993
0.14511427 0.6383162 0.21946418 0.23960286 0.08657771 1.5329839 0.34455663 0.117659815
0.08736927 0.34070665 0.35003388 0.28200746 -0.1962793 0.11071362 0.38005468 -0.19718735
0.1493349 0.40281114 0.26117954 0.2729382 0.28156316 0.1551094 0.46449387 0.12387339
0.105409816 0.13645849 0.17459053 -0.010324316 0.07701806 -0.32410753 -0.3472137 -0.117153734
0.36886784 0.19481084 -0.23070072 0.22450067 0.39388597 0.25632307 0.103573285 0.16426459
0.19661245 0.21679226 0.16814 0.30346563 0.08247746 0.2502155 0.26749727 0.10131175
0.48449525 0.18358664 0.16594046 0.21105975 0.33417904 0.27373064 0.23089455 0.26874498
0.12335762 0.28725395 -0.26145115 -0.092401944 0.36061838 0.2829467 0.45335022 0.06357143
0.14253925 0.20005615 0.07869302 0.15863173 0.32520416 0.15541953 0.27866927 0.18177217
-0.22519779 0.27333215 0.23069309 0.36861315 0.20040393 0.21492955 -0.1265073 0.13818151
0.23222224 -0.32004318 0.26380238 0.20151271 1.3614348 0.23762707 0.28265634 0.08091245
0.19366306 0.10806041 0.25441185 0.10970393 0.106729016 -0.021773407 0.13172099 0.20773925
0.009993931 0.06429758 0.7267566 0.16122898 -0.16269335 0.37401655 -0.2684844 0.18331227
0.2967703 -1.4929147 0.275393 0.24129213 0.28090423 0.31254587 0.26075408 0.20308173
0.23677565 -0.3023195 0.25448835 0.20258816 0.24777195 -0.1511239 -0.3185147 0.2203699
0.15922274 0.16653793 0.1888688 0.24437477 0.21683699 1.0841477 0.20182426 0.68793356
0.25308564 0.1975763 0.262022 0.24441753 0.1436479 0.28483593 0.17844309 0.1284891
0.20952299 0.11678212 0.28729668 0.09859198 0.20702781 0.17186986 -0.21712549 0.14014696
0.13417883 0.21124738 -0.20218138 0.4534106 0.2632082 0.14772584 0.20246466 0.8366798
0.1838463 0.14783907 -0.28872332 0.20411122 0.20598848 0.3762451 0.24594064 0.17512026
-0.024336174 -0.2981257 0.27102 -0.123269744 0.22278722 0.14680123 0.3616559 0.4524825
00000000: 2db6 a63e 48ab 8b3e f611 dd3d 0faf 6e3e
00000010: f76d 6c3e 650f 9c3e ab5a a9be 5386 7e3e
00000020: 2c61 cb3f 0621 5abe 0f0d 68be 7f5e 843d
00000030: ffa8 803e 1132 323e ddd0 493e d4c7 3b3e
00000040: 9355 773e ee13 4d3e 2a15 83be 7ca1 103e
00000050: 334b 84be 1263 8e3e aa78 e53d 6266 203d
00000060: ea61 ba3e 7dc7 413e 661c 293e a952 543e
00000070: cd40 833e b0d7 923e bf09 123e 1416 9b3e
00000080: 46df 7abe 10d3 9dbe f83b 5e3e 6822 39be
00000090: d306 f83e b6d9 7abc 1028 6f3e ecdc 0b3e
000000a0: 37c6 d63d 1591 323e 1c2a 133e 2dac 883e
000000b0: 13e0 543e 9445 a13e a167 7d3e d8b6 2c3d
000000c0: c9e8 623e 6027 613e 0d1c 9abe 7d5b a33e
000000d0: 89d1 95be 39b7 913e adad 6fbe 81a7 5c3e
000000e0: 5604 ff3d 933f 173e 4d8a 9ebe 90ac be3c
000000f0: 366e 3d3e 8523 673e e3a2 d33e 1e5f 8a3e
00000100: 1249 0d3e c3ea c33f 7855 bd3e 8a4c 033e
00000110: 67ce 163e 0d2c f23d 1cac a53e df1a 89be
00000120: 523e 433e c9a6 203e f1cd 21bf 88cf ab3e
00000130: cad9 e43e ca00 903f 49d3 883e 1c92 903e
00000140: 1d8a 8fbe a37a 243e d0b7 73be ec50 013e
00000150: 2d01 1f3e 28a4 d33d c9ba db3d c4cd 103e
00000160: d698 143e b168 233f 38bb 603e 745a 753e
00000170: a84f b13d d138 c43f ba69 b03e a1f7 f03d
00000180: a9ee b23d 1a71 ae3e a437 b33e 4863 903e
00000190: 71fd 48be d3bd e23d 8796 c23e 7beb 49be
000001a0: 3feb 183e 433d ce3e 53b9 853e 8ebe 8b3e
000001b0: 0c29 903e 00d5 1e3e 24d2 ed3e 55b1 fd3d
000001c0: 1ae1 d73d c6bb 0b3e dcc7 323e 5227 29bc
000001d0: a5bb 9d3d 6cf1 a5be fec5 b1be 4cee efbd
000001e0: 3fdc bc3e 7e7c 473e cf3c 6cbe 81e3 653e
000001f0: 6cab c93e c73c 833e 3b1e d43d fa34 283e
00000200: c654 493e cafe 5d3e e42c 2c3e d95f 9b3e
00000210: f1e9 a83d 3f1c 803e 67f5 883e 897c cf3d
00000220: c30f f83e 23fe 3b3e 4cec 293e 0c20 583e
00000230: 8419 ab3e 6c26 8c3e 9f6f 6c3e f198 893e
00000240: eba2 fc3d f312 933e eddc 85be 3b3d bdbd
00000250: f9a2 b83e 64de 903e 851d e83e bd31 823d
00000260: cff5 113e 85db 4c3e ce29 a13d 5b70 223e
00000270: 2981 a63e 4c26 1f3e bdad 8e3e 7c22 3a3e
00000280: 409a 66be 31f2 8b3e cf3a 6c3e ddba bc3e
00000290: b036 4d3e 7e16 5c3e 218b 01be 747f 0d3e
000002a0: abcb 6d3e b3dc a3be 1b11 873e 5959 4e3e
000002b0: 7f43 ae3f 8354 733e 55b8 903e 6db5 a53d
000002c0: 9c4f 463e c74e dd3d 4542 823e 74ac e03d
000002d0: be94 da3d 255e b2bc dee1 063e 99b9 543e
000002e0: 96bd 233c 73ae 833d b80c 3a3f 3619 253e
000002f0: 1699 26be 197f bf3e ca76 89be 36b6 3b3e
00000300: 47f2 973e d417 bfbf 5000 8d3e 4915 773e
00000310: aed2 8f3e 0306 a03e 8f81 853e a8f4 4f3e
00000320: 5175 723e 9fc9 9abe 4c4c 823e 4573 4f3e
00000330: eeb7 7d3e 39c0 1abe 5c14 a3be a6a8 613e
00000340: 490b 233e eb88 2a3e d366 413e 613d 7a3e
00000350: 840a 5e3e 5ac5 8a3f 05ab 4e3e 6a1c 303f
00000360: 7194 813e 7151 4a3e bf27 863e 9748 7a3e
00000370: 6f18 133e 04d6 913e c9b9 363e a692 033e
00000380: 328d 563e 772b ef3d 8d18 933e 98ea c93d
00000390: 19ff 533e a7fe 2f3e 2556 5ebe af82 0f3e
000003a0: 2d66 093e 3c51 583e a308 4fbe 6f25 e83e
000003b0: 3ac3 863e 7145 173e e552 4f3e a630 563f
000003c0: 3442 3c3e 2063 173e 8bd3 93be 8802 513e
000003d0: a5ee 523e 33a3 c03e ddd7 7b3e ba52 333e
000003e0: a85c c7bc efa3 98be 22c3 8a3e d974 fcbd
000003f0: 5522 643e 1053 163e f62a b93e c9ab e73e

net.4.weight f4 [27, 256]
0.2066251 0.4788953 0.47840706 0.40935126 0.41769364 0.44036645 0.52277017 0.46886668
-1.1010556 0.5283082 0.50114924 0.5155474 0.49995828 0.36032575 0.41100693 0.3894609
0.40771684 0.44267353 0.45886537 0.4242717 0.55215704 0.30700672 0.4375803 0.5238827
0.35963884 0.43034264 0.44863483 0.32563603 0.2982615 0.38282484 0.4437777 0.3539238
0.5443944 0.45601484 0.3887499 0.42610335 0.4861168 -0.052616417 0.41499618 0.03666324
0.47535676 0.36746764 0.46885428 0.39157248 0.3846588 0.4196959 0.027462766 0.44081035
0.40994152 0.39066696 0.5262641 0.43378055 0.5357083 0.9261555 0.51423717 0.44178027
0.36101115 0.44252095 0.44982886 0.27946827 0.41006157 0.41368413 0.51360804 0.39429596
0.4125943 -1.0259482 0.30529636 0.4571261 0.35032386 0.4834501 0.34938133 0.42188492
0.42853954 0.3230402 0.58780193 0.45400906 0.15002857 -0.49011827 0.35679743 0.3391233
0.505247 0.35531312 0.5019109 0.37329254 0.35108635 0.3658431 0.44960248 0.43198985
0.43217173 -0.93709004 0.5190966 0.27026382 0.43590865 -1.0019376 0.3034614 0.17027032
0.4979001 0.06784983 0.13480894 0.37616512 0.42038387 0.31517828 0.4894236 0.41684696
0.38404113 0.25194997 0.41203538 0.3820853 0.41862154 0.4200589 -0.09649134 0.4404538
0.37986457 0.50539774 0.4793632 -0.013187401 0.4173023 0.43465325 0.60425776 0.45012015
0.013057887 0.23513879 0.53997636 0.3658361 0.34303135 0.34037885 0.452933 0.40291196
0.35634398 0.36374256 0.30927205 0.40849435 0.4121699 0.4556175 0.24306612 0.340262
0.25596 0.48013046 0.45657045 0.4372455 0.4022991 0.19288296 0.33013108 0.38436466
0.45167583 0.49931788 0.47665572 0.29241395 0.42829862 0.39587444 0.7190862 0.33487764
0.338956 0.38813597 0.35424837 0.43068358 0.40848827 0.46807015 0.36507836 0.36543822
0.49772352 0.358032 0.3342775 0.3388919 0.39756528 0.44168168 0.5315931 0.4649417
0.44510588 0.42741382 0.38192293 0.46360633 -1.1506392 1.1488783 0.35236937 1.1336184
0.41815078 0.4800829 0.39264867 0.42560706 0.41735733 1.2567796 0.41367462 0.34147897
0.4285614 0.36802715 -0.8730988 0.41640526 0.4474667 0.1962236 0.51623696 0.4648316
0.33178642 0.18426728 0.3675838 0.2496699 0.44478384 0.4378443 0.41789624 0.4232933
0.40884176 0.5137639 0.40427074 0.46624702 0.4542738 0.45699647 0.4608702 0.47812802
0.3538769 0.35235137 0.42141753 0.4145594 0.4281031 -0.73130417 0.38867864 -0.068205476
0.41106614 0.4116226 0.3190243 0.34587178 0.3893571 0.34764594 0.4779531 0.4132399
0.31622157 0.47997975 0.37030745 1.1751676 0.27026734 0.44484618 0.48621434 0.4748208
0.377811 0.42034364 0.4341663 0.15269504 0.37812278 0.3680897 0.37874764 -0.12440892
0.3629917 0.48624164 0.56233454 0.36101526 0.38833842 0.32723498 0.44297048 0.35190707
0.9479923 0.5291137 0.36659214 0.4518459 0.40464556 0.42659065 0.42141512 -0.076330386
00000000: 8895 533e c431 f53e c5f1 f43e 7d96 d13e
00000010: f1db d53e b677 e13e 44d4 053f 4b0f f03e
00000020: 64ef 8cbf 353f 073f 514b 003f eafa 033f
00000030: 88fa ff3e 9e7c b83e 806f d23e 6b67 c73e
00000040: 43c0 d03e 1ba6 e23e 67f0 ea3e 243a d93e
00000050: 2a5a 0d3f fc2f 9d3e 860a e03e 2d1d 063f
00000060: 9522 b83e df55 dc3e 77b3 e53e c4b9 a63e
00000070: bbb5 983e 9e01 c43e d536 e33e 8035 b53e
00000080: 6e5d 0b3f c77a e93e 3a0a c73e 382a da3e
00000090: 4de4 f83e 5084 57bd 617a d43e 322c 163d
000000a0: f661 f33e b824 bc3e ab0d f03e 307c c83e
000000b0: 00f2 c43e 62e2 d63e 98f9 e03c e5b1 e13e
000000c0: dbe3 d13e 8005 c83e 3eb9 063f 7c18 de3e
000000d0: 2e24 093f 8718 6d3f 0ca5 033f 0631 e23e
000000e0: 74d6 b83e 1b92 e23e f84f e63e 7716 8f3e
000000f0: 97f3 d13e 68ce d33e d17b 033f 29e1 c93e
00000100: 8f3f d33e 4552 83bf ce4f 9c3e 6f0c ea3e
00000110: a65d b33e c686 f73e 1ce2 b23e 4d01 d83e
00000120: 8969 db3e 8665 a53e 307a 163f e073 e83e
00000130: 17a1 193e c8f0 fabe 27ae b63e 92a1 ad3e
00000140: de57 013f 9aeb b53e 3c7d 003f 3320 bf3e
00000150: 97c1 b33e c94f bb3e 4c32 e63e c62d dd3e
00000160: 9d45 dd3e 22e5 6fbf 84e3 043f 0560 8a3e
00000170: 6b2f df3e 7e3f 80bf 4b5f 9b3e 585b 2e3e
00000180: c3ec fe3e daf4 8a3d 5b0b 0a3e b798 c03e
00000190: 8e3c d73e 0c5f a13e bb95 fa3e f76c d53e
000001a0: 0aa1 c43e 96ff 803e 4df6 d23e afa0 c33e
000001b0: 9055 d63e f611 d73e 409d c5bd 2983 e13e
000001c0: 9c7d c23e bf61 013f 186f f53e f80f 58bc
000001d0: a6a8 d53e df8a de3e a3b0 1a3f 2676 e63e
000001e0: bff0 553c 39c8 703e e43b 0a3f df4e bb3e
000001f0: cea1 af3e 2346 ae3e d6e6 e73e 7a4a ce3e
00000200: b872 b63e 773c ba3e e858 9e3e 2c26 d13e
00000210: ef07 d33e b246 e93e 53e6 783e d236 ae3e
00000220: 300d 833e a9d3 f53e 9ac3 e93e a4de df3e
00000230: 26fa cd3e 1c83 453e f106 a93e 72cb c43e
00000240: 0e42 e73e 98a6 ff3e 380c f43e 48b7 953e
00000250: f549 db3e 0eb0 ca3e 0916 383f 1575 ab3e
00000260: a48b ad3e c2b9 c63e 0b60 b53e 8f82 dc3e
00000270: 6025 d13e e4a6 ef3e 8deb ba3e b81a bb3e
00000280: 9ed5 fe3e f84f b73e 6c26 ab3e 3d83 ad3e
00000290: ad8d cb3e 1a24 e23e 7c16 083f d70c ee3e
000002a0: ebe4 e33e fcd5 da3e 678b c33e cf5d ed3e
000002b0: 2548 93bf 720e 933f c269 b43e 681a 913f
000002c0: dc17 d63e 6dcd f53e 3f09 c93e 2be9 d93e
000002d0: dcaf d53e 27de a03f 29cd d33e 55d6 ae3e
000002e0: 666c db3e 0e6e bc3e 6783 5fbf 1233 d53e
000002f0: 5b1a e53e d7ee 483e 1b28 043f 68fe ed3e
00000300: e9df a93e 90b0 3c3e f233 bc3e 77a9 7f3e
00000310: b5ba e33e 212d e03e 7ff6 d53e e6b9 d83e
00000320: b553 d13e 0886 033f 93fc ce3e eeb7 ee3e
00000330: 9396 e83e 71fb e93e 2ef7 eb3e 32cd f43e
00000340: 5a2f b53e 6667 b43e 0ac4 d73e 2141 d43e
00000350: 5430 db3e c036 3bbf e300 c73e 50af 8bbd
00000360: 4377 d23e 33c0 d23e 2757 a33e 1b16 b13e
00000370: d059 c73e a6fe b13e 45b6 f43e 2e94 d33e
00000380: cbe7 a13e e8bf f53e f098 bd3e e46b 963f
00000390: 7b60 8a3e e1c2 e33e 16f1 f83e b61b f33e
000003a0: 7270 c13e 4837 d73e 0c4b de3e 175c 1c3e
000003b0: 4f99 c13e 4176 bc3e 36eb c13e 1bca febd
000003c0: 0cda b93e aaf4 f83e 28f5 0f3f fed6 b83e
000003d0: 4bd4 c63e 588b a73e 07cd e23e 2a2d b43e
000003e0: a0af 723f ff73 073f f7b1 bb3e 5958 e73e
000003f0: b42d cf3e 176a da3e b9c3 d73e 1b53 9cbd

net.4.bias f4 [27]
-0.029625522 0.1382928 -0.07003771 -0.0013173864 0.01875232 0.067536406 0.007394884 0.18213893
-0.092340805 0.32428026 0.09711242 0.12606564 -0.015840864 0.14552778 0.073335454 0.0635208
-0.037568096 -0.03373814 0.2665172 0.46124667 0.44556752 -0.025225842 0.05912209 0.13981362
-0.034995712 0.16500092 0.032391634
00000000: 39b1 f2bc a19c 0d3e ee6f 8fbd 27ac acba
00000010: 779e 993c 8750 8a3d c850 f23b a182 3a3e
00000020: 2d1d bdbd 1008 a63e e0e2 c63d 5a17 013e
00000030: b3c4 81bc 3c05 153e e630 963d 3117 823d
00000040: 01e1 19bd 0131 0abd f174 883e 8628 ec3e
00000050: 6d21 e43e 6da6 cebc 012a 723d 4d2b 0f3e
00000060: aa57 0fbd 00f6 283e 17ad 043d
