model/dqn_policy_net_episode_540.pt (torch, 334295 bytes, 6 tensors)

net.0.weight f4 [128, 336]
0	0x3e11518d	0.14191265
1	0xbe214e84	-0.15752608
2	0x3ded73f2	0.115943804
3	0xbca723a3	-0.020402735
4	0xbd8336e8	-0.06406957
5	0xbd863fae	-0.06555115
6	0x3beab981	0.007163227
7	0xbe2422af	-0.16028856
8	0x3e5a9f23	0.21349768
9	0xbdd0a003	-0.1018677
10	0x3c9b83ac	0.018983684
11	0xbd792d43	-0.06083418
12	0x3b057805	0.0020365727
13	0xbe03562a	-0.12825838
14	0xbce5f7f3	-0.028072333
15	0xbd134fe7	-0.035964873
16	0xbe654350	-0.22388959
17	0x3d4fe2c9	0.05075339
18	0x3e182cec	0.14860886
19	0xbd797103	-0.060898792
20	0x3e8b0d33	0.27158508
21	0xbbd2cc26	-0.006433028
22	0xbd418e25	-0.0472547
23	0xbd053bad	-0.032527614
24	0xbd3ad57a	-0.045613743
25	0xbddd7843	-0.10813954
26	0xbd81bb4e	-0.06334554
27	0xbca01968	-0.019543365
28	0x3df6c18d	0.12048636
29	0x3d9ed974	0.0775632
30	0xbdbf3369	-0.093359776
31	0xbb850ff5	-0.00406074
32	0xbece7c3a	-0.40329152
33	0x3d6c72bd	0.05772661
34	0x3d981372	0.07425584
35	0x3c6bffc3	0.01440424
36	0x3b626d2d	0.0034549937
37	0x3d53fc2e	0.05175417
38	0x3e2b761c	0.16744274
39	0xbdbf87d3	-0.09352078
40	0x3d4b5518	0.0496417
41	0xbd9d3038	-0.076752126
42	0xbdbc7188	-0.09201342
43	0xbd395624	-0.045248166
44	0x3d909376	0.07059376
45	0xbccd111e	-0.025032576
46	0xbc4365e7	-0.011926151
47	0x3d4e657d	0.050389756
48	0xbd320ed6	-0.04347118
49	0x3d3c8046	0.04602077
50	0x3d82c955	0.06386057
51	0x3c3c56b1	0.011495278
52	0x3912f3ba	0.0001401444
53	0xbcc48e1d	-0.023993546
54	0x3e2ceb1c	0.16886562
55	0x3acb7513	0.0015522562
56	0x3e74fbca	0.23924175
57	0x3bab7119	0.005231988
58	0xbd8bdd6b	-0.068293415
59	0xbde2cfc1	-0.11074782
60	0x3d5af951	0.053460423
61	0x3cb96015	0.022628823
62	0x3d31b237	0.04338285
63	0xbb90232c	-0.004398724
64	0xbdac5e61	-0.08416439
65	0x3ca08a29	0.01959713
66	0xbdd9a34c	-0.106268495
67	0x3c27afb9	0.010234767
68	0xbdb66da6	-0.089076325
69	0xbde7d2e0	-0.11319518
70	0x3e64a0b1	0.22326924
71	0xbd63c4be	-0.05560755
72	0xbbf29db8	-0.0074040554
73	0xbd0c9c75	-0.034328897
74	0x3de76955	0.11299387
75	0x3d8140a4	0.06311157
76	0xbd818dfa	-0.06325908
77	0x3e075f7c	0.13220018
78	0xbd84f3ec	-0.06491837
79	0x3d64cb6c	0.05585806
80	0x3e19e490	0.15028596
81	0x3dd00343	0.10156872
82	0x3d03986f	0.032127794
83	0x3ca9946a	0.020700652
84	0xbe6b7385	-0.22993286
85	0xbdd2297d	-0.102618195
86	0x3dd44750	0.10365164
87	0xbe49536e	-0.19660732
88	0x3e1eb329	0.15498032
89	0xbdce74af	-0.100808494
90	0x3df168f6	0.11787598
91	0xbd83d169	-0.06436426
92	0x3ae80f8a	0.0017704826
93	0xbe484ac7	-0.19559775
94	0x3caa5ab5	0.020795206
95	0xbdd42831	-0.103592284
96	0x3eb8ace3	0.36069402
97	0xbe28f6ca	-0.16500393
98	0x3db52454	0.0884482
99	0xbd82688e	-0.063675985
100	0xbdfb1b13	-0.12261023
101	0xbdb00084	-0.08593848
102	0x3ac5af83	0.0015082214
103	0xbda1e6da	-0.079053596
104	0xbf207702	-0.6268159
105	0x3d5d1c95	0.053982336
106	0x3ddfc2e3	0.109258436
107	0x3d6394f8	0.05556199
108	0x3e51ead3	0.20499735
109	0x3e100664	0.14064938
110	0x3da0835b	0.07837554
111	0x3d0d699e	0.034524553
112	0x3e494f6e	0.19659206
113	0xbe0d6455	-0.13807805
114	0xbd860f22	-0.06545855
115	0xbc893c30	-0.016752332
116	0x3d814082	0.06311132
117	0xbde01fa5	-0.10943536
118	0xbda8dac4	-0.08244851
119	0xbdcb2963	-0.09920003
120	0xbf9584f9	-1.1681205
121	0x3de63fbb	0.11242624
122	0x3e2354f1	0.15950371
123	0x3c9883ca	0.01861753
124	0x3d20ca1e	0.039255254
125	0x3d83fadb	0.06444331
126	0x3cfebfbb	0.031097284
127	0x3c66a119	0.014076495
128	0x3e8c38bf	0.27387044
129	0xbe5063b0	-0.20350528
130	0xbde70e23	-0.11281993
131	0xbd4186bc	-0.047247633
132	0xbd3c671e	-0.045996778
133	0xbdae6344	-0.08515027
134	0xbd24c5a1	-0.040227536
135	0xbc30f77f	-0.010801195
136	0xbe8aad91	-0.27085546
137	0xbd94479c	-0.07240221
138	0xbc5c58d0	-0.013448909
139	0x3b91ee02	0.0044534216
140	0xbe06487f	-0.13113593
141	0x3bb80deb	0.0056168935
142	0x3e80307b	0.25036988
143	0x3c868679	0.016421543
144	0x3eb116c9	0.34587696
145	0xbd91dd11	-0.07122243
146	0xbda1fef5	-0.07909957
147	0xbe2ae2db	-0.16688101
148	0x3e24b68e	0.16085264
149	0xbd370b22	-0.04468835
150	0xbd294606	-0.041326545
151	0xbd29eee6	-0.041487597
152	0x3e121422	0.14265493
153	0xbc5068fe	-0.012720345
154	0x3d025dc8	0.031827718
155	0x3c53d3ff	0.012928962
156	0xbe1bae22	-0.15203145
157	0xbd0d5ca0	-0.034512162
158	0x3dbb15cb	0.09135016
159	0xbddfe77c	-0.10932824
160	0x3e2cb760	0.16866827
161	0xbe444d3e	-0.1917009
162	0x3d702b06	0.05863478
163	0x3b894de8	0.0041901954
164	0x3d5e2f51	0.054244343
165	0xbd5bb26a	-0.053636946
166	0xbc0c7cbe	-0.008574663
167	0xbcda57a8	-0.026653126
168	0x3ef982ae	0.48732513
169	0xbd974461	-0.07386089
170	0xbe157d75	-0.1459864
171	0x3b848a23	0.0040447875
172	0xbdf37c58	-0.11888951
173	0xbeb0380b	-0.34417757
174	0xbc2afd14	-0.010436315
175	0xbe0ac288	-0.1355077
176	0x3ef295be	0.4737987
177	0x3c587aa0	0.01321283
178	0x3dbcad65	0.0921276
179	0xbe091a30	-0.13388896
180	0x3aec8cc3	0.0018047321
181	0xbe2b71fa	-0.16742697
182	0xbcf4eeed	-0.029899085
183	0xbe232ca3	-0.15934996
184	0x3f56695b	0.8375451
185	0x3d56f972	0.052483983
186	0xbd71ba7a	-0.05901573
187	0xbe1ea4ca	-0.1549255
188	0xbd9fce0c	-0.07802972
189	0xbe43300b	-0.19061296
190	0x3d6faeeb	0.058516424
191	0xbdf2d356	-0.118567154
192	0xbf3859b8	-0.720119
193	0x3e29e14b	0.16589849
194	0x3d77a84d	0.06046324
195	0x3e225625	0.15853174
196	0x3e41b6b5	0.18917353
197	0x3ec40a99	0.38289335
198	0x3e4233c7	0.18965064
199	0x3e829aa7	0.25508615
200	0x3f47e7a7	0.7808785
201	0xbde1afc1	-0.110198505
202	0xbd3b46bb	-0.04572175
203	0xbdd5ea4e	-0.10445081
204	0xbd5570b0	-0.05210942
205	0xbeafb710	-0.34319353
206	0xbdfd0870	-0.12355125
207	0xbd7f6dca	-0.062360562
208	0xbfb4dc8c	-1.4129806
209	0x3e95e914	0.29279387
210	0x3ea475a9	0.32121018
211	0x3e97444f	0.29544303
212	0x3cdda44c	0.027055882
213	0x3e7dc0c8	0.24780571
214	0x3deee8ac	0.116654724
215	0x3e8eeb3e	0.2791385
216	0x3f330c67	0.699408
217	0xbe693c6a	-0.22776952
218	0xbdbf3b6a	-0.09337504
219	0xbd372975	-0.04471727
220	0x3ccff307	0.02538444
221	0xbe43fa97	-0.19138561
222	0xbd8ca4ef	-0.06867396
223	0xbe2611a3	-0.16217665
224	0xbeabc94c	-0.33552015
225	0x3e8103e1	0.25198272
226	0x3e200d17	0.15629993
227	0x3e28b43e	0.16475007
228	0x3db43b37	0.08800357
229	0x3dca08d5	0.09864966
230	0xbe2439e2	-0.16037706
231	0x3e0fb9b2	0.14035681
232	0x3ede8167	0.434581
233	0x3e00acdb	0.12565939
234	0xbc9fafef	-0.019493071
235	0x3dbac53d	0.091196515
236	0x3e705ea1	0.23473598
237	0xbe8402a8	-0.25783277
238	0xbd30a7ce	-0.04312878
239	0x3d495374	0.049151853
240	0x3f402d2b	0.7506892
241	0x3d2d75ed	0.04234879
242	0xbda7a096	-0.08184926
243	0xbbc8c749	-0.0061272723
244	0xbc7c6017	-0.015403769
245	0xbe00a232	-0.12561873
246	0x3d000529	0.03125492
247	0xbe321e40	-0.17394352
248	0xbf5a9969	-0.85390335
249	0x3e562f76	0.20916542
250	0x3e3308ac	0.17483777
251	0x3e9c1ab3	0.3048912
252	0x3de65118	0.11245936
253	0x3e440327	0.19141828
254	0x3daf0155	0.08545176
255	0x3ecfff1e	0.40624326

net.0.bias f4 [128]
0	0x3e1c3441	0.15254308
1	0x3e075ea1	0.13219692
2	0x3d9a8e5b	0.075466834
3	0x3da6e029	0.08148224
4	0x3dcd18d2	0.100145
5	0x3d019f97	0.031646337
6	0x3e85447c	0.26028812
7	0x3e1ac495	0.15114053
8	0x3c54b000	0.012981415
9	0x3e1eac79	0.1549548
10	0x3de3041b	0.110847674
11	0x3d98a68a	0.0745364
12	0x3db00690	0.08595002
13	0x3d73a44e	0.059482865
14	0x3dafc817	0.08583086
15	0x3dc65812	0.09684767
16	0x3d877bc1	0.06615401
17	0x3e345f06	0.17614374
18	0x3e027ab0	0.12742114
19	0x3d9e6726	0.07734518
20	0x3d67e370	0.056613386
21	0x3d35b42d	0.044361282
22	0x3e052f4f	0.13006328
23	0x3d9bd6cc	0.07609329
24	0x3e0d2f4f	0.13787578
25	0x3e05ee27	0.13079129
26	0x3da2dfc3	0.079528354
27	0x3db247a5	0.08705071
28	0x3dc99df9	0.09844584
29	0x3e54ba7c	0.20774263
30	0x3dd1ed19	0.10250301
31	0x3d146f74	0.036239102
32	0x3de6618b	0.112490736
33	0x3d6fab9c	0.05851327
34	0x3d8cab62	0.06868626
35	0x3d875057	0.066071205
36	0x3da0d32a	0.07852776
37	0x3df759f0	0.12077701
38	0x3de824e0	0.11335158
39	0x3de8b43d	0.11362503
40	0x3d04b477	0.032398667
41	0x3dbd97bc	0.09257457
42	0x3da71568	0.0815838
43	0x3de06480	0.10956669
44	0x3d8eef1c	0.069792
45	0x3e137b5a	0.14402524
46	0x3da5c8ed	0.08094964
47	0x3e1afb72	0.15134981
48	0x3dea7df0	0.11449802
49	0x3dbb860e	0.09156428
50	0x3d28b6b7	0.041189875
51	0x3db85048	0.089996874
52	0x3d2c351f	0.042042848
53	0x3da0b5e0	0.0784719
54	0x3dca702c	0.09884676
55	0x3dd012f5	0.10159866
56	0x3dcbe723	0.09956195
57	0x3d586a10	0.052835524
58	0x3e0bbf78	0.13647258
59	0x3d9b4048	0.0758062
60	0x3e20c216	0.15699038
61	0x3df20c61	0.11818767
62	0x3d79dcb5	0.0610015
63	0x3dcabcbd	0.0989928
64	0x3e029359	0.12751521
65	0x3e0c5809	0.13705458
66	0x3e3c2b9d	0.18376012
67	0x3dd2b3f4	0.102882296
68	0x3dbd7c28	0.092521966
69	0x3d4785fb	0.048711758
70	0x3df324f0	0.1187228
71	0x3dfc976a	0.123335674
72	0x3e116cd5	0.14201672
73	0x3e16e339	0.14735116
74	0x3dd37335	0.10324708
75	0x3e305ea1	0.17223598
76	0x3de61c32	0.112358466
77	0x3e0c1eca	0.1368362
78	0x3e137396	0.14399561
79	0x3dc7e928	0.09761268
80	0x3d449e2b	0.048002403
81	0x3f2235c9	0.6336332
82	0x3de2ab7c	0.11067864
83	0x3e278ee4	0.16363102
84	0x3dd262d7	0.102727585
85	0x3e1200ff	0.14258192
86	0x3e24ac37	0.1608132
87	0x3d38dc6a	0.04513208
88	0x3e4ecd99	0.20195617
89	0x3da8ffde	0.08251928
90	0x3e11cec8	0.14239037
91	0x3dbe9e93	0.093075894
92	0x3e07265b	0.13198225
93	0x3d84fc60	0.06493449
94	0x3e1790c1	0.14801313
95	0x3d829072	0.06375207
96	0x3d00c78a	0.031440295
97	0x3e08234a	0.13294712
98	0x3db4fc2d	0.08837161
99	0x3d74b88e	0.059746318
100	0x3e18e109	0.14929594
101	0x3e300889	0.17190756
102	0x3d80cad1	0.06288684
103	0x3e1957f0	0.14974952
104	0x3daaf714	0.08347908
105	0x3dce0b98	0.10060805
106	0x3db177ea	0.0866545
107	0x3d43f768	0.047843367
108	0x3ded474f	0.11585867
109	0x3e0102e5	0.1259876
110	0x3cef4dae	0.029211845
111	0x3de6d91c	0.11271879
112	0x3d7fb299	0.062426183
113	0x3de27cf9	0.11058993
114	0x3df60e2f	0.12014424
115	0x3db01fcf	0.08599817
116	0xbc859d85	-0.016310463
117	0x3e022720	0.12710238
118	0xbc4cef05	-0.012508159
119	0x3e1ef474	0.15522939
120	0x3dcc032b	0.09961542
121	0x3dfe918b	0.12430104
122	0x3e1225da	0.14272252
123	0x3e21610c	0.15759677
124	0x3e0fc16c	0.14038628
125	0x3dada5a3	0.08478858
126	0x3d84a350	0.06476462
127	0x3d6618c5	0.056175966

net.2.weight f4 [256, 128]
0	0x3f90cc93	1.1312431
1	0x3df02017	0.11724871
2	0x3fb07025	1.3784224
3	0x3eb9abf4	0.36264002
4	0xbdc32d10	-0.09530079
5	0x3e5c04ef	0.21486257
6	0x3f12cf0f	0.57347196
7	0x3fda065a	1.7033188
8	0x400d84ae	2.2112231
9	0x3efa00d3	0.48828754
10	0x3f3f9317	0.74833816
11	0x3e904dd0	0.28184366
12	0x3d6452a4	0.055742875
13	0x3b7c785a	0.0038523884
14	0xbe7a9fb0	-0.24474978
15	0x3f50e708	0.81602526
16	0x3ed7cb10	0.42147112
17	0xbd940006	-0.07226567
18	0x3ebd14c9	0.3692992
19	0x3f983487	1.189103
20	0x3f7cfea5	0.98826057
21	0x3fe045d3	1.7521309
22	0xbd896c41	-0.06710101
23	0x3ee218e3	0.44159612
24	0x3ead5ae1	0.33858398
25	0x3db61547	0.08890777
26	0x3f2403b0	0.64068127
27	0xbe568f05	-0.20952995
28	0x3ea6249b	0.32449803
29	0x3cfd616e	0.030930247
30	0x3e489937	0.19589697
31	0x3f1831ff	0.5945129
32	0x3f319de8	0.6938157
33	0x3ec7a82b	0.3899549
34	0x3e8e592c	0.27802408
35	0x3f26df03	0.6518404
36	0xbdd9ed02	-0.10640909
37	0x3f922097	1.1416196
38	0x3f871951	1.0554601
39	0x3b52b983	0.003215403
40	0xbf0f4575	-0.5596536
41	0x3e8fb613	0.280686
42	0x3e3938c7	0.18088065
43	0xbd77ccb8	-0.06049797
44	0x3dd76ae0	0.10518432
45	0x3e22b172	0.15888003
46	0x3f7ce3c5	0.9878505
47	0x3f718a26	0.9435142
48	0x3f352a9f	0.7076816
49	0x3e3cceb6	0.18438229
50	0x3f1510dc	0.5822885
51	0x3f8fc1a7	1.1230973
52	0x3e9d34d2	0.3070436
53	0x3e45d41a	0.19319192
54	0x3eb6c3aa	0.35696155
55	0xbe2d0977	-0.16898142
56	0xbe9dc24c	-0.308123
57	0xbf14d29d	-0.5813387
58	0x3eaa7f74	0.33300364
59	0x3f284e0a	0.6574408
60	0x3dce172c	0.100630134
61	0x3fca0a0f	1.578432
62	0x3eb26eef	0.3485026
63	0x3ec47924	0.38373673
64	0x3e0b1b9a	0.13584748
65	0x3f0a2678	0.5396495
66	0x3f7d5aaf	0.989665
67	0x3e249a54	0.16074497
68	0x3f86675a	1.050029
69	0x3eb29d24	0.34885514
70	0xbe0ecad0	-0.13944554
71	0x3da35ba1	0.07976461
72	0x3e8157e8	0.2526238
73	0x3f33d792	0.7025081
74	0x3eef46c2	0.4673367
75	0x3dacfdc5	0.0844684
76	0x3e8725fb	0.26396164
77	0xbe814705	-0.25249496
78	0x3e4bce9c	0.19903034
79	0x3e8f2a3f	0.2796192
80	0x3f1452f3	0.5793907
81	0x3ed2e7d3	0.41192493
82	0xbe9d7e04	-0.30760205
83	0x3dabc005	0.08386234
84	0x3ec298f4	0.3800732
85	0xbe453040	-0.19256687
86	0x3f32d960	0.6986294
87	0x3ec4af3b	0.3841494
88	0xbe85ab1c	-0.2610711
89	0x3babd8a6	0.0052443324
90	0x3f00092a	0.50013983
91	0x3ea578fd	0.3231887
92	0x3f3b2c7a	0.7311474
93	0x3f9e793f	1.2380751
94	0x3eefdbc6	0.4684736
95	0x3efd2807	0.494446
96	0x3f4a13e6	0.7893661
97	0x3ca4494c	0.020054482
98	0x3e1dd0b5	0.15411647
99	0xbf32a9aa	-0.69790137
100	0xbdc4e790	-0.096144795
101	0xbe4e3b39	-0.20139779
102	0x3fb51f5a	1.4150193
103	0x3e8c859f	0.27445695
104	0x3e2f4484	0.1711598
105	0x3e760347	0.24024688
106	0x3ef587e8	0.4795525
107	0xba3d105a	-0.00072122144
108	0x3f279499	0.6546112
109	0x3fa9b507	1.325837
110	0x3d8b434c	0.06799945
111	0x3f0a524f	0.5403184
112	0x3ed69e2b	0.41917548
113	0x3ef4e3af	0.4782996
114	0x3f120f1b	0.570543
115	0x3f42d790	0.7611017
116	0x3fd4fe88	1.6640177
117	0x3e23ad6f	0.15984128
118	0xbf24d294	-0.64383817
119	0x3ef2b5e9	0.4740441
120	0x3d316d02	0.04331685
121	0xbd8a2092	-0.067444935
122	0x3e7914b3	0.24324302
123	0x3e82577f	0.2545738
124	0x3fe2435a	1.7676804
125	0x3d02803a	0.031860568
126	0x3f658721	0.89659315
127	0x3fabead8	1.3431044
128	0x400cca8e	2.199863
129	0x3e06cbf6	0.13163742
130	0x3f5e7801	0.8690186
131	0xbe0610b0	-0.13092303
132	0x3ece987b	0.40350708
133	0x3f1c39d7	0.61025757
134	0xbecf1657	-0.4044673
135	0x3f536f86	0.82592046
136	0x3ec97870	0.393497
137	0x3e6d3c47	0.23167525
138	0xbe866012	-0.2624517
139	0x3d36ce97	0.044630613
140	0x3e9bb401	0.3041077
141	0x3f16733e	0.58769596
142	0x3f39f135	0.7263368
143	0x3f05fa2a	0.52334845
144	0x3e83e6d1	0.25762036
145	0x3f3c56f9	0.7357021
146	0x3e432517	0.19057117
147	0x3c8ae757	0.016956015
148	0x3fb1e740	1.3898697
149	0x3f7cc0a7	0.98731464
150	0x3f1ad3bb	0.60479325
151	0x3f2ddc38	0.6791415
152	0x3ee9908d	0.45618096
153	0x3ebe6a7d	0.3719062
154	0x3f3dbaf1	0.74113375
155	0x3ec60acb	0.3868011
156	0x3de713e0	0.11283088
157	0x3ed0a811	0.40753224
158	0x3d836ac1	0.06416846
159	0x3fd56ed6	1.667445
160	0x3ebfb927	0.37445948
161	0x3f2bdf50	0.6713762
162	0x3e94d9c9	0.29072407
163	0x3dd20274	0.10254374
164	0x3f37c28f	0.7178125
165	0x3f8832a2	1.0640452
166	0x3f49cd30	0.78828716
167	0x3f0adba0	0.5424137
168	0xbf3dc035	-0.7412141
169	0x3e8af8e0	0.27143002
170	0x3e9f955b	0.31168637
171	0x3f2a20ef	0.664565
172	0x3edc66b7	0.43047115
173	0x3f160457	0.5860037
174	0x3fc2aabc	1.5208354
175	0x3f339955	0.7015584
176	0x3fae03cc	1.3594909
177	0x3e4a5bdc	0.19761604
178	0xbe75836e	-0.23975918
179	0x3ec21c06	0.37912005
180	0x3f1074dd	0.5642832
181	0x3e50f197	0.20404659
182	0x3f0a5643	0.54037875
183	0x3eee843b	0.4658526
184	0x3f4d6fcb	0.8024871
185	0xbf33b508	-0.70198107
186	0xbdba656c	-0.09101376
187	0x3f5df51e	0.86702144
188	0x3d6d4cc1	0.057934526
189	0x3eab0b1c	0.33406913
190	0x3d019001	0.031631473
191	0x3efffc94	0.4999739
192	0xbdc2ab06	-0.095052764
193	0x3d261b88	0.0405536
194	0x3fa74ad7	1.3069714
195	0x3e19b766	0.15011367
196	0x3f9487fa	1.1603997
197	0xbec7a3cf	-0.38992164
198	0x3f48143a	0.78155863
199	0x3f3b548f	0.731759
200	0x3f540a26	0.82827985
201	0xbd00df1e	-0.03146278
202	0x3cd9e7d9	0.026599811
203	0x3eb90eee	0.36144203
204	0x3f3877e9	0.7205797
205	0x3f06168c	0.52378154
206	0x3eed1b5b	0.46309933
207	0x3f708158	0.9394736
208	0x3f2c1e04	0.672333
209	0xbe99c942	-0.3003636
210	0x3eaf9b90	0.34298372
211	0x3e8ae63e	0.27128786
212	0x3f3fa489	0.74860436
213	0x3e9bb71f	0.30413148
214	0x3d1e61be	0.038667433
215	0x3e471722	0.19442418
216	0x3f3bd141	0.7336617
217	0x3f0368ec	0.51331973
218	0xbe0f8b33	-0.14017944
219	0x3dde3f3f	0.10851907
220	0xbdbc7fb0	-0.09204042
221	0xbf1b36ce	-0.606305
222	0xbe8bd28e	-0.27309078
223	0x3e86a360	0.2629652
224	0xbdf9398d	-0.1216918
225	0x3f6fb5b0	0.9363661
226	0x3e59a728	0.21255171
227	0x3f5b216a	0.8559786
228	0x3f5683e4	0.83795
229	0x3ecd3266	0.40077513
230	0x3fb91743	1.4460224
231	0x3f27b2c2	0.6550714
232	0x3eae706c	0.34070146
233	0x3e9c0229	0.30470398
234	0x3dec31ee	0.11532961
235	0x3f1ffd4c	0.62495875
236	0xbe167c72	-0.1469591
237	0x3f4540e3	0.77052134
238	0x3f41855d	0.7559412
239	0xbd1af774	-0.037833646
240	0xbe185866	-0.14877471
241	0x3fa60e93	1.2973198
242	0x3f12e3ba	0.57378733
243	0xbe300451	-0.17189147
244	0xbf633aa6	-0.88761365
245	0x3e1798f0	0.14804435
246	0xbf467183	-0.77516955
247	0x3f4dc0dc	0.80372405
248	0x3f50a786	0.8150562
249	0x3ef2feca	0.47460014
250	0x3e920976	0.28522843
251	0x3e7b4e55	0.245416
252	0x3ec8153f	0.3907871
253	0x3eaf7c8f	0.34274718
254	0x3ffe7fd9	1.9882766
255	0x3fc4739f	1.5347785

net.2.bias f4 [256]
0	0x3e63eb02	0.22257617
1	0x3e255334	0.1614502
2	0x3cd00f03	0.025397783
3	0x3deaa573	0.11457338
4	0x3df80ed7	0.121122055
5	0x3e5064d2	0.2035096
6	0xbe86d2dd	-0.2633275
7	0x3e17ee45	0.14836986
8	0x3f9bb066	1.2163208
9	0xbe182314	-0.14857131
10	0xbe192f08	-0.14959347
11	0xbcb46e7f	-0.022025345
12	0x3e175644	0.14779001
13	0x3da45057	0.08023136
14	0x3dbca9a0	0.09212041
15	0x3d9509dc	0.07277271
16	0x3e190d1e	0.1494641
17	0x3dc3ddca	0.09563787
18	0xbe477417	-0.19477879
19	0x3d665dd8	0.05624184
20	0xbe4be851	-0.1991284
21	0x3e346dcc	0.17620009
22	0x3c8ad6e5	0.016948173
23	0xbd595a60	-0.053064704
24	0x3e99ae1e	0.30015653
25	0x3dc178bf	0.094468586
26	0x3d3e9328	0.046527058
27	0x3dc83304	0.097753555
28	0x3e85d69d	0.261403
29	0x3e32d951	0.17465712
30	0x3d03164e	0.032003693
31	0x3e2fdb7b	0.17173569
32	0xbe503635	-0.20333178
33	0xbe7a4bc2	-0.24442962
34	0x3dc8e97e	0.0981016
35	0xbde291ec	-0.11062989
36	0x3e8dc0b2	0.27686077
37	0xbc7ad9b6	-0.015310695
38	0x3e036a8a	0.1283361
39	0x3d836a28	0.06416732
40	0x3b709b88	0.0036713798
41	0x3d8cd273	0.068760775
42	0x3d3dac6b	0.04630701
43	0x3e3694bf	0.1783018
44	0x3dcd6bda	0.10030337
45	0x3e580156	0.2109426
46	0x3e5706ca	0.20998684
47	0xbd44295f	-0.047891017
48	0x3dd72426	0.10504942
49	0x3e02d17e	0.12775227
50	0xbe73840d	-0.23780842
51	0x3e5b2966	0.21402511
52	0xbe7c9177	-0.24664865
53	0x3e3f0f18	0.18658102
54	0xbe4073e4	-0.18794209
55	0x3df144f1	0.11780728
56	0x3bc78e7c	0.0060899835
57	0x3d4a3132	0.049363323
58	0xbe7a8f53	-0.24468736
59	0x3d1de0f3	0.038544606
60	0x3db83805	0.0899506
61	0x3dd92474	0.10602656
62	0x3ea7e334	0.3279053
63	0x3e2977a7	0.1654955
64	0x3cfcb4af	0.030847875
65	0x3f962929	1.1731311
66	0x3e86dd31	0.2634063
67	0x3c73ee58	0.014888369
68	0x3d17d437	0.03706762
69	0x3c9378de	0.01800197
70	0x3e59a2e4	0.21253544
71	0xbe54a6c1	-0.20766737
72	0x3d95f73e	0.07322548
73	0x3d7f0b85	0.062266845
74	0xbed05793	-0.40691814
75	0x3e64dc6b	0.22349708
76	0x3ead3906	0.33832568
77	0x3f630424	0.88678193
78	0x3e316af8	0.17325962
79	0x3e37754d	0.1791584
80	0xbe51bd8b	-0.20482461
81	0x3e27b867	0.16378938
82	0xbe281212	-0.16413143
83	0x3cbb0a8c	0.022832178
84	0x3d219240	0.039446115
85	0xbb15f817	-0.0022883469
86	0x3cd0ba03	0.025479322
87	0x3d24dedc	0.040251598
88	0x3d76d98d	0.060266066
89	0x3ec5b1f3	0.38612327
90	0x3e0c005d	0.13672014
91	0x3e0a7b5c	0.1352362
92	0xbb156faa	-0.0022802153
93	0x3f9130bb	1.1342996
94	0x3e8bba7a	0.27290708
95	0xbade88b8	-0.0016978001
96	0x3cfc9986	0.030834924
97	0x3e88da16	0.26728886
98	0x3e992cf2	0.29917103
99	0x3e3322bd	0.1749372
100	0xbe027712	-0.12740734
101	0x3db1e47a	0.086861566
102	0x3e965570	0.2936206
103	0xbe014581	-0.1262417
104	0x3d3dc782	0.046332844
105	0x3e956611	0.29179433
106	0x3e11314a	0.14178959
107	0x3e3aca1b	0.1824116
108	0x3e3922f3	0.18079738
109	0x3d41f179	0.047349427
110	0x3eb2fe15	0.34959474
111	0x3cb8c840	0.022556424
112	0x3ba015fc	0.0048854332
113	0x3d1815c6	0.03713014
114	0x3d9e6275	0.07733623
115	0xbc292752	-0.010324316
116	0xbcf98915	-0.030460874
117	0xbe8116e9	-0.25212792
118	0xbe993c47	-0.299288
119	0xbe52b124	-0.20575386
120	0x3e37e82b	0.17959659
121	0x3e3eba35	0.1862572
122	0xbe1dfd76	-0.15428719
123	0x3de28dff	0.1106224
124	0x3e93d316	0.28871983
125	0x3e2f7fe9	0.17138638
126	0xbc52c0bb	-0.012863333
127	0x3d70131b	0.05861197
128	0x3da618a1	0.08110166
129	0x3dbf697f	0.09346294
130	0x3d656947	0.056008603
131	0x3e4135ca	0.18868175
132	0xbc655294	-0.013996739
133	0x3e0be8c8	0.13663018
134	0x3e206a0d	0.15665455
135	0x3c33d995	0.010977169
136	0x3eca0541	0.39457133
137	0x3d9bb4c3	0.07602837
138	0x3d8ff1ef	0.07028567
139	0x3def1444	0.11673787
140	0x3e6bd185	0.23029144
141	0x3e84c3b9	0.25930575
142	0x3df4c049	0.11950738
143	0x3e16d753	0.14730577
144	0x3c96cb21	0.018407406
145	0x3e30eaf7	0.17277132
146	0xbe496c24	-0.19670159
147	0xbdd5a947	-0.10432678
148	0x3e85fb35	0.26168218
149	0x3e42265c	0.18959945
150	0x3ea1184d	0.31463853
151	0xbce12c45	-0.02748693
152	0x3d821f07	0.06353574
153	0x3dac66a8	0.084180176
154	0xbcf64e07	-0.030066503
155	0x3d7ac55d	0.061223377
156	0x3e57f8d5	0.21091016
157	0x3d5601a1	0.052247647
158	0x3e382335	0.1798218
159	0x3da1ed23	0.07906558
160	0xbe19c71c	-0.1501736
161	0x3e1c97f2	0.15292338
162	0x3dedcc61	0.11611248
163	0x3e8b32ca	0.27187186
164	0x3dd706b0	0.104993224
165	0x3dfec878	0.1244058
166	0xbd7eaaae	-0.06217449
167	0x3cc8d137	0.024513824
168	0x3e08464f	0.1330807
169	0xbe7728b4	-0.24136621
170	0x3e1b2b3d	0.15153213
171	0x3dd0d3e8	0.10196668
172	0x3f85e1f3	1.0459579
173	0x3e8d33ee	0.27578682
174	0x3e35b822	0.17746022
175	0x3c7d11fa	0.0154461805
176	0x3db0cf2b	0.08633264
177	0x3c3cd1e9	0.011524656
178	0x3e169a5b	0.1470732
179	0x3c3dd3ca	0.011586139
180	0xbb15654a	-0.0022795969
181	0xbd33632c	-0.04379575
182	0x3d14b0ac	0.0363013
183	0x3dce1fd7	0.10064667
184	0xbdbeb3c2	-0.0931163
185	0xbd3e357c	-0.046437725
186	0x3ec4f11c	0.38465202
187	0x3d5fca50	0.0546363
188	0xbdded72d	-0.10880885
189	0x3ebd7631	0.37004235
190	0xbe65a474	-0.22426015
191	0x3dbc6cf2	0.09200467
192	0x3e41d55c	0.18929046
193	0xbf98dccf	-1.1942385
194	0x3e28895b	0.16458647
195	0x3e619146	0.22028074
196	0x3e3fee59	0.18743266
197	0x3e5f85a4	0.21828324
198	0x3e162fbb	0.14666645
199	0x3dd6b65c	0.10484001
200	0x3df5581e	0.11979698
201	0xbe894fce	-0.268187
202	0x3e121075	0.1426409
203	0x3df172fa	0.11789508
204	0x3e1c113f	0.15240954
205	0xbdb0fead	-0.086423256
206	0xbdb6e8ce	-0.08931123
207	0x3df79eaf	0.12090813
208	0x3d5dc5de	0.05414378
209	0x3d884bb4	0.06655064
210	0x3da647ed	0.081191875
211	0x3e0824e4	0.13295323
212	0x3ddc223f	0.107487194
213	0x3f5da550	0.8658037
214	0x3dc0e715	0.094190754
215	0x3eead171	0.45862916
216	0x3e1c052b	0.15236346
217	0x3db5acb6	0.088708326
218	0x3e1be0e8	0.15222514
219	0x3dede314	0.11615577
220	0x3d5030ca	0.05082778
221	0x3e294941	0.1653185
222	0x3d958b37	0.07301944
223	0x3cbe3c44	0.023222096
224	0x3dd26b02	0.10274316
225	0x3cdb4533	0.026766395
226	0x3e36b5a9	0.17842735
227	0x3d19f89c	0.037590608
228	0x3ddb366c	0.107037395
229	0x3db0f7e0	0.086410284
230	0xbe2d4945	-0.16922481
231	0x3d1978a8	0.037468582
232	0x3d1730bf	0.036911722
233	0x3dd542ef	0.10413157
234	0xbe0c8132	-0.13721159
235	0x3e99107f	0.29895398
236	0x3e869fec	0.26293886
237	0x3d057b24	0.03258814
238	0x3dc0e290	0.09418213
239	0x3f01355a	0.50472033
240	0x3da7cbda	0.081931785
241	0x3d285922	0.04110063
242	0xbe68389d	-0.22677846
243	0x3db9aa23	0.09065654
244	0x3dd53923	0.104112886
245	0x3e89e039	0.2692888
246	0x3e1bb4b4	0.15205652
247	0x3d9377c5	0.072005786
248	0xbd55dd56	-0.052213036
249	0xbe7e31d5	-0.24823697
250	0x3e1f49ef	0.15555547
251	0xbe574edc	-0.21026176
252	0x3dd4e4fb	0.10395237
253	0x3d0b1a8c	0.033960864
254	0x3e7df033	0.2479866
255	0x3eaad730	0.333673

net.4.weight f4 [27, 256]
0	0x3e1e3efa	0.15453711
1	0x3ebcee0b	0.36900362
2	0x3ec29e77	0.38011524
3	0x3ea51636	0.32243508
4	0x3ea6e729	0.32598236
5	0x3eb42dcb	0.35191187
6	0x3ec6f924	0.38861954
7	0x3eb63bc7	0.35592481
8	0xbf58446d	-0.8447941
9	0x3ecb1f7e	0.39672464
10	0x3eb71da3	0.357648
11	0x3e244d6d	0.1604516
12	0x3ecaafee	0.3958735
13	0x3e8327ad	0.25616208
14	0x3e9e272c	0.3088926
15	0x3e979ec5	0.2961332
16	0x3e9ebfbc	0.31005657
17	0x3eb25fde	0.34838766
18	0x3ea4e4eb	0.322059
19	0x3ea94db3	0.33067092
20	0x3ed1a74d	0.40947953
21	0x3e6454b4	0.22297937
22	0x3eac3d42	0.33640486
23	0x3ed73e27	0.42039606
24	0x3e7bcbb0	0.2458942
25	0x3eaa4d69	0.33262184
26	0x3eb2fd56	0.34958905
27	0x3e820c29	0.25399902
28	0x3e3d09ce	0.18460771
29	0x3e9e6612	0.30937248
30	0x3eb23ecd	0.34813538
31	0x3e8c064e	0.2734856
32	0x3ed3b76c	0.41350877
33	0x3ea3ad70	0.3196826
34	0x3e97ead4	0.29671347
35	0x3e95d568	0.2926438
36	0x3f0bb636	0.54574907
37	0xbd578450	-0.052616417
38	0x3ea45478	0.32095695
39	0xbc974090	-0.018463403
40	0x3ebb0e56	0.36534375
41	0x3e8a517b	0.2701529
42	0x3eb7055a	0.3574627
43	0x3e951b23	0.29122266
44	0x3e92f8ec	0.28705537
45	0x3ea43742	0.32073408
46	0xbc530b6e	-0.012881143
47	0x3eaf1a32	0.34199673
48	0x3ea3d8ce	0.32001346
49	0x3e97481d	0.29547206
50	0x3eca1b47	0.39473936
51	0x3eaeb921	0.34125617
52	0x3ec97bdd	0.39352313
53	0x3f415551	0.7552081
54	0x3ec27919	0.37983015
55	0x3ea7c21f	0.3276529
56	0x3e870a78	0.26375175
57	0x3eb0f6ba	0.34563237
58	0x3ea228f6	0.31671876
59	0x3e2e60c3	0.17029099
60	0x3e9ce2b7	0.3064172
61	0x3ea4e4b4	0.32205737
62	0x3ec3fa40	0.38276863
63	0x3e9758d6	0.29559964
64	0x3ea04a74	0.31306803
65	0xbf45054d	-0.76961213
66	0x3e7a605f	0.24450825
67	0x3eb7fea1	0.35936454
68	0x3e8006ab	0.25005087
69	0x3ebe6016	0.37182683
70	0x3e90d8c6	0.28290385
71	0x3e92a83c	0.28643978
72	0x3eabdd8a	0.33567458
73	0x3e78d283	0.24299054
74	0x3ea047b7	0.31304714
75	0x3ebdcf74	0.37072337
76	0x3e9469cf	0.28986976
77	0xbe23feb5	-0.16015132
78	0x3e8abd83	0.2709771
79	0x3e827719	0.2548149
80	0x3ebed0c2	0.37268645
81	0x3e5a19d1	0.2129891
82	0x3eb9c1ae	0.36280578
83	0x3e8dbb96	0.2768218
84	0x3e8b8ad4	0.27254355
85	0x3e8a337c	0.26992404
86	0x3eaefc1d	0.34176722
87	0x3eaa676d	0.33282033
88	0x3ea4f0d2	0.3221498
89	0xbeb39bb0	-0.35079718
90	0x3ecfbb22	0.40572459
91	0x3e630f2c	0.22173756
92	0x3ea672b6	0.32509392
93	0xbf3dd7fe	-0.741577
94	0x3db9d516	0.09073846
95	0x3dd6bed0	0.10485613
96	0x3eb756b7	0.35808346
97	0x3e8501eb	0.25978026
98	0xbdbcd7a5	-0.092208184
99	0x3e92a9e5	0.28645244
100	0x3e98613a	0.29761678
101	0x3e400f9a	0.18755952
102	0x3ea21d25	0.3166286
103	0x3e94091f	0.2891321
104	0x3e92fdce	0.28709263
105	0x3e22d97a	0.15903273
106	0x3ea79f20	0.3273859
107	0x3e8f7ca7	0.2802479
108	0x3ea346cf	0.3188996
109	0x3eaa0607	0.33207723
110	0x3dce4210	0.10071194
111	0x3ea9f471	0.33194306
112	0x3e8f9fc0	0.28051567
113	0x3eccf043	0.40027055
114	0x3ec14cfe	0.37754053
115	0xbc580ff8	-0.013187401
116	0x3e9ce73e	0.30645174
117	0x3e9822e0	0.29714108
118	0x3ec6d453	0.38833866
119	0x3eafdc81	0.3434792
120	0xbdc99c66	-0.09844284
121	0x3d929558	0.07157391
122	0x3ecfc442	0.4057942
123	0x3e8f0396	0.27932423
124	0x3e8672be	0.26259416
125	0x3e81a177	0.253185
126	0x3eb3722c	0.35048044
127	0x3ea0dc1a	0.31417924
128	0x3e871fe0	0.26391506
129	0x3e85d850	0.26141596
130	0x3e74733a	0.2387208
131	0x3ea58e02	0.32334906
132	0x3e99fb47	0.30074522
133	0x3eadd341	0.33950236
134	0x3e03b8d6	0.12863478
135	0x3e7c9710	0.24667001
136	0x3df1034e	0.117682084
137	0x3ec1b78b	0.37835345
138	0x3ebcac6a	0.36850291
139	0x3ea84e40	0.328722
140	0x3e9b1689	0.3029063
141	0x3d0b9dc7	0.034086015
142	0x3e7656fc	0.2405662
143	0x3e9823d6	0.2971484
144	0x3eaff259	0.34364584
145	0x3ecceb43	0.4002324
146	0x3eacb2fe	0.3373031
147	0x3e5763f7	0.21034227
148	0x3ecae177	0.3962514
149	0x3e98ac44	0.29818928
150	0x3f1822c3	0.5942804
151	0x3e7a3475	0.24434073
152	0x3e8144a7	0.2524769
153	0x3e94a990	0.29035616
154	0x3e81ba4b	0.25337443
155	0x3ea30e63	0.31846914
156	0x3ea1e18d	0.31617394
157	0x3ec045d3	0.37553272
158	0x3e870cc6	0.26376933
159	0x3e86c5d4	0.26322806
160	0x3eb69cc1	0.3566647
161	0x3e88c81c	0.2671517
162	0x3e80b25b	0.25136074
163	0x3e826aab	0.25472006
164	0x3e9a656b	0.301555
165	0x3eaea840	0.3411274
166	0x3ec93817	0.39300606
167	0x3ebf9616	0.37419194
168	0x3eb73d0d	0.35788766
169	0x3e9877c3	0.2977887
170	0x3e971bfc	0.29513538
171	0x3eb235cd	0.34806672
172	0xbf65963c	-0.89682364
173	0x3f65ac17	0.89715713
174	0x3e826034	0.25464022
175	0x3f69dc9a	0.91352236
176	0x3ea924d2	0.33035904
177	0x3ec2f6f6	0.3807904
178	0x3e9858af	0.2975516
179	0x3ea55f8a	0.32299453
180	0x3ea6cf25	0.32579914
181	0x3f83665e	1.0265615
182	0x3e9e6643	0.30937394
183	0x3e79a65a	0.24379864
184	0x3ea971d6	0.33094662
185	0x3e87b731	0.2650695
186	0xbf11b354	-0.5691426
187	0x3e9ff3b6	0.31240624
188	0x3ea391e0	0.3194723
189	0x3d860ea7	0.065457635
190	0x3ec5a0ad	0.38599148
191	0x3eb87765	0.3602859
192	0x3e7f2fcf	0.24920581
193	0xbdaa4551	-0.08314002
194	0x3e88f09f	0.2674608
195	0x3e129c27	0.1431738
196	0x3eb14e58	0.34630084
197	0x3ea71e2b	0.32640204
198	0x3eab92cd	0.33510438
199	0x3ea94f37	0.3306825
200	0x3ea648c9	0.32477406
201	0x3ec26915	0.37970796
202	0x3e9b66a2	0.3035174
203	0x3eb7d7b0	0.35906744
204	0x3eb19ebe	0.34691423
205	0x3e9e24fd	0.30887595
206	0x3e6061ff	0.21912383
207	0x3ebc33a0	0.36758137
208	0x3e87f553	0.26554355
209	0x3e86df33	0.26342162
210	0x3eaaad45	0.3333532
211	0x3ea3ea5d	0.32014742
212	0x3ea7e198	0.32789302
213	0xbeaae53e	-0.33378023
214	0x3e9be99b	0.30451664
215	0xbbf09ba6	-0.0073427735
216	0x3e9e2f0b	0.30895266
217	0x3e9fbbe1	0.31198028
218	0x3e7809a9	0.24222435
219	0x3e971576	0.2950856
220	0x3e90021b	0.28126606
221	0x3e8936af	0.26799533
222	0x3ebc0a0a	0.3672641
223	0x3ea7bdac	0.32761896
224	0x3e6cfcf6	0.23143372
225	0x3ec13508	0.37735772
226	0x3e9229df	0.2854757
227	0x3f7987c8	0.9747281
228	0x3e663415	0.22480805
229	0x3eb170d3	0.3465639
230	0x3eb15b69	0.34640053
231	0x3ec89a82	0.3918038
232	0x3e8d2b23	0.27571973
233	0x3ea4515b	0.3209332
234	0x3e95e1d8	0.29273868
235	0x3e10fef3	0.14159755
236	0x3e80d5d6	0.25163144
237	0x3e92cf92	0.2867399
238	0x3e9662b2	0.29372174
239	0x3e19b001	0.15008546
240	0x3e82c70e	0.25542492
241	0x3ec508dc	0.38483322
242	0x3ed9162d	0.4239973
243	0x3e879792	0.26482826
244	0x3e91b18a	0.28455764
245	0x3e751213	0.23932676
246	0x3eaf6a36	0.3426072
247	0x3e7d9437	0.2476357
248	0x3f2c5901	0.6732331
249	0x3ec94f31	0.3931823
250	0x3e89ce00	0.26914978
251	0x3eae35cc	0.3402542
252	0x3ea3f659	0.32023886
253	0x3ead1165	0.33802333
254	0x3ea45773	0.32097968
255	0x3d80a0f0	0.062806964

net.4.bias f4 [27]
0	0xbc291579	-0.010320061
1	0x3cf80a42	0.030278329
2	0xbd2554b3	-0.04036398
3	0xbbbf0747	-0.005829725
4	0x3c943fe7	0.018096877
5	0x3ca58c9a	0.020208646
6	0xbdb740c4	-0.089479
7	0x3e2fa8a2	0.17154172
8	0xbdf38681	-0.11890889
9	0x3e597120	0.2123456
10	0x3dc8d3f8	0.09806055
11	0x3da093dc	0.07840702
12	0xbd2c68a3	-0.042091977
13	0x3d99401d	0.07482932
14	0x3c3341a7	0.010940946
15	0x3cba4ef9	0.022742735
16	0xbd307df1	-0.043088857
17	0xbdb7192b	-0.08940347
18	0x3e476ed7	0.19475876
19	0x3e9e1024	0.3087169
20	0x3ebaaec8	0.36461473
21	0xbd50a6a6	-0.05094018
22	0x3d3ace16	0.045606695
23	0x3e5131b5	0.20429118
24	0xbd393ed7	-0.045225944
25	0x3dce318f	0.10068046
26	0x3d3a6798	0.04550895
