model/dqn_policy_net_episode_2690.pt (torch, 334295 bytes, 6 tensors)

net.0.weight f4 [128, 336]
00000000: f93a 063e bebb 38be 1b24 4e3d 930e 9d3d
00000010: bc6d 09be d7f0 a3be 9cdd 17bd afc7 14bd
00000020: bab3 003e df33 59bd d519 81be 7497 8a3d
00000030: c283 a93d bd84 88be 4451 c0bc 4537 323d
00000040: 20ca 10be 65fb 19be 7082 92bc 8cf5 8ebd
00000050: 30e2 303d c2a2 9c3d 98dc eabd 7c2e 6c3d
00000060: 2104 1abe 0c58 bfbd 0064 c7bc 76a4 89bc
00000070: 836c 21be 0675 36bd 771c b13d 49d8 423d
00000080: 396e 3abe a846 39bd b56f 0a3d e49f d2bd
00000090: 70c7 81bc 78c8 26be 601f 82bd 6128 f9bc
000000a0: 60b6 e73c db6f 53be 8023 263e 5afa 03be
000000b0: 4d96 d13c 178d 2ebe 1b03 9b3d 24e9 e9bc
000000c0: d90b dbbc d8d5 1f3d eff7 6ebd 7a1c a5bc
000000d0: 73c5 c13d 13bf 19be 767b 033c d6b9 593e
000000e0: 4da9 ca3d 2600 a9be a236 36be 0dc0 28bd
000000f0: 8d5b 023e 8593 763d a54f d03c f369 06bd
00000100: 36ad abbd 5db4 523b d19e 66be 7f89 063d
00000110: e0a3 32be 805b 173d 4cff 42be 5438 f73d
00000120: d580 49be 578b 063d 970d 92bd efa3 1e3e
00000130: 45a2 4f3d 02d0 1c3d f6f8 c8bc 4dee a33d
00000140: 2c3f f63d aade 973d 9223 ba3d 674f 87bd
00000150: 4603 7cbd 25c8 bdbc dc4d 9fbd a377 bf3d
00000160: cc37 90bc 5b03 f0bd df18 7a3d 6dff b43d
00000170: 39b7 923d 63f9 3abe 4d13 3dbd c658 7bbc
00000180: cd08 5d3e a0b1 48be 3f78 3dbc 26f7 d23c
00000190: 4cb8 a93d 1eb0 96bd 3326 833b 9c2b a03c
000001a0: 09ac 49bf c1bc 993d 9214 173e f50c 3e3e
000001b0: a288 b43e a018 74bc 4165 05be 88a6 e13d
000001c0: b040 c83c ee60 933c cba8 56bd 41ac fd3c
000001d0: 8eb4 15be 1714 44bd 04e3 0c3d b107 913c
000001e0: 3e23 53bf 5dc8 ccbc e4b0 adbd 94bd 3ebe
000001f0: 7b02 543d 9071 ad3b 102d d4bd 6c83 80bd
00000200: 8e27 873e 2ede 62be b575 51bd 992f 02bd
00000210: e7eb 8abe 7b24 98bd a193 b7bd 50dc 4dbc
00000220: 30d3 07bf f83d e23d 53ec 5fbc 78df d93d
00000230: 9fad a5bd 4d36 923d 2fbf 4bbc 9ddc 463e
00000240: cc18 b93e 4d7e 1dbe 8f2c 46be ee37 1dbe
00000250: 1d8a aebd b976 35bc 6b5c cb3d 122c dbbd
00000260: 98c6 463d 4f26 b6bc c423 a23d 54dc d53d
00000270: 1b89 22be 2d12 b43d 48a8 73be 04a8 363d
00000280: 904b 673d 0cf6 673d 2f88 853c 7f10 8fbc
00000290: 1854 b53d a9ba bd3d ffcf bebd 872a fe3c
000002a0: 27d0 0b3f 0515 52be 2f56 be3d d8e3 0fbe
000002b0: b723 65be 6392 35be 8410 cfbd 8f4d 0c3d
000002c0: f33c 073f f3dd 78bb 0ed0 863d 0cf6 22be
000002d0: 31d7 a7bd 1abc 73be 1212 e5bd 0888 94be
000002e0: 277e 483f 6cb7 19be ed13 abbd a7b2 0bbe
000002f0: a388 783d bef4 153d 5226 e73c 85f7 6b3d
00000300: ee0f 2ebf de65 293d a7f1 9d3d 3722 063e
00000310: c5a1 aa3c 7d35 d43e 2ecf 933d 3e94 233e
00000320: 70ee 123f af24 94bd c761 e1bd f2c3 efbc
00000330: 6934 8b3e 1802 e5bd 5beb 34bd 6e33 483e
00000340: 9fc7 eabf ae05 933e 444f 033f 2c24 7a3e
00000350: b100 b03e 419f 073f 9140 4b3e dd7f 5d3e
00000360: b910 f93e 9894 2e3e 7445 aabd 95e4 133d
00000370: b094 ef3c c3ab 333d 3b98 e93b 3ff5 1dbd
00000380: 7128 52bf 7d5b dc3e 3462 b53e 84d3 9c3e
00000390: 330c 03be fb24 903e 607e 34bd 85c9 de3e
000003a0: 3886 333f 1638 733d 550e 5cbe f1d7 ccbd
000003b0: ab7b 28bc 04f1 06bd 6e3e 133e 4bd5 95be
000003c0: 81ec 723f 8547 ec3d 5e57 89bd f674 00be
000003d0: a750 c9be 6072 69be 5f92 a33c 672a e0be
000003e0: ebd3 4cbf e1c1 c23e 7d1d 503e 1699 3d3e
000003f0: b7ee 033e 00fe f73e 03aa f13b 1502 ef3e
0.13108434 -0.18040368 0.0503274 0.076687954 -0.13420767 -0.32019684 -0.037076578 -0.036323246
0.1256856 -0.053027984 -0.2521502 0.06767169 0.08277084 -0.2666377 -0.02347625 0.04350974
-0.14139605 -0.15037306 -0.017884463 -0.06980428 0.04318446 0.07648231 -0.11467856 0.05766152
-0.15040638 -0.093429655 -0.024339676 -0.016802054 -0.1576405 -0.044545196 0.08648007 0.047569547
-0.18206109 -0.0452334 0.03379794 -0.10284403 -0.01584217 -0.1628741 -0.063536406 -0.030414762
0.028285205 -0.20648138 0.1622448 -0.1288847 0.025584364 -0.17046009 0.07568952 -0.028553553
-0.026739048 0.039022297 -0.058341917 -0.02015518 0.094614886 -0.15014295 0.008025041 0.21262297
0.09895573 -0.33007926 -0.17794278 -0.04119878 0.12730236 0.06019928 0.025428602 -0.032815885
-0.08382647 0.0032150962 -0.22521521 0.03284597 -0.17445326 0.036952496 -0.190427 0.120712906
-0.19678052 0.03284773 -0.07131498 0.15492223 0.05069186 0.03828431 -0.024532776 0.08004437
0.12023768 0.07415517 0.09088816 -0.06606942 -0.06152656 -0.023166725 -0.07778522 0.09348991
-0.017604731 -0.1171939 0.061058875 0.08837781 0.07163853 -0.18259196 -0.046160985 -0.015340989
0.21585388 -0.19599009 -0.011564313 0.025752615 0.08287105 -0.073578104 0.0040023564 0.019552045
-0.7877813 0.07506705 0.1475394 0.1855963 0.35260493 -0.014898449 -0.13026907 0.110180914
0.024444908 0.017990556 -0.052407067 0.030965926 -0.14619657 -0.04787072 0.034396186 0.017703863
-0.8247565 -0.024997884 -0.08481005 -0.18627006 0.051760178 0.0052930787 -0.103601575 -0.06275067
0.26397365 -0.22155067 -0.051137645 -0.031783674 -0.27133104 -0.07428833 -0.08963705 -0.012564734
-0.5305662 0.11046976 -0.013667184 0.106383264 -0.08089756 0.07139263 -0.012435718 0.19420095
0.3615173 -0.15380211 -0.19352935 -0.15353367 -0.08522437 -0.011075669 0.09929737 -0.10701765
0.048529238 -0.022235064 0.07916978 0.10442415 -0.15872614 0.08792529 -0.23794663 0.044593826
0.056468546 0.056631133 0.016300289 -0.01746392 0.0885393 0.09264118 -0.09317016 0.031026138
0.5461449 -0.20515831 0.09293782 -0.14051759 -0.22376905 -0.17731623 -0.10110572 0.034253653
0.52827376 -0.003797409 0.06582652 -0.15914172 -0.081953414 -0.23802224 -0.11185087 -0.29010034
0.78317493 -0.15011376 -0.0835341 -0.13642369 0.060677182 0.036610357 0.028216515 0.0576091
-0.67993057 0.041356914 0.07712107 0.1309899 0.02082909 0.41447058 0.07217251 0.15974519
0.57395077 -0.07233559 -0.11004978 -0.029268239 0.27188423 -0.1118204 -0.044169765 0.19550869
-1.834217 0.2871527 0.51292825 0.24427861 0.34375528 0.5297738 0.19848849 0.21630807
0.4864557 0.17048872 -0.083140284 0.036106665 0.029245704 0.043864977 0.007128743 -0.038563963
-0.8209296 0.4303855 0.35426486 0.30630124 -0.12797622 0.28153214 -0.044065833 0.43513122
0.70126677 0.05937966 -0.21489842 -0.10002125 -0.010283391 -0.032944694 0.14379284 -0.29264292
0.94892126 0.11537079 -0.06706117 -0.12544617 -0.39319345 -0.22797537 0.019967256 -0.4378235
-0.8001086 0.38038543 0.20323749 0.18515429 0.12884031 0.48435974 0.0073750033 0.46681276

net.0.bias f4 [128]
00000000: cd82 0e3e 4984 293e 01a7 f53d 3aa5 163e
00000010: 000c b53e 6f48 1a3e 0766 183f ba68 7e3e
00000020: 5cf1 523c 9efe 553e 832a 163e 5e51 e33d
00000030: 9290 4c3e 8ac9 073e cbcf 393e dfc5 133e
00000040: 9d73 083e dcff 713e 7d55 463e faa4 ad3d
00000050: 0128 e13d 2d63 8d3d 71cb da3e 4b22 5d3e
00000060: 9668 6f3e 85c2 223e cd52 563e 796f 9a3e
00000070: 69f1 123e 4d2b 083f c826 9f3e c4be 323e
00000080: 0ba2 7b3e e881 e33d c8a6 603e e63a 063e
00000090: 7e28 db3d a4c1 633e 6963 783e b705 3f3e
000000a0: 92c0 9fbd 21c8 0f3e c914 be3d 9fad 413e
000000b0: 77e1 be3d fcb0 633e 7e11 cc3d 19fb 803e
000000c0: 3b4c 143e 17ae 893e 0285 113d 657d 573e
000000d0: 49d4 fe3d db1c 063e 860e 523e ca76 323e
000000e0: b4ec 2f3e 40b4 94bd 27e5 b03e d3cc 453e
000000f0: 6a87 763e b57f e23d 87d7 b83d 14f0 343e
00000100: 0e6c 623e 0523 4e3e af5a a13e 96ad f83d
00000110: ce97 0d3e 68c9 c73d 6f33 363e d1bc 863e
00000120: 75ae 823e 3bcf 023e b7a0 473e 76df f63e
00000130: 79b0 443e 0ca3 323e 23de 613e 0e1e 433e
00000140: 8100 f83d 74a8 973f 0b53 5a3e 14bd db3e
00000150: 074d 553e fe3e 493e ae64 5b3e 2185 843d
00000160: df74 023f 2ec0 843e 051a 3b3e eeb8 013e
00000170: 3570 3b3e 2a9f a13d 3523 c73e 4a88 093e
00000180: 524e 0d3d 18fe 6e3e 84a5 183e a04e 333d
00000190: 88ae 513e dfaa e53e f9b1 0d3e c9b4 7b3e
000001a0: e8e8 db3d cefa 2a3e f6b9 5e3e 5791 f13d
000001b0: 3ba8 523e 0e38 0e3e f82c 7b3d e05c 9f3e
000001c0: 57e7 9c3d abed 823e d447 483e 916c eb3d
000001d0: f907 88bd 381a d43e e1cf f2bd 79ad 633e
000001e0: 5d8c 043e 3b04 433e 54a3 9e3e de01 633e
000001f0: dc3d 0c3e 1dd2 5f3e 907b f13d c995 6c3e
0.13917084 0.16554369 0.11994744 0.14711466 0.35360718 0.15066694 0.5953068 0.24844638
0.012874927 0.2089791 0.14664654 0.11099504 0.19977024 0.13260475 0.18145673 0.1443095
0.13325353 0.23632759 0.19368549 0.084787324 0.10993958 0.06903682 0.42733338 0.21595113
0.2337974 0.15894516 0.20930023 0.30163172 0.14349903 0.5319107 0.31084275 0.17455584
0.24573533 0.11108762 0.21938622 0.13108405 0.10701083 0.22241837 0.24256672 0.18654524
-0.07800402 0.14041187 0.09281308 0.18913887 0.09320348 0.22235483 0.09964274 0.25191572
0.14482205 0.26890633 0.035527237 0.21043928 0.12442834 0.13096945 0.20513353 0.17428127
0.17180139 -0.072609425 0.3454983 0.19316415 0.24075094 0.110595144 0.090254836 0.17669708
0.22111532 0.20130546 0.315145 0.12142484 0.1382744 0.09755212 0.17793058 0.2631593
0.25523725 0.12774365 0.19494902 0.48217362 0.19207944 0.1744501 0.22057395 0.19054434
0.12109471 1.1848283 0.21320741 0.42917693 0.20830165 0.19652936 0.21425125 0.06470705
0.5095958 0.2592787 0.18271644 0.12668201 0.18304522 0.07891686 0.38894048 0.13430896
0.03449852 0.23339117 0.14906889 0.043776155 0.20476735 0.44856927 0.13837422 0.24580683
0.10737783 0.16697237 0.21750626 0.117952995 0.20571987 0.1388857 0.061322182 0.31125546
0.07661312 0.2557195 0.1955865 0.11495317 -0.06642146 0.41426253 -0.11856056 0.22234143
0.1294417 0.19044583 0.30983984 0.22168681 0.13695472 0.21857496 0.11791146 0.23104014

net.2.weight f4 [256, 128]
00000000: 36af 813f f2a4 003b e16e 2a40 0205 b43e
00000010: 4fb5 8f3d 7fc3 593f d573 563f c0c2 c63f
00000020: c7ca 3140 6ebc 103f 6e65 6f3f 509d a73e
00000030: 42e1 593d e6f2 fe3e c448 75bd 3702 973f
00000040: 249e 453f 77a3 ae3e 914c 433f 7900 d03f
00000050: 2ff6 8a3f 3695 cd3f f7ef fc3d 4964 8a3f
00000060: bcf4 0e3f fe15 0f3f 24b5 8b3f 02b0 09bd
00000070: edbc 5b3f 2fbf 813e a411 5a3e c035 2c3f
00000080: 3fb2 743f 2d6e 5b3f bec7 2f3f f455 3a3f
00000090: 13a7 bc3e 027e d23f 02ab cb3f d6ce 023e
000000a0: 4ae4 f9bf c4be e93e c491 e93d 3247 cb3e
000000b0: f477 163f 3f9e 3f3f dfec b03f c271 b53f
000000c0: 9878 7e3f 3581 833e 5be3 663f 096b e23f
000000d0: 7a19 663f d987 ccbc 5171 583f 51d2 36be
000000e0: 2185 02be 2903 01c0 406f a43e 64d3 0340
000000f0: 8a47 52be 3d61 3040 9fae 0e3f 8cb8 463f
00000100: f971 c9bd 7417 e13e 4ebf 953f 0587 dd3e
00000110: 2bce 483f 63cb 463f 8272 c63e 12a8 9f3e
00000120: f05b e33e 991a d63f 5263 e83e 535a 7f3e
00000130: 3e18 db3e a4c5 a9be 8236 a23f 31f7 b33e
00000140: d2e8 243f 51de 343f b5da 59bf cb82 9f3e
00000150: 5d67 303f 2f8e 6abe 8a33 2f3f 47f6 c03f
00000160: 50b8 dabc de4d 1f3f 460e a43f db33 783f
00000170: b73b 583f fa1f ca3f 3b77 293f f2b2 0f3f
00000180: 82f4 c63f 4113 833e 2fe6 4d3f 562a dabf
00000190: b58b 2abd 7ecf 1ebe e36d ba3f e66f be3e
000001a0: 6971 213f a8b1 173f 0ab2 103f fe1b 343e
000001b0: 9c93 a53f 2f38 da3f 9dd2 133f 6646 313f
000001c0: 0f4b a93f b47d 913f 186f 563f 6481 d43f
000001d0: 258f 2240 c932 a63e dc54 f8bf 6cc2 9b3f
000001e0: 04a0 913f 673c bc3e 3130 083f 675a 613f
000001f0: ac60 3040 123f 9a3e 67d9 ac3f aa75 bc3f
00000200: 75c2 2140 9c52 803e 87fa f53e ef03 b03d
00000210: 6996 0b3f 79b7 133f 4bbc 9cbe e3f1 993f
00000220: b95b e53e ebf2 d63e a97b 12bd 7e66 a63e
00000230: beda b03e eefb 8d3f 7f2f 553f 41a6 0e40
00000240: a529 0f3f 6049 603f 19e1 133f 590d 503e
00000250: b095 d03f a0d8 843f 7756 423f d055 643f
00000260: 9e3b 363f 0186 333f 48bf 873f 5a92 013f
00000270: 4b56 b13e a654 0e3f 9fe2 223e fa3f fb3f
00000280: 02fd 3d3f 8dae a33f 3c07 983f 4501 f13e
00000290: 46a3 af3f 5f65 a63f 9cd0 803f 5c96 203f
000002a0: 3fe0 0cc0 c3a9 383f 522e f23e 6f32 413f
000002b0: 51ca 223f 6395 3c3f dd2c f83f de98 213f
000002c0: 0313 ef3f 6ce5 923e b1df 2f3e b26d a23f
000002d0: 5241 513f e2e7 b63e 695a 513f ddf2 fa3e
000002e0: 8c2d 753f b4d1 0fc0 ff2a 8dba 07e2 d23f
000002f0: 0a7d 8d3d d90f fd3e 366b dc3e ce84 043f
00000300: 1b11 2cbe 2be3 d73e 9738 e03f 487b f13e
00000310: 8974 0440 b88a e1bd 3102 aa3f d816 583f
00000320: 5f65 663f 2cc7 113f 9c34 ef3e 9e3c fa3e
00000330: 8385 713f a79b 353f c40c 1c3f a3f8 943f
00000340: afd4 8f3f e146 27be 8f54 e33e 8665 c23e
00000350: 03a8 383f 10f4 af3e ca4f d93e 692a fd3e
00000360: fbac 633f cf45 783f 2982 923e 0428 603f
00000370: 18e4 8d3e e65b 9dbe 3266 69be 2531 423f
00000380: c3b7 fe3e 3fbd 6b3f 3491 923f 5ce6 b43f
00000390: 600c 7c3f a7b8 133f 6747 d23f 8fbd 8c3f
000003a0: 7208 453f 60ec 353f 0408 153f 14d0 313f
000003b0: 3550 ac3e 725d 613f ab6c 563f caeb 823d
000003c0: 5102 283f 5d14 1640 2adf c03f 4287 ce3e
000003d0: 7f91 fbbe 57bb 863e b1e6 08c0 057d cb3f
000003e0: 701f be3f 1f4d 333f 5790 ea3e 745e 693f
000003f0: ae31 b0be adae 263f f3d6 1b40 eee1 ef3f
1.0131595 0.0019629565 2.6630175 0.3516007 0.07017004 0.8506393 0.83770496 1.5528183
2.7780015 0.5653752 0.93514144 0.32737207 0.05319334 0.49794692 -0.059883848 1.1797551
0.7719443 0.3410909 0.76288706 1.6250144 1.0856379 1.606116 0.12350457 1.0811855
0.55842185 0.5589293 1.0914655 -0.03361512 0.8583515 0.25341174 0.21295792 0.67269516
0.9558448 0.8571499 0.6866416 0.72787404 0.36846218 1.6444705 1.5911562 0.12774214
-1.9522793 0.45653355 0.11404756 0.39702755 0.58776784 0.7485084 1.3822287 1.4175341
0.9940276 0.25684515 0.90190667 1.7688915 0.89882624 -0.024967121 0.8454791 -0.17853667
-0.12746097 -2.0158179 0.32116127 2.0597773 -0.20535102 2.755935 0.557352 0.77625346
-0.09836192 0.43963206 1.1699007 0.43267074 0.7843959 0.77654094 0.38759238 0.31182915
0.4440608 1.6726867 0.45388275 0.249368 0.42791933 -0.331586 1.2672884 0.3514953
0.64417756 0.7065173 -0.85099345 0.31154475 0.6890772 -0.22905801 0.6843802 1.5075158
-0.026699215 0.6222819 1.2816856 0.96954125 0.8446612 1.5791008 0.66197556 0.56132424
1.5543368 0.25600627 0.8042936 -1.704417 -0.04163714 -0.1550884 1.4564785 0.37194747
0.63063675 0.59255457 0.56521666 0.17588803 1.2935672 1.7048396 0.57743245 0.69248044
1.3226031 1.1366487 0.83763266 1.6601987 2.5399868 0.3246062 -1.9400897 1.2168708
1.1376958 0.36764833 0.53198534 0.8802857 2.7559004 0.30126244 1.3503846 1.4723408
2.5274937 0.25063026 0.480427 0.085945 0.5452638 0.5770183 -0.30612406 1.2026943
0.4479654 0.41982207 -0.035762463 0.3250007 0.34541887 1.1092508 0.832756 2.2288973
0.5592292 0.8761196 0.57765347 0.20317592 1.6295681 1.0378609 0.75913185 0.8919344
0.7118472 0.7012635 1.060525 0.5061394 0.3463615 0.55597913 0.15906762 1.9628899
0.74214184 1.2787644 1.1877208 0.4707128 1.3721702 1.2999686 1.0063663 0.6272943
-2.201187 0.72134036 0.47300965 0.7546758 0.6358996 0.73665446 1.9388691 0.6312388
1.8677677 0.2869066 0.17175175 1.2689726 0.81740296 0.35723788 0.8177858 0.49013415
0.95772624 -2.2471743 -0.001077026 1.6475228 0.06908615 0.49426153 0.43050545 0.51765144
-0.168034 0.42165503 1.751727 0.4716437 2.0696127 -0.110127866 1.3281919 0.84409857
0.8999843 0.5694454 0.46719825 0.48874372 0.9434435 0.7094063 0.6095698 1.1638378
1.1236781 -0.16335632 0.4440045 0.3796808 0.72131366 0.34365892 0.42443687 0.4944642
0.8893582 0.9698152 0.2861493 0.8756106 0.27713084 -0.30734175 -0.2279289 0.7585624
0.49749574 0.9208564 1.1450562 1.41328 0.9845638 0.5770363 1.642804 1.0995349
0.7696601 0.71063805 0.58215356 0.6945813 0.33654943 0.8803321 0.83759564 0.063926294
0.65628535 2.3449929 1.5068104 0.4033757 -0.49134442 0.26314804 -2.1390803 1.5897528
1.4853344 0.7003955 0.45813248 0.9115975 -0.34412903 0.65110284 2.4349945 1.8740823

net.2.bias f4 [256]
00000000: dac9 e63e 04f6 b53e a9f5 543e 5900 b23e
00000010: a194 b13e ab79 d23e 099a 63be eaf4 b03e
00000020: f8f6 ec3f 4d22 f2bd 5ea2 01be d148 da3d
00000030: 2da8 b63e a281 903e 62ae 983e eb49 943e
00000040: 6632 ae3e dc9a a13e 81d2 20be 4489 773e
00000050: 0677 20be a222 c43e f0ed 5d3e 3ac4 0b3e
00000060: 0964 c33e 6bda 943e 7e8d 8e3e f445 a63e
00000070: 464f 953e 0330 cc3e 52f7 823e 2a90 d73e
00000080: 3cce 0bbe 46ed 60be 3bd5 a93e 8e29 c7bd
00000090: f077 1a3f b6d9 7abc 3c16 af3e c8fe 873e
000000a0: af18 523e 7c56 913e 58a4 733e f082 bb3e
000000b0: 58c8 a53e 15cb d33e 79b0 973e 1e8b 1c3e
000000c0: 234c ab3e d980 a73e e16c 42be 0c5b d93e
000000d0: 96e9 4dbe 3764 b93e cb52 f1bd 0a2c a03e
000000e0: f524 743e d392 813e 61da 5ebe d6ff 923d
000000f0: 5d26 913e 3576 ab3e ea82 e93e cc50 be3e
00000100: c474 803e 6330 e43f 3025 fb3e 66ee 723e
00000110: dbd6 853e 1d4a 5f3e 4bf4 e23e a8ba 14be
00000120: cb68 9d3e e0c4 873e 96aa 26bf 4605 e33e
00000130: 4749 143f c0d9 a43f 89a4 c03e e4d1 ca3e
00000140: 59ec 40be cf2f 303e e252 0fbe 093d 7a3e
00000150: bf0b 8d3e 33eb 663e 3cb9 4d3e bd0e 7e3e
00000160: 49f0 733e 7936 283f 99ce 9f3e fd84 bf3e
00000170: d5e5 443e ecd5 e33f 45ff d73e 9975 673e
00000180: 02e9 343e 2b61 d93e 8539 d33e 541d c83e
00000190: cef7 9cbd 71c4 263e 13d1 b43e 7fed cebd
000001a0: 0bc0 863e 52c0 f23e 4779 be3e f426 bd3e
000001b0: 79e4 c13e d14d 893e 3efa 183f 2b85 683e
000001c0: d8f7 5d3e 748d 6d3e 6766 8d3e 5227 29bc
000001d0: d69e 3d3e 7108 72be d4b0 b0be 4c12 5d39
000001e0: 73a1 af3e 50db 4e3e 5ddc 22be e650 b33e
000001f0: 9522 f43e babe b73e b074 5e3e 18a0 8b3e
00000200: ae18 9a3e ea0a aa3e 40bd 973e 7346 d53e
00000210: 4186 353e 103c a93e 15f2 a23e d4c4 563e
00000220: 6989 ff3e 876a 943e 70af 8a3e 01ed 9a3e
00000230: bd95 e03e 544a 8e3e 0ac8 ad3e c9a7 c63e
00000240: 204f 6b3e d816 c93e d3ed 1bbe 575b 533d
00000250: a54f e23e 0afa c53e 0707 083f 6e08 363e
00000260: d60d 7c3e 4ddd 9d3e a74d 483e 1bf3 833e
00000270: 1ae2 dc3e 9d16 883e 80df c63e 7dfb 923e
00000280: e477 0ebe a3b1 c83e 23af b03e 4465 da3e
00000290: 237c 9a3e 5672 a13e 0a7f 1cbd aa11 803e
000002a0: 1cfd a73e 933e 57be 5725 c03e bf38 9a3e
000002b0: a568 cf3f 269b 963e 4f53 cc3e 3283 163e
000002c0: 1c47 9d3e 611c 593e 74ee bd3e 7104 5b3e
000002d0: ca57 623e f210 f33c 34df 6e3e 604c a43e
000002e0: a008 fa3d 00c4 3a3e 4b9e 4d3f 7eb2 8b3e
000002f0: 63a4 3cbd a6ff be3e 65a3 19be f165 893e
00000300: ad67 d43e 9eaa c2bf 8f29 c53e 71fd 9c3e
00000310: 7b3e c13e 907b cf3e bf47 c03e 2f21 a13e
00000320: d3db b13e 6483 47be 1277 bd3e 9d35 983e
00000330: e6c3 af3e 4e64 8bbd dba7 bbbe 0b82 a43e
00000340: 7571 8f3e 6342 8e3e fbba 973e 6621 ba3e
00000350: 9f0e a63e 581c 9e3f a898 a03e 0d61 423f
00000360: dbe6 b13e 938c 9f3e 096d c53e 8be2 be3e
00000370: b4cd 7b3e 002e c63e 4bce 8d3e 5826 793e
00000380: 9d56 a43e 82dc 5a3e ba29 ca3e cb68 273e
00000390: 15d4 aa3e 4472 873e c104 cfbd b591 823e
000003a0: e938 7a3e 93ec a03e 88b5 edbd 2f48 113f
000003b0: 2c5a a33e e46c 883e cd7c a53e e815 613f
000003c0: a762 953e 833a 7e3e cdd7 36be a3b3 a13e
000003d0: b9db 9e3e 0e32 f73e 896d b13e 2356 8f3e
000003e0: aba8 2abd 36a4 48be b3fb c43e 2ba2 93bc
000003f0: d32b af3e e1b9 863e dfcf e93e d47a 093f
0.45075876 0.35539258 0.20796837 0.3476589 0.34683707 0.4110845 -0.22226728 0.34561855
1.8512869 -0.118229486 -0.12659594 0.1065842 0.35675183 0.28223902 0.29820544 0.28962645
0.34022826 0.3156346 -0.15705301 0.24173456 -0.15670404 0.38307673 0.21672797 0.13649073
0.38162258 0.2907289 0.27842325 0.32475245 0.29162043 0.3988038 0.25579315 0.42102176
-0.13652891 -0.21965513 0.33170494 -0.09724723 0.6033926 -0.015310695 0.3419665 0.2656157
0.20517229 0.28386295 0.23793161 0.36623335 0.32379413 0.41365877 0.29626825 0.15287444
0.33456525 0.3271549 -0.18986847 0.42452276 -0.20108637 0.3620927 -0.1178337 0.312836
0.23842223 0.2530733 -0.21762992 0.07177703 0.2834958 0.33488622 0.45607692 0.37171018
0.25089085 1.7827266 0.4905181 0.23723754 0.26140484 0.21805616 0.44327006 -0.14524329
0.30744013 0.2651739 -0.65104043 0.4433996 0.5792431 1.2878952 0.3762553 0.3961326
-0.1884016 0.17205738 -0.13996461 0.24437346 0.27548024 0.22550659 0.20090193 0.2481031
0.2382213 0.6570812 0.3121231 0.3740615 0.19228299 1.7799659 0.42186943 0.22603454
0.1766701 0.42456946 0.4125482 0.39084876 -0.076644525 0.16285874 0.3531576 -0.101038925
0.26318392 0.47412354 0.37201902 0.3694378 0.37869623 0.26817182 0.5975684 0.2270705
0.21676576 0.23198491 0.2761719 -0.010324316 0.18517622 -0.23636033 -0.3450991 0.00021083019
0.34302863 0.20200849 -0.15904374 0.35022658 0.47682634 0.358877 0.217242 0.2727058
0.30096954 0.33211452 0.29636574 0.4165531 0.17726995 0.33053637 0.3182532 0.20973521
0.49909523 0.28987524 0.27086973 0.30258945 0.4386424 0.27791083 0.3394168 0.38799885
0.22979403 0.3927524 -0.15227441 0.05160078 0.4420139 0.38667327 0.5313572 0.17776653
0.24614653 0.30832902 0.19560872 0.25771412 0.43141252 0.26579753 0.38842392 0.28707495
-0.13912922 0.39198026 0.3450862 0.42655385 0.30172834 0.31532544 -0.03820709 0.25013477
0.32810295 -0.21019964 0.37528488 0.3012142 1.620381 0.29415244 0.3990731 0.14698485
0.30718315 0.21202232 0.37095988 0.21388413 0.22103801 0.029671166 0.23327333 0.3208952
0.12208676 0.1823883 0.8031966 0.27284616 -0.04605521 0.3730442 -0.15003736 0.26835588
0.41485348 -1.5208318 0.3850827 0.3066211 0.3774298 0.40523958 0.37554738 0.3147063
0.34738025 -0.19483715 0.37004906 0.29728404 0.34329146 -0.06806241 -0.366515 0.32130465
0.28016248 0.27785024 0.29634842 0.36353606 0.3243303 1.23524 0.31366467 0.7592934
0.3474644 0.31161937 0.3855975 0.37282214 0.24590188 0.3870697 0.27696452 0.24331033
0.3209733 0.2137318 0.3948496 0.16348569 0.3336493 0.26454365 -0.101083286 0.2550179
0.24435772 0.31430492 -0.1160689 0.5675077 0.31904733 0.26645577 0.32321778 0.8792405
0.29176828 0.24827008 -0.17855759 0.31582364 0.3102701 0.48280376 0.3465388 0.27995405
-0.04166476 -0.19593892 0.3847328 -0.018021664 0.34213123 0.2631369 0.45666406 0.53703046

net.4.weight f4 [27, 256]
00000000: 3361 873e 44e8 053f 4a96 093f 7c49 eb3e
00000010: 0034 f53e a174 003f 46a1 1c3f d382 083f
00000020: 2653 6abf a20e 1e3f c745 183f 798a 213f
00000030: 5a26 0f3f 2bf3 d73e 817e f23e 43bc e63e
00000040: 33aa f03e db43 003f a9e2 0b3f 8f87 f73e
00000050: b8de 243f 25f9 ba3e 0886 ff3e 3579 143f
00000060: 8250 ca3e 3574 fa3e 1575 013f 6dac c03e
00000070: b68c bf3e 5beb e03e 0ce5 ff3e 938f c93e
00000080: 3a63 233f c365 0c3f 10c3 e13e af0a 053f
00000090: df29 f93e 5084 57bd 9850 f03e 45e6 863f
000000a0: 9f4a 093f 81e4 d93e fe1a 083f e8cb e63e
000000b0: f738 e33e c212 f33e 6d9d 8f3d a17c 013f
000000c0: 21b9 ee3e a6ef e53e 5785 1d3f 352b fd3e
000000d0: 0ab6 203f 669d 813f 401e 1b3f f21d 013f
000000e0: 6b2e d73e 267e 003f 883c 0a3f c06d a43e
000000f0: 3c1e f33e 7cf3 ef3e e60c 0d3f d3a5 eb3e
00000100: b185 f03e d755 56bf f58a b63e fa57 023f
00000110: 04f9 ce3e 6662 0b3f ca84 ce3e c3e8 fd3e
00000120: 5024 f63e 6418 c23e e3c2 303f 813f 013f
00000130: 68d4 0c3e 742b 09bf d922 d63e 3633 cb3e
00000140: b5ca 193f c0d1 d73e f282 163f 99e5 da3e
00000150: 0501 cf3e a3d4 d63e 640e 033f e4e3 fa3e
00000160: 9c23 003f 6b32 92bf 78ff 143f 97e7 a93e
00000170: ba36 ff3e d525 4fbf 4674 e93e 6deb 333e
00000180: 6be3 0e3f 4b1c a33d 6e02 973e 1d14 e03e
00000190: 428f 023f c9b9 be3e 86d4 083f 4bcf 023f
000001a0: 6167 e63e 6d1d 8a3e 4c9b ec3e 0add e13e
000001b0: b012 f53e 939a f33e f169 94be f168 fe3e
000001c0: 0c24 e33e dbea 0f3f c57b 0a3f f80f 58bc
000001d0: 3e9d f43e cfe5 053f c0a5 383f 8b6b 063f
000001e0: 71b3 31be c33c 963e 89c9 213f 6486 d73e
000001f0: c01c ac3e 2183 cc3e 9f2b 023f d07d ea3e
00000200: 383e d33e e174 d53e 6229 b93e 1f7b eb3e
00000210: cf2b f03e 2533 fd3e e19f 8a3e 475e cc3e
00000220: c00b 973e 8d41 0a3f 22bb 033f 9aa8 003f
00000230: 14dd eb3e 892f 8b3e 10f3 c53e 10ab e23e
00000240: 5490 023f e5c6 0d3f 0872 0f3f 1680 bb3e
00000250: 25db 063f 61fa ea3e c847 383f 3cb5 ca3e
00000260: 16ee ce3e e982 e13e 516c d23e 08ad fc3e
00000270: 9164 ec3e 880c 083f 71d7 d83e ce31 d53e
00000280: 4e32 163f 8e6d d43e 9871 c63e 89bd b03e
00000290: 33e3 ea3e ab0f 013f ab8e 1f3f b06d 033f
000002a0: 9f19 023f 1b7d 033f 5438 df3e 17f1 063f
000002b0: 831d 72bf 85d1 ae3f 1518 d53e 5e30 9b3f
000002c0: 7cd2 f53e ecdd 093f 2d00 e63e bd2e fc3e
000002d0: 944f f43e d332 aa3f 5a6a f63e 6517 cb3e
000002e0: 5998 f73e 053f db3e 0b0d 66bf da45 f43e
000002f0: 78ae 093f efe0 813e 4768 1c3f 5fd3 063f
00000300: deeb c53e 535f 883e 24ef d83e 554c 9b3e
00000310: b55a 023f e339 013f 1f26 ee3e 727e f73e
00000320: f405 eb3e 1240 1b3f 83ce ee3e e11d 073f
00000330: b290 053f 2dbb 0c3f f22b 0c3f ec7f 0a3f
00000340: 4ac6 cd3e b9a8 d23e cf5b f33e daf5 f13e
00000350: 23aa f73e 36f8 5abf f8a7 e33e a389 7cbe
00000360: f630 f13e 92e3 f03e 2bad be3e 18d3 c53e
00000370: ac64 e83e e47a d03e 2db5 093f a979 f23e
00000380: 19d2 bc3e 93d4 0b3f 47fa d93e 2c6a 9f3f
00000390: 2648 ac3e 24e8 003f 2cc1 133f 3016 083f
000003a0: b522 e03e f8e4 f23e 02c7 063f 9696 81be
000003b0: c007 f03e 08c7 d73e 4808 dd3e c087 2dbe
000003c0: 58f1 da3e 94fc 0b3f 193c 283f 8b03 d53e
000003d0: 5959 e63e d992 c13e 03fd 003f 6505 d53e
000003e0: a5ee 863f 81b5 1e3f 7574 d73e 3dc9 043f
000003f0: 298e e83e 3ead f63e f4c5 f13e a416 80be
0.26441345 0.52307534 0.5374495 0.45954502 0.47891235 0.5017796 0.61183584 0.5332462
-0.91533124 0.6174108 0.5948147 0.6310192 0.55917895 0.4217771 0.4736214 0.45065507
0.47004852 0.5010354 0.5464273 0.4834561 0.6440234 0.36518207 0.49906945 0.5799745
0.39514548 0.48916784 0.5056928 0.3763155 0.3741204 0.43929562 0.49979436 0.3936735
0.6382328 0.54842776 0.44094133 0.51969427 0.48664758 -0.052616417 0.46936488 1.0539023
0.5362949 0.42557147 0.53166187 0.45077443 0.44379398 0.4747525 0.070124485 0.50580794
0.46625617 0.449094 0.61531585 0.49447027 0.6277777 1.0126159 0.6059303 0.5043632
0.42027602 0.5019249 0.53998613 0.32114983 0.47484004 0.4686545 0.55097806 0.4602495
0.46976998 -0.8372473 0.3565289 0.5091549 0.4042436 0.5444702 0.40335685 0.49591646
0.4807458 0.37909234 0.69047374 0.50487524 0.13752902 -0.5358193 0.41823462 0.39687508
0.6007493 0.42152214 0.58793557 0.42753294 0.40430465 0.41959104 0.51193833 0.49001992
0.50054336 -1.1421636 0.58202314 0.33184502 0.4984644 -0.809171 0.45596522 0.17570277
0.5581576 0.07964381 0.2949404 0.43765345 0.50999844 0.37251118 0.53449285 0.51097554
0.45000747 0.26975575 0.46212232 0.44113952 0.4786582 0.47578868 -0.28987077 0.4968944
0.4436344 0.56217736 0.5409511 -0.013187401 0.47776216 0.52303785 0.72127914 0.5250785
-0.17353608 0.29343233 0.63198143 0.4209472 0.33615685 0.39943793 0.5084781 0.45799112
0.41258407 0.41690734 0.36164385 0.4599237 0.46908423 0.49453083 0.27075103 0.39915678
0.29501152 0.5400627 0.51457417 0.50257266 0.46067107 0.27184704 0.38662004 0.44271135
0.5100148 0.55381614 0.5603337 0.3662116 0.5267814 0.4589415 0.7198453 0.39591396
0.4041602 0.4404519 0.41098264 0.49350762 0.46170476 0.5314412 0.4235187 0.4163956
0.5867051 0.41489834 0.3875854 0.34519604 0.45876464 0.5041453 0.6232707 0.51339245
0.50820345 0.5136277 0.43597662 0.52711624 -0.9457628 1.365769 0.41619936 1.2124135
0.4801215 0.5385425 0.4492201 0.49254408 0.47716963 1.329676 0.48128015 0.39666286
0.4835842 0.42821518 -0.8986365 0.47709543 0.53781843 0.25366923 0.61096615 0.52666277
0.38656515 0.26635227 0.4236995 0.30331674 0.5091966 0.50478953 0.4651346 0.48338658
0.4590298 0.6064464 0.4664193 0.52779967 0.5217391 0.5497311 0.54754555 0.54101443
0.40190345 0.4114435 0.47530982 0.47257882 0.48371992 -0.8553499 0.44464087 -0.24661879
0.47107667 0.47048622 0.37241492 0.38637614 0.45389307 0.40718758 0.5379208 0.47358444
0.36879042 0.5462124 0.4257376 1.2454276 0.33648795 0.5035422 0.5771663 0.53158855
0.4377648 0.47440314 0.5264741 -0.253102 0.46880913 0.42144036 0.4317038 -0.16946316
0.42762256 0.5468228 0.657167 0.41604266 0.44990042 0.37807348 0.50386065 0.41605678
1.0541579 0.61995703 0.42081037 0.51869565 0.4542096 0.48179048 0.4722134 -0.25017273

net.4.bias f4 [27]
00000000: f793 71bd 642c 4d3e 2a13 22bd 891c 623d
00000010: c048 e43d 0b2a 0c3e a033 c33d fd72 413e
00000020: daec c0bc a42b e33e 28d1 8d3d 6c35 273e
00000030: fd97 593d 3498 573e 0629 f03d 7751 b63d
00000040: 89b0 aebc 2697 05bd 0637 933e 326e 063f
00000050: 7461 eb3e cf74 763d cbee 023e 192b 053e
00000060: 1ae4 903d fc8e 153e 2775 9b3d
-0.058979 0.20036465 -0.039569058 0.055202994 0.111466885 0.13687913 0.09531331 0.18891521
-0.02355044 0.44369233 0.06924659 0.16328973 0.053123463 0.21054155 0.117265746 0.08902257
-0.021324413 -0.03261485 0.28752917 0.52511895 0.45972788 0.06016999 0.12786405 0.13004722
0.07074757 0.14605325 0.075907044
