model/dqn_policy_net_episode_920.pt (torch, 334295 bytes, 6 tensors)

net.0.weight f4 [128, 336]
00000000: 884a be3d d70e 25be 1107 103e 64b1 aa3c
00000010: 97c8 1fbd 9a05 27be 9d4c 163d 7327 c2bd
00000020: 9663 083e 0ae9 91bd caf9 9cbc 2d8a 9cbd
00000030: 0360 9c3c 8117 e7bc 12ba a7bc fd7f 38bd
00000040: f8f6 32be c101 82bd ed19 213e de77 03be
00000050: 181d 453e 1eed da3d 17b9 a1bd f0df e0bc
00000060: 8fcc 2ebe 394b 51bd 6866 f7bd 4297 4fbc
00000070: ba99 903d d9c2 e13d 75d3 f1bb 9d7b bc3c
00000080: 09ff dbbe 603f aabd cec2 a43d ef62 023c
00000090: e343 953c 6a24 ac3d 56b0 163e d7f4 c1bd
000000a0: 121b 74bd b545 ddbc fc56 53be fcf0 5a3c
000000b0: 18e9 7ebd a2d0 403e 396c b8bd 9ba0 7b3c
000000c0: ef36 41be 19e8 2e3e 05fe 7d3d c9fe b1bb
000000d0: 44e8 d0bc fef6 1d3e c0ee ac3d 2106 a23c
000000e0: d495 3d3e b5e7 803c cc83 e6bd 6c82 96bd
000000f0: 5d12 843d 24ae 85bc 6210 6bbd 2dc2 aabd
00000100: 58a3 17be c1aa 60bd a4df 8dbc 6b5f cebb
00000110: 33ea 24bb 8c46 333d 7dc1 cfba 2cbe 8bbd
00000120: 6432 14be 1a7d bc3d 8d9a 123e 382b 0b3e
00000130: dbb9 ebbd dab2 1a3d 5cf8 edbd 97ae e73d
00000140: 2eff 1f3e ce45 1ebe e6b0 573d c810 db3b
00000150: 6ea3 90be 09d2 0dbb e939 d33d 75f3 0fbe
00000160: 3b69 8e3d 2f25 f2bd fa3d c93d 808f 50bc
00000170: 35be f2bc 1667 d9bd 014b afbc 48c1 d9bd
00000180: 7994 653e c230 8bbd 1b81 a33d d5e9 dbbb
00000190: 82d6 52bd bc6d 4e3d ac5f 1fbe a65e a4bd
000001a0: a53e 2bbf 0ddb 4a3d 3789 453e f63f f83c
000001b0: 867f a43e bd27 cb3d 32fe f83c 40dd 453c
000001c0: 6af6 0b3e 02d5 56bd 8d06 21bd 8ebd 90bc
000001d0: 3c6f 27bb a946 98bd 88ed 01be b2c6 d0bd
000001e0: 5f91 9cbf 5924 883d e36c dc3d 3ec9 7cbc
000001f0: 9538 003e 0bb7 913d 1c73 ef3d 3d66 ab3b
00000200: f7a4 9d3e 9fec 62bd 8842 11be 6fcb 07be
00000210: 3546 c9bd 0457 7cbd 7348 81bd 5c60 6abd
00000220: a238 e2be 44bc 96bd 9880 efbd e0dc 8c3d
00000230: 429e 683c d4fa 053e 5b1d e83d 9d44 a23d
00000240: 0c55 c73e eaf5 9f3c a3db d2bc 04af 8ebe
00000250: abbf b13d 1a79 d1bc 8871 dfbc b73b 3fbe
00000260: 3dfe 283d 9891 61be 5fbc 5a3d 488c f53c
00000270: d0f2 d63b c250 c13d b030 f13c 2b64 f4bc
00000280: 9570 e33d a15a c2bd 0c93 3ebd c6c5 573d
00000290: 3d3c d03c 4a5f 1cbd c490 85bd 0882 98bd
000002a0: a10c 143f 5fed 7bbe ec86 9bbd 1d0d 61bd
000002b0: da20 4abe cf7f 5ebe fc1e fabd 0201 0abe
000002c0: 85f7 f43e e781 003e dae9 7bbb eac2 23be
000002d0: ea3f e83b 536a 81be 85d5 823c ca9c 03be
000002e0: a1ac 4a3f e1a6 9c3d f429 c4bd 343a c5bd
000002f0: 55e5 3cbd c731 59be 8510 2dbc 8dda 09bd
00000300: 468a 58bf 771d f33d 5ba8 273e ce77 db3d
00000310: 878e 7c3e 04d5 ce3e 6d20 8c3e 6255 833e
00000320: 6de3 3a3f c259 93bc 6486 19be bbf4 95bd
00000330: e1da b83d f3e3 e6be 7917 c2bd 03ff b93d
00000340: 4df3 d2bf 710b 6c3e d07f 9e3e bbe6 bc3e
00000350: db18 973e 1548 873e a46e f93d c24a 863e
00000360: 0800 283f 58f0 9dbd ca3b c3bd 42f4 eb3c
00000370: 3fb3 54bd 0540 d1be f09f aebd 7f51 113c
00000380: 1921 1bbf 0da2 413e 09eb 9a3e 6ad2 813e
00000390: fc87 243e 5201 3d3e 369e 86be bc18 813e
000003a0: 0f80 f53e 4a53 043e d1b2 2ebd 5111 27bd
000003b0: 4e10 1e3e b4a0 92bd bf79 c13d 34fa 90bd
000003c0: cbe3 323f ea8b 953c d0c9 273d 0e01 a13c
000003d0: 81dc f53a c56a 32be 1fac 1fbe a060 a3bd
000003e0: 711f 6cbf 3a90 a83e 719e 013d eb9d 863e
000003f0: de55 fc3d 8878 bc3e 349c b53d 98b7 d13e
0.092915595 -0.16118942 0.14065196 0.02083654 -0.039009657 -0.1631073 0.036694158 -0.094801806
0.13319239 -0.07124527 -0.019162077 -0.076435424 0.01908875 -0.02820945 -0.020474467 -0.045043934
-0.17477024 -0.06347991 0.15732546 -0.12838694 0.1924938 0.10689758 -0.07896631 -0.027450532
-0.1707022 -0.05109713 -0.12080079 -0.01267034 0.07060571 0.11023492 -0.007379944 0.023008162
-0.42968014 -0.08312869 0.080449685 0.007958158 0.018220847 0.08405383 0.14715704 -0.094705276
-0.05959613 -0.027010778 -0.2063865 0.013363119 -0.062234014 0.18829587 -0.09005017 0.015358116
-0.18868612 0.17080726 0.06200983 -0.005431984 -0.025501378 0.15426251 0.084439754 0.019778313
0.18514186 0.015735487 -0.11255607 -0.07349095 0.06448815 -0.016318388 -0.05738867 -0.08337817
-0.14808404 -0.054850344 -0.017318554 -0.006297996 -0.0025164008 0.04376845 -0.0015850511 -0.06823382
-0.14472347 0.09203549 0.14316769 0.13590705 -0.115100585 0.037768222 -0.116196364 0.11312597
0.15624687 -0.15456316 0.052658938 0.00668535 -0.28249687 -0.0021640083 0.1031378 -0.14057715
0.06953665 -0.118234985 0.09826274 -0.012729526 -0.029631713 -0.10615365 -0.02139807 -0.106325686
0.22419919 -0.06796409 0.07983609 -0.0067112246 -0.0514741 0.05039762 -0.1556384 -0.08025865
-0.6689246 0.04952531 0.19290625 0.030303936 0.32128543 0.09919689 0.030394647 0.012076676
0.13668218 -0.052449234 -0.039312888 -0.017668512 -0.0025548479 -0.07435352 -0.12688267 -0.10194148
-1.2231864 0.06647558 0.10762956 -0.015428839 0.12521584 0.07114991 0.11691877 0.0052306936
0.3078992 -0.05540144 -0.14185536 -0.13261198 -0.09827844 -0.061606422 -0.06312647 -0.0572208
-0.44183832 -0.073601276 -0.11694449 0.06878066 0.014197888 0.13083965 0.11333724 0.07923243
0.38932073 0.01952644 -0.025739497 -0.278679 0.08679136 -0.025570441 -0.027275816 -0.18675123
0.041258086 -0.22028196 0.0534023 0.029974118 0.006559707 0.094392315 0.029442161 -0.02983292
0.11105458 -0.09489942 -0.046526954 0.052678846 0.025419349 -0.038176812 -0.065217525 -0.074466765
0.5783177 -0.24602269 -0.07594094 -0.054944146 -0.19739094 -0.21728443 -0.12212941 -0.13476947
0.47845092 0.12549554 -0.0038438947 -0.15992323 0.0070876973 -0.2527643 0.015970955 -0.12852779
0.7916966 0.07649017 -0.095783144 -0.09630242 -0.046117146 -0.21210395 -0.010563021 -0.033655692
-0.8458599 0.11870854 0.16372816 0.1071621 0.24663745 0.40396893 0.2736849 0.2565108
0.73003274 -0.017987136 -0.14992672 -0.07322069 0.09026123 -0.45095786 -0.09477133 0.09081843
-1.64805 0.2305124 0.30956888 0.36894783 0.2951115 0.26422182 0.12179306 0.2622891
0.6562505 -0.077118576 -0.09532888 0.028802995 -0.051928755 -0.40869156 -0.085265994 0.008869528
-0.6059738 0.18909474 0.30257443 0.25355846 0.16067499 0.18457535 -0.2629258 0.25214183
0.47949263 0.12922397 -0.042651 -0.040788 0.15435907 -0.07159558 0.09447049 -0.070789725
0.69878834 0.018255193 0.040963948 0.019653823 0.0018757732 -0.17423542 -0.15593003 -0.07977414
-0.92235476 0.32922536 0.031645242 0.26292357 0.12321065 0.36810708 0.08867684 0.40960383

net.0.bias f4 [128]
00000000: ec13 033e 4df6 f43d e352 953d e999 a23d
00000010: 5f7d 253e e2c9 723d 9072 ae3e 369d 2d3e
00000020: a388 83bb b31c 193e 474a d93d 1ee0 343d
00000030: 252b c43d 9e1f 883d 6ab8 e33d c331 d33d
00000040: 8e48 663d 9377 343e 31ec 0d3e 0e52 8b3d
00000050: 1f1b 893d 5065 4b3d 104b 593e ca47 d63d
00000060: c1aa 233e 2147 fd3d da4b d93d 66f0 0a3e
00000070: b6d0 b33d d34d 9a3e 32e4 093e b05a b53d
00000080: 9d19 ed3d f8b1 aa3d 8c7c b43d f1f3 653d
00000090: e67b ba3d 1692 1b3e 8b35 343e d013 003e
000000a0: 40ca 98bc 330e 9a3d 779f 543d 5257 dc3d
000000b0: b33a 973d 5566 133e 8082 b33d cd54 313e
000000c0: 9ff7 ef3d 77ac e83d 3b87 8d3c 0523 c73d
000000d0: 7d25 4a3d 3c6a 933d ae1b e73d 8da2 d13d
000000e0: 20da 023e fe9e 34bc 9906 263e 0edb b23d
000000f0: acc8 083e 4589 f63d 942a d93c 7d26 d83d
00000100: 6499 e43d ab6f 0b3e 268d 5b3e 9761 bc3d
00000110: 835f b53d 7457 b03c c4a8 0f3e 7d50 1c3e
00000120: d0f7 263e 9a71 0e3e 7d6d d23d dd66 7e3e
00000130: 9b3b fa3d a98e 1d3e b4e4 203e 673c e13d
00000140: d13b 813d 543c 533f b1a3 0d3e 24f0 663e
00000150: a582 0c3e 8fa9 043e b8a8 203e 4c2e 183d
00000160: eb20 973e 04d8 e13d bfc0 f33d 9846 5e3d
00000170: 7366 ff3d 90b9 7b3c 70e8 403e 9757 8a3d
00000180: 19e1 fab8 10a3 1b3e dbd9 9b3d 9ee1 b73d
00000190: dc33 1d3e 47b8 793e 42ed a73d ff56 1c3e
000001a0: 0939 733d fb97 ce3d e81a cc3d 8fb5 863d
000001b0: b0be d33d 7a79 053e db83 f23c ffec ff3d
000001c0: d73a ba3c 3886 0d3e 1db8 f13d cd53 3e3d
000001d0: 315e 13bd 58dd 453e 1a58 d2bc 33e4 303e
000001e0: f116 df3d 2273 113e 505a 323e 5f5c 373e
000001f0: e505 0d3e f504 a93d 8399 993d 4be4 bc3d
0.12800568 0.11961041 0.072912 0.07939512 0.16161107 0.05927456 0.3407178 0.16954502
-0.004014091 0.14952354 0.106098704 0.044159047 0.09578542 0.066466555 0.111191586 0.10312226
0.056221537 0.17623739 0.13859631 0.0680276 0.06694626 0.049657166 0.2122004 0.104629114
0.15983106 0.123670824 0.10610171 0.13568267 0.08780043 0.301375 0.13465956 0.08855188
0.11577151 0.08334726 0.08812818 0.056140844 0.09105663 0.15192446 0.1759855 0.12507558
-0.018651128 0.075222395 0.05190989 0.107588425 0.07384243 0.14394505 0.08765125 0.17317505
0.11717152 0.1136102 0.017276397 0.09723476 0.049352158 0.07197997 0.11284576 0.10236082
0.1277852 -0.011024235 0.16213454 0.087331876 0.133578 0.12037901 0.02650956 0.10554216
0.111620694 0.13616817 0.21440563 0.09198301 0.08856108 0.021526076 0.14029223 0.15265079
0.1630547 0.13910523 0.102747895 0.24843927 0.122184 0.15386452 0.15712243 0.10997849
0.06310237 0.8251393 0.13831975 0.22552544 0.13721712 0.12955306 0.15689361 0.037153527
0.29517302 0.1102753 0.11901998 0.054266542 0.124707125 0.015364066 0.18838668 0.06754988
-0.00011962857 0.15198922 0.07609912 0.0897858 0.15351814 0.24386702 0.0819955 0.15267561
0.059380565 0.10087582 0.099660695 0.06577598 0.10339105 0.13034621 0.02960389 0.12496375
0.022733135 0.13820732 0.11802695 0.046466637 -0.0359785 0.19322717 -0.025676776 0.17274551
0.108930476 0.14204076 0.17417264 0.1790633 0.1377178 0.082528986 0.07499983 0.09223231

net.2.weight f4 [256, 128]
00000000: 8deb 9d3f 6fe8 a23d 2363 f03f 881b c03e
00000010: 2e41 a0bd dcfb ef3e 99c0 2c3f c146 de3f
00000020: ffe3 2a40 3e85 0f3f 993d 5a3f 0ea0 a13e
00000030: ca01 3d3d b768 d83d 4656 83be c551 6d3f
00000040: fdc9 0d3f 2552 efbc 0c6d 093f bbda bf3f
00000050: 0517 963f f269 e43f fc62 16bd bf02 323f
00000060: 1c89 c13e e200 3a3e faae 4f3f 6800 37be
00000070: eede d73e 88e5 ad3d 025f 493e 95c9 263f
00000080: 041d 4a3f c475 083f f855 c33e bba2 283f
00000090: 4a71 e1bd 065f a43f f2b2 ae3f 1993 a23c
000000a0: 3987 56bf 70f8 803e 69dd af3d 4191 273d
000000b0: 0414 813e 3f03 b13e 33d1 823f 6908 8f3f
000000c0: 2e2e 403f 05f8 373e 62cc 3e3f 511f ce3f
000000d0: 8980 043f ac58 8b3d 3344 0a3f ae54 65be
000000e0: afe6 afbe eabd 56bf a9b4 a53e 5ade a03f
000000f0: b3da f83b 7c3e 0b40 4a52 b33e 5bc8 003f
00000100: 2a29 8e3d 9eab 033f 7ae1 843f a5df 0a3e
00000110: 3fc5 8d3f 1a3c d73e b24e 66be 9643 143e
00000120: ec28 923e d7fa 883f 91d3 ee3e 60fd 023e
00000130: 04d1 a83e f67e a7be 594f 1d3f f29f 853e
00000140: 4f9e 203f 307c 043f a742 12bf 5912 183e
00000150: 080e f13e edb3 7ebe b912 343f d033 2c3f
00000160: f9f0 5fbe eee3 133e 304b 3f3f 1fbe 143f
00000170: 7ba0 3e3f f429 ae3f 64c2 0d3f ec1a 063f
00000180: 39fc 5e3f 58a9 983d 70a0 9f3e 0153 74bf
00000190: e2e9 28be 1177 89be b9b4 c03f 35f0 9c3e
000001a0: 30dd 333e a774 ab3e 01a1 063f bf6c 3a3a
000001b0: c117 7b3f 2c4f c83f c9bb 5d3e f2a0 1a3f
000001c0: dc5f 273f 4437 473f e992 133f b61b 7a3f
000001d0: 7e52 ec3f 99be 503e c9f5 66bf b574 403f
000001e0: 97c3 803e 9271 8c3c cca1 a73e 7677 fb3e
000001f0: 02ee 0c40 9468 7d3d bade 8f3f a272 b33f
00000200: 1c5d 1440 dae8 263e 1756 433f e65a bfbd
00000210: cf98 ec3e 6cc2 193f 2a24 dbbe b015 863f
00000220: beb2 953e 0f4c 983e 7a8a 6fbe bc44 eb3d
00000230: 4c19 a53e 4629 433f 1d04 4a3f d572 6d3f
00000240: 7544 b63e f646 493f 66a5 883e 838f 0d3e
00000250: 98ec c33f b63d 7c3f 8605 2d3f edc4 3b3f
00000260: 9daa 153f a871 f63e 4ed2 613f 6aee dc3e
00000270: a9f5 573e 5343 ee3e 7938 c53d 9f2a df3f
00000280: 76c0 d83e 9b7e 6b3f 5cfe 1a3f 4b36 533e
00000290: 2b37 753f aad6 9b3f 952d 7e3f 1950 163f
000002a0: 3d83 90bf 3f2d d43e fab9 bb3e 9a8f 3d3f
000002b0: 21f4 143f d3b7 293f d173 e43f c6ab 1f3f
000002c0: f3d0 d43f 3ed0 693e ff13 9fbd 1634 4e3f
000002d0: 498f 273f 7077 943e 32a6 243f ff96 003f
000002e0: 4fc6 603f 2f80 86bf 030b 83bd 3cef ac3f
000002f0: 3b60 f33c 89df a63e 00d3 e63d bc5d fb3e
00000300: 929f 21be 56a8 c63d 4f27 b13f 5d9a 863e
00000310: bbf3 d03f 914b e9be efeb 623f deb6 3d3f
00000320: 8cc9 563f cbc4 7d3e 934f c83d 9943 cb3e
00000330: f064 5f3f e221 1a3f 2ce7 1d3f 6aa0 7e3f
00000340: ab74 4a3f b30f 96be d085 e93e f97f 953e
00000350: ebab 3b3f 0528 b83e 86a7 cb3d 459c bf3e
00000360: c626 503f cba6 2b3f 67c9 1bbd 5415 813e
00000370: e59c 14bc 1dac 23bf 2bd0 a4be 2aeb bb3e
00000380: 3793 b3bd 5f7b 6e3f e784 183f c121 843f
00000390: e0fc 683f 9ee6 003f fe8a c73f 4460 403f
000003a0: ef00 093f 47c0 bb3e 6b83 6a3e 0166 2b3f
000003b0: 40c8 14bd d3f6 663f 847e 5e3f b0ae 1abd
000003c0: 1850 39bd 5d10 d33f f167 3b3f a8fd 05be
000003d0: a291 58bf cb3a 343e 9e65 91bf c938 8a3f
000003e0: 470f 753f 4c6e 033f 3aab b43e 3055 003f
000003f0: 51f3 2a3d 6b65 f53e c695 1240 4cfb d53f
1.2337509 0.079544894 1.8780254 0.37521005 -0.07824932 0.4687184 0.6748138 1.7365342
2.6701658 0.56062686 0.8525024 0.31567425 0.046144284 0.10566848 -0.2565176 0.92702895
0.55386335 -0.029213974 0.5368202 1.4988626 1.1725775 1.7844832 -0.036715493 0.6953544
0.3779992 0.181644 0.8112637 -0.17871249 0.4216227 0.08491045 0.19665149 0.6515134
0.78950524 0.53304696 0.38151526 0.65873307 -0.11007936 1.2841499 1.364836 0.019845532
-0.83800083 0.25189543 0.085871525 0.04091001 0.25210583 0.3457279 1.0220093 1.1174442
0.75070465 0.17965706 0.74530613 1.6103307 0.5175863 0.06804022 0.54010314 -0.22395584
-0.34355685 -0.83883536 0.32364395 1.2567856 0.0075944304 2.1756887 0.3502372 0.5030572
0.06941445 0.5143374 1.038131 0.13561876 1.107582 0.4203804 -0.22490957 0.14478907
0.28546846 1.070155 0.46645787 0.12791967 0.32971966 -0.3271405 0.614492 0.2609859
0.6274156 0.51751995 -0.57132953 0.14850749 0.47081017 -0.24873324 0.7034107 0.6726656
-0.21869268 0.14442417 0.747241 0.581026 0.74463624 1.3606553 0.5537474 0.5238483
0.8710361 0.07454175 0.31177092 -0.95439154 -0.16495469 -0.26848653 1.5055152 0.30652013
0.17564845 0.33487436 0.5258942 0.00071115413 0.9808312 1.5649161 0.21653666 0.60401833
0.65380645 0.77818704 0.5764604 0.97698534 1.8462675 0.20385207 -0.9021879 0.7517808
0.25149223 0.017143998 0.3274063 0.4911458 2.2020268 0.06186731 1.1239846 1.4019358
2.318183 0.16299763 0.7630324 -0.093435094 0.46210334 0.6006229 -0.42801028 1.0475368
0.29237932 0.29745528 -0.23392668 0.114877194 0.32245862 0.76234853 0.78912526 0.92753345
0.35599104 0.786239 0.2668869 0.13824277 1.5306578 0.98531663 0.67586553 0.7334736
0.5846346 0.48133588 0.88211524 0.43150645 0.21089806 0.4653574 0.09629912 1.7434882
0.42334336 0.9199006 0.6054437 0.2062618 0.95787305 1.2174885 0.992883 0.5871597
-1.1290051 0.4144077 0.36665326 0.74047244 0.5818501 0.6629612 1.7847844 0.6237148
1.6626266 0.22833344 -0.07767486 0.80548227 0.6545301 0.28997374 0.64316094 0.502304
0.87802595 -1.0507869 -0.06398585 1.3510509 0.029708972 0.3259242 0.11270714 0.4909495
-0.15783527 0.09700076 1.3840121 0.26289645 1.6324381 -0.45565465 0.88641256 0.7410716
0.83901286 0.24782102 0.097808026 0.3970001 0.87263393 0.6020795 0.61680865 0.9946352
0.7908427 -0.29308853 0.45609903 0.29199198 0.733092 0.35968032 0.09944062 0.37423912
0.81309164 0.6705138 -0.03803387 0.25211585 -0.00907061 -0.639345 -0.3219007 0.36702853
-0.087683134 0.93157 0.5957779 1.0322801 0.91010857 0.50351894 1.5589292 0.7514689
0.5351705 0.36670133 0.22901694 0.6695252 -0.036323786 0.90220374 0.869118 -0.03776425
-0.0452424 1.6489369 0.73205477 -0.13085043 -0.8459722 0.17600553 -1.1359136 1.079858
0.95726436 0.51340175 0.35286885 0.50129986 0.04173595 0.47928938 2.2903914 1.6717315

net.2.bias f4 [256]
00000000: 4f48 893e c3ba 583e 5773 553d 07d5 2e3e
00000010: 1cfe 2a3e b8dd 7b3e 2529 afbe 458c 3f3e
00000020: af43 b83f dc13 6dbe d40f 6cbe d950 523d
00000030: 8320 413e 7c2c ec3d 90c3 0d3e ad63 fb3d
00000040: 373b 3e3e 5213 0d3e 2b6f 85be a265 ad3d
00000050: 69da 8cbe de6d 603e 941d 563d 4e85 a2bc
00000060: 9158 a43e c74e 083e 217f cb3d 98b4 183e
00000070: 2619 733e 406f 663e e43e a23d 3eee 723e
00000080: 29bb 8dbe d5c7 9ebe 1058 1c3e 807b 45be
00000090: 6fd2 c43e b6d9 7abc 43b6 313e 32fa 103e
000000a0: 8c84 393d bbc1 e63d 9c44 a83d 430e 543e
000000b0: d2e8 163e dec4 823e b107 6a3e 8ec2 9abc
000000c0: 049f 223e 6d00 233e 23ff a4be bbcd 853e
000000d0: 6e48 a2be b661 663e 44c4 89be fcfb 223e
000000e0: 5476 803d ffdb b43d f273 a5be 49dc 01bc
000000f0: b968 023e c4b6 253e 16f8 b73e 7479 523e
00000100: da3d 973d b286 b03f 599a a03e 46a8 813d
00000110: 2e3f b03d 5c57 693d c90b 893e 3a88 8fbe
00000120: 018d 023e d73e ce3d b68d 11bf 9e0b 8d3e
00000130: 12c4 cf3e 96c8 833f 173c 563e ff0d 673e
00000140: 858a 92be 7e4d 153e 7ab7 7bbe 7b7a 8c3d
00000150: b526 bf3d 5903 273d 46cf 4a3d 951a a73d
00000160: 2c0a b43d 6d6a 063f 982c 263e d05f 343e
00000170: a094 d53c 6326 b03f 975c 983e c928 973d
00000180: 1c0b 103d 4bde 9e3e 152b a53e 677b 633e
00000190: 6626 54be 9ff1 8d3d a8dc af3e 4588 45be
000001a0: 790a bb3d c34c b13e 77a9 493e ee01 5f3e
000001b0: 77cf 643e ce89 bd3d d920 d13e da8c 823d
000001c0: 205c 413d 695e 943d ab56 e63d 5227 29bc
000001d0: 47f4 4a3c 17a2 a7be f5cf b8be 069d 35be
000001e0: ca95 993e d978 343e fffa 70be b209 283e
000001f0: f413 ac3e 286a 4e3e bdf9 243d 19f2 d33d
00000200: f1d9 0b3e bfa7 1b3e dbe7 de3d 0eeb 753e
00000210: 451d cb3c 3e91 413e 5e15 603e 74d2 2a3d
00000220: 9501 e53e 0d35 fb3d d0f3 da3d ac21 1b3e
00000230: f92c 8c3e ade1 7a3e 7b71 303e ec54 513e
00000240: 2517 763d 011f 643e 6ec9 8bbe 21a7 10be
00000250: 37f8 9b3e 5e22 643e 14c5 d33e 386c df3b
00000260: 7843 b43d 795a 0b3e 78c6 8e3c dd5d c43d
00000270: 793f 883e f684 c93d e351 5e3e 07b0 f93d
00000280: 32b6 5fbe f261 553e 2d85 2f3e be7f a13e
00000290: f1aa 123e 9f39 203e 6b27 08be 0ec8 993d
000002a0: 28cc 333e c25f a4be a42c 4d3e 7622 123e
000002b0: d15a 993f 4c13 573e 0e80 633e cb3f 083d
000002c0: a27e 083e 6bac 413d ee01 443e 1efa 513d
000002d0: 68cc 303d f5f6 31bd 641d 983d 951a 173e
000002e0: 833c 5cbd 1b59 09ba 0087 1d3f 61aa d13d
000002f0: 4a50 3cbe 9917 b73e fb3a 9ebe 8c60 023e
00000300: 96a2 6f3e eaa2 b1bf 0131 583e f40f 5a3e
00000310: fb4f 5f3e de8d 833e 9e3f 4b3e d1dd 153e
00000320: 4b2d 343e 0912 adbe 3d8d 443e c469 133e
00000330: c038 413e eb95 27be 6d47 8dbe c142 233e
00000340: 9821 ca3d 7be9 da3d 288d 023e 01d9 3d3e
00000350: 4edd 1a3e 7c31 813f 095b 103e bf14 0e3f
00000360: a2f0 453e faa1 0d3e ce43 513e e98b 393e
00000370: 5d52 b03d 297b 6a3e 6086 ec3d f9b2 893d
00000380: 81da 1c3e 38c8 7a3d 1269 663e 88f0 4a3d
00000390: f685 1b3e 3071 ed3d 2353 78be 4fa5 a23d
000003a0: 5326 9b3d 3b58 183e 5975 51be dddf bf3e
000003b0: 5aa9 783e a894 af3d eaf5 0e3e 18f3 343f
000003c0: cf6c 013e 147c b23d 10dc 9bbe f432 103e
000003d0: c9a5 153e b713 a33e 471b 3f3e 402a f13d
000003e0: 1d38 b8bc 522f a6be c728 553e 0797 3cbe
000003f0: f295 1f3e e3ef a83d 44ce 993e e8a9 dd3e
0.2681298 0.21164994 0.05211195 0.17073451 0.16698498 0.24596298 -0.34211078 0.18705852
1.4395655 -0.23152107 -0.23052913 0.051346634 0.18860058 0.11531922 0.13844132 0.12274871
0.18577276 0.13776901 -0.26061377 0.084666505 -0.27510384 0.21916911 0.0522743 -0.019838955
0.3209882 0.13311301 0.09936357 0.14912641 0.23740062 0.22503376 0.07922152 0.23723695
-0.27681854 -0.31011835 0.15267968 -0.19285393 0.38441798 -0.015310695 0.17354684 0.14157942
0.045292422 0.1126742 0.08216211 0.20708565 0.14737251 0.25540823 0.22854497 -0.018891599
0.15880972 0.15918131 -0.32225904 0.26133522 -0.31695884 0.22498211 -0.2690755 0.15916437
0.06272569 0.088310234 -0.32315022 -0.007926055 0.12735261 0.16183001 0.35931462 0.20554143
0.07384844 1.3791106 0.31367758 0.06330924 0.086058006 0.056968078 0.26766804 -0.2803362
0.12749101 0.100705795 -0.5685686 0.27547926 0.40579277 1.0295589 0.2092136 0.22563933
-0.28621307 0.14580342 -0.2458171 0.06859299 0.09333555 0.040774677 0.049514078 0.08159367
0.08791003 0.5250614 0.16227949 0.17614675 0.026071846 1.3761715 0.2975814 0.07380826
0.035166845 0.3102897 0.3225943 0.22215043 -0.20717773 0.06930851 0.34348035 -0.19290264
0.09132857 0.34628877 0.19693552 0.2177808 0.22344767 0.092548 0.40845373 0.063745216
0.047206998 0.0724457 0.11246999 -0.010324316 0.012387342 -0.32740852 -0.3609616 -0.17735681
0.29997092 0.17624225 -0.23533247 0.16409948 0.33608973 0.20157683 0.04027723 0.10348911
0.13657357 0.15200709 0.10884067 0.24015447 0.02479423 0.18903062 0.21883151 0.04170461
0.4472777 0.12265978 0.10691035 0.15149564 0.2737806 0.24500151 0.1723079 0.20442551
0.060080666 0.22277452 -0.27302116 -0.14126255 0.3046281 0.22278735 0.41361296 0.0068183206
0.08801931 0.13608731 0.017428622 0.095882155 0.26610926 0.098398134 0.21710925 0.12191778
-0.21846846 0.20838144 0.17140646 0.31542772 0.14323021 0.1564698 -0.13296287 0.075088605
0.17558348 -0.32104307 0.2003656 0.14270958 1.198084 0.21003455 0.22216818 0.033263963
0.13329557 0.04728357 0.19141361 0.05126392 0.043163687 -0.043448407 0.07427481 0.14756234
-0.053768646 -0.0005239413 0.6153412 0.10237575 -0.18390003 0.3576019 -0.30904374 0.12732142
0.23401865 -1.3877842 0.21112444 0.21295148 0.21807854 0.25694174 0.19848487 0.14635397
0.17595403 -0.33802822 0.19194503 0.14395815 0.18869305 -0.16365783 -0.27593556 0.15943433
0.09869689 0.10689064 0.1274916 0.18539812 0.15123484 1.0093226 0.14097227 0.55500406
0.19330075 0.1383132 0.20436022 0.18119778 0.086094595 0.22898544 0.115490675 0.067235895
0.15317728 0.0612261 0.22501019 0.049545795 0.15187821 0.115938544 -0.24250464 0.07941686
0.07575669 0.14877407 -0.20454921 0.37475482 0.24283352 0.08573276 0.13960996 0.7068343
0.12639163 0.08715072 -0.30441332 0.14081937 0.14614023 0.3185098 0.18662749 0.11775637
-0.022487694 -0.32457978 0.20816337 -0.18416987 0.15584543 0.0824888 0.3004018 0.4329369

net.4.weight f4 [27, 256]
00000000: 5eac 3b3e a8ca e23e f697 e03e 65d1 c33e
00000010: 66c9 c43e 391b d23e d5e5 f33e 531d da3e
00000020: 5ec4 84bf e1f3 f53e 985a e73e f56e d13e
00000030: 0ba7 ec3e cf42 a43e c233 c03e 612a b73e
00000040: 2f49 bc3e cd0c cf3e 00cf d33e be8c c63e
00000050: 0102 003f 729a 8e3e 97e0 ca3e 5666 f73e
00000060: 6a6b a93e 654d c93e 6a4d d33e 8299 983e
00000070: 4826 6a3e d942 b43e fe89 d03e 7377 aa3e
00000080: b330 fe3e ac11 d33e 898c b63e b7ab c03e
00000090: d36d f23e 5084 57bd 5183 c23e e398 70be
000000a0: 50ba de3e ec58 a93e aa55 db3e 31cb b43e
000000b0: ecb5 b23e 8eba c33e 520a 4dbc 5588 ca3e
000000c0: 5192 c03e 42a5 b43e 8a5e f63e da53 cb3e
000000d0: a62c f63e 679c 643f 8b61 ed3e 07fe cc3e
000000e0: 6da2 a73e db47 d03e 31d7 cc3e e3e8 593e
000000f0: e519 bd3e dfed c33e e752 f03e 5d34 b83e
00000100: ffd3 c03e 6df0 75bf 604b 903e 5bf7 d83e
00000110: 04cb a13e 51da e13e 889a a73e a1f4 c13e
00000120: 6133 cd3e 7b78 933e 1dce ef3e c71e d93e
00000130: 4dc6 203e e5e5 9ebe 3a2e a33e 339d 9b3e
00000140: fa54 e93e 8c33 8d3e 378f e73e 4d45 ab3e
00000150: 0409 a63e 1d92 a83e 9309 d03e 724d ca3e
00000160: d9b4 c63e 064a 17bf 3c96 f33e a1c6 763e
00000170: 64ec c93e 4e14 6fbf bdcc ea3d 6b82 073e
00000180: 6e13 df3e c4e5 f13d c29a 9c3c e27f af3e
00000190: 5364 c03e 6243 843e 208c e03e f0a3 c03e
000001a0: f726 b33e 3475 6e3e e7c7 c43e 34ce af3e
000001b0: eac7 c33e 217a c63e f696 27b8 b06b cd3e
000001c0: 4ba9 ad3e aee7 ed3e e1d4 e13e f80f 58bc
000001d0: 2601 c03e b675 c73e cba3 033f f7a4 ce3e
000001e0: d9e6 bebd 7f0f 213e ac1a fc3e d907 aa3e
000001f0: 3db9 ae3e 04da 9b3e 8252 d53e 12f3 bc3e
00000200: 6db0 a53e 1765 a93e 0d07 903e eb83 c23e
00000210: 1372 bc3e f954 d63e b2bb 4c3e 7c79 993e
00000220: 80ea 513e 00b7 e33e 353a d73e d534 cb3e
00000230: 12e2 bb3e 6f99 dc3d 528d 983e 6cc4 b73e
00000240: 1821 d23e c800 ef3e f84d da3e 465d 6c3e
00000250: 0b73 023f a229 b63e de1f 2b3f 9893 963e
00000260: b60a 993e 5b88 b43e 137f a13e 8e8a c63e
00000270: ae67 c23e 245d dc3e 89a9 a63e 7b98 a73e
00000280: afc6 e73e 3ed0 a73e 7c30 9c3e be36 a93e
00000290: 3ae4 b83e 3d6f ce3e 5be5 f53e 86a1 de3e
000002a0: 3e19 d43e 9801 c23e 0ca9 b13e 7f12 d83e
000002b0: 4fec 8abf d8dc 6e3f ebe5 a13e 929e 8b3f
000002c0: 8e9f c53e 1535 e13e 2c2d b63e 80a4 c53e
000002d0: 30c3 c33e 9587 9b3f 53c0 bf3e 27d1 9b3e
000002e0: 0a55 c73e 7f70 a93e f775 4cbf d952 c13e
000002f0: a500 cd3e 9678 e83d 4a2a ee3e 17fa d73e
00000300: 5257 993e cccd 9f3d 3b78 a93e a253 3d3e
00000310: 60a3 cf3e 7810 cc3e 8cff c53e 3578 c63e
00000320: 8456 c13e e4ff ea3e 0a88 bc3e a198 d73e
00000330: bd80 d43e 1b76 cf3e 9f31 b73e b77c df3e
00000340: 66a5 a33e 127f a13e 3106 c63e b4b1 c33e
00000350: d30b c83e 645b 00bf afe6 b63e e5b3 27bd
00000360: 517b bd3e 13b4 c03e 680b 933e 4b01 ab3e
00000370: 9c77 b03e 596a a53e 0778 e03e 866f c33e
00000380: 1d26 913e d541 e13e a24d ad3e da45 923f
00000390: 210b 773e 5894 ce3e bd3b dd3e f08c e13e
000003a0: e410 ad3e 6b74 c33e f4b9 c53e 62bf 813e
000003b0: 88f4 9f3e 7c24 ad3e a622 b13e e0c7 b0bd
000003c0: 510d a63e d6cf e63e 0181 033f 016d a53e
000003d0: b631 b23e 1640 973e 0155 cf3e abfa 9f3e
000003e0: 81e4 653f f355 f23e 81a1 aa3e 4013 d23e
000003f0: 1531 bf3e 6216 c93e c4c5 c63e 1a34 9cbd
0.18327472 0.4429524 0.43865937 0.38245693 0.38434905 0.41036394 0.47636285 0.42600498
-1.0372427 0.48037627 0.45186305 0.40904966 0.46221194 0.3208222 0.37539488 0.3577452
0.36774585 0.40439454 0.41368866 0.38779253 0.5000306 0.27852207 0.39624473 0.48320264
0.33089763 0.3931686 0.4127 0.29804617 0.22866166 0.3520725 0.4073028 0.33294258
0.4964653 0.4122442 0.35654095 0.37631008 0.47349414 -0.052616417 0.3799081 -0.23495822
0.4350152 0.33075655 0.42838794 0.35311273 0.3490442 0.38228267 -0.012514668 0.39557138
0.3761163 0.35282332 0.48119003 0.3971241 0.4808094 0.8930115 0.46363482 0.40037557
0.3274111 0.4067982 0.40007928 0.21280245 0.36933818 0.3826742 0.4693825 0.3597745
0.3766174 -0.96069986 0.28182507 0.42376217 0.316002 0.44111875 0.32735085 0.3788195
0.40078261 0.28802857 0.4683694 0.42406294 0.15700646 -0.3103477 0.31871206 0.3039337
0.45572644 0.2757839 0.45226452 0.3345131 0.32428753 0.32923976 0.40632305 0.3951221
0.3880985 -0.59097326 0.47575557 0.24099208 0.39438164 -0.9339036 0.11464832 0.13233344
0.4356951 0.118114024 0.019116763 0.34277254 0.3757654 0.2583266 0.43856907 0.37625074
0.34990665 0.23286897 0.38433763 0.34337008 0.3823846 0.38765052 -3.9956496e-05 0.40121222
0.33918223 0.4646582 0.44107726 -0.013187401 0.37500876 0.38956994 0.51421803 0.40360233
-0.093213744 0.15728568 0.492391 0.33209112 0.341257 0.3043977 0.4166451 0.36904198
0.32361165 0.33084938 0.2813038 0.3799127 0.36805782 0.41861704 0.19993475 0.29975498
0.20499611 0.44475555 0.42036596 0.39688745 0.36695915 0.10771453 0.2979532 0.35892045
0.41040874 0.46680284 0.4263761 0.23082456 0.5095679 0.35578638 0.668455 0.2940948
0.29890984 0.3526028 0.31542262 0.38777584 0.37969726 0.4303981 0.3255122 0.3273352
0.4526877 0.32776064 0.3050574 0.33049577 0.36111623 0.40319243 0.48026547 0.43482608
0.41425508 0.3789184 0.34699285 0.4220161 -1.0853366 0.9330573 0.31620726 1.0907767
0.38598293 0.4398581 0.35581338 0.38602066 0.38234854 1.2150751 0.3745142 0.30433008
0.38932067 0.3309364 -0.798675 0.3775852 0.40039554 0.11351125 0.4651664 0.4218299
0.29949433 0.078029245 0.3309954 0.18488935 0.40554333 0.39856315 0.3867153 0.38763586
0.3776132 0.45898354 0.3682254 0.42108634 0.4150447 0.40519795 0.35780045 0.43649837
0.31962126 0.3154226 0.386766 0.38221514 0.3907152 -0.5013945 0.35722873 -0.040943045
0.37008145 0.37637386 0.2871964 0.33399424 0.34466255 0.323077 0.43841574 0.38171023
0.2834939 0.43995538 0.33848292 1.1427567 0.24125339 0.40347552 0.4320964 0.4405284
0.3380195 0.38174757 0.38618433 0.25341326 0.3124125 0.33816898 0.34596747 -0.08631873
0.32432035 0.4508044 0.5136872 0.32309726 0.3480355 0.2954108 0.4049454 0.31245932
0.89801794 0.473312 0.33326343 0.41030312 0.37342134 0.3927489 0.38822758 -0.07627125

net.4.bias f4 [27]
00000000: 2ee2 67bd bfb8 a63d d20d 6dbd 7824 7cbb
00000010: 6685 a5bc 43b8 363d fa34 cfbc 4e69 563e
00000020: 9b48 8fbd 9206 943e 4fef 983d f3e5 f53d
00000030: dd50 0abd cf1d c93d 67c0 4a3d 584b 123d
00000040: 2ad1 37bd d4ef 9ebd b66d 723e f20e ba3e
00000050: d88b d13e e94b 0fbd f612 233d 6e49 243e
00000060: 953f debc c447 dc3d cfb6 773d
-0.056612186 0.08140706 -0.05787451 -0.0038473886 -0.02020521 0.04460932 -0.025293816 0.20938608
-0.0699627 0.28911263 0.074675195 0.1200675 -0.033768523 0.09820139 0.049499895 0.035716385
-0.04487721 -0.07760587 0.23674664 0.36339527 0.40927005 -0.034984503 0.039813004 0.16043636
-0.027129928 0.10755876 0.060477074
