model/dqn_policy_net_episode_1690.pt (torch, 334295 bytes, 6 tensors)

net.0.weight f4 [128, 336]
00000000: a3c7 7e3d 077e d7bd 4b0c adbd 58d2 173d
00000010: b267 9cbc f161 02be 0575 c23c fd95 a9bd
00000020: 2066 303e 9362 fbbd b412 96be 2572 bcbd
00000030: 4e8a bf3d 0c42 85bd c361 993d 5666 d93b
00000040: 6466 42be 040f d8bd 6546 32bb 3509 23bc
00000050: 55d1 0c3c c35b 9c3d 5680 d9bd 7ec3 b13d
00000060: 4901 37be 89f9 4bbe 539f 05be 32fe 8a3d
00000070: 28c1 9b3d 7b54 27bd dd0c f53b bbd3 a73d
00000080: 1453 afbe 1bb1 2bbd 8bb7 bd3a ccdc 70bc
00000090: af5d 483d 413d 60bd 6ac4 453d c10b 12bd
000000a0: 4d57 513d e1a3 89be af0d 76bb 3b2b d53b
000000b0: 6d8c 753d e6bd 4dbe f012 27be 4216 a6bc
000000c0: 5d32 3bbd e389 a93d 1335 7d3d e992 95bc
000000d0: b678 c0bd bee8 d3bd 7c26 093e 0b19 b73d
000000e0: 9d3a 783e 1753 11be 7fbb 7ebe f8e6 cebd
000000f0: 8a8f 3d3d b937 fc3d 2bf6 b3bd 41a7 2fbe
00000100: 9d63 0bbe 3c26 af3d 894f 9ebd e6c1 70bb
00000110: 09d6 0d3c 6bd3 2d3d 83a1 58bd a1f7 86bd
00000120: 1c0d ecbd f8c4 0fbe 5f02 893d 3b0c 0e3e
00000130: f76f 03bb ba37 f83d 1f3f 1ebe dbbd 1abd
00000140: 9daa ed3d 0f4a bebd 481d e53d 601c bb3c
00000150: 2b70 20be 1fa4 f8bd 02ad cb3d be56 bfbc
00000160: 770a 803d 218a 3bbd 9c07 3ebd 7965 d2bc
00000170: 3af9 07bd ea28 a8bd ab0a 3bbd 0344 ebbc
00000180: 7e4e 873e 10a4 00be c924 17bb 1cce e2bd
00000190: f081 a63d 6d0d 283d 86cc 173d b968 183c
000001a0: 841b 46bf 59f8 303e 4929 3f3e e174 1a3e
000001b0: abf1 9d3e 53b2 4c3d 1f03 65be d5fd c13d
000001c0: 831b cf3d 06df d1bd 3d70 1cbe e272 7bba
000001d0: 31ed 33be 801e 32bd 147c 443d d09c 373d
000001e0: ee1c 87bf 07e3 283e d66a 22bd 0638 18be
000001f0: 89d6 693d d687 0b3e 8d6a 953d 161b a4bc
00000200: ef19 d13e 67e6 73be b114 f5bd 1db2 30be
00000210: f652 0dbe d702 f6bd be9a 03be 59a9 7cbd
00000220: 9cbe cbbe 8502 0c3e 1101 043d c1a7 5c3c
00000230: 356c 40bd 5a18 763c 1629 0e3d 78db 0d3d
00000240: 670a f53e 91bf 22be 8bc0 30be c9f3 90be
00000250: a802 003d 634d b93c 54f2 0bbd 33d0 53be
00000260: 7a7e e83d d7a7 1bbb bcb2 223d e299 99b9
00000270: 8b68 19be fe1d 653d dd5f eb3b 1d26 ebbb
00000280: 5f8f 4d3d 9ecf 79be db21 c53d 133c 753d
00000290: 96f4 043d f98f 5fbd 768b f3bc 89d6 37bc
000002a0: 5412 1a3f e9b3 83bd 1e3c 00bd 5fc4 c7bd
000002b0: 4ddd 95be 4418 87be 3d9b 7fbd 6c15 68bb
000002c0: 3247 053f 49db 323e 0e1c d4bd f0c8 2abe
000002d0: 5ce1 94bd 36e9 55be b5e0 01be 2715 28be
000002e0: 7551 473f a2d2 343d 3aa8 4bbe ff9f 03bd
000002f0: 1759 cebd 3b6d 013b cfbc f6bd c8c4 da3d
00000300: 0d27 3abf 93a4 cd3d f6b6 313e 5cf9 b53d
00000310: 2d5d 1c3e fee5 c43e 1531 cf3d 6a53 5c3e
00000320: 3643 1a3f db66 8cbc 1f3a 1fbe ab1c 093b
00000330: dc8f 0d3d 2d6c 51bd 2d27 4fbe 6d3c 763e
00000340: b4e3 d9bf 73ab af3e 248f de3e acfc 9e3e
00000350: 8bbf 9c3e 6e60 923e adab f03d 0458 493e
00000360: be1d 1a3f 5408 dfbc 02fc b0bd 5065 083c
00000370: 8f09 3abe 39c0 edbc fbf7 4dbd 17aa a13d
00000380: 3210 27bf 0bf2 e53e 83cc 853e 52cb 5e3e
00000390: fc20 0e3e 3886 113e cc3b babd d3bc 813e
000003a0: dacb 3c3f e8b3 a33d b8e6 23bc fa7f 01be
000003b0: b980 07bd 0404 3ebe 5a0a 1dbe ea26 56be
000003c0: 86bb 523f d0da 2b3e b8ef 9b3d b335 1cbe
000003d0: 0f1b c1bd 7541 64be d1ca b83d ba6e 69be
000003e0: 8ce6 55bf f830 563e 1a20 203e 19e9 a33e
000003f0: 2170 323e c872 973e dfd0 82be 479b 973e
0.062202107 -0.10522085 -0.0844961 0.037065834 -0.019092415 -0.12732674 0.02373744 -0.08280561
0.17226458 -0.12274661 -0.29311144 -0.09201459 0.093525514 -0.06506738 0.0748935 0.006634514
-0.18984371 -0.10549739 -0.0027202603 -0.009950926 0.0085948305 0.0763469 -0.10620181 0.08679865
-0.17871584 -0.19919409 -0.13049059 0.06786765 0.07605201 -0.04085205 0.00747834 0.08194681
-0.3424307 -0.041916948 0.0014474256 -0.01470108 0.04891747 -0.054745916 0.04828302 -0.03565574
0.051108647 -0.26882842 -0.0037544777 0.0065053976 0.059948374 -0.20091972 -0.16315818 -0.020274285
-0.045702327 0.08278253 0.061818194 -0.018258529 -0.09398024 -0.103471264 0.13393587 0.089403234
0.24241109 -0.14191853 -0.24876212 -0.101026475 0.046279468 0.12315316 -0.08787187 -0.17153646
-0.13612218 0.085522145 -0.07730014 -0.0036736666 0.008656987 0.042437952 -0.052888405 -0.065902
-0.11525938 -0.14039981 0.066899054 0.13871853 -0.002005575 0.12120004 -0.15453766 -0.037778717
0.116048075 -0.09291469 0.111872256 0.022840679 -0.15667789 -0.121406786 0.09945108 -0.023356792
0.06251996 -0.045786027 -0.046393976 -0.025683152 -0.033196665 -0.08210929 -0.04566447 -0.028718954
0.26427072 -0.12562585 -0.0023062697 -0.110744685 0.08130252 0.04102843 0.037060283 0.009302312
-0.77385736 0.17282237 0.18668093 0.15083648 0.3084844 0.04997475 -0.22364472 0.09472243
0.10112669 -0.102476165 -0.1527719 -0.0009592009 -0.1757095 -0.04348612 0.047969893 0.044827282
-1.0555704 0.16492854 -0.039652668 -0.14865121 0.057089362 0.13626036 0.072957136 -0.020032447
0.40840098 -0.2381836 -0.11966837 -0.17255445 -0.13801178 -0.120122604 -0.12851998 -0.06168494
-0.3979386 0.13672836 0.03222758 0.01346773 -0.046978194 0.015020454 0.03470715 0.03463313
0.478595 -0.1589339 -0.1726095 -0.28310993 0.031252533 0.022619909 -0.03416665 -0.2068489
0.113522485 -0.0023751163 0.039721236 -0.00029297086 -0.14981286 0.055936806 0.0071830587 -0.0071761743
0.050185557 -0.24395606 0.09625598 0.059871744 0.032459818 -0.054580662 -0.029729586 -0.011220583
0.60184216 -0.064307995 -0.031307332 -0.09754252 -0.29270402 -0.263857 -0.062403906 -0.003541316
0.5206176 0.17466463 -0.103569135 -0.16678214 -0.072695464 -0.20889744 -0.12683375 -0.16414319
0.7785867 0.044146188 -0.19888392 -0.032135006 -0.10075586 0.0019748944 -0.12047731 0.10682064
-0.72715837 0.10041156 0.1735495 0.08885452 0.15269919 0.3845672 0.101167835 0.21516195
0.60258806 -0.017138889 -0.15549515 0.0020921628 0.034561023 -0.051128555 -0.20229788 0.24046488
-1.7022614 0.34310493 0.43468583 0.31052148 0.30614886 0.28589195 0.117514946 0.19662482
0.6020163 -0.02722565 -0.08641817 0.008324936 -0.18167709 -0.029022323 -0.05028532 0.0789377
-0.6525909 0.44911227 0.26132593 0.21757248 0.1387977 0.14211357 -0.090934366 0.25339374
0.7374855 0.07993299 -0.010003738 -0.12646475 -0.033081744 -0.1855622 -0.1533598 -0.20913282
0.8231739 0.16782689 0.07614082 -0.1525486 -0.09428989 -0.22290595 0.09023059 -0.22796145
-0.8355491 0.20917118 0.15637246 0.32013777 0.17425586 0.2957976 -0.2554998 0.29610655

net.0.bias f4 [128]
00000000: 1452 043e 3419 1c3e 9c7e c53d 3faa f83d
00000010: f3c4 913e eb97 b83d be10 043f 56ba 6b3e
00000020: d7fd 3fbb 4c15 493e dc07 093e 845d 8e3d
00000030: 8fff 1f3e 2a5b fa3d 52f1 0e3e 5a04 083e
00000040: b752 c03d c457 4f3e e176 203e d3f9 aa3d
00000050: 3d19 ea3d 7858 9e3d 6648 b33e aeb3 223e
00000060: d8e4 543e bc84 1b3e d9c1 1c3e baf8 773e
00000070: e146 113e 7428 e93e 5ace 7b3e 967f 283e
00000080: 5b34 373e 948c 873d d20f 413e 9836 aa3d
00000090: 2157 cd3d bbf2 4e3e fc91 683e 579c 213e
000000a0: bfae a8bd c3e0 bb3d fd78 843d 7bbe 123e
000000b0: d857 c13d aebf 553e 653d df3d 4599 643e
000000c0: 17b2 183e ae2c 583e e8ce 5e3d 5d7c 2c3e
000000d0: 60d3 833d 3afa d43d 73f0 143e db99 ea3d
000000e0: 633b 003e cbb7 8ebd 728c 8d3e 4aa0 153e
000000f0: 2ddc 423e 3612 153e 04b8 7b3d 6c5d 163e
00000100: 9e21 503e 4515 353e f9c5 8c3e 1928 fa3d
00000110: 3c57 033e e40c 8c3d ede2 103e 5918 603e
00000120: fca9 6b3e 12c2 0c3e be52 163e 15f9 cd3e
00000130: 8694 283e 8656 313e aa31 323e 909d 343e
00000140: 4127 d33d 0bb4 8a3f 6f38 443e c437 b83e
00000150: 7ca8 343e 6a6e 203e 56bb 373e 85ea 533d
00000160: 1847 dd3e a13b 473e 2aa8 0a3e 6755 cf3d
00000170: b917 223e c37f 313d 94ef a33e ca2a c93d
00000180: 91d1 de3c e5f2 4e3e 64dc fb3d dabf 6c3d
00000190: f6d2 323e 517b be3e 668a d43d 1038 543e
000001a0: 0cc9 bb3d db5c f13d a0f5 343e 3e80 cc3d
000001b0: 6dd8 2d3e 0ef9 133e 2697 3d3d 32e8 763e
000001c0: 44f4 853d 239c 7b3e 9834 1c3e 057c b93d
000001d0: 9668 3abd 7c87 ad3e 5b2e debd b2e8 583e
000001e0: 7d90 023e f19e 303e 3da8 963e 45e9 593e
000001f0: dd8f 113e 4c50 083e dbc9 bc3d 579a 2f3e
0.12921935 0.15243989 0.096432894 0.12141847 0.28470573 0.09013351 0.51588047 0.230203
-0.0029295587 0.1963703 0.13381904 0.069514304 0.15624832 0.122244194 0.13959244 0.1328291
0.093907766 0.20248324 0.15670349 0.083484314 0.11430595 0.07731718 0.35016173 0.15888855
0.20790422 0.15187353 0.15308322 0.24215975 0.14187194 0.45538676 0.24590436 0.1645492
0.17891066 0.0661861 0.18853691 0.08311194 0.10026384 0.20209782 0.22711939 0.15782295
-0.08236455 0.09173729 0.06468389 0.14330475 0.09440583 0.20873901 0.10900382 0.22324093
0.14911686 0.21110794 0.05439654 0.16844316 0.06436801 0.103992894 0.14544849 0.11455127
0.12522654 -0.069686495 0.27646214 0.14611927 0.19029303 0.14557728 0.061454788 0.14684075
0.20325324 0.17683895 0.2749479 0.12214679 0.12826246 0.06838396 0.14149065 0.21884288
0.23014063 0.13745907 0.14680001 0.40229097 0.16462907 0.17318162 0.17401758 0.1763823
0.103102215 1.0836195 0.19162153 0.35980046 0.17642397 0.1566712 0.17942557 0.051737327
0.43218303 0.1945634 0.13540712 0.10123711 0.15829362 0.043334734 0.3201872 0.098226145
0.027199538 0.20209844 0.122978956 0.05780015 0.17463288 0.37203458 0.1037796 0.20724511
0.09169206 0.11785289 0.17671824 0.09985398 0.16977091 0.14450476 0.046286725 0.24112013
0.065407306 0.2457128 0.15254438 0.09056858 -0.045509897 0.3389243 -0.10848685 0.21182516
0.1275043 0.17248131 0.2942523 0.21280392 0.14215036 0.13311881 0.092181884 0.1714872

net.2.weight f4 [256, 128]
00000000: 4016 943f 68de 853c 1a24 1d40 ccb8 b13e
00000010: ca11 443b e746 483f db70 463f 914a be3f
00000020: 1d48 3240 2205 133f fb62 673f e7f8 b83e
00000030: f4e2 643d 73aa 6c3e c8eb 06be 6b46 913f
00000040: 2026 393f 1e73 4b3e 088e 2c3f d863 d13f
00000050: 53ea 8a3f 5d96 e13f d81c 713d d0db 6f3f
00000060: 1ff0 e73e 28c7 b53e f5a4 7e3f d5f9 bebd
00000070: 3fcf 1c3f 688b 3a3e 9c0e 493e 9be4 323f
00000080: 94ba 603f 8b8a 3d3f ce92 0f3f 61d3 323f
00000090: b531 2c3d dbf9 c53f 8cf6 cc3f be62 453d
000000a0: 81ba babf 7cdc af3e 52bf c93d dd7a 6c3e
000000b0: 9e5c d23e 05a1 1a3f 0428 a53f c3cd af3f
000000c0: 2ce9 5f3f ec64 653e 6a0a 473f b4d8 ec3f
000000d0: cf61 5f3f 76a2 2dbd a36a 443f d568 38be
000000e0: dd12 8dbe 2bea c4bf c754 9f3e 10f4 f43f
000000f0: f896 01be 11e5 1d40 9e76 f83e 115d 223f
00000100: 05c2 12bd 988b f33e 8593 8e3f f614 2d3e
00000110: 4591 553f f836 133f 05f3 c23c 9f0e 833e
00000120: b796 d33e 093f c53f a558 e73e 55aa 463e
00000130: 5435 be3e 4c0a b7be 2954 963f 4eaf 9d3e
00000140: 6bf2 2b3f 6cfc 213f 991b 46bf 2fc9 7b3e
00000150: 99a8 203f 3229 52be ed81 2f3f 19ad 9b3f
00000160: dee2 e5bd 8104 de3e 405f 8c3f a12b 3b3f
00000170: 3e32 473f bba6 c33f 45f8 1e3f c873 093f
00000180: 5699 a83f 15a0 4f3e a9a2 2a3f cf88 a7bf
00000190: 811f 70bd b166 5ebe 2d13 be3f 3be5 b93e
000001a0: 6f85 bf3e 7ed5 013f 2891 0b3f f660 a33d
000001b0: 4803 9e3f b39a d63f d525 ca3e 4367 283f
000001c0: f47c 803f b721 6e3f 0ba5 223f 1be3 c33f
000001d0: 3fbc 2240 0208 8a3e d3c4 b8bf 8f21 903f
000001e0: cd7f 1d3f f1dc 2c3e 5c55 de3e bfca 4e3f
000001f0: 835a 2640 c0e8 883e 900b a63f 3727 b43f
00000200: 6eb4 1640 8598 3b3e abc6 103f a9a5 fcbb
00000210: a7c2 093f 6010 153f fb09 adbe 8465 953f
00000220: 143b 853e 2c45 b13e f29e e1bd e780 883e
00000230: 1930 b23e ff6a 803f b4e3 523f 3910 fe3f
00000240: 5066 ec3e 45ca 573f 14d4 e83e adf0 783e
00000250: a2ad c83f dc04 743f 4880 3f3f d0e5 573f
00000260: cbd9 253f e876 233f 659d 7f3f 36bf ff3e
00000270: 5ee7 9d3e a2af 0b3f a5b1 183e 909c ec3f
00000280: b2d3 273f 46aa 8c3f b8bb 873f e74f b23e
00000290: 7fd5 973f f86a a33f 2fd9 843f 4de4 1d3f
000002a0: dfb8 e1bf a22a 0c3f d089 df3e 9bcf 423f
000002b0: 833f 1f3f 1911 3b3f 67e4 f03f e7d1 1f3f
000002c0: f909 e93f 1c4c 8d3e 4802 3a3e cbe4 973f
000002d0: 7073 3c3f 214a a93e 21c6 483f 2526 003f
000002e0: 7807 6f3f bf6b e0bf 0f39 79bc 97af c53f
000002f0: 9ec0 643d bf72 b23e 0b95 743e 4186 013f
00000300: 1ae9 33be c8ad 853e 6a64 cd3f 6f0b cc3e
00000310: 42c6 f83f 352e 9dbe a573 893f 31fc 513f
00000320: 0576 5c3f 7fcd e73e 1bcd 9e3e 45c5 f23e
00000330: 1706 693f 0ad1 2a3f 1bd8 1d3f 50c2 883f
00000340: a9a7 7f3f 865e 43be 9eb3 ed3e dd40 bc3e
00000350: 488f 3a3f 3be0 b73e be73 a33e 79af f53e
00000360: d98c 633f f3e6 5b3f d230 4e3e 1ecf 353f
00000370: 29bb 103e 795c e2be ca0b 84be 61c0 143f
00000380: 3dfb ce3e 1931 703f f08f 823f d669 973f
00000390: 54d4 773f 8c66 113f 09a6 cf3f dbea 763f
000003a0: 4be9 293f 6329 1d3f 44e2 e23e 4578 313f
000003b0: 8106 503e ca3a 7d3f b9a2 593f 53fd dc3c
000003c0: 6ddf a13e b795 0f40 2fce 943f 5c08 443e
000003d0: 209c 08bf 126b 7f3e 11ac d6bf f3a9 b93f
000003e0: 2816 973f 4287 1d3f 2855 e73e 3f5b 553f
000003f0: 1a50 89be 73f3 1a3f cc50 1640 5d50 e93f
1.156929 0.016341403 2.4553285 0.347113 0.002991783 0.7823319 0.77515954 1.4866506
2.7856514 0.5742971 0.9038541 0.36127397 0.055880502 0.23111896 -0.13175881 1.1349615
0.723238 0.19868132 0.6740422 1.6358595 1.085276 1.7624012 0.0588654 0.9369478
0.45300385 0.35503507 0.99470454 -0.093249954 0.6125373 0.18217242 0.1963448 0.69880074
0.87784696 0.74039525 0.5608338 0.6985379 0.04203959 1.5466875 1.601274 0.04818987
-1.4588166 0.34347904 0.098509446 0.23093744 0.41086286 0.60401946 1.2902837 1.3734668
0.8746517 0.2240178 0.77750266 1.8503633 0.8725862 -0.042391263 0.76725215 -0.1800874
-0.27553454 -1.5383962 0.31119367 1.9136982 -0.12655246 2.467106 0.48527998 0.6342326
-0.035829563 0.4756744 1.1138769 0.16902527 0.8342479 0.5750575 0.023797521 0.25597093
0.41325924 1.5409862 0.45184818 0.19400914 0.3715006 -0.35750043 1.1744434 0.3079781
0.67166775 0.6327579 -0.7738586 0.24588464 0.6275726 -0.20523527 0.68557626 1.21622
-0.11224912 0.4336281 1.0966568 0.7311345 0.7781104 1.5285257 0.6209758 0.53692293
1.3171794 0.2027591 0.6665445 -1.3088626 -0.058623794 -0.21718861 1.4849602 0.363077
0.3740649 0.5071639 0.54518366 0.07977478 1.2344751 1.676596 0.3948199 0.65782565
1.0038133 0.93020195 0.63533086 1.5303682 2.5427396 0.26959234 -1.4435066 1.1260241
0.61523134 0.16881157 0.434245 0.80778116 2.5992744 0.26740074 1.2972279 1.4074467
2.3547626 0.183199 0.56553143 -0.007710178 0.5381264 0.5822811 -0.33796677 1.1671605
0.26021636 0.34623086 -0.110166445 0.26660845 0.3480232 1.0032653 0.823787 1.9848701
0.46171808 0.84293014 0.45474303 0.2431056 1.5677989 0.95319915 0.74805117 0.8433504
0.6478545 0.6385331 0.9984954 0.4995057 0.30840582 0.5456487 0.14911516 1.8485279
0.65557396 1.0989463 1.0604162 0.34826586 1.1862029 1.2767019 1.0378779 0.61676484
-1.7634543 0.5475255 0.4365983 0.7609803 0.62206286 0.73072964 1.8819703 0.6242966
1.8206168 0.2759713 0.18164933 1.1866697 0.73613644 0.33064368 0.7842732 0.50058204
0.9337077 -1.7532881 -0.015211358 1.5444211 0.055847757 0.3485317 0.2388498 0.5059548
-0.1756939 0.26109147 1.6046269 0.39852473 1.9435503 -0.30699316 1.0738417 0.8202544
0.86117584 0.4527397 0.31015858 0.4741613 0.9102492 0.6672522 0.61657876 1.06843
0.99865204 -0.19079027 0.464261 0.36768237 0.7287488 0.35913262 0.31924242 0.47985438
0.8888679 0.85899276 0.20135811 0.7101916 0.14133896 -0.44211176 -0.25790244 0.58106047
0.40426055 0.9382492 1.0200176 1.1829174 0.9680836 0.567971 1.6222545 0.9645211
0.663716 0.61391276 0.44313252 0.6932414 0.20314981 0.9891783 0.8501392 0.026976263
0.31615773 2.2435129 1.1625422 0.19143814 -0.5336323 0.24943188 -1.677126 1.4504989
1.1803637 0.6153451 0.45182157 0.83342355 -0.26818925 0.60527724 2.3486814 1.822765

net.2.bias f4 [256]
00000000: b400 c43e 0a33 9e3e a799 1a3e 2478 923e
00000010: a112 923e fb28 b53e 5de4 92be 9365 963e
00000020: 8d55 db3f afe6 35be 1e73 42be 5682 ba3d
00000030: 9b96 993e 047f 613e 8639 783e d42c 6d3e
00000040: 8602 933e fe6d 823e 0a21 63be 3e32 3f3e
00000050: 33bd 5ebe a127 a63e 27f8 223e fe60 a93d
00000060: 1c48 bf3e fd75 703e 0739 5f3e 9480 853e
00000070: 8e28 8c3e 87b6 ad3e f6df 473e 4819 b73e
00000080: 8ddf 4abe 2d45 92be 5630 8a3e 77fe 26be
00000090: 40f7 003f b6d9 7abc f27e 903e 1317 4c3e
000000a0: b582 193e 31eb 623e 60ba 3c3e 9149 9f3e
000000b0: eead 853e 43ca b83e 4655 943e f77b b93d
000000c0: f7ab 8c3e c2b6 883e e9db 81be 2d6d bc3e
000000d0: 4898 86be 3943 a43e 2758 3cbe d2be 843e
000000e0: e7bd 343e 2a93 483e a48b 90be 921e 213d
000000f0: 695a 6a3e 4143 8d3e 77a2 dd3e e2d8 a13e
00000100: 6079 423e 4c5c d33f d192 d93e 95c4 353e
00000110: 8239 4a3e a8e9 263e 83e2 c23e 2fb1 5dbe
00000120: 5c24 7a3e cf4e 503e cff3 2abf 40cc c63e
00000130: 5807 033f 72a7 983f 1a75 a13e 04b7 aa3e
00000140: 965e 82be b74c 313e b58e 4fbe 768f 383e
00000150: 91ba 573e b6f7 213e 88d5 163e 1483 423e
00000160: b320 3e3e 38b9 2b3f 050e 853e dcbb 9a3e
00000170: aa62 083e 8a50 d33f 8581 c73e 23ff 2f3e
00000180: edf9 fc3d 49c2 c23e d182 c93e c8c2 a93e
00000190: 2250 16be 791f 003e 3776 bb3e 576d 2bbe
000001a0: d08c 4f3e c55d df3e cf9f 9f3e eadb a13e
000001b0: e501 a73e 1875 543e e784 003f 4eb4 2e3e
000001c0: 48c3 1e3e fa57 373e e3d3 613e 5227 29bc
000001d0: 987a ff3d 9c64 9abe 6326 b3be 14d1 86bd
000001e0: 96d5 c33e d085 533e c7a1 5fbe bd32 913e
000001f0: a42b df3e 04b2 993e 19bc 203e be2b 593e
00000200: 5134 7c3e ea33 8a3e 282c 693e d1cf b53e
00000210: ae78 003e a79b 933e c3da 953e db07 173e
00000220: 6b1c fb3e 5d2f 6e3e 670e 5b3e 7d27 803e
00000230: a44b c33e 549f 8f3e c3cd 8f3e a60a a73e
00000240: 7886 2f3e 6859 ac3e 22a6 5ebe e710 8cbc
00000250: 40d9 d33e 5259 a83e 4806 f33e b085 eb3d
00000260: 4152 3e3e 0660 7e3e 1c2a 063e edb7 4e3e
00000270: 4274 c03e 74f3 543e 4981 a73e 6d4e 683e
00000280: a839 4fbe 48ac a73e a28d 903e 355e cc3e
00000290: 39a9 7d3e ce03 853e ad8b c8bd 8bc7 443e
000002a0: cb74 8d3e 252e 90be af40 a13e 0404 7c3e
000002b0: 8532 be3f 98be 733e 7afa ab3e e5bb e03d
000002c0: 47d9 7c3e 4a67 1e3e f974 9d3e 0c8e 213e
000002d0: eb0f 243e 0aa0 a63a e9d7 323e 5f57 843e
000002e0: 18d5 773d cbe5 ee3d 5946 413f e87e 593e
000002f0: 0c09 e9bd d0cd c23e f769 5dbe 304b 623e
00000300: 819e b33e 5a2f c4bf 92ea a53e 5b9e 893e
00000310: 4a66 a63e 07bf b53e 9083 a03e c863 823e
00000320: 6f15 943e 090c 83be c5a5 9d3e 8c26 7a3e
00000330: 96a8 953e cb7a 07be b333 c8be 7953 883e
00000340: 3730 5b3e 730c 5e3e b854 743e 0618 9a3e
00000350: eb78 873e 8015 933f a4fe 813e 8d58 303f
00000360: 237b 973e 02d6 7f3e 9112 a43e be77 9c3e
00000370: ffc5 403e 1c05 ab3e 2d31 643e 03be 3a3e
00000380: c033 853e 2b12 233e 5789 ac3e 8535 043e
00000390: f0c4 883e bc29 593e d5d7 2abe 5ca8 463e
000003a0: 3d27 3b3e 8ca2 833e f0fd 38be fd71 f43e
000003b0: db12 943e e791 4e3e de1a 843e 31f2 563f
000003c0: 4037 6c3e 1760 463e f44d 78be b4d1 823e
000003d0: 285b 813e d88b d93e 55f7 943e a837 623e
000003e0: a22a 8dbd a1a6 84be b935 a53e 716d a1bd
000003f0: 805d 8e3e 8755 4d3e 0b1d cf3e 1d70 f73e
0.38281786 0.30898315 0.15097676 0.28607285 0.28529838 0.35382828 -0.28689852 0.2937437
1.7135483 -0.1776378 -0.18989226 0.09106891 0.29997715 0.22021109 0.24240693 0.23161632
0.28712863 0.25474542 -0.22180572 0.1867151 -0.21751861 0.3245211 0.15914975 0.08270453
0.37359703 0.23482509 0.21799098 0.2607466 0.2737469 0.3392832 0.19519028 0.35761476
-0.1981184 -0.28568402 0.26990002 -0.16308008 0.50377274 -0.015310695 0.28221852 0.19930677
0.14991267 0.22160031 0.18430471 0.31110814 0.2610926 0.36091813 0.28971308 0.090568475
0.2747495 0.26701933 -0.2536309 0.36802045 -0.26288056 0.32082537 -0.18393002 0.25926834
0.17650567 0.19587389 -0.28231537 0.039335795 0.22886051 0.27590373 0.43288013 0.3161078
0.18991613 1.6512542 0.42494825 0.17750771 0.197485 0.1630007 0.3806344 -0.21649621
0.24427933 0.20342563 -0.6677827 0.38827705 0.5118308 1.19261 0.31534654 0.33342755
-0.25462788 0.1731442 -0.20269282 0.18023476 0.21067263 0.1581715 0.14729893 0.18995315
0.18567161 0.67079496 0.2598726 0.3022145 0.13318887 1.6508954 0.38966003 0.1718717
0.12352357 0.38038853 0.39357617 0.3315642 -0.14679006 0.12512006 0.36613628 -0.16740929
0.2026856 0.43626228 0.31176612 0.31613094 0.32618633 0.20747793 0.5020279 0.17060968
0.15504181 0.17904654 0.22053485 -0.010324316 0.12474555 -0.30154884 -0.34990224 -0.06582847
0.3824889 0.20656514 -0.21839057 0.28359023 0.43587983 0.30018628 0.15696754 0.21208093
0.24629332 0.26992732 0.2277075 0.35510114 0.12546036 0.2882969 0.29268464 0.1474909
0.4904512 0.23260255 0.21392213 0.25030127 0.38143647 0.28051245 0.2808667 0.32625312
0.1714114 0.33661962 -0.21743062 -0.017097903 0.41376686 0.32880646 0.4746573 0.11500108
0.18586065 0.24841318 0.13102001 0.2018735 0.37588698 0.20795995 0.32715824 0.22686167
-0.20236838 0.32748628 0.28233057 0.39915624 0.24771585 0.25979465 -0.09792266 0.19216745
0.27628168 -0.28160205 0.31494662 0.24610907 1.4859167 0.23803174 0.33589536 0.10973338
0.2469226 0.15469089 0.30753306 0.15776843 0.16021697 0.001271249 0.17465176 0.2584791
0.060505956 0.11664923 0.75497967 0.21239817 -0.11378679 0.38047647 -0.21622454 0.22098994
0.35081866 -1.532695 0.32405525 0.26878628 0.32499915 0.35497305 0.31350374 0.25466752
0.28922603 -0.2559512 0.30790535 0.24428767 0.29230183 -0.13230436 -0.39101943 0.26626185
0.21405111 0.21684437 0.23860443 0.30096453 0.2645944 1.1490936 0.25389588 0.6888512
0.29586133 0.24983981 0.32045415 0.30560106 0.1882553 0.33402336 0.22284384 0.18236546
0.26016045 0.159249 0.33698532 0.12911041 0.2671275 0.21207327 -0.16683896 0.19400162
0.18276687 0.2570995 -0.1806562 0.47743216 0.28920636 0.20172845 0.25801748 0.83963305
0.23067951 0.19372593 -0.24248487 0.25550616 0.2526486 0.42489505 0.2909495 0.22091544
-0.06892897 -0.25908378 0.3226755 -0.078822024 0.2780571 0.20052157 0.40451846 0.48327723

net.4.weight f4 [27, 256]
00000000: 20cc 6a3e a71e fe3e 1980 003f 965a da3e
00000010: aa26 e13e 5855 ed3e 7d14 0e3f c9a5 fc3e
00000020: f2ce 82bf c8a6 0f3f d0f4 083f 9a3c 0e3f
00000030: acad 053f 39dd c43e 320c de3e 50ec d23e
00000040: ffd1 dc3e ab11 ee3e 8471 fa3e a98c e53e
00000050: ff0d 163f 9169 a83e d25a ec3e b70c 0c3f
00000060: 59f8 be3e 9cee e73e 688f f03e 3c6e b03e
00000070: f9f3 ab3e dce8 ce3e a420 ee3e 9df2 bb3e
00000080: 395e 143f dfe3 f93e 3dad d03e 5312 eb3e
00000090: 5f5c 023f 5084 57bd 44ae de3e c85a df3e
000000a0: ba7d ff3e 7924 c83e 9173 fc3e e5ea d43e
000000b0: 9bfd cf3e 24e1 e13e 17cc bbbd 1102 ef3e
000000c0: c239 dc3e 4ac6 d33e 6cf3 0e3f a3c5 e93e
000000d0: c27c 123f 5055 753f 0ea0 0c3f 2cf1 ee3e
000000e0: 5dcf c33e 99f6 ed3e 3ef6 f63e 8343 9b3e
000000f0: 19c1 de3e 9824 de3e 3c09 073f 1f96 d63e
00000100: 5ff7 de3e d629 72bf 6605 a63e 183d f43e
00000110: e2c5 bd3e 79e9 013f e5ca bc3e 84c1 e43e
00000120: 8374 e53e 54cf b03e 3b77 223f 9bc0 f13e
00000130: b920 113e 9fa5 0fbf 7e26 c33e 581c b93e
00000140: 2b4b 0a3f df64 c83e e76b 083f 3ad3 c93e
00000150: 2523 bd3e 20bb c53e 6408 f33e e75e e83e
00000160: 631e eb3e 3cdd 52bf 956e 0b3f 509c 953e
00000170: 6a64 ec3e 41cb 6cbf 94f8 b53e 528d 313e
00000180: 7ab6 063f 7650 9b3d afec 3d3e 99da cb3e
00000190: f439 e83e b734 b13e c879 023f f6e1 e53e
000001a0: b946 d13e effe 833e 8f34 dc3e ef5a cf3e
000001b0: c217 e23e 3e97 e13e 3e03 0dbd b7bd ec3e
000001c0: f707 cf3e 693f 073f d4d7 003f f80f 58bc
000001d0: 58c0 e13e ef1e ee3e 29cc 273f 769e f53e
000001e0: bd0e 02be 2185 8b3e 8ab0 123f 1b89 c63e
000001f0: 89b4 ac3e 2eed b93e d15c f23e 5192 d83e
00000200: 9a7a c03e ba46 c43e d529 a83e 1534 da3e
00000210: 10bf de3e 0802 f13e 4a8d 803e dd2a ba3e
00000220: e58e 8a3e 6299 003f 1b0f f53e a6b2 ec3e
00000230: 8f28 d93e e648 703e fa01 b43e b014 cf3e
00000240: e925 f33e 322c 053f bde5 013f e22d a23e
00000250: 2dda f03e 5f16 d73e b23e 3a3f d8b9 b73e
00000260: 641a bb3e 59d1 d03e 619d c03e a5dd e83e
00000270: 4c9b db3e 240c fc3e 47c9 c63e 4c71 c53e
00000280: 3927 073f acb8 c13e d853 b53e 4591 ae3e
00000290: c6a0 d73e b6b6 ee3e bec1 103f fb51 f73e
000002a0: e7be ef3e c82a eb3e 8aab cd3e bdc5 f93e
000002b0: a6ab 87bf e62c d03f dbd2 c03e 941a 953f
000002c0: c6d2 e13e d8bd 003f 4c41 d43e c81c e73e
000002d0: 1283 e13e b99a a43f e71a e13e ec1b b93e
000002e0: 82b1 e63e 22ae c83e bf5b 55bf 9edf e03e
000002f0: 626f f63e c970 6a3e 1741 0d3f 06b6 fa3e
00000300: 0568 b43e e292 683e 0a50 c73e 24f0 8e3e
00000310: 0aba f03e c496 ed3e d807 df3e 8a76 e43e
00000320: 4ea0 da3e f99e 0c3f ba15 db3e a6ac fb3e
00000330: 2dc0 f53e 2775 fb3e 0d92 003f f49c 003f
00000340: 1f1c bf3e dc5a c03e d02a e23e 609f de3e
00000350: 2286 e63e d4dd 55bf b39a d13e c03a babd
00000360: 483c de3e 3a7f dd3e 3b81 ad3e 1a61 b73e
00000370: b370 d43e 4710 bd3e 7f30 003f fddd de3e
00000380: 29f6 ab3e 1b40 013f 0491 c73e 12e1 993f
00000390: d466 973e c5c7 ef3e a602 053f d949 fe3e
000003a0: 7358 cd3e 20bc e13e 52d6 ee3e dd8b d93d
000003b0: fd86 d63e 6625 c63e c7d2 cb3e 8ae9 a4bd
000003c0: 958a c63e df5f 023f 52d9 183f 458b c33e
000003d0: 308d d23e c2bd b13e 0a01 ef3e d1e8 c03e
000003e0: d186 7c3f ab79 103f b613 c63e 0601 f53e
000003f0: 2f4a d83e 5de8 e43e f02b e13e dea8 8abd
0.2292943 0.4963276 0.5019546 0.42647237 0.4397481 0.46354175 0.5550001 0.49345234
-1.0219405 0.56113863 0.53498554 0.5556122 0.5221813 0.3845003 0.4336868 0.41195917
0.43128964 0.46497855 0.4891473 0.44833878 0.58615106 0.3289304 0.4616304 0.547069
0.3729885 0.45299232 0.4698441 0.34459102 0.33584574 0.40412033 0.46509278 0.36708537
0.5795627 0.48806664 0.4075717 0.45912418 0.509222 -0.052616417 0.4349233 0.43623948
0.4990061 0.39090326 0.4930692 0.4158546 0.40623173 0.4411708 -0.091697864 0.46681264
0.43012816 0.4136222 0.5584018 0.45658597 0.57221615 0.958333 0.54931724 0.46668375
0.38244143 0.46477202 0.48234743 0.30324945 0.43506697 0.43387294 0.52748466 0.41911408
0.43548104 -0.94595087 0.32425994 0.4770286 0.37065035 0.50746876 0.36873546 0.4467889
0.44815454 0.3453318 0.6346318 0.4721726 0.14172639 -0.5611209 0.38115305 0.36154437
0.5402095 0.3913946 0.53289646 0.39418966 0.36940876 0.38619328 0.4746734 0.45384905
0.4592162 -0.82368827 0.5446561 0.2922082 0.4617036 -0.9249764 0.35541213 0.17339066
0.5262219 0.07583706 0.18547319 0.39815214 0.45356715 0.3461053 0.50967073 0.44898957
0.4087427 0.25780436 0.4300885 0.40499064 0.4415875 0.440607 -0.03442692 0.4623849
0.40435764 0.5283113 0.5032933 -0.013187401 0.4409206 0.46507975 0.655459 0.4797246
-0.12700935 0.27250007 0.5730063 0.38776478 0.33731487 0.36313766 0.47336438 0.4229913
0.37593538 0.3833521 0.32844415 0.4261786 0.43505144 0.47071862 0.25107795 0.36360827
0.27062145 0.50234044 0.47863087 0.46230048 0.42413756 0.23465309 0.35157758 0.4044547
0.4748986 0.5202056 0.5074118 0.3167563 0.47041455 0.42009255 0.72751915 0.35883975
0.36543572 0.4078472 0.3762007 0.454816 0.4289192 0.49228013 0.38825437 0.38563
0.52794224 0.37836206 0.3541553 0.34095207 0.42114848 0.46623772 0.5654563 0.48304734
0.46825334 0.45931077 0.40169936 0.48783675 -1.0599258 1.6263702 0.3766087 1.1648736
0.4410612 0.5028968 0.41456068 0.45139146 0.4404531 1.2859718 0.43965837 0.36154115
0.45057303 0.39195353 -0.8334312 0.43920606 0.48131853 0.22894587 0.55177444 0.48966998
0.3523561 0.22712281 0.38928252 0.27917588 0.47016937 0.46404088 0.43560672 0.44621688
0.42700428 0.54930073 0.42790014 0.49155158 0.4799818 0.49112818 0.50222856 0.5023949
0.37326142 0.3756932 0.44173288 0.43480968 0.4502421 -0.8354161 0.4093834 -0.09093237
0.43405366 0.4326113 0.33887658 0.3581627 0.41492233 0.3692648 0.50074 0.4352874
0.33586243 0.5048844 0.38977826 1.2021811 0.2957064 0.468321 0.51957166 0.49665716
0.40106544 0.4408884 0.46647888 0.1062238 0.41899863 0.38700408 0.39809248 -0.080523565
0.38777605 0.5092754 0.59706604 0.38192192 0.41123343 0.34715086 0.4668048 0.37677625
0.98643214 0.5643565 0.38686913 0.47852343 0.42244098 0.4470853 0.43978834 -0.0677049

net.4.bias f4 [27]
00000000: 7085 09bd 0496 1b3e 22c7 7fbd a2be e33c
00000010: 9db2 4a3d 2bdc eb3d 5bf3 373d 8283 473e
00000020: cbad a3bd 58cc cb3e 7f71 893d f75b 0a3e
00000030: 07b6 a53a 0cc7 333e 6f15 8d3d ea26 b23d
00000040: 1031 54bd 24dd 41bd f8e8 763e 26ed 003f
00000050: 031a e23e 8eb6 453c 4d33 8d3d cdd0 063e
00000060: 7bd2 893c 9a8d 0f3e 8e64 453d
-0.03357452 0.15193945 -0.062445767 0.027800862 0.049486745 0.11516603 0.044909816 0.1948376
-0.07992133 0.3980434 0.06711101 0.13511644 0.0012642749 0.17556399 0.06888854 0.086988285
-0.051804602 -0.047330037 0.24112308 0.5036186 0.4416047 0.01206745 0.068945505 0.13165589
0.016823998 0.1401886 0.0481916
