model/dqn_policy_net_episode_90.pt (torch, 334295 bytes, 6 tensors)

net.0.weight f4 [128, 336]
000000 1e a8 f5 bc 58 e4 92 bb 70 7d c7 3c 36 40 0a bd
       -0.029987391 -0.004482787 0.024351805 -0.033752643
000010 24 db 0e be c9 ad 36 bd de 6c 6b 3d c8 cd 64 bd
       -0.13950783 -0.04459933 0.05747687 -0.05586031
000020 9b ab 6c 3d 13 30 0b bd 3c 0c f0 bb dd dc 9c bd
       0.057780843 -0.033981394 -0.007325677 -0.07659314
000030 03 9b 03 bd 3b 19 fc bc e8 64 e7 3a 31 28 6a bd
       -0.032130253 -0.03077375 0.0017653974 -0.057167236
000040 74 99 96 be b3 60 c0 bc 4c 5e 90 3d 4b 23 ec 3b
       -0.2941395 -0.02348361 0.07049236 0.0072063557
000050 57 b2 35 3e f2 aa 6d 3d d9 be 6d bd af cd 60 3d
       0.17743813 0.058024354 -0.058043335 0.054883655
000060 f0 67 93 bd a3 01 13 bd 99 0c 04 be 29 26 a3 3c
       -0.07197559 -0.035890233 -0.1289543 0.019915657
000070 fd ed c7 3d 9a 20 97 bd e4 bc 12 bd 95 16 4e 3d
       0.097621895 -0.07379265 -0.03582467 0.050314505
000080 18 ab 13 bf a1 15 fe 3d e4 22 46 3c b5 e6 9d 3d
       -0.57682943 0.12406469 0.0120932795 0.077100195
000090 d8 dd ce 3c 47 ca cc 3d 85 bb 8c 3d 3b 11 30 3d
       0.025252268 0.09999519 0.06871704 0.042985182
0000a0 c5 7d c9 bc 69 72 5f bd aa 9d 90 bd c2 d6 01 bc
       -0.024596104 -0.05455247 -0.07061322 -0.007924737
0000b0 7c 84 cb 3d 28 f5 e8 bd 0d 40 b5 bd c8 9a 4b 3d
       0.09937379 -0.11374885 -0.08850107 0.049708158
0000c0 69 57 8e be 23 96 8b bc 58 70 10 3c 5a f9 71 3d
       -0.27801064 -0.017039364 0.008815847 0.05907569
0000d0 a0 92 a8 3d 9e 62 89 3c 2b de f9 3d ec 1b 7c 3d
       0.082310915 0.016770657 0.12200578 0.061550066
0000e0 c2 fd 39 3c 67 fb ed 3c 62 91 8b bd a0 1f 1c 3c
       0.0113520045 0.029050542 -0.06814839 0.009529024
0000f0 e8 3c 07 3d 26 8f 3d bd 9e b0 7f bd 09 ff 9f 3c
       0.03301707 -0.046279095 -0.062424295 0.01953079
000100 b8 3a 0a bd 90 20 31 bd a4 9d 19 bd 36 2d 98 bd
       -0.033747405 -0.043243945 -0.037503853 -0.07430498
000110 4d c9 36 3d a7 da 72 3d 34 29 04 bd 38 0b 50 bd
       0.04462557 0.059290554 -0.032265857 -0.05079195
000120 79 5a 47 3d 5d 9e e6 bd 2b 13 bf 3d 96 92 0f 3d
       0.048670266 -0.11260674 0.09329828 0.035051905
000130 f5 41 33 bd 64 0b 60 3c cd 68 0d be 84 e7 fe 3c
       -0.043764073 0.013674591 -0.1380951 0.031116255
000140 d8 70 1b 3e aa 29 41 3d 5c da d0 bd 32 89 d5 3b
       0.15179765 0.047158875 -0.10197899 0.006516599
000150 05 07 20 bd 91 a5 8d bd ec 14 a5 bb 70 5d 0c be
       -0.039069194 -0.06916345 -0.0050378945 -0.13707519
000160 41 3c 3c 3d 85 76 a4 bd 9a 50 be 3c ad 73 df bc
       0.0459559 -0.08030418 0.023231793 -0.027276838
000170 dc 7a f1 bd bd 10 aa bd b1 41 82 3d 46 77 4d bc
       -0.11791012 -0.08303974 0.06360186 -0.012540644
000180 01 01 86 3d 80 2b d9 3c df 13 26 3d 85 78 5b ba
       0.0654316 0.02651 0.040546294 -0.0008372146
000190 8c c0 80 bd e9 40 02 3d 7f c6 81 bd 81 9d 28 3c
       -0.062867254 0.031800184 -0.06336688 0.010291458
0001a0 b4 a9 36 be e4 73 11 3d 3d 6f d1 3c d2 ea ac 3d
       -0.17838174 0.035510913 0.025565738 0.08443226
0001b0 38 d1 9f bd 09 d2 7c 3d 92 c1 88 bd 28 bc 60 3d
       -0.07803577 0.061723743 -0.066775456 0.05486694
0001c0 58 00 17 bd ab 2d ac 3d bb ae fd bd 5f 90 a3 3b
       -0.036865562 0.08407148 -0.12386843 0.0049915756
0001d0 5e f1 0d bc a8 72 0a 3c 4a 25 55 bd 52 5e 4a bd
       -0.008663503 0.008450188 -0.052037515 -0.049406357
0001e0 72 d1 2e bf 99 36 67 3d 2e 8c 11 3e 14 95 fa 3d
       -0.6828834 0.056448553 0.1421363 0.12235466
0001f0 88 c4 d3 3c b6 9f 04 bd 82 8b e0 bd c1 ea fc 3d
       0.02585055 -0.032378875 -0.10964109 0.12349463
000200 e6 44 32 3d 3f 6d c9 bd 61 36 fd bd ec 66 59 3c
       0.043522738 -0.0983529 -0.123638876 0.013269167
000210 81 00 85 bc 8a 89 9b 3d db 74 a8 bd d9 1e b9 bc
       -0.016235592 0.07594593 -0.082254134 -0.022597717
000220 24 f8 c7 be f4 d2 b5 bd 18 e8 16 3e a0 71 20 bd
       -0.39056504 -0.08878127 0.14736974 -0.03917086
000230 56 fb c9 3d 6d 46 6c 3d e9 41 0f 3d 69 07 8c 3d
       0.09862392 0.05768435 0.034974966 0.06837351
000240 bc 49 58 3e 5f c7 e8 3c 1c a2 1b 3d 4a a1 a9 bd
       0.21121877 0.02841538 0.037996396 -0.082827166
000250 75 fb d1 3c d5 a5 80 bd 58 ba 43 be fb 57 ac bc
       0.0256326 -0.0628163 -0.19114053 -0.021038046
000260 6a ef 32 3d 28 51 c2 3d d0 4c 0b 3d 7b cc 21 bd
       0.043685354 0.094881356 0.0340088 -0.03950165
000270 a1 92 31 bc 63 be b6 3d ca 47 27 bd 77 7c cb bc
       -0.010838182 0.08923032 -0.040839948 -0.024839623
000280 a2 66 d2 3d de bf ea bd 29 65 0a 3e 35 6d 03 bd
       0.10273482 -0.11462377 0.13515152 -0.03208657
000290 7c 6b 70 bc 4d b8 d2 3c af 97 66 bd 0b 2e e6 bc
       -0.014674064 0.025722647 -0.056297 -0.028098127
0002a0 2c a2 8d 3e b6 d8 da bc e0 3a 14 be 11 46 c4 bd
       0.2766279 -0.026714664 -0.14475584 -0.095836766
0002b0 92 50 05 bd e9 1c 0c bc 3e d5 5d 3c 97 bf 82 bd
       -0.03254754 -0.008551815 0.01353961 -0.06384199
0002c0 e8 09 92 3e 02 6c d7 3c 4f 6b 03 3d 75 b8 1a be
       0.28523183 0.02629662 0.03208476 -0.15109427
0002d0 a9 a4 6b bd 60 2a a5 bd 1a 4b 6e bc 4e 26 65 bd
       -0.05753008 -0.08064723 -0.014544273 -0.055944733
0002e0 2a b4 9b 3e bc 9c b1 3d f9 78 05 be e3 20 20 3c
       0.30410892 0.08672473 -0.13034429 0.009773466
0002f0 8d d5 67 bd 63 83 cd 3c b2 03 f6 bc 41 13 12 ba
       -0.056600142 0.025087064 -0.030031059 -0.0005572327
000300 f6 37 77 3e 5a d3 21 3e 2e 62 16 bb d1 6e 6e ba
       0.24142441 0.1580328 -0.0022946703 -0.00090954924
000310 29 e8 74 be 14 22 26 3d cd 0d 18 bd 51 b5 ac 3d
       -0.23916687 0.040559843 -0.037122536 0.08433021
000320 c0 34 93 3e a8 a0 52 bb d7 b3 c5 bd 2f f5 9e bd
       0.28751183 -0.0032139216 -0.09653442 -0.07761609
000330 81 26 2f bd 51 5f ce bd 23 3d 0d 3c b0 72 21 3d
       -0.04276133 -0.10076774 0.008620533 0.039416015
000340 a7 57 5f bd 3d 9f 26 3d f6 fe d2 3d 20 c0 88 3d
       -0.05452695 0.040679205 0.10302536 0.0667727
000350 db 1a ab bd 25 ff bb 3c 9f d8 c9 bd 53 9b 6f 3d
       -0.08354732 0.02294881 -0.0985577 0.058497738
000360 fc 10 a6 3e 9a 05 3e be a3 f3 0d 3d 59 db ac bd
       0.32434833 -0.18556824 0.03465618 -0.08440275
000370 b6 03 63 3c 9a ea 9c bd 0c 53 88 3d 7c df 23 bb
       0.013855865 -0.07661934 0.06656465 -0.0025005033
000380 97 02 02 be 7c 5e 2a 3e 6e 04 c0 3d 10 aa b0 3d
       -0.126963 0.16637605 0.09375845 0.08626187
000390 34 51 a9 bd 85 57 61 3b d2 55 f3 bd a4 54 9f 3d
       -0.082674414 0.003438444 -0.11881603 0.07779816
0003a0 be 39 e6 3e 82 8e 86 bb b7 b7 e4 3c f7 94 1f bd
       0.4496593 -0.0041063437 0.027919633 -0.038960423
0003b0 44 45 88 3b 33 e5 06 bc 60 02 2f bd 43 1c 05 3d
       0.0041586477 -0.008233356 -0.042726874 0.032497656
0003c0 e0 10 8b 3e cf 93 f1 3d 11 3a 52 3d e0 f8 08 3d
       0.27161312 0.117957704 0.051324908 0.03344047
0003d0 33 a0 c7 3d 81 f7 59 bd 57 2e b4 bd af 73 6b bb
       0.097473525 -0.053214554 -0.08797901 -0.0035927107
0003e0 9c 66 8a be 7e 6e 9f 3d 71 5e 94 3d 29 94 f2 3d
       -0.2703141 0.077847466 0.07244576 0.118446656
0003f0 6d aa 94 bd 4e cd 73 bc 52 d7 41 bb fe 40 3a 3e
       -0.07259069 -0.014880491 -0.0029577804 0.18188855

net.0.bias f4 [128]
000000 bf 9a 8b 3d 53 43 d8 3d 29 14 bb 3c af ac 24 3d
       0.06816625 0.10559716 0.022836762 0.040203746
000010 4f 56 f8 3c 10 aa b6 3c 70 b0 bf 3d 7c 8b c2 3d
       0.030314593 0.022297889 0.09359825 0.09499261
000020 92 73 e5 3a 96 d7 cf 3d 25 18 ca 3d ab 3a 8d 3d
       0.0017505756 0.10148542 0.098678865 0.06895956
000030 c7 da 26 3d 2a 64 58 3d e4 7b 8c 3d a8 98 4d 3d
       0.040735986 0.0528299 0.06859568 0.050194412
000040 7a 2e 0a 3d aa 3c 02 3e 2f 81 b6 3d e1 c5 91 3d
       0.03373573 0.12718454 0.089113586 0.071178205
000050 df 2d c9 3c 9e a8 22 bb c6 d1 12 3d 73 18 d6 3c
       0.024558006 -0.0024819742 0.035844587 0.026134705
000060 2d 95 cf 3d 11 23 dc 3d c1 f3 9b 3d 3a 9c 4d 3c
       0.10135875 0.10748876 0.07614852 0.012549454
000070 39 fe 95 3d f3 19 95 3d d3 32 23 3d 3a e9 13 3d
       0.0732388 0.0728034 0.03984339 0.036111094
000080 d8 97 92 3d 18 02 21 3d 8b 4f 28 3d 08 99 f8 3c
       0.07157868 0.039308637 0.041091483 0.030346408
000090 c5 24 62 3d f6 f2 be 3d 08 3d ae 3d 4e cb bd 3d
       0.055210847 0.09323685 0.085077345 0.09267293
0000a0 2e b5 8b 3d e7 71 7a 3d 02 22 5f 3d 0a b3 a2 3d
       0.06821667 0.061143782 0.05447579 0.07944305
0000b0 9d 71 97 3d fa 61 f3 3d 9d c2 ab 3d 47 0e d2 3d
       0.07394717 0.11883922 0.08386729 0.102566294
0000c0 4c ee 35 3d f8 29 18 3d f9 9a 7c 3c 6f 80 bf 3d
       0.04441671 0.0371494 0.015417808 0.09350669
0000d0 52 8c 7d 3c 07 c2 51 3d bd d1 bd 3d f0 59 9e 3d
       0.0154753495 0.05121043 0.0926852 0.07731998
0000e0 f3 d7 af 3d 74 71 a4 3d 8e 6d 8f 3d ab 64 6a 3c
       0.08586111 0.08029452 0.07003318 0.014306228
0000f0 5a 60 f6 3d 2a ad 84 3d 8a 2a 0d 3d a9 0e 43 3d
       0.12030096 0.06478341 0.034464397 0.047621403
000100 06 9c d4 3d 81 ae e5 3d e3 fc 01 3e c6 cd 9e 3d
       0.103813216 0.112149246 0.12694125 0.07754092
000110 cb 3c 04 3d fb c4 b1 3c d3 90 bf 3d 62 d7 bf 3d
       0.03228454 0.021700373 0.09353795 0.09367253
000120 89 6d 92 3d 2d 71 c7 3d a2 19 68 3d 9d 96 6d 3d
       0.071497984 0.097383834 0.05666507 0.058004964
000130 9c 7d b7 3d f0 b1 b4 3d 57 81 f4 3d 67 73 7c 3d
       0.08959505 0.088230014 0.11938732 0.061633494
000140 d7 84 f2 3c 2e 5d 31 3e 50 e3 b2 3d fc 0d 8b 3d
       0.029604359 0.17320701 0.08734763 0.06789777
000150 19 56 8d 3d 5c fc df 3d c0 fd 00 3e b1 8d be 3a
       0.069011874 0.109368056 0.12596798 0.0014538077
000160 a5 36 7e 3d f0 18 30 3d ef 96 f6 3d 1b 82 8b 3d
       0.06206383 0.042992532 0.12040507 0.06811925
000170 37 60 b6 3d 33 85 04 3c 21 22 53 3d f7 f0 13 3d
       0.0890507 0.008088398 0.05154622 0.036118474
000180 c3 28 93 3b f0 94 a5 3d 24 34 44 3d 04 83 c3 3c
       0.004490943 0.08085048 0.047901288 0.023866184
000190 2f fa ef 3d b7 23 ef 3d 0c b8 3e 3c c7 47 b3 3d
       0.117176406 0.11676734 0.01164056 0.08753925
0001a0 ee 2c 90 3d 53 7b 47 3d af 3d 1e 3d af 7c f9 3c
       0.0703982 0.048701596 0.038633045 0.030454962
0001b0 a0 4a c6 3d ff 91 ba 3d 28 4b 92 3c ed cd 83 3d
       0.09682202 0.09109878 0.017858103 0.064357616
0001c0 c3 c9 c3 3c 69 7a a5 3d bb 11 ac 3d 73 ba f0 3c
       0.023899918 0.080799885 0.08401819 0.02938578
0001d0 f3 3d 3b bc 2f eb c3 3c 62 82 d2 3c 8b 3b dd 3d
       -0.011428344 0.023915855 0.025696937 0.108023725
0001e0 2a 0c aa 3d a7 7b ad 3d 73 e8 9c 3d 19 e0 fd 3d
       0.08303101 0.084708504 0.07661524 0.12396259
0001f0 62 b0 88 3d db d4 79 3c 67 3a 53 3d 85 ce 94 3c
       0.06674267 0.015248503 0.05156937 0.018164882

net.2.weight f4 [256, 128]
000000 45 43 97 3e 75 8a 17 3e ab 07 9f 3e 13 57 6b 3e
       0.2954351 0.14798911 0.31060538 0.22982435
000010 3b 85 5d 3d 27 31 8c 3d ae cf b6 3e d1 00 0c 3f
       0.054082137 0.068453126 0.35705322 0.54688746
000020 8f 79 cf 3e 39 95 83 3e ff 19 e5 3e a1 69 43 3e
       0.4052243 0.25699785 0.44746396 0.19083263
000030 1f 7a 2c 3e eb 13 1d 3e 0a 1d 35 be c0 5d ce 3e
       0.1684346 0.1533963 -0.17686859 0.403059
000040 5c 65 a2 3e 3e b6 22 bd 85 48 28 3e 4d a0 0f 3f
       0.31717956 -0.03972458 0.16433914 0.56103975
000050 40 91 34 bd 99 10 3e 3f 4a c5 83 3d a9 ad 87 3d
       -0.044083834 0.74244076 0.06434114 0.0662492
000060 eb 88 2d 3e 45 e0 38 3d 33 e7 5a 3e c5 40 3c bd
       0.16946761 0.045135755 0.21377258 -0.045960207
000070 fd 15 ae 3d 60 ed 83 3d 76 9c 23 3e c4 c8 6c 3d
       0.08500288 0.0644176 0.15977654 0.057808653
000080 f1 43 c7 3e 0e b6 87 3e 8d e3 d2 3d a9 54 d8 3e
       0.38919023 0.26506084 0.10297308 0.4225209
000090 99 bc d0 3d 8b 8c a8 3e a9 5c 24 3e da 83 0e 3e
       0.10192222 0.32919726 0.16050972 0.13917485
0000a0 a7 33 23 bd 04 56 94 3e 63 3e 8b 3e 6b ea df bc
       -0.03984418 0.28971875 0.27196035 -0.027333459
0000b0 bd eb 14 3e 5b 9d 6e 3c 36 03 55 3e 11 fb 37 3e
       0.14543052 0.014563884 0.20802006 0.17966868
0000c0 62 db 4a 3e 3f 7f 59 3e 31 3f 8b 3e 09 62 59 3e
       0.1981025 0.21239947 0.2719665 0.21228804
0000d0 36 09 46 3e b5 94 a6 3e e1 d7 2f 3e 7b 31 90 3d
       0.19339451 0.3253533 0.17172195 0.07040688
0000e0 07 c1 4f be 8e a2 8c bd bb 15 8d 3e 9c 39 72 3d
       -0.20288478 -0.06866942 0.27555642 0.05913697
0000f0 52 92 ec 3d 4a 52 07 3e 66 3b 72 3e 9d f6 2d 3e
       0.11551346 0.13214985 0.23655471 0.16988607
000100 f0 96 03 3e a8 f4 d7 3e 95 c0 06 3f 30 d1 74 3e
       0.12850547 0.42178845 0.52637607 0.23907924
000110 0f f8 e9 3e 07 2e 45 3e 82 85 90 3d f4 4c 89 bc
       0.45697066 0.1925584 0.070567146 -0.016760327
000120 a0 c3 6d bd 70 17 75 3e c6 56 88 3e 73 7c cc 3d
       -0.05804789 0.23934722 0.26628703 0.09984674
000130 6d bd d1 3d 81 ec 12 bc 39 f0 49 3e 6a 3d 31 3e
       0.10241208 -0.00896752 0.19720544 0.17308584
000140 5a 5e dc 3e 02 16 6d 3e 03 6e 72 bb 26 4b c7 3d
       0.43040735 0.23152927 -0.0036991842 0.0973113
000150 ec 29 a8 bd 8a 74 9c bd 86 23 df 3e 2a 6d a9 3e
       -0.08211121 -0.076394156 0.4358179 0.33091098
000160 7f e8 fa bd f4 e8 90 3d 3a fc 68 3e f3 80 85 3e
       -0.12251376 0.07075682 0.22752467 0.26074943
000170 dc 19 d5 3e 6e 85 f0 3e 8a ee 8e 3e d5 fa b5 3e
       0.41621292 0.469768 0.27916366 0.35542932
000180 dd 95 be 3e 82 17 7e be c5 eb 41 3e 36 3d 5d be
       0.37223712 -0.24813655 0.18937595 -0.21605381
000190 c5 ff 98 3c f7 e9 d0 bc a4 4f 8f 3e 34 78 16 3e
       0.018676648 -0.025502188 0.27990448 0.14694291
0001a0 73 b6 9a 3e 2f ea ff 3d 60 fd 9e 3e 41 93 b4 3d
       0.30217323 0.12495839 0.31052685 0.08817149
0001b0 ea 9f 90 3e 88 ad 44 3e 91 d5 fc 3b 5c 97 b4 3e
       0.28247005 0.19206822 0.007715889 0.35271728
0001c0 75 16 65 3e bd 80 ec 3d 79 d7 9e 3e 4d 36 95 3e
       0.22371848 0.115479924 0.31023768 0.2914299
0001d0 9d 16 1f 3f d7 d3 33 3e d3 11 cf bd 8a 70 4b 3e
       0.6214388 0.17561279 -0.101108216 0.19867149
0001e0 9a 9b ba bd 0b cf cd bc ac c4 71 3e c4 f3 37 3e
       -0.0911171 -0.02512314 0.2361018 0.17964083
0001f0 ac 9f ff 3e 23 a7 79 3d f9 dc 50 3e 4d 5d 9a 3e
       0.49926507 0.06095041 0.20396794 0.30149308
000200 63 dc 45 3f 9e db 0d 3e 1b 75 c9 3e 6d 7d 92 bd
       0.7728941 0.13853309 0.39347157 -0.07152829
000210 c6 62 57 3e c4 5d b4 3e 76 49 6b be 4b e4 61 3e
       0.21033773 0.35227787 -0.22977242 0.22059743
000220 7a 83 8c bc 5f 32 2d 3d 56 2f 9d bd fe 62 bc 3c
       -0.017152537 0.042284366 -0.07675044 0.022996422
000230 d9 a0 6b 3e bb ea bd 3e 8a d3 dd 3e a6 bf 65 3c
       0.23010577 0.37093148 0.43325454 0.014022743
000240 2a 5f f2 3d 32 e9 ee 3e d6 db 08 3e a4 58 a0 be
       0.11834557 0.4666229 0.13365111 -0.31317627
000250 03 17 1e 3f 46 fe cb 3d 40 95 c9 3e b3 dd ca 3e
       0.61753863 0.09960608 0.3937168 0.39622268
000260 cd c0 8e 3e b8 fb 84 3e d4 fe d5 3e c2 4c 4f 3e
       0.2788147 0.25973296 0.4179598 0.20244125
000270 c3 1b ab 3d 1a 1a 89 3e ba ce 18 3e f2 15 5b 3f
       0.083549045 0.26777726 0.1492261 0.8558036
000280 55 39 76 bd e0 8e 9c 3e 50 ce 61 3e 6f fd 81 bd
       -0.06011327 0.30577755 0.22051358 -0.06347167
000290 28 0d cb 3e 7d 13 13 3f e9 79 e9 3e d4 bb 9f 3e
       0.39658475 0.5745161 0.45600823 0.3119799
0002a0 69 29 0d be 41 47 31 3e ae 10 91 3e 3c 5d d5 3e
       -0.13785328 0.17312337 0.28333038 0.41672695
0002b0 59 cb 70 3e 04 c2 a8 3e 04 e2 65 3e 8a 40 13 3f
       0.23515071 0.32960522 0.224495 0.57520354
0002c0 4a dd 8b 3e dc 34 10 3e f1 e1 5c 3a f1 fd 52 3e
       0.27317268 0.14082664 0.0008426002 0.20604683
0002d0 69 32 be 3e df 10 20 3e b1 83 4e 3e 6d d3 97 3e
       0.37147835 0.15631436 0.20167424 0.29653493
0002e0 39 dc 0e 3f 85 53 b2 bd 4d 92 31 3d da ca b3 3e
       0.55804783 -0.08707336 0.043352414 0.351157
0002f0 91 ff 28 3e e3 da 3a 3e bf 62 2a 3b b2 b3 a0 3e
       0.16503741 0.18247561 0.0025998799 0.31387097
000300 c6 6e 8c 3d 6d ac 57 3c 25 6c fd 3e 95 a6 ef 3d
       0.06857066 0.013163668 0.4949657 0.11701695
000310 66 03 f9 3d 66 3d db bd 9b c2 03 3f df 49 eb 3e
       0.12158851 -0.1070507 0.5146882 0.45954797
000320 58 fc 04 3f be 78 e9 3c e8 d8 6f bd 13 4f 9f 3e
       0.51947546 0.028499957 -0.058556467 0.31115016
000330 95 88 c9 3e 0f 3a 99 3e d9 37 77 3e cc 45 45 3e
       0.39362016 0.29927108 0.24142398 0.19264907
000340 08 85 6f 3e e5 c5 86 be e9 63 69 3e b0 03 56 3e
       0.23390591 -0.26322857 0.22792019 0.20899844
000350 ef a8 16 3f 05 99 4c 3e 42 e4 e8 bd e5 6e 6b 3e
       0.5885152 0.19980247 -0.11371662 0.22991522
000360 97 f0 f1 3e c9 c2 ae 3e ce 21 88 3d 9c 7c 53 3e
       0.47253868 0.34132984 0.06647073 0.20653003
000370 af 1c 05 be f4 dd c5 be 2e af ef bc b3 79 31 3d
       -0.12999223 -0.386459 -0.029258337 0.043328952
000380 d3 af dd bd a1 f3 26 3f 1d 01 2c 3e a2 8d e9 3e
       -0.108245514 0.652155 0.167973 0.4561587
000390 22 cf 0d 3f 2a 48 35 3e 14 27 dc 3e 7b ed e2 ba
       0.55394185 0.1770331 0.42998564 -0.0017313206
0003a0 a7 4f 3a 3e a4 df ea bb a4 37 8f 3d 09 5b bf 3e
       0.18194447 -0.0071677733 0.069930345 0.37374142
0003b0 99 44 66 3c e6 cb 9b 3d 70 60 c9 3e 9d 59 cd 3b
       0.014054441 0.0760725 0.39331388 0.0062667863
0003c0 e3 8a 95 3d ee 63 9a 3e fe 5b a6 3d d8 20 55 3a
       0.07301881 0.30154365 0.08123015 0.0008130199
0003d0 ff c8 fd be 3f 13 0f 3e fe 26 17 be b3 19 bd 3e
       -0.4956741 0.13972186 -0.14760968 0.3693367
0003e0 e8 28 0d 3f 06 0d 7b 3e 99 f9 54 3e 8e f2 3d 3e
       0.55140543 0.24516687 0.20798339 0.18549559
0003f0 cd 75 8d 3e 4d 14 87 3e 25 46 a2 3e 88 ea e1 3e
       0.27628937 0.26382676 0.3169414 0.44124246

net.2.bias f4 [256]
000000 8e ad d4 3d 62 09 c3 3d 4f ad 19 bd 2f 2c 5a 3c
       0.103846654 0.09523274 -0.037518796 0.013316198
000010 02 9d 0b 3d e3 77 e9 3d ed b5 df bd 6c 5d 90 3d
       0.03408528 0.1139982 -0.109233715 0.07049069
000020 a0 e6 31 3f 6f 6b 46 bc 96 76 8d bc 10 09 3d 3d
       0.6949253 -0.012110575 -0.01726846 0.04615122
000030 df 21 9b 3d 44 4e b7 3a 4a 46 03 bc 4c c5 07 bd
       0.0757482 0.0013985117 -0.008012364 -0.03314714
000040 43 80 43 3d b1 f3 58 ba 80 d5 08 bd c9 53 84 bc
       0.04772974 -0.0008276059 -0.033406734 -0.016153233
000050 ad 5b 4c bd 8a 1f 74 3d a3 a9 8d bd 3b 70 ce bd
       -0.049892116 0.05960039 -0.06917121 -0.1008
000060 df e3 36 3e b7 c9 b5 3c b4 03 eb bc 00 84 81 bc
       0.17860363 0.022190912 -0.02868829 -0.015810013
000070 27 87 14 3e 81 c1 7b 3d 8b 1b 3a bd 40 c5 a6 3d
       0.14504682 0.061463837 -0.045436423 0.08143091
000080 e1 73 3b bd 66 c3 b1 bd e1 f1 65 ba 0d 4c 33 3d
       -0.045764808 -0.086798474 -0.00087716995 0.0437737
000090 b6 2f 41 3d b6 d9 7a bc 8c 6f 13 3d 52 61 1c bd
       0.04716464 -0.015310695 0.03599505 -0.03817875
0000a0 bd d9 87 bd 79 44 3d bc 0a 04 f8 bc 8d 03 c5 3d
       -0.06633327 -0.01155197 -0.030275363 0.09619818
0000b0 7f f4 97 3b 66 c9 f7 3d 58 67 9b 3d 14 ed 03 bc
       0.0046373005 0.120989606 0.07588071 -0.008052129
0000c0 5a 3d c9 3b a9 ce 40 3d 95 fd 9c bd a8 a9 cd 3d
       0.006141347 0.047072086 -0.076655544 0.10042125
0000d0 2b 93 89 bd e9 48 02 3e cb c0 5f bd 9d 37 51 3d
       -0.06717523 0.12723126 -0.05462722 0.051078428
0000e0 2f a0 a0 bd c0 76 51 bd a9 e1 be bd 3a 77 5b bc
       -0.078430526 -0.05113864 -0.09320385 -0.013395125
0000f0 78 c3 66 bc fc 8c 66 bb 0a 7f 73 3e 7a 02 89 3d
       -0.014084689 -0.0035179248 0.2377893 0.066899255
000100 8c 5b 76 bc 11 6c 29 3f cb 72 20 3e ba 43 88 bd
       -0.015036475 0.6618052 0.1566879 -0.06653543
000110 e9 12 59 bd 33 59 65 bd 57 2c d4 3d 5a 06 cd bd
       -0.05299655 -0.05599327 0.1036002 -0.10010977
000120 69 0d cb 3b c6 bc 4c bd 58 50 08 be 4a 4c f2 3d
       0.006196667 -0.049984716 -0.13311899 0.11830957
000130 ce eb 04 3e ec e0 a7 3e bb e3 8e 3d f4 8b 9d 3d
       0.12980577 0.3278879 0.0697703 0.076927096
000140 19 0e 49 bd 71 d0 61 3d 3b b1 2a bb 42 94 7c bd
       -0.04908571 0.055130426 -0.002604558 -0.061664827
000150 b9 27 a1 bd 81 36 73 bd 3f fa 16 bd be f9 48 bd
       -0.078689046 -0.05937815 -0.036859747 -0.049066298
000160 b9 5a c6 bc c9 6b da 3d 8b a1 af 3d e3 ca 34 3d
       -0.024213182 0.1066509 0.08575734 0.0441388
000170 66 4b 55 bd 20 d6 18 3f 09 1e 19 3e 93 0b 96 bd
       -0.05207386 0.5970173 0.14952864 -0.07326426
000180 81 e5 f4 3c 31 fb 42 3d cf a4 aa 3d b9 bd 7d 3d
       0.029894592 0.047602836 0.08332216 0.06194851
000190 dc 08 2d 3c 46 93 ad 3d d2 63 56 3e f4 30 06 3d
       0.010561194 0.08475356 0.20936516 0.03276153
0001a0 25 44 5c bd 5d 2a 2d 3e f2 e1 07 3d d6 cd bf 3d
       -0.053775925 0.16910692 0.033174463 0.09365432
0001b0 91 95 9c 3d a2 61 52 bd 60 94 21 3e ae 27 29 bd
       0.07645715 -0.05136264 0.15779257 -0.041297607
0001c0 4f d2 a4 bd 25 04 33 bd 21 63 11 3b 62 67 ea bb
       -0.08047926 -0.043705124 0.002218433 -0.0071534375
0001d0 66 4a c3 bd a2 ff ca bd dd f7 3d be eb a1 fc bd
       -0.09535675 -0.09912039 -0.18551584 -0.12335571
0001e0 91 1d 88 3d 7f 3f f0 3d d0 18 07 bd fa 4e 24 3d
       0.06646264 0.11730861 -0.032982647 0.04011438
0001f0 25 8d 2b 3e 6a 9e 85 3d ec 41 b7 bd 72 38 f6 bc
       0.16753061 0.06524356 -0.089481205 -0.030056212
000200 f0 4d 04 bd 8d 07 db 3c 5c 29 2c bd c1 24 ac 3d
       -0.03230089 0.026736999 -0.04203163 0.08405448
000210 24 59 a9 bd 33 4a 80 3d 34 5d db 3c 1e 28 96 bd
       -0.08268955 0.062641524 0.026777841 -0.073318705
000220 11 10 82 3e ae be ca bc bd df 94 bc 41 bc 71 3c
       0.25402883 -0.024749126 -0.018173093 0.014754356
000230 2e 6c 12 3e 9c 4d 26 3e 2a bf 8a 3c 57 67 1c 3d
       0.1429908 0.16240543 0.016936857 0.03818449
000240 17 99 23 bd 9f 03 b8 3d fc ad 14 bd 52 3a ed bd
       -0.03994092 0.08985066 -0.036298737 -0.11583389
000250 c6 c3 c2 3d 88 ba b9 3d df 08 1e 3e df 31 f7 bd
       0.09509997 0.09068781 0.15433072 -0.12070059
000260 d0 51 0f bd 4e bb e1 3a d1 e3 cc bd 6f 76 3f 3a
       -0.03499013 0.0017221959 -0.1000439 0.000730372
000270 88 1c fa 3d dc a2 42 bd 91 3f e0 3d 39 7e 2e 3c
       0.12212473 -0.047518596 0.10949624 0.010650211
000280 7c 45 5b bc 58 52 5a 3d dc 9a 10 bc 84 a3 05 3e
       -0.013383266 0.053301185 -0.008825984 0.13050658
000290 e9 fc 07 3c 1e 4e 34 3d d2 8f a9 3b 4b a2 57 bd
       0.008300045 0.04401981 0.0051746154 -0.05264501
0002a0 1e 77 88 3c 67 5a ac bd 38 0c 54 3d 59 c6 04 3d
       0.016658362 -0.084156804 0.051769465 0.03241572
0002b0 2a ef 0d 3f eb c3 fd 3d 63 da b7 3d ad 1a ec 3c
       0.5544306 0.12390884 0.08977201 0.028821314
0002c0 da 32 c6 bc 16 19 64 bd fe e0 85 3d 32 ec b2 bd
       -0.02419417 -0.055687986 0.065370545 -0.08736457
0002d0 25 19 bf bd 4a f5 17 bd 66 87 4a 3d 56 de 35 3c
       -0.09330968 -0.03709916 0.049445532 0.011100372
0002e0 31 af 13 be e4 43 e0 bd 93 25 f9 3d db ce 34 bc
       -0.14422299 -0.10950449 0.1216537 -0.011035646
0002f0 97 50 1a 3d 21 21 84 3e e8 7b b7 bd 30 13 4c 3c
       0.037674513 0.25806525 -0.0895918 0.0124557465
000300 ab d1 b9 3d 10 c2 26 bf 02 ec ad 3d 13 b9 ea 3d
       0.09073194 -0.65139866 0.084922805 0.11461081
000310 24 77 b7 3d 52 a3 08 3e ab 61 4d 3d a3 24 09 3c
       0.08958271 0.13343552 0.05014197 0.008370551
000320 9a df f0 3b a2 f1 1d be 5c c4 6b 3d af df 48 3d
       0.007350874 -0.15424207 0.05756031 0.049041446
000330 60 43 5a 3d 4e 20 b5 3d bb 5d ec 3a 01 37 4f 3d
       0.05328691 0.08844052 0.0018033305 0.050589565
000340 f8 78 a4 bc 4b e1 00 bd 60 ca c9 bc 37 f2 08 3d
       -0.020077214 -0.031464856 -0.024632633 0.03343412
000350 cb a3 0d 3d 8a 1e 81 3e 9d 57 90 bc 89 91 38 3e
       0.034580033 0.25218612 -0.017619902 0.18024267
000360 c7 9a 4c 3d ed 4b 14 bc e4 e2 1d 3d 12 06 a4 3c
       0.049952295 -0.009051305 0.038546458 0.020022426
000370 11 9b e0 bc 62 8f 43 3d 58 f3 f8 3b 9b 3d ad bd
       -0.027417691 0.047744162 0.007597368 -0.08459016
000380 f8 87 22 bb df 79 86 bd 75 15 8d 3d 41 59 00 3d
       -0.0024800282 -0.06566214 0.06888858 0.03133512
000390 7a 51 c2 bc fc 12 cf ba 79 33 a1 bc c7 2f 44 bd
       -0.023720492 -0.0015798504 -0.019677864 -0.047897127
0003a0 e5 da 1a bd 83 8c 11 3d 6d 14 c0 3c 6e 5e 86 3d
       -0.03780641 0.035534393 0.02344724 0.0656098
0003b0 4d 00 32 3e 8e d3 89 bd ac 34 93 3b a2 be b8 3d
       0.17382927 -0.06729804 0.004492363 0.09020735
0003c0 7c f3 30 3c f0 ab 05 bd 1c d0 8c bd 6b f0 99 3a
       0.010800239 -0.032634676 -0.06875631 0.0011744624
0003d0 ed 43 92 3c 48 03 20 3e f0 fc 86 3d 3d 67 52 bc
       0.017854655 0.15626252 0.06591213 -0.012841997
0003e0 9b 22 a4 3c 70 62 9d bd 76 12 8b 3d 2b 97 08 be
       0.020036032 -0.07684791 0.067906305 -0.13338916
0003f0 10 31 d5 3b 68 b7 6a bd ae 05 1c 3e eb 13 1e 3e
       0.006506093 -0.057303816 0.15236542 0.15437286

net.4.weight f4 [27, 256]
000000 64 58 1d 3d e2 c5 f7 3d 64 37 29 3e 75 d6 e8 3d
       0.038414374 0.1209829 0.16525036 0.113690294
000010 52 3c 1d 3e ef f5 39 3e dc 54 19 3e b5 c5 30 3e
       0.15355042 0.18160222 0.14973778 0.17262919
000020 9d 55 f8 be 39 28 1f 3e 15 3f 08 3e 77 86 07 3d
       -0.48502818 0.15542687 0.13305314 0.03308722
000030 70 51 51 3e 98 c3 93 3d ac 5d ff 3d 50 1e ed 3d
       0.20441222 0.07215041 0.12469038 0.11578047
000040 38 d5 0d 3e 1a 91 3c 3e 9b 5a ac 3d 5f 72 21 3e
       0.13850868 0.18414727 0.08415719 0.15766285
000050 dc b7 35 3e 0f 52 7c 3d 39 d7 29 3e 44 80 43 3e
       0.17745918 0.061601695 0.16586007 0.19091898
000060 c9 b5 56 bc 5c 2d 0b 3e 46 cd 30 3e fa 3e a4 3d
       -0.013104864 0.13591522 0.17265806 0.08019824
000070 e6 1f 09 3e 67 2b fe 3d ba ea 2d 3e a8 c6 56 3d
       0.13391075 0.12410622 0.16984072 0.052435547
000080 cf 67 4b 3e 54 82 a9 3d 09 f1 f8 3d 22 fe 9a 3d
       0.19863819 0.08276811 0.12155349 0.07568003
000090 d5 a5 94 3e 50 84 57 bd 96 c1 08 3e 58 59 72 3c
       0.2903277 -0.052616417 0.13355097 0.014791809
0000a0 f7 28 38 3e b7 f2 a5 3d 3d 8a 20 3e 2d 07 ca 3d
       0.17984377 0.08102935 0.15677734 0.0986465
0000b0 c7 30 e1 3d 0f 20 07 3e b2 2c df 38 46 0c 1f 3e
       0.10995632 0.13195823 0.00010641794 0.15532026
0000c0 4a ae 08 3e e3 f1 cd 3d 81 f6 2d 3e 30 aa 2b 3e
       0.13347736 0.10055902 0.16988565 0.1676414
0000d0 7f 19 26 3e a0 de d2 3e b9 a3 2c 3e fd 8d 02 3e
       0.16220663 0.41185474 0.1685933 0.12749477
0000e0 a2 3e a9 3d 17 d1 1f 3e 38 c9 c0 3d 65 aa 64 3d
       0.082638994 0.15607105 0.094133794 0.055826563
0000f0 74 5f f0 3d f4 39 12 3e 08 92 08 3e bf ad 06 3e
       0.11736956 0.1427992 0.13336957 0.13152216
000100 92 8d fd 3d ce 96 d1 be c9 ea a5 3d 3d d6 22 3e
       0.12380518 -0.40935367 0.08101422 0.15902038
000110 e6 54 65 3d bc ed 32 3e 43 67 f1 3d cf 0a 37 3d
       0.05598917 0.17473501 0.11787274 0.044688042
000120 85 31 ea 3d a5 d1 8d 3d 92 69 48 3e 2c d8 48 3e
       0.11435226 0.06924752 0.19571522 0.19613713
000130 42 f3 58 3c 56 13 59 bd e3 f7 f8 3d b3 9f a9 3d
       0.013241591 -0.052996956 0.12156656 0.08282413
000140 4e 5d 1a 3e 97 66 17 3e 4a 37 ef 3d b5 ab a4 3d
       0.15074655 0.14785229 0.116804674 0.08040563
000150 b8 42 d3 3d 99 fd 88 3d b6 53 07 3e f2 14 0d 3e
       0.1031546 0.06688995 0.13215527 0.13777521
000160 76 b4 0d 3e 08 e3 3a be 5b c2 49 3e 6e 8b d7 3d
       0.13838372 -0.18250668 0.19703047 0.10524641
000170 f4 1c 01 3e 9c 2f c4 be 3b 97 e4 3d 3b de bb bd
       0.12608701 -0.38317573 0.111616574 -0.091732465
000180 a9 43 1f 3e 45 fa a3 bd d0 c9 c0 3d a4 82 d0 3d
       0.15553154 -0.080067195 0.09413493 0.10181168
000190 ec a6 9c 3d 23 c8 d9 bc 2c 93 04 3d 20 47 83 3d
       0.07649025 -0.02658469 0.032366917 0.064100504
0001a0 e2 34 d8 3d 70 d7 96 bd ef a3 03 3e 04 9d b9 3d
       0.105569616 -0.0736531 0.12855504 0.090631515
0001b0 f9 66 0f 3e 4f 51 11 3e 5b 62 12 3e 66 92 fd 3d
       0.14004125 0.14191173 0.14295332 0.12381439
0001c0 f9 76 cd 3d df e7 40 3e 9a 64 3e 3e f8 0f 58 bc
       0.10032458 0.18838452 0.18593064 -0.013187401
0001d0 0b 16 fa 3d 1e 01 71 3d 5c aa 0f 3e 24 eb 1d 3e
       0.122112356 0.058838956 0.1402983 0.1542173
0001e0 ec 95 ca 3d 96 f7 25 3c 46 b3 28 3e 6e f7 e9 3d
       0.098918766 0.01012983 0.16474637 0.114241466
0001f0 a3 75 4b 3c 9c 09 91 3d 21 48 20 3e c0 aa f1 3d
       0.0124181835 0.07081911 0.15652515 0.11800146
000200 d1 aa 9e 3d 6d 58 86 3d 4f 37 ad 3d 11 e2 0b 3e
       0.077474244 0.06559835 0.08457815 0.13660456
000210 51 b9 df 3d 3a ff c9 3d ed cd 72 bd 02 4c 83 3d
       0.10924018 0.09863134 -0.059278417 0.06410982
000220 60 8a 8f bd c2 a2 3c 3e e4 2a 33 3e 26 41 14 3e
       -0.07008815 0.18421462 0.1749683 0.14477977
000230 ed b8 f3 3d a4 89 22 bc fe 50 5c 3d c4 b5 01 3e
       0.11900506 -0.009920511 0.053788178 0.12666994
000240 84 9d 12 3e b1 e0 43 3e 6c 0e de 3d 4b d0 14 3e
       0.143179 0.19128682 0.108425945 0.14532582
000250 80 7b 8f 3e c6 59 fd 3d d1 fd a3 3e 44 16 a3 3d
       0.2802391 0.123706385 0.32029584 0.07963231
000260 2c e7 cd 3d aa 83 a7 3d 4b a4 92 3d a0 7f f6 3d
       0.10053858 0.0817941 0.07160243 0.12036061
000270 ac 74 03 3e b8 0d 51 3e 48 51 9f 3d 27 68 68 3d
       0.12837476 0.2041539 0.07779175 0.056739952
000280 69 44 eb 3d 38 ae b9 3d b6 5e 9b 3d d1 88 02 bd
       0.114876576 0.09066433 0.07586424 -0.03186876
000290 30 22 09 3e aa 1d 1c 3e fd bb 19 3e fd 83 38 3e
       0.13391948 0.15245691 0.15013118 0.180191
0002a0 62 0e 30 3e 6e 07 93 3d 5f 3e 00 3e dd af 22 3e
       0.17192987 0.071791515 0.12523793 0.15887399
0002b0 e7 fd fd be d2 c7 d2 3e ce 75 b9 3d 80 38 dc 3e
       -0.49607775 0.41168076 0.090556726 0.43011856
0002c0 e6 7f 28 3e 97 f3 3a 3e 18 be dc 3d 9a 84 18 3e
       0.1645504 0.18256985 0.10778445 0.14894333
0002d0 b1 2a 1a 3e 03 f1 fd 3e c1 0f ba 3d 50 f7 71 3d
       0.15055348 0.4959794 0.09085036 0.059073746
0002e0 a8 66 09 3e 02 ea a8 3d 4b e3 d8 bd e8 7d de 3d
       0.13418067 0.082477584 -0.10590228 0.108638585
0002f0 e1 6d d2 3d 37 4d aa 3c 92 fe 41 3e 98 52 29 3e
       0.10274864 0.020788772 0.18944767 0.16535413
000300 e4 21 a4 3d ce 92 54 be 40 74 9f 3d 1e 20 31 3d
       0.080142766 -0.20759127 0.07785845 0.04324352
000310 23 81 3b 3e 7e 0f 15 3e 9e 3d 0b 3e 4b da 15 3e
       0.1831098 0.14556691 0.13597724 0.14634053
000320 8d 16 1c 3e 07 ad 33 3e e7 37 09 3e 08 19 36 3e
       0.15242977 0.17546473 0.13400231 0.17782986
000330 07 8e 31 3e c7 46 9e 3d 98 1f 6c 3d ef 9c 29 3e
       0.17339335 0.077283435 0.057647318 0.16563772
000340 69 4a 92 3d 3c 1e b1 3d 0b 6e 17 3e b9 e4 03 3e
       0.07143099 0.08648345 0.14788072 0.1288022
000350 93 87 02 3e a4 f3 7d be ba 9c f8 3d 37 61 5d 3e
       0.1274703 -0.24799973 0.12139268 0.21619116
000360 14 79 01 3e 8f 47 03 3e 96 a8 a7 3d ea 00 e7 3d
       0.12643844 0.12820266 0.08186452 0.11279471
000370 90 f9 d2 3d 3a 7c 8f 3d 78 54 33 3e 96 02 1e 3e
       0.103015065 0.07006116 0.17512691 0.15430674
000380 e5 83 45 3d d0 52 45 3e a3 bb cb 3d 24 e0 d6 3e
       0.048221488 0.19269872 0.09947898 0.4196788
000390 51 5e fd 3d 70 4a 24 3e 08 29 0d 3e 4e 44 5f 3e
       0.12371505 0.1604402 0.13785183 0.218034
0003a0 63 e6 ca 3d 54 e5 06 3e 9c 7e 83 3d a6 85 4e 3e
       0.09907224 0.13173419 0.06420633 0.2016817
0003b0 20 84 45 3e d8 24 d8 3d 2a 6e eb 3d 93 cb db 3d
       0.19288683 0.105539024 0.114956215 0.10732188
0003c0 1a d6 81 3d c6 6c 3c 3e 0a c7 4d 3e 94 a9 a4 3d
       0.06339665 0.18400869 0.20095459 0.08040157
0003d0 5a e1 d5 3d d2 ff 52 3d 1a 08 23 3e 68 82 a4 3d
       0.10443373 0.0515135 0.15921059 0.080326855
0003e0 84 e0 67 3e 2e ce 32 3e f4 5f 9f 3d af 77 e4 3d
       0.2264424 0.17461464 0.077819735 0.1115564
0003f0 50 c0 0a 3e b8 7d 26 3e 2a e1 f3 3d f9 c3 51 3e
       0.13549924 0.16258895 0.11908181 0.20484914

net.4.bias f4 [27]
000000 d5 52 20 bd 5c c7 1a 3d f1 70 9e 3b bb 73 16 3d
       -0.039141495 0.03778778 0.004835241 0.036731463
000010 1f 96 e9 3d 39 38 39 3d 65 24 ba 3c aa ca 05 3d
       0.114055865 0.045219634 0.022722432 0.03266398
000020 ca 2d bb bd 58 ec 80 3d ae cb 4f 3d 98 62 8f 3c
       -0.09139593 0.06295079 0.050731353 0.017503068
000030 2f c8 43 bd 51 18 9b 3c ce 9d b6 3c d1 f5 dc 3d
       -0.04779833 0.018932493 0.022292044 0.10789073
000040 f3 21 33 3c f3 d3 ca bd f5 4d 1c 3e 32 22 48 3e
       0.010933387 -0.09903707 0.15264113 0.19544294
000050 e6 44 8e 3e 2f d4 09 bb 55 85 ad 3d 92 e2 43 3d
       0.2778694 -0.0021031012 0.08472697 0.047823496
000060 d5 63 75 bc cf c0 84 3d e7 97 36 b9
       -0.014977415 0.06482088 -0.0001741346
