model/dqn_policy_net_episode_1200.pt (torch, 334295 bytes, 6 tensors)

net.0.weight f4 [128, 336]
00000000: dc65 e93d d404 a2bd a2c4 b4bb 4493 483d
00000010: 32a4 a93c cfe3 50be d438 9ebd 3e69 e8bd
00000020: 75c3 213e 2fef 96bd a8be 73bd 4af3 9ebd
00000030: 7785 02bc 9fb5 85bd cf59 2cbd f980 d8bc
00000040: 543a f1bd b7d8 71bc a4e7 823d 30d0 f7bd
00000050: 6239 933d 4ba5 e03d 1091 37be 06e3 e9bc
00000060: f9ef 36be 2d8d d2bc 2c15 90bd ef1f d03c
00000070: 03d9 f03c 8c03 cdbd ede7 113d 848e d83d
00000080: 17d7 bebe b18b 05bb 96a2 e43b e938 f8bc
00000090: d1e0 91bb 7035 dc3d ad05 13bc e253 d4bd
000000a0: d7f0 1cbd ee0d 01be 23dd 7cbd 8cca 763c
000000b0: 7d02 5e3c d98b 4f3d 9853 24be 8929 323d
000000c0: ae02 c1bd d341 473e cbe5 583c d7f4 33bd
000000d0: 22f0 17bd 96d8 753c b00b cf3d 0fb4 c33c
000000e0: 5367 443e 9e82 f0bb aa28 a4bc 01d9 bdbd
000000f0: 8b5d 373d 9dfa 1abd 81eb 0ebe 8baf 28bd
00000100: f976 dbbd a359 543c a9ea c3bd 6eda ebbc
00000110: 78d6 07bd 3f55 193d b374 41bd c62f b1bd
00000120: 7f4e 10be 118a 713d d046 1f3e 321a 043e
00000130: 0fa9 97bd 4308 2d3a 747f 55be 2e3b 143c
00000140: 0549 573e 8075 55be bc46 8e3d 1cbc 003d
00000150: c7e4 53be 5230 1ebe c3b6 69bc d999 a9bd
00000160: 9da5 a73d cc7c 90bd fc72 e23c 72d3 83bd
00000170: 11a5 813b a91f 02be 964b 8ebc 519f dfbc
00000180: 943a 8e3e 69dc 82bd 82b5 0b3d 1482 41bd
00000190: e3ff a1bd 98b4 c1bb 83f5 9dbd 3b27 b53c
000001a0: d03d 36bf 0ba6 073e fbf7 383e bc65 633d
000001b0: 6278 653e fed0 2f3e cfda 0bbe d797 6c3d
000001c0: 8140 b33d 747d 16bc ea2f ce3d f158 0cbd
000001d0: 2e4e b1bd 9686 a8bd 9b22 afbd 9a87 0e3d
000001e0: c8a6 91bf eb05 d63d 41bb bb3d a5cb 92bd
000001f0: c157 0b3d dd3f b33c e2ae 093e eb95 4d3c
00000200: b833 a73e 368f aebd 5295 34bd 3547 dabd
00000210: f530 84be 1c61 0abe 5e85 ebbd 416f 9c3d
00000220: c5d1 c6be fdf7 cd3d 58c0 95bd 6f3a 173d
00000230: 6110 08be 14b1 30bd 7ce9 fc3d d7cc b43d
00000240: 7c0c cd3e 42c9 46bd 4807 653d 2f23 8dbe
00000250: d0e1 da3c d801 12bd cce4 bebd d8a8 ebbd
00000260: 3e30 003e ea59 d6bd 3892 adbd 2dbe c3bc
00000270: 611d 82bd b7f4 013d 0360 743d 04c8 2ebd
00000280: 4d70 183d 3ede 70bd 6f09 8abc f30f f63d
00000290: ee7a c7bd 6111 d2bd cb73 ecbd aa42 c1bc
000002a0: e8ad 1c3f 8d74 84be b101 55be 5d40 1dbd
000002b0: 4dc7 41be d5c8 90be 441c f5bd 1a8e ccbd
000002c0: dfcb fc3e a55f 513e aa44 c2bc cb5e 7bbe
000002d0: 450f ca3b 15b7 e4bd a9f5 89bd 2184 d2bd
000002e0: 55c5 563f dde0 ff3d ad3b 12be 5ec6 afbd
000002f0: d020 0fbe ff88 3bbe 7522 e2bd ecbd a33d
00000300: 771e 47bf 8195 d93d d4c5 003e f785 d83d
00000310: a874 ea3d 2f54 be3e efeb 8c3e 29c9 8c3e
00000320: e5e1 2b3f e2d7 c3bc e4df 5abd 888d edbd
00000330: c125 893d 158f 29be 6f6b 1ebe fdb6 513e
00000340: 3589 d0bf 2ecf 943e 1e8a a13e 6bd5 b93e
00000350: d576 663e f70f 743e c60f e63d 86d2 4c3e
00000360: 474e 2a3f 0455 14bd 6109 5b3c 222f b1bd
00000370: 34f2 f6bd 1aa7 21be 92d6 babd 08c4 9f3d
00000380: 6483 1cbf 96eb 883e 09f0 f73d a912 9d3e
00000390: d0b5 943d 8f97 0b3e 6c35 62be 5c40 6a3e
000003a0: 2c56 1d3f 8da0 f23d ba9e a2bd ce19 dcbd
000003b0: 655b 113d 706a 7bbd 2acf 3a3d 8f96 31bd
000003c0: adbc 3c3f 48b2 843d 8e03 5f3d a1a0 37bd
000003d0: 8da7 28bd 5d48 04be 875e 9fbd d4e4 17be
000003e0: 1865 73bf e7f0 b13e d35f 8f3d 6e92 a93e
000003f0: 935d a43c 2199 923e 1436 2ebc fdbd ea3e
0.11396381 -0.07911077 -0.0055166045 0.04896857 0.020708177 -0.20399402 -0.07725683 -0.11348198
0.15797217 -0.073698394 -0.059507996 -0.077612475 -0.007966391 -0.06528782 -0.042077836 -0.026428686
-0.11778703 -0.0147611415 0.06391838 -0.121002555 0.07188679 0.10969027 -0.1792643 -0.028550636
-0.1786498 -0.025702083 -0.07035288 0.025405852 0.029400354 -0.10010442 0.035621572 0.10574058
-0.37273476 -0.0020377452 0.0069773896 -0.030300574 -0.004451849 0.1075238 -0.008973521 -0.10367562
-0.03831562 -0.1260297 -0.06173433 0.015062939 0.013550398 0.05067048 -0.16047513 0.043496642
-0.09424339 0.19458704 0.013238381 -0.04393467 -0.037094243 0.015005251 0.10109651 0.02388957
0.1918004 -0.0073397895 -0.020038921 -0.09269906 0.044766944 -0.03783666 -0.13957025 -0.041183036
-0.107160516 0.012960824 -0.09566242 -0.028790679 -0.033163518 0.037434813 -0.047230434 -0.0865169
-0.14092444 0.05896956 0.15554357 0.12900618 -0.07405292 0.00066006574 -0.20849401 0.009047313
0.21023948 -0.20845604 0.06947085 0.031429395 -0.2069274 -0.1544812 -0.014264765 -0.08281297
0.08185885 -0.07055053 0.02764272 -0.06436814 0.003956445 -0.1270739 -0.017370027 -0.027297648
0.27779067 -0.06389696 0.034108646 -0.047243193 -0.07910135 -0.005911421 -0.07712843 0.022113433
-0.7118807 0.13246934 0.18063347 0.055516943 0.22409204 0.17169568 -0.13657688 0.057761993
0.087525375 -0.009185184 0.10067733 -0.03426451 -0.0865749 -0.08228795 -0.08551522 0.03479729
-1.1379023 0.104503475 0.09166575 -0.07167748 0.034019236 0.021881038 0.13445619 0.01254795
0.32656646 -0.08523409 -0.044087715 -0.10658113 -0.258186 -0.13513607 -0.11500047 0.076384075
-0.38831916 0.10057066 -0.07312077 0.03692096 -0.13287498 -0.043137625 0.12349221 0.088281326
0.40048587 -0.04853178 0.055915147 -0.27565905 0.026719004 -0.03564629 -0.09320983 -0.11506814
0.12518403 -0.104663685 -0.08475155 -0.023894394 -0.0635326 0.03172752 0.059661876 -0.04267122
0.037216473 -0.058805697 -0.016850201 0.12014761 -0.09740244 -0.10257221 -0.11545523 -0.023591358
0.6120286 -0.2587017 -0.20801426 -0.03839146 -0.18923683 -0.28278223 -0.11968282 -0.09988041
0.4937429 0.20446642 -0.023714382 -0.2454788 0.006166371 -0.111677326 -0.06736309 -0.10279108
0.83894855 0.12494061 -0.14280577 -0.085827574 -0.1397736 -0.18313979 -0.110417284 0.07995209
-0.7778086 0.10624219 0.12575465 0.10572427 0.11448032 0.37173602 0.27523753 0.27497223
0.6714156 -0.023906652 -0.053436175 -0.115992606 0.06696654 -0.16558488 -0.1547067 0.2047996
-1.6291872 0.29064316 0.31550688 0.36295637 0.22506268 0.23834215 0.11233477 0.20002183
0.6652569 -0.03621389 0.013368935 -0.08651568 -0.12057915 -0.157864 -0.09122957 0.07801062
-0.61137986 0.26742238 0.1210633 0.306783 0.072612405 0.13632034 -0.22090691 0.22876114
0.6145961 0.11847029 -0.07940431 -0.10747109 0.03548755 -0.061380804 0.045607723 -0.043356474
0.73725396 0.06479317 0.05444675 -0.044830922 -0.041175414 -0.1291823 -0.077817015 -0.14833385
-0.9507613 0.34754106 0.07000699 0.3311953 0.02006415 0.28632453 -0.01063301 0.45848075

net.0.bias f4 [128]
00000000: 58d4 033e 58bd fd3d 5eac 9c3d f80b c73d
00000010: 1924 5d3e 4127 6b3d 9d01 d33e 24c8 3b3e
00000020: f133 c13b 492e 333e 41ce f63d ed1d 653d
00000030: 688c f83d 4916 d53d 3a7e df3d c34e f53d
00000040: 2523 863d 474a 3a3e d73a 123e 8265 963d
00000050: 541e cb3d 0820 333d 9fae 8d3e 669d e83d
00000060: 32ed 373e 3627 063e 4827 ec3d e569 3b3e
00000070: 49b0 eb3d ff3f c03e 4b56 433e 25ac ff3d
00000080: b15d 103e db9e b43d f7ad 093e e4d7 873d
00000090: a024 cf3d 65bf 253e 89cd 473e a77b 0a3e
000000a0: 6e2d 8fbd 3309 a93d c8f3 753d ebe9 f13d
000000b0: 1e61 a43d 6655 2c3e 80af be3d 0de6 413e
000000c0: e207 013e 80b4 1e3e 7709 d23c c831 063e
000000d0: db88 493d 503d a53d bdae 023e 62fa df3d
000000e0: a80a f73d 7aaa 80bd 97d1 5e3e 3b41 f23d
000000f0: f00a 1e3e 09e1 ea3d 8d28 0b3d e184 fb3d
00000100: 05af 223e ca8c 173e bc34 753e 2bea f43d
00000110: 58af e63d 0d8a 263d 036f 183e 0236 333e
00000120: e04b 3d3e 23ac 093e f233 023e 5bd9 a33e
00000130: 17ff 143e 7fad 2b3e f9bc 193e 5a82 093e
00000140: f2b6 a13d 4da7 703f 1862 3c3e 160e 923e
00000150: 511a 153e 45d5 0c3e da16 323e d0f3 363d
00000160: 9f6c b93e 6ccc 193e 995b ea3d b0bf a73d
00000170: 9bcc 103e cd00 a13c 0677 733e e391 ab3d
00000180: 0b72 be3c 81f3 2d3e f625 e23d c8b7 8a3d
00000190: 10c7 1e3e 9755 9d3e 8982 ac3d 5c6d 3f3e
000001a0: 8e61 9a3d ffbf e33d 1a64 0e3e c68b 9a3d
000001b0: b1ee eb3d 1a17 053e 0ead de3c c4a0 2e3e
000001c0: dd1e 5a3d 3e97 443e 6441 0d3e e9df 843d
000001d0: b770 f0bc 4912 863e 2c12 bbbd 7c58 363e
000001e0: b1e0 e83d 28c7 173e 228f 603e 5a92 423e
000001f0: 2327 183e b824 ac3d 8439 8e3d e269 0a3e
0.12873971 0.1238963 0.07650064 0.0971908 0.21595801 0.057410482 0.41212168 0.18338066
0.0058960845 0.17498125 0.120510586 0.055936743 0.12136155 0.10404641 0.10912748 0.11977913
0.06549672 0.18192397 0.14280258 0.0734358 0.09917894 0.04373172 0.27672288 0.11358146
0.17961577 0.13100895 0.1153093 0.18302114 0.11508233 0.37548825 0.19075887 0.12484006
0.1409824 0.08819362 0.13445269 0.06632975 0.101144075 0.16186292 0.19511999 0.13523732
-0.06991087 0.08253708 0.06004694 0.118121944 0.08026336 0.16829452 0.09310818 0.18935414
0.12600663 0.15498543 0.025639279 0.13104928 0.04920278 0.08068335 0.1276197 0.109364286
0.120625794 -0.06282516 0.2175964 0.11828848 0.1543386 0.11468703 0.03397422 0.12281204
0.15887077 0.147998 0.23945898 0.119587265 0.11263913 0.040659 0.14886098 0.17501071
0.18485975 0.13444571 0.12715128 0.32001767 0.14550434 0.16765402 0.15013494 0.13428631
0.07896222 0.9400528 0.18396795 0.28526372 0.1456082 0.13753231 0.1739153 0.04466611
0.36215684 0.15019387 0.11443252 0.08190858 0.14140551 0.019653702 0.23775873 0.08377435
0.02324774 0.1698742 0.11042397 0.06773335 0.15505624 0.30729362 0.08423335 0.18694061
0.07538138 0.11120605 0.13905373 0.07546191 0.11520136 0.12997094 0.027182128 0.17053515
0.05325209 0.1919832 0.13794476 0.0648802 -0.029350622 0.26185825 -0.091343254 0.17807192
0.113709815 0.14822066 0.21929601 0.19001141 0.1485868 0.08405441 0.06944564 0.13516954

net.2.weight f4 [256, 128]
00000000: 0c2b 953f 178e 743d 4981 0d40 575c c33e
00000010: 800f 7bbd 9999 1e3f 8d3c 373f 4a50 d43f
00000020: 6112 2b40 cd5a 143f 803e 623f 6df5 ad3e
00000030: f234 333d 0231 4a3e 8393 56be d9a8 753f
00000040: 2d72 1d3f 2e2d 993d 278c 153f d0e3 cd3f
00000050: 15c8 8d3f 3592 e33f ae85 ac3a c64e 573f
00000060: 4687 dd3e 1b4d 863e 3c34 6e3f 5ffb 1abe
00000070: e4ff 043f 4630 fe3d 16cb 4c3e fefb 2b3f
00000080: 5bf4 503f a8fa 153f 68d2 f33e 9dc2 303f
00000090: 3e37 7cbd 0346 b43f cb19 ba3f ee06 333d
000000a0: 5adb 84bf e788 a63e ff3f fd3d 01d4 2c3e
000000b0: 58ed b33e 5e66 f83e d7ac 933f 4cb4 953f
000000c0: b801 443f cffa 503e 1bba 4f3f 30a8 da3f
000000d0: 29a4 253f dffa 523d b9de 233f 5a3a 58be
000000e0: ee79 acbe f424 83bf db24 a73e 8785 db3f
000000f0: 3d11 39bd 587b 1540 029b d13e b6fc 0d3f
00000100: 9959 f03c 67ca 003f 9397 883f 8e10 2c3e
00000110: ac90 823f 17df 013f 4122 21be 98ff 263e
00000120: 50e8 a13e f165 a53f 0738 ec3e 6f99 1d3e
00000130: dbae be3e 9507 a9be 0da2 6f3f 814c 923e
00000140: c370 283f fc28 103f 5cc9 26bf d839 3d3e
00000150: 851c 013f 92f2 70be 03c7 363f f1e3 733f
00000160: 056c 3dbe 52ba 773e c3bf 693f b2c3 263f
00000170: 2a7c 453f 7575 bb3f c191 163f f3eb 083f
00000180: 2a98 7c3f 988e ca3d 4416 0a3f daa0 85bf
00000190: 1de7 ccbd 727c 81be b44c be3f 049e a73e
000001a0: c317 953e 21e8 c73e 6863 0b3f b24e 2a3d
000001b0: 9047 9b3f 3c6b cf3f 3ccc af3e 0aff 1f3f
000001c0: 4017 5e3f 2db0 513f 02bc 133f 74c4 a23f
000001d0: 13c3 0640 7850 683e ef39 8bbf 52db 683f
000001e0: 70f2 c43e 5a3c 833d 8bbd c13e 4142 343f
000001f0: 7de2 1940 9a6c 333e ce41 943f 7ac6 b53f
00000200: c9c8 1140 e60d 3e3e cf77 253f ef75 84bd
00000210: 93aa 023f ef4c 1f3f 026b c0be b9e3 8f3f
00000220: 187b a73e 7cb2 9f3e 9174 2ebe 62ce 3d3e
00000230: 4b01 ae3e 0693 673f 7db9 4c3f 69b4 ae3f
00000240: d271 d53e 943b 543f 2db5 9b3e 6fc6 483e
00000250: 0a27 ca3f 0282 703f 717a 363f b1db 4a3f
00000260: 061a 1e3f 8b95 133f f9cb 703f 3bcf f03e
00000270: 8f02 893e aaa8 023f 1927 003e d7e4 e63f
00000280: 6802 0c3f 9be5 743f 8773 463f d34a 803e
00000290: 5444 843f 9acb 9e3f cd7b 833f e36c 1e3f
000002a0: c8b7 a7bf 5b9b f73e d7bd d93e 79dc 403f
000002b0: d7e9 1a3f 8078 343f 56ff e93f 5633 223f
000002c0: e806 e33f 3866 813e 422a e73c 937d 6b3f
000002d0: 10ba 333f bad3 a63e 84da 333f abf3 043f
000002e0: 5ac5 683f 7740 9dbf f130 20bd 42ca bd3f
000002f0: e3e0 573d d86c a23e d16f 263e 37f8 ff3e
00000300: f92d 17be 12d8 243e a861 ba3f e1d9 b13e
00000310: 4383 e73f 1a68 d3be 382b 713f 3d6b 483f
00000320: 360c 5a3f a26c b23e 8366 263e 465c e03e
00000330: 3bff 633f 667d 213f 323a 203f 8c9f 813f
00000340: c68a 613f eb74 6fbe 15cc f03e b80c ab3e
00000350: f92a 3b3f 9018 c83e 8cb9 4b3e 42ed d33e
00000360: 1e78 5c3f c809 443f 5560 313d 6525 ef3e
00000370: f69a 2c3d 9469 0cbf a3cc 90be 1af4 e13e
00000380: 446d 0c3c 453a 723f 7016 603f 1c0c 8d3f
00000390: c5db 703f d589 093f 45be c93f 90fe 533f
000003a0: 4d9b 1b3f f9c5 e03e 4e6b a53e 40b6 313f
000003b0: 6ffc b63d 8cd9 753f c0d2 5c3f b1cf 6d3b
000003c0: 6e15 df3d 26e1 fb3f 56a1 693f 8458 8d3b
000003d0: 3c45 43bf 5fdc 5e3e fd0f a4bf 3072 923f
000003e0: 85ad 853f 5313 103f 0846 cc3e 2bb1 1d3f
000003f0: 13c7 03bd 45de 023f abcf 1140 3d02 d93f
1.1653762 0.05970582 2.211016 0.38156387 -0.06129408 0.6195312 0.7157677 1.6587002
2.6729968 0.5795105 0.8837662 0.33976308 0.043751664 0.19745257 -0.20954709 0.95960766
0.61502343 0.074793205 0.5841698 1.6085148 1.1076685 1.7778994 0.0013162398 0.84104574
0.43267268 0.26230702 0.93048453 -0.15134953 0.5195296 0.12411551 0.19999346 0.67181385
0.81622857 0.58585596 0.47621465 0.69046956 -0.06157612 1.4083866 1.4539121 0.04370778
-1.0379441 0.32526323 0.12365722 0.16877748 0.35142016 0.485156 1.1537122 1.1695647
0.7656512 0.20408176 0.8114335 1.7082577 0.64703614 0.05150878 0.6401172 -0.2111601
-0.33686775 -1.0245652 0.32645306 1.7150124 -0.045182455 2.3356533 0.40938574 0.5546373
0.029339598 0.5030884 1.0671257 0.1680319 1.02004 0.50731033 -0.15735723 0.16308439
0.31622553 1.2921735 0.46136495 0.15390562 0.3724278 -0.33013597 0.93606645 0.28573993
0.6579706 0.5631254 -0.65151 0.18479097 0.5043414 -0.23530033 0.7139742 0.95269686
-0.18498237 0.2419217 0.9130823 0.6514236 0.77142584 1.464522 0.5881615 0.5348503
0.98669684 0.09890479 0.53940225 -1.0439713 -0.10005019 -0.25290257 1.4867158 0.32737744
0.2911969 0.39044288 0.54448557 0.041578956 1.2131214 1.62046 0.34335506 0.62498534
0.86754227 0.8190945 0.5770875 1.2716203 2.1056564 0.22686946 -1.0877055 0.90959656
0.38466215 0.064079955 0.37839922 0.70413595 2.4044487 0.17521897 1.1582582 1.4201195
2.27788 0.1855999 0.6463594 -0.064678065 0.51041526 0.62226766 -0.3758164 1.124137
0.327111 0.3119086 -0.17036654 0.1853576 0.3398536 0.90458715 0.7997053 1.3648807
0.416884 0.8290341 0.30411664 0.19606946 1.5793164 0.93948376 0.7128058 0.7924147
0.6175846 0.5765006 0.9406124 0.47033104 0.26759765 0.5103861 0.12514915 1.8038586
0.5469117 0.9566285 0.7752003 0.25057086 1.0333352 1.2405884 1.0272156 0.618849
-1.310296 0.48360714 0.4252765 0.75336415 0.6051306 0.7049637 1.8281047 0.6335958
1.7736483 0.252733 0.028218392 0.91988486 0.70205784 0.3258341 0.70255303 0.5193431
0.90926135 -1.2285298 -0.039109174 1.4827349 0.052704703 0.31723666 0.16253592 0.4999406
-0.14763631 0.1609805 1.4561052 0.3473654 1.8086933 -0.4129036 0.9420657 0.7828863
0.8517488 0.34848505 0.16250043 0.438204 0.89061326 0.6308197 0.625888 1.0126815
0.88102376 -0.23384444 0.47030702 0.3340814 0.73112446 0.3908124 0.19895 0.4139195
0.86120784 0.76577425 0.04330476 0.46708217 0.04213997 -0.548486 -0.28281125 0.44131547
0.008570973 0.9462016 0.87534237 1.101932 0.9408534 0.5372594 1.5761191 0.82810307
0.60783845 0.4390104 0.3230843 0.69418716 0.08934867 0.96035075 0.8625908 0.0036287124
0.10892759 1.9678085 0.91261804 0.0043135304 -0.7627752 0.21763752 -1.2817379 1.1441097
1.0443579 0.56279486 0.3989718 0.6159846 -0.032172274 0.51120406 2.2783 1.6953808

net.2.bias f4 [256]
00000000: a94b a03e ce6b 873e b75a c63d 88c4 643e
00000010: c204 613e 33b2 953e 8a30 abbe b356 753e
00000020: b776 c33f e8a0 5fbe eb60 6abe b1f4 853d
00000030: ab4c 773e dcb1 263e af77 403e 445d 313e
00000040: 98c0 6d3e e69e 403e 6f7a 83be 44ba 053e
00000050: 590a 87be b4ef 883e a7a6 cd3d f1fd e73c
00000060: 88c5 bb3e 175b 373e fe97 1e3e b886 483e
00000070: 863e 7d3e f0b7 8c3e a7a2 063e 69cc 953e
00000080: 75df 82be d1a9 9dbe b319 533e 7fa2 3abe
00000090: e955 e53e b6d9 7abc 830d 643e 4253 053e
000000a0: be52 c23d 02c7 263e 10ac 083e 9e81 833e
000000b0: b043 493e 6874 9c3e 4464 7b3e 37b0 e73c
000000c0: 00de 573e 315c 553e 7424 9dbe 139f 9d3e
000000d0: 3eb8 99be 539b 8f3e c3b6 79be d42b 543e
000000e0: c673 eb3d 8aa7 0c3e 1099 a0be 49f0 ea3b
000000f0: ff7a 333e 62a5 5d3e fa90 d23e 72b9 843e
00000100: 4fc4 013e bf27 bc3f fc72 b73e de27 ef3d
00000110: aeda 0c3e caf7 dc3d 7d43 a03e e126 8abe
00000120: 1b31 383e c794 143e 80ad 1cbf d6f8 a63e
00000130: 61b7 dd3e 569d 913f 7295 823e 39e9 8a3e
00000140: 469a 90be cd44 1a3e 12f6 77be 6bc0 ed3d
00000150: 6f65 133e c47a ba3d c4d5 c73d bf21 063e
00000160: acc8 093e 6c36 1f3f 6885 573e 4e98 643e
00000170: 3b3a 9a3d bf2f bc3f 83f0 a83e 1520 e23d
00000180: f158 9a3d 2b01 a73e b8a1 ac3e 82e0 8a3e
00000190: f9ea 4ebe bb3c c93d f027 c43e 436f 49be
000001a0: 57e4 0e3e cf15 cd3e 93a3 7f3e 61d9 873e
000001b0: 11ec 8b3e 6039 133e d2c2 e13e 7fda e83d
000001c0: 973e c13d dec6 003e 7669 273e 5227 29bc
000001d0: d38e 853d ec14 a4be c87a adbe fc87 06be
000001e0: 3f46 be3e f18d 413e b6a0 6ebe 91af 583e
000001f0: 8803 c73e 6990 7c3e 1ffb bf3d 3524 1c3e
00000200: 2461 403e 7614 543e 1fba 1f3e 3c32 953e
00000210: d6eb 983d 0fb5 793e 57f7 873e 7f78 b53d
00000220: e501 f83e 4eb5 313e f6dd 1d3e e230 4e3e
00000230: b949 a63e 3aca 863e a615 633e 8425 843e
00000240: 509c e53d a21b 8e3e 90d2 86be 1f8f e2bd
00000250: 2dea b13e 5313 8b3e 6eeb ec3e 0025 593d
00000260: 9a1d 073e 49c7 413e cd50 893d 972e 173e
00000270: 780b a23e 8e4f 153e 8859 893e 414a 313e
00000280: 4cc1 60be c98d 853e 9233 613e b06f bc3e
00000290: e775 443e 8293 513e 00f1 03be db74 023e
000002a0: 86f7 643e 3775 a5be 914a 813e 8d06 463e
000002b0: 5bc9 a63f 34a2 513e 4f41 8b3e 7f80 9f3d
000002c0: 829d 3b3e a8fd c73d 5c1f 783e da99 cb3d
000002d0: 2834 c33d 78b8 cfbc 863f f93d f712 4b3e
000002e0: 39fe 28bb cd33 583d 963d 313f dc8f 1b3e
000002f0: a1c2 2fbe 7694 b83e eb33 8ebe 117a 333e
00000300: 4f28 923e 376e bbbf b33b 873e ecfb 6a3e
00000310: 2924 8a3e da31 9c3e f976 7f3e c0b6 443e
00000320: e3f6 673e e9b0 9fbe 98a1 793e 97e1 443e
00000330: 675a 753e 1d1a 1bbe 49c6 9ebe c8c1 573e
00000340: ec35 173e cc54 1e3e 8d93 363e bac1 703e
00000350: 16f0 523e 4971 8d3f ae92 433e b2cd 2a3f
00000360: a842 793e 8098 3f3e 2249 803e c47a 6d3e
00000370: 8354 083e 65ff 8d3e 2772 2d3e 0166 ef3d
00000380: c5c3 4b3e 5f11 db3d 85bc 8d3e 3bf7 c13d
00000390: d827 473e 43b4 263e 2c1b 64be b0d7 023e
000003a0: 0946 fc3d 0a79 4e3e d459 4abe 0013 df3e
000003b0: 681f 823e 6818 0b3e 69df 423e d953 503f
000003c0: fd3e 333e 1dc4 0c3e ad3e 97be ba65 463e
000003d0: 767d 493e 4cda bb3e 13ab 713e 3e51 2a3e
000003e0: a7bf c9bc b8b3 9cbe 9cdb 853e 3ba0 0abe
000003f0: dfd2 563e acbc 083e dc1c b53e 244a ee3e
0.31307724 0.26449436 0.09685271 0.22340596 0.21974471 0.29237518 -0.3343547 0.23958854
1.5270604 -0.21838725 -0.22888534 0.06540812 0.2415034 0.16278785 0.18795656 0.17320734
0.23218 0.18810615 -0.25679347 0.13059336 -0.26375082 0.2674538 0.10041552 0.02831933
0.36674142 0.17905842 0.15487668 0.19582641 0.24730882 0.27484083 0.13147984 0.29257515
-0.2556111 -0.30793622 0.20615272 -0.1822605 0.44792107 -0.015310695 0.2227078 0.13020042
0.09488438 0.16286853 0.13346887 0.25684828 0.19654727 0.3055756 0.24549967 0.028282268
0.2108078 0.2083595 -0.30691874 0.30785426 -0.30023378 0.2804819 -0.24386124 0.20719844
0.114966914 0.13735786 -0.31366777 0.0071697575 0.17527388 0.2164512 0.41126233 0.25922734
0.12672542 1.469963 0.35829914 0.11677526 0.13755295 0.107894495 0.3130149 -0.26982787
0.17987482 0.14509879 -0.6120224 0.32611722 0.4330397 1.137614 0.25504643 0.2713106
-0.282427 0.15065308 -0.24214962 0.116089664 0.14394163 0.09105447 0.097575694 0.1309881
0.13455456 0.62192416 0.21046984 0.22323725 0.07530638 1.4702071 0.32995996 0.110412754
0.075364955 0.3261808 0.33717132 0.2712441 -0.20206822 0.098260365 0.3831172 -0.19671349
0.13954292 0.400557 0.24964742 0.26533034 0.27328542 0.14377356 0.4409395 0.113698
0.09435766 0.12575862 0.16348824 -0.010324316 0.06521382 -0.32047212 -0.33882737 -0.13137811
0.3716297 0.18901803 -0.23303494 0.21160723 0.38869882 0.24664463 0.093740694 0.15248187
0.18787056 0.2071093 0.15598343 0.29139888 0.07466857 0.24385475 0.26555893 0.088608734
0.48438945 0.17354318 0.15416703 0.20135835 0.3247812 0.26326162 0.22176227 0.25809872
0.11211455 0.27755457 -0.2633252 -0.110624544 0.34748974 0.2716318 0.4627337 0.0530138
0.13194886 0.18923678 0.06704865 0.14763866 0.31649375 0.14581129 0.2682612 0.17313482
-0.21948737 0.26084736 0.21992329 0.3680396 0.19185601 0.20466426 -0.12884903 0.1273989
0.22360048 -0.3231599 0.25252202 0.19338436 1.3030199 0.20472032 0.27198264 0.077881806
0.18321803 0.09765178 0.24230713 0.09941454 0.095314324 -0.025356516 0.12170319 0.19831453
-0.0025786294 0.052783776 0.692346 0.15191597 -0.17164089 0.36050767 -0.27773985 0.17527033
0.28546378 -1.464301 0.26412734 0.22947663 0.26980713 0.30506784 0.24947728 0.19210339
0.22652774 -0.3118966 0.2437805 0.1922668 0.23960267 -0.1514668 -0.31010655 0.21070015
0.14766663 0.15462035 0.17829724 0.23511401 0.20599398 1.1050197 0.19098923 0.66720116
0.24341834 0.18710518 0.25055796 0.23191363 0.13313489 0.27733913 0.16938077 0.116893776
0.19898899 0.10696673 0.2768289 0.094709836 0.19448793 0.16279702 -0.2227599 0.12777591
0.12318046 0.2016336 -0.19760829 0.43569183 0.25414586 0.13583529 0.19030537 0.8137794
0.17504497 0.13746686 -0.29540005 0.19374743 0.19676766 0.36689985 0.23600416 0.16632554
-0.02462752 -0.30605865 0.2614411 -0.13537686 0.20978878 0.13353223 0.3537358 0.4654094

net.4.weight f4 [27, 256]
00000000: ba48 4f3e 8e2d ee3e 7603 ee3e 003e cc3e
00000010: bf4b d13e 57a2 de3e 9983 fd3e 22d1 e93e
00000020: 3405 7cbf ea49 003f 3db6 f23e 8a4f 033f
00000030: 5c2f fb3e 245c b23e 633c cc3e 439a c23e
00000040: abcf ca3e 83ea dc3e ad1c dd3e 2fb4 d43e
00000050: 5a87 063f 2e80 993e 766d d93e bfb4 023f
00000060: 6c59 b73e 6384 d63e 2b8c e13e eb39 a23e
00000070: 962c 9b3e 2cca bd3e 1543 de3e 449f b03e
00000080: d8e1 043f 8712 dc3e 0291 c23e ddbf ca3e
00000090: 1349 0b3f 5084 57bd 191c cf3e 53f8 9e3d
000000a0: 21a2 ed3e 9ab3 b63e f42c e93e 2d41 c23e
000000b0: b69f bf3e 25fc d13e d2ad c83d 54f0 d83e
000000c0: 8fee cb3e 075e c13e 042d 003f a954 d83e
000000d0: d2aa 023f d43b 6c3f cf68 fa3e 4a02 dc3e
000000e0: e081 b33e 6a50 dc3e 9c6f d73e 8cff 833e
000000f0: 52e7 ca3e f436 cf3e cb9a 003f 7e27 c53e
00000100: d892 ce3e 7907 69bf 45ec 993e 5b36 e53e
00000110: 7fa0 ad3e cb76 f03e 40a5 b03e 0196 c93e
00000120: 1fd8 d63e 3c0e 9f3e 6235 103f a957 e43e
00000130: e17a 073e e3e8 acbe 18bd b13e 47cc a73e
00000140: 5208 f43e 7bbf b83e b8b8 f23e 1c6d b83e
00000150: fe89 af3e 13ae b43e 539b de3e 917d d73e
00000160: d449 d63e ad51 4bbf daaf 013f c429 853e
00000170: 0eb5 d83e d8a1 62bf 0bd9 c63e 4e3f 203e
00000180: 96f6 f63e 747c 973d 6413 0c3e 1e77 ba3e
00000190: 784f c93e 6d46 983e 2019 f93e 2e1e c73e
000001a0: 2784 be3e ebe7 803e 4d24 ce3e dc84 bd3e
000001b0: 3cea d03e 6d69 d13e 41b7 66bd 371d db3e
000001c0: b54d bb3e bdb1 fb3e 9ea4 ef3e f80f 58bc
000001d0: bf5b cf3e 4069 d03e 0641 153f f4db dc3e
000001e0: 6c87 61ba 061d 803e 662b 033f d675 b73e
000001f0: 032f b63e 8636 a73e ec0d e23e e4d0 c73e
00000200: 11a3 af3e c4b5 b43e ac52 9b3e 1abe cc3e
00000210: 689e cb3e 605b e33e c318 743e 1298 a63e
00000220: 979f 7f3e 7966 f03e b95d e33e 9162 d93e
00000230: 3497 c83e 2ce0 463e e920 a43e de75 c13e
00000240: cb63 e03e 543b fb3e 40fc e53e 7347 853e
00000250: ea26 003f 0a2d c43e fd21 3c3f 0046 a43e
00000260: e215 a73e 3075 c03e 4934 af3e 72a0 d53e
00000270: 82cd cd3e 77ef ea3e 3aa5 b43e 4e8e b43e
00000280: dcb1 f03e 84fd b23e e233 a73e 0a3d b13e
00000290: ac3a c73e 8f37 dc3e 1ccc 003f 8618 ea3e
000002a0: dc38 df3e 0ebe cb3e b8d8 bd3e 0faa e73e
000002b0: 982e 84bf 90de 943f c1f2 af3e 4003 903f
000002c0: 2ef5 d13e 888e ef3e 8ae5 c23e e801 d43e
000002d0: 3ead d03e bac6 9f3f d65f cb3e 432f a83e
000002e0: f9c8 d43e 6777 b73e c951 3cbf 5b27 ce3e
000002f0: bb8e d73e f677 473e 3dfa fa3e 6cfa e73e
00000300: a408 a53e 87fb 253e 062f b73e c83a 7d3e
00000310: bfd8 de3e 5376 db3e cea7 d03e 990c d33e
00000320: c7a2 cc3e 9dfb f83e fb09 cb3e d01d e83e
00000330: a500 e33e b32a dc3e 0e49 df3e 3036 ee3e
00000340: 7198 af3e ec65 ae3e 6008 d23e 19a5 ce3e
00000350: a777 d53e 97b6 12bf 870f c23e 7351 96bd
00000360: 4e51 cb3e fb0a cd3e 5612 9e3e 67c8 ae3e
00000370: ceaf bf3e 2789 ad3e c228 ef3e 4103 cf3e
00000380: c0fd 9b3e 4b8b ef3e bbd3 b63e fd58 953f
00000390: a917 873e 0c17 dd3e dff3 ea3e c385 ee3e
000003a0: fe68 bb3e 7f7e d13e bd0e d03e c746 3e3e
000003b0: 7a66 c23e 194e b73e 1f64 bc3e 117e 05bd
000003c0: eba0 b33e b54e f43e b653 093f 3b8e b23e
000003d0: 295f c03e 1961 a23e ee89 dc3e b630 af3e
000003e0: cf3e 713f b252 003f 90c7 b63e f0e5 de3e
000003f0: 0f33 ca3e eea7 d53e 647b d23e 325d a9bd
0.20242587 0.4651913 0.46487015 0.39891052 0.40878102 0.4348323 0.49514464 0.45667368
-0.9844544 0.50112784 0.47404662 0.5129324 0.4905957 0.34835923 0.3988982 0.38008317
0.39611563 0.43147668 0.4318594 0.4154372 0.5255028 0.29980606 0.42466325 0.51057047
0.3581041 0.41897878 0.44052252 0.31684813 0.30307454 0.37068307 0.43410555 0.3449651
0.5190711 0.42982885 0.38001257 0.39599505 0.5440838 -0.052616417 0.40451124 0.07762208
0.46412757 0.356839 0.4554211 0.3794035 0.37426537 0.41012684 0.097987786 0.42370856
0.39830443 0.3776705 0.5006869 0.4225209 0.510419 0.9227879 0.48908088 0.42970496
0.35060024 0.430301 0.4207734 0.25780904 0.39629608 0.40471613 0.50236195 0.38506693
0.40346408 -0.9102703 0.30063072 0.44768032 0.3391151 0.46965632 0.34501076 0.39372256
0.41961762 0.31065547 0.56331456 0.4459813 0.13230468 -0.33771428 0.3471458 0.3277304
0.47662598 0.36083588 0.47406554 0.36020744 0.34284967 0.35289058 0.43477878 0.42087987
0.418532 -0.794215 0.50658953 0.26008427 0.42325634 -0.88528204 0.38837466 0.15649149
0.48235005 0.073967844 0.13679272 0.36419004 0.39318442 0.2974123 0.4865198 0.38890213
0.372102 0.2517694 0.4026207 0.37015426 0.40803707 0.40900746 -0.05632711 0.42795727
0.36582723 0.4915904 0.4680528 -0.013187401 0.40499684 0.407053 0.5830234 0.4313656
-0.0008603248 0.25022143 0.51238096 0.3583209 0.35582742 0.32658786 0.44151247 0.39026558
0.34304097 0.35294926 0.3033651 0.39988786 0.39769292 0.4440565 0.23837571 0.32537895
0.24963222 0.4695318 0.44407442 0.42458013 0.3917786 0.19421452 0.32056358 0.37785238
0.43826136 0.490687 0.44919014 0.26031074 0.5005938 0.38315612 0.7348936 0.32084656
0.32633883 0.37589407 0.34219578 0.41723973 0.40195853 0.45885822 0.35282308 0.3526482
0.47010696 0.34959042 0.3265677 0.34616882 0.3891195 0.43011138 0.50311446 0.45721835
0.43598068 0.39793438 0.37079406 0.45246932 -1.0326719 1.1630421 0.34364894 1.1250992
0.4100737 0.4678843 0.3806575 0.41407704 0.40757173 1.2482522 0.39721555 0.32848558
0.4155958 0.35833284 -0.73562294 0.402644 0.42101082 0.19479355 0.49019042 0.45308244
0.32233155 0.16209231 0.35778064 0.24729455 0.4352474 0.42863712 0.40753025 0.4122055
0.3996794 0.48629466 0.39656052 0.45335245 0.4433643 0.43001327 0.43610424 0.46525717
0.3429599 0.34062135 0.41022015 0.40360335 0.4169285 -0.5730986 0.3790247 -0.07339754
0.39710468 0.4004744 0.30873364 0.3413727 0.37438816 0.338937 0.46710783 0.4043217
0.30467033 0.4678596 0.35708413 1.1667782 0.2638524 0.43181646 0.45889184 0.46586427
0.3660354 0.4091682 0.40636244 0.18581687 0.37968808 0.3580177 0.36795136 -0.03259093
0.35083708 0.477163 0.5364336 0.34874138 0.375726 0.31714705 0.43073982 0.3421685
0.94236463 0.50126183 0.3569913 0.43534803 0.3949208 0.41729683 0.41109765 -0.08269729

net.4.bias f4 [27]
00000000: 6a49 c7bc db37 0f3e d3a0 79bd 909d 43bb
00000010: 2120 a93c 0b9c 723d b540 103c b76d 463e
00000020: 80b4 b8bd 0f7c a03e afac 9f3d c459 fa3d
00000030: beea dbbc 8e0b 0e3e a070 af3d 9a07 633d
00000040: 865d dbbc 358c 92bd 9c8a 863e a1a7 e83e
00000050: 6e8f e83e 8628 0abd 56f2 063d 9d9c 103e
00000060: 5393 efbc e515 163e fb67 ca3b
-0.024326999 0.13986151 -0.06094439 -0.0029848553 0.020645203 0.059230845 0.00880449 0.1937779
-0.09018803 0.3134465 0.07796609 0.12224153 -0.026845332 0.13871595 0.085664034 0.05542717
-0.026777994 -0.071556486 0.26277626 0.4544039 0.45421928 -0.033730052 0.032945953 0.14122243
-0.029245054 0.1465679 0.006176946
