model/dqn_policy_net_episode_930.pt (torch, 334295 bytes, 6 tensors)

net.0.weight f4 [128, 336]
000000 28 2a c7 3d 22 a0 21 be 4e 61 11 3e 7f 00 b8 3c
       0.097248375 -0.15783742 0.14197275 0.022461174
000010 02 92 21 bd f6 04 26 be dd 49 dc 3c 57 a8 c3 bd
       -0.039445885 -0.1621283 0.02689069 -0.09553593
000020 e6 87 13 3e bb d2 97 bd c7 98 05 bd 35 4e a2 bd
       0.1440731 -0.074132405 -0.032616403 -0.07925073
000030 44 60 80 3c 55 8d cf bc 6c 35 80 bc 34 79 58 bd
       0.015670903 -0.025335947 -0.015650474 -0.052849963
000040 8f a7 31 be 3a 03 82 bd 97 4b 21 3e cf 4f 02 be
       -0.17349075 -0.06348272 0.15751491 -0.12725757
000050 38 3f 40 3e ec 9e f5 3d 74 0b b2 bd 29 53 ca bc
       0.18774116 0.119932026 -0.08693591 -0.024697857
000060 3f 5d 2a be b8 42 1c bd 10 f0 e7 bd a3 d7 92 bc
       -0.16637133 -0.038149565 -0.11325085 -0.01792509
000070 c0 93 85 3d 34 29 d5 3d 83 9f a1 bb 1e de c5 3c
       0.06522322 0.104082495 -0.0049323454 0.024153765
000080 97 13 dd be fd 8e bb bd c8 2d b0 3d 70 9e d1 3b
       -0.43179008 -0.09158132 0.08602482 0.006397061
000090 1d 32 c8 3c 4b 83 b9 3d 7c d5 1c 3e 36 1f bc bd
       0.024437958 0.09058245 0.15315813 -0.091856405
0000a0 22 3b 76 bd 1b 36 e3 bc 5c 33 54 be a4 58 8f 3c
       -0.060114987 -0.02773576 -0.20722717 0.017498322
0000b0 2e 66 83 bd d3 36 48 3e 8e 8b c1 bd 3b c1 70 3c
       -0.064159736 0.19552164 -0.09450446 0.014694507
0000c0 6c bb 46 be 6b 94 35 3e 18 28 96 3d d4 90 d7 bb
       -0.19407433 0.17732398 0.07331866 -0.006578544
0000d0 71 ae 09 bd ae b5 24 3e bf dd bb 3d 46 f6 ca 3c
       -0.033613626 0.1608493 0.09173154 0.024775635
0000e0 e1 0f 46 3e 52 a1 2e 3c a5 b2 e9 bd 32 68 8a bd
       0.19341995 0.010658579 -0.11411027 -0.06758155
0000f0 e1 a9 82 3d 52 c9 cb bc 42 c5 8f bd 91 56 ad bd
       0.06380058 -0.02487627 -0.07020046 -0.08463777
000100 46 d0 13 be 1a 89 45 bd e3 f9 b1 bc 8a a1 f9 bb
       -0.14434919 -0.048226453 -0.0217256 -0.007618134
000110 f4 64 ec bb df 00 82 3d f0 82 40 bc 94 8d 85 bd
       -0.007214183 0.063478224 -0.011749968 -0.065211445
000120 ad e3 1b be f3 92 cd 3d 3a af 1c 3e 18 75 12 3e
       -0.1522357 0.10037794 0.15301219 0.1430248
000130 60 7e eb bd c6 67 09 3d a2 9c 04 be 7a 70 e8 3d
       -0.114987135 0.03354623 -0.12950376 0.11349578
000140 72 16 22 3e 8d 52 1e be fa 63 5e 3d ba df 69 b9
       0.15828875 -0.15461178 0.054294564 -0.00022303956
000150 2c fd 8d be 3c 30 34 3c 63 09 ea 3d c8 09 04 be
       -0.27732217 0.010997828 0.114275716 -0.12894356
000160 c4 5b 93 3d ab 93 f8 bd ff 6a cb 3d 38 d4 74 bc
       0.07195237 -0.121375404 0.09932517 -0.014943175
000170 9d 76 08 bd 74 47 cb bd f9 bd 94 bc 33 fd cf bd
       -0.033316243 -0.09925738 -0.018156992 -0.10155716
000180 9b 2d 6b 3e ac 3a 96 bd 5c af 94 3d 7c 3e 36 bc
       0.22966616 -0.073354095 0.0726001 -0.011123296
000190 64 ae 44 bd 32 ef 69 3d c4 67 1a be 06 bd a4 bd
       -0.048017874 0.05711288 -0.15078646 -0.08043866
0001a0 82 d9 2c bf b8 25 62 3d 00 30 53 3e ef 91 f0 3c
       -0.6751939 0.055211753 0.2062378 0.029366462
0001b0 64 5b a5 3e 0a b7 e3 3d 04 9c 94 3c f0 78 5e 3c
       0.32296288 0.11118896 0.0181408 0.013578638
0001c0 82 75 0b 3e 86 af 22 bd 01 cd 09 bd 8e eb d9 bc
       0.13619044 -0.039718173 -0.033642773 -0.026601579
0001d0 06 db 38 bb 07 4e 6a bd 28 74 05 be 6a 2f d6 bd
       -0.002820672 -0.05720332 -0.13032591 -0.10458262
0001e0 52 7a 9c bf 60 f3 8c 3d 17 ed d2 3d a5 46 81 bc
       -1.2224829 0.068823576 0.102991275 -0.015780756
0001f0 e1 a0 fc 3d 90 61 8d 3d ff 32 03 3e 1e 79 ff 3b
       0.12335373 0.06903374 0.12812422 0.0077964207
000200 7c 8e 9c 3e f5 9e 33 bd d3 51 13 be 63 96 0b be
       0.30577457 -0.043852765 -0.14386682 -0.13631587
000210 dc 17 bb bd a5 56 5f bd 4c c0 89 bd ff fb 6a bd
       -0.0913541 -0.05452599 -0.06726131 -0.05736923
000220 0b 4b e2 be 5d 7f 87 bd e7 51 e9 bd 0a d8 87 3d
       -0.44197878 -0.066160895 -0.11392575 0.06633003
000230 72 74 57 3b 09 47 08 3e 5a df 00 3e 1e d0 a1 3d
       0.0032875803 0.13308348 0.12585202 0.07901023
000240 c4 a8 cd 3e c5 6b 7e 3c 2b 4e 01 bd b4 0c 92 be
       0.4016782 0.015528624 -0.031568687 -0.28525317
000250 f4 17 c4 3d 9a 01 d9 bc 9b c6 0e bd ab b7 44 be
       0.09574881 -0.026490021 -0.034857374 -0.19210689
000260 b4 8f 07 3d 84 c3 6d be ee 2d 78 3d 54 11 17 3d
       0.03309603 -0.23219115 0.060590677 0.03688176
000270 7e 0b 19 bb e0 38 cf 3d 27 3c 02 3d 3b 3a a2 bc
       -0.0023352797 0.1011827 0.031795647 -0.019803157
000280 b3 95 db 3d 9b 4c ca bd 06 be 0c bd c2 b2 6a 3d
       0.10721912 -0.098778926 -0.034360908 0.057299383
000290 f7 c3 2d 3d 9b 92 37 bd 23 b0 a4 bd 56 27 94 bd
       0.042423215 -0.04481755 -0.08041408 -0.07234065
0002a0 c5 77 11 3f 84 82 7d be 17 75 8b bd a7 88 4b bd
       0.5682338 -0.24756819 -0.068094425 -0.04969087
0002b0 c9 33 4e be 0d 9d 55 be ed 78 01 be b0 2b f2 bd
       -0.20136942 -0.20860691 -0.12643786 -0.11824739
0002c0 f5 50 f4 3e 56 c1 f8 3d 07 1a ff 3b 0c 8b 20 be
       0.47718015 0.12146251 0.007785085 -0.15678042
0002d0 44 f6 95 3b 05 b8 79 be e0 e1 61 3b af be 06 be
       0.0045764763 -0.24386604 0.0034466907 -0.13158678
0002e0 33 e2 48 3f 51 30 a6 3d 5b 3e c5 bd c5 18 b1 bd
       0.7847015 0.081146844 -0.09631034 -0.086473025
0002f0 1d 07 4d bd b3 c6 52 be 34 3a 95 bc be ad fd bc
       -0.050055612 -0.2058361 -0.01821623 -0.030966636
000300 e9 28 57 bf 66 10 fc 3d cd 16 28 3e 27 32 e9 3d
       -0.840468 0.12307815 0.16414948 0.11386519
000310 c7 29 74 3e c0 1d cc 3e 96 55 86 3e 51 e7 7d 3e
       0.23844062 0.39866447 0.26237172 0.24795271
000320 6d 81 39 3f 34 eb 91 bc 95 31 1b be 02 a6 8a bd
       0.72463113 -0.017812349 -0.15155633 -0.06769945
000330 3c 07 d5 3d b6 3b de be 6b f2 df bd 24 86 b6 3d
       0.104017705 -0.4340493 -0.109349094 0.08912304
000340 91 2c d3 bf 8a aa 7d 3e 92 23 99 3e 6a b7 bc 3e
       -1.6497976 0.24772087 0.2990995 0.36858684
000350 45 6a 9b 3e 0d 9d 83 3e e8 93 04 3e 8b 9a 84 3e
       0.30354515 0.25705758 0.12947047 0.25899157
000360 d7 25 27 3f 2e 55 9b bd 1e aa c0 bd 10 53 e4 3c
       0.65292114 -0.07584606 -0.09407447 0.027871639
000370 fd d6 2b bd 64 6f c7 be d6 92 b9 bd 68 00 4d 3c
       -0.041953076 -0.38952172 -0.0906121 0.012512304
000380 f5 89 1c bf a6 20 41 3e 29 a9 9b 3e f7 ca 83 3e
       -0.61148006 0.1886011 0.30402496 0.25740787
000390 6f c4 29 3e 01 15 3d 3e ce 3d 87 be 93 28 7e 3e
       0.1657884 0.18465044 -0.2641434 0.24820165
0003a0 b0 0a fe 3e 7e ec 0a 3e b4 9d 2a bd f0 de 5d bd
       0.4961753 0.13566777 -0.041654304 -0.054167688
0003b0 70 8d 14 3e 87 e4 8a bd 2f b9 c0 3d 9e 77 8d bd
       0.14507079 -0.067818694 0.09410321 -0.06907581
0003c0 7d cc 31 3f 37 f4 af 3c 10 5f 66 3d 96 70 bf 3c
       0.6945265 0.021478755 0.056243002 0.023369115
0003d0 35 af a3 38 8e 00 30 be 30 d8 2c be 9a 85 9d bd
       7.8050805e-05 -0.17187712 -0.16879344 -0.07691498
0003e0 a0 da 69 bf 10 86 aa 3e 06 5f 23 3d 1a 03 82 3e
       -0.9134922 0.33305407 0.039885543 0.2539299
0003f0 05 4a 0c 3e b7 ed c1 3e dc 41 8f 3d 6a 1e cd 3e
       0.13700111 0.37876675 0.069949836 0.40062267

net.0.bias f4 [128]
000000 6d 10 05 3e 00 e0 f4 3d ac e8 92 3d 85 2d a3 3d
       0.12994547 0.11956787 0.07173285 0.079676665
000010 9a 47 26 3e 60 55 73 3d c7 cc af 3e 72 11 2e 3e
       0.16238251 0.05940759 0.3433592 0.16998842
000020 8f 30 bb bb e6 76 18 3e 89 97 dd 3d dd 7d 32 3d
       -0.0057125757 0.14889106 0.10819919 0.043577064
000030 53 f2 c5 3d 73 d0 87 3d db c3 e5 3d 49 61 d3 3d
       0.0966536 0.066315554 0.11218997 0.1032129
000040 f6 7a 64 3d 25 f7 33 3e 8a 76 0b 3e ad 3e 86 3d
       0.055781327 0.17574747 0.13619438 0.06554923
000050 e9 f1 82 3d 96 0b 4c 3d ce 40 5a 3e 1e ef d5 3d
       0.06393797 0.049815737 0.21313784 0.104459986
000060 14 4c 24 3e f5 ef fd 3d d4 bb d4 3d 0a c7 0b 3e
       0.16044647 0.12399284 0.10387388 0.13650146
000070 cb 64 ad 3d 32 00 9b 3e dd 30 0b 3e 51 ec b3 3d
       0.0846649 0.30273587 0.13592859 0.08785308
000080 66 86 ed 3d 8f f2 a4 3d 10 99 b8 3d 64 e4 72 3d
       0.115979 0.08054077 0.09013569 0.05929984
000090 44 a8 bc 3d 65 96 1a 3e 65 6f 36 3e 30 7f 01 3e
       0.092117816 0.15096433 0.17815931 0.12646174
0000a0 b2 e7 b1 bc 39 48 98 3d ec 10 54 3d ef f1 dc 3d
       -0.021716926 0.074356504 0.05177395 0.10788333
0000b0 97 68 9c 3d 6c 09 13 3e ee 1b b6 3d 6d 42 31 3e
       0.076371364 0.14359063 0.08892046 0.17310496
0000c0 20 cd ec 3d 88 83 ea 3d 8e 0a 89 3c 24 ec c6 3d
       0.11562562 0.11450869 0.016728666 0.09713009
0000d0 0b 6f 48 3d 82 79 93 3d 34 46 ea 3d e4 8e d2 3d
       0.048934024 0.0720091 0.114391714 0.102811605
0000e0 62 e7 01 3e f5 01 64 bc a8 97 27 3e 8d 8c b2 3d
       0.12685922 -0.013916482 0.16366446 0.08718214
0000f0 8b 4a 08 3e d3 16 f9 3d ba d4 c3 3c 0f e5 d7 3d
       0.13309686 0.121625565 0.023905147 0.10541736
000100 39 c9 e6 3d 5f ea 0b 3e 46 5f 5c 3e 8d 7d bd 3d
       0.11268849 0.13663624 0.21520719 0.092524625
000110 4b e6 af 3d 2d 02 cd 3c 4f 6a 0f 3e 2a fd 1b 3e
       0.08588847 0.025025452 0.14005397 0.15233293
000120 83 55 26 3e d2 0f 0d 3e bb 10 d6 3d d5 d3 7f 3e
       0.16243558 0.13775566 0.1045241 0.24983151
000130 e4 f3 fc 3d e6 21 1e 3e d2 e4 1f 3e 3f 9a e1 3d
       0.12351206 0.15442619 0.15614632 0.11015748
000140 20 5e 7c 3d 21 2f 54 3f 8a 8a 0f 3e af 53 68 3e
       0.061613202 0.82884413 0.14017692 0.22688173
000150 50 51 0c 3e 1f cf 04 3e 67 c1 21 3e e6 12 16 3d
       0.13702893 0.12969635 0.15796433 0.036639117
000160 1e 74 97 3e 90 09 e3 3d ef 0d ee 3d 5a 47 66 3d
       0.29580778 0.11085808 0.11623751 0.05622039
000170 46 0a fe 3d 95 58 70 3c 61 61 43 3e 33 b6 8a 3d
       0.12404303 0.014669557 0.19080116 0.06773033
000180 d3 ee 65 ba bd d2 19 3e 58 27 9c 3d f0 d4 b8 3d
       -0.00087712443 0.15021797 0.07624692 0.090249896
000190 78 67 1d 3e e0 f2 79 3e 2b 1e a7 3d 26 78 1c 3e
       0.15371501 0.24409056 0.08160051 0.15280208
0001a0 ec 15 6e 3d b9 98 cc 3d 5f dd ce 3d cc 7f 87 3d
       0.058126375 0.09990067 0.10100817 0.06616172
0001b0 0c 86 cf 3d fb 1d 06 3e d3 28 f5 3c 97 f6 ff 3d
       0.10132989 0.13097374 0.029926693 0.12498205
0001c0 18 40 d0 3c 5d 99 0f 3e d2 5a f7 3d 89 c1 3a 3d
       0.025421187 0.14023347 0.120778695 0.045594726
0001d0 ea 79 1d bd d5 63 47 3e 0f 5e d5 bc e4 3e 31 3e
       -0.038446344 0.19471677 -0.026045827 0.17309147
0001e0 83 52 dc 3d a8 34 10 3e 88 ac 32 3e 1f 48 35 3e
       0.10757925 0.14082587 0.17448628 0.17703293
0001f0 ba b6 0e 3e ad a2 a7 3d 9f 57 9e 3d a5 ba be 3d
       0.13936892 0.08185325 0.07731556 0.09312943

net.2.weight f4 [256, 128]
000000 f3 43 9d 3f 3f c8 9f 3d 89 8d f2 3f ab 3c bf 3e
       1.2286361 0.07801866 1.8949443 0.37350973
000010 e8 50 9c bd 93 91 f4 3e 4a 6b 2d 3f 76 b5 de 3f
       -0.07632619 0.47767314 0.67741835 1.7399127
000020 31 af 2b 40 7c 1f 10 3f a3 60 59 3f 0c b1 a2 3e
       2.6825678 0.5629804 0.8491308 0.317757
000030 d7 94 3c 3d d3 3e e8 3d bf 7f 82 be e8 87 6a 3f
       0.046040382 0.11340108 -0.25488088 0.91613626
000040 0c 88 0f 3f c6 0e d7 bc 72 52 08 3f 90 26 be 3f
       0.56066966 -0.026252162 0.532508 1.4855518
000050 20 18 98 3f d5 44 e4 3f 59 f2 09 bd 64 22 32 3f
       1.1882362 1.7833506 -0.033678386 0.69583726
000060 8e 19 c1 3e 78 36 3c 3e 41 97 4e 3f 73 ab 33 be
       0.3771481 0.18380153 0.80699545 -0.17545871
000070 a3 02 d6 3e 12 9b b3 3d 87 72 49 3e cc c1 27 3f
       0.41798887 0.08769812 0.19672595 0.65530086
000080 d4 85 4a 3f 1c a3 0a 3f be 67 c4 3e 25 0e 28 3f
       0.79110456 0.54155135 0.383604 0.6564658
000090 43 24 eb bd 2e 03 a5 3f 11 a0 af 3f b2 9f 8b 3c
       -0.11481526 1.2891595 1.3720723 0.017043922
0000a0 66 6b 58 bf 64 68 81 3e 6c 7b ad 3d d0 a4 3a 3d
       -0.84538877 0.25274956 0.084708065 0.045567334
0000b0 06 7c 84 3e 8d fc af 3e d6 eb 82 3f f2 d6 8f 3f
       0.25875872 0.34372368 1.0228221 1.1237471
0000c0 a9 3a 3f 3f aa 89 3a 3e 4e 67 3f 3f e7 c1 cd 3f
       0.74698883 0.18216577 0.74767005 1.6074799
0000d0 f3 43 05 3f 57 8a 80 3d 02 64 0c 3f 1b 8b 68 be
       0.5205681 0.06276386 0.548401 -0.22709315
0000e0 7e 93 af be c2 11 59 bf d6 2a a5 3e f0 ad a2 3f
       -0.34292215 -0.8479272 0.32259244 1.2709332
0000f0 e4 02 5e 3b 87 83 0c 40 cb 3c b3 3e e2 06 02 3f
       0.0033876235 2.1955278 0.3500732 0.5079175
000100 89 e2 8c 3d 86 97 02 3f dc 4d 83 3f 94 ce 0a 3e
       0.06879146 0.51012456 1.0258136 0.13555366
000110 79 8e 8b 3f 35 0b d9 3e 1e 0d 61 be d9 c7 14 3e
       1.0902854 0.42391363 -0.2197766 0.14529361
000120 19 0d 92 3e d6 26 89 3f 6f ee ec 3e 67 3c 05 3e
       0.28525618 1.0714977 0.4627566 0.13011323
000130 5f 99 a7 3e 18 cd a8 be 47 0f 20 3f 60 8e 83 3e
       0.327342 -0.32968974 0.6252331 0.2569456
000140 a5 e7 20 3f 4c 56 05 3f 10 d1 14 bf 4f 24 1b 3e
       0.6285346 0.52084804 -0.58131504 0.1515057
000150 2a d2 f3 3e 2b 53 80 be 21 4c 33 3f b1 fc 2f 3f
       0.4762128 -0.25063452 0.7003804 0.6874495
000160 e6 79 5c be 51 da 1d 3e 9b a0 3f 3f eb eb 15 3f
       -0.21530876 0.15415312 0.7485444 0.5856311
000170 f3 dc 3d 3f 73 47 ae 3f dc 67 0e 3f cc b1 05 3f
       0.74165267 1.3615555 0.55627227 0.5222442
000180 51 a2 5e 3f c2 10 9d 3d b6 55 a3 3e 51 2c 77 bf
       0.86966425 0.07669212 0.3190133 -0.96551996
000190 81 9d 24 be 51 62 89 be df 83 c1 3f 3a 6c 9d 3e
       -0.16075708 -0.26832822 1.5118369 0.30746633
0001a0 c0 f4 36 3e 99 64 ac 3e a8 5e 06 3f f8 a7 78 3b
       0.17866802 0.336705 0.52488184 0.0037941914
0001b0 cf 25 7c 3f 70 c3 c9 3f a3 2c 5f 3e 76 7f 1b 3f
       0.9849519 1.5762768 0.21794371 0.60741365
0001c0 75 d9 29 3f 34 40 4a 3f c0 1d 13 3f 2f 72 7b 3f
       0.6634744 0.79004216 0.5746727 0.98221105
0001d0 5f b1 ec 3f 8f 7a 52 3e a1 ff 67 bf 25 12 41 3f
       1.8491629 0.20554565 -0.90624434 0.7541831
0001e0 60 61 85 3e 8a be a9 3c a1 b4 aa 3e 22 c5 02 3f
       0.26050854 0.020720739 0.33340934 0.5108205
0001f0 b2 80 0d 40 17 b6 84 3d 34 7a 90 3f e2 fc b2 3f
       2.21098 0.064800434 1.1287293 1.3983424
000200 ac 34 14 40 f8 98 29 3e a4 52 41 3f a2 e3 b4 bd
       2.3157148 0.16562259 0.75516725 -0.0883248
000210 59 6f ec 3e 03 5e 19 3f 19 cc da be dc 97 86 3f
       0.46178702 0.59909075 -0.4273384 1.0515094
000220 32 cf 94 3e ac fc 97 3e 2d b3 6c be 7d 43 fa 3d
       0.29064327 0.2968496 -0.23115225 0.122199036
000230 3f fe a4 3e 55 52 43 3f de f3 49 3f a1 5e 70 3f
       0.32225224 0.76297504 0.78887737 0.9389439
000240 1f 86 b6 3e 7e 79 49 3f b5 09 8a 3e 36 87 0d 3e
       0.356492 0.7870101 0.2696053 0.1382111
000250 95 e4 c3 3f b3 af 7a 3f 10 0b 2d 3f 8e 8b 3b 3f
       1.5304133 0.97924346 0.67595005 0.7325982
000260 b4 18 16 3f 14 b5 f8 3e 9a ac 62 3f c8 f7 dc 3e
       0.58631444 0.48575652 0.8854462 0.43157792
000270 5f 64 5b 3e 67 73 ee 3e bd d8 c6 3d 76 0a df 3f
       0.21425007 0.4657242 0.09709308 1.7425067
000280 5c f0 d9 3e f2 98 6c 3f 60 c7 1c 3f 80 0e 57 3e
       0.42566192 0.92420876 0.6124172 0.21001625
000290 b7 f6 75 3f 1a 26 9c 3f fc 3a 7e 3f af 7d 16 3f
       0.9607958 1.2199128 0.99308753 0.5878553
0002a0 ba ce 91 bf 5c f7 d6 3e 5d fb bc 3e 67 6f 3d 3f
       -1.1391213 0.41985595 0.36910525 0.7399811
0002b0 8b ea 14 3f 99 2f 2a 3f e3 8f e4 3f cb cb 1e 3f
       0.58170384 0.6647888 1.7856411 0.62029713
0002c0 39 a4 d4 3f d1 6e 6a 3e 9c f5 92 bd 69 b9 4f 3f
       1.6612617 0.22893836 -0.071757525 0.8114229
0002d0 45 61 27 3f 5c 8e 95 3e 84 70 25 3f 52 b1 00 3f
       0.65382797 0.29210174 0.6462481 0.5027057
0002e0 76 af 60 3f 75 bd 87 bf dc 87 80 bd 06 a4 ad 3f
       0.8776773 -1.0604693 -0.06275913 1.3565681
0002f0 a8 8e ff 3c 3b a2 a3 3e 7f 45 f5 3d 0b 12 fa 3e
       0.031195953 0.3195971 0.11976146 0.4884189
000300 8f c2 1f be ad fb d4 3d dd f1 b0 3f b0 16 8a 3e
       -0.15601562 0.10399566 1.3823811 0.26970434
000310 cd 1b d2 3f 8b d5 e5 be fb 7e 63 3f 53 af 3c 3f
       1.6414734 -0.44889483 0.8886563 0.73705024
000320 54 0e 57 3f 6c c9 81 3e 92 4d d9 3d cf c8 cb 3e
       0.8400624 0.25348985 0.106104985 0.39801642
000330 f9 1c 60 3f db b9 19 3f f3 ee 1d 3f ba 17 7f 3f
       0.8754421 0.6004922 0.6169273 0.9964558
000340 93 4b 4b 3f 38 02 96 be d2 bb ea 3e 57 b0 95 3e
       0.7941219 -0.29298568 0.4584642 0.292361
000350 4d 37 3b 3f 0a 76 b8 3e 3a f3 de 3d 8a e0 c3 3e
       0.7313126 0.36027557 0.108862355 0.38257247
000360 c6 20 50 3f 13 48 2c 3f 4a d2 09 bd 1e 09 82 3e
       0.8130001 0.67297477 -0.033647813 0.2539758
000370 2f 8b 92 ba 1c 12 22 bf 28 b3 a4 be aa 16 bf 3e
       -0.0011180396 -0.6330888 -0.32167935 0.3732198
000380 0a 6a ae bd 77 6d 6e 3f 0a 09 1e 3f 58 ab 84 3f
       -0.08516319 0.9313578 0.6173254 1.036479
000390 f0 92 68 3f e8 0c 01 3f bc f7 c7 3f d4 30 42 3f
       0.9084921 0.5041032 1.5622478 0.75855756
0003a0 f5 aa 09 3f 36 20 be 3e 6b 64 74 3e d0 fb 2a 3f
       0.53776485 0.3713395 0.23866431 0.66790485
0003b0 f9 7a 23 bd 43 5e 66 3f 50 bf 5d 3f dd eb 11 bd
       -0.039912198 0.8998758 0.86620045 -0.035625327
0003c0 1e 59 38 bd e2 7e d3 3f 39 6c 3e 3f d6 fb 0a be
       -0.045006864 1.6523097 0.74383885 -0.1357263
0003d0 27 c7 57 bf fd f4 34 3e 42 87 92 bf da 61 8a 3f
       -0.8428826 0.1767158 -1.1447527 1.0811112
0003e0 23 67 75 3f 98 cd 02 3f 9e ce b4 3e f9 ae 01 3f
       0.958605 0.5109496 0.35313886 0.5065761
0003f0 1e b1 c3 3c 91 fe f6 3e 48 d1 12 40 f6 76 d6 3f
       0.023888167 0.48241094 2.2940235 1.6755054

net.2.bias f4 [256]
000000 86 aa 8a 3e 83 25 59 3e 4e 82 59 3d 96 09 31 3e
       0.27083224 0.21205716 0.053102784 0.17288813
000010 27 a8 2c 3e a5 6d 7d 3e 7e 62 ae be 1a 27 40 3e
       0.1686102 0.24748857 -0.3405952 0.18764916
000020 32 5e b8 3f 0e 82 6c be d5 10 6b be e6 16 52 3d
       1.4403746 -0.23096487 -0.2295564 0.05129137
000030 ce 40 42 3e ca c5 ee 3d 78 ff 0e 3e 13 66 fe 3d
       0.18970034 0.11658819 0.13964641 0.12421813
000040 d1 09 40 3e 3f 47 0e 3e eb 01 86 be 2f db af 3d
       0.18753745 0.13894366 -0.26173338 0.08586728
000050 f9 29 8c be 9c 8e 62 3e d6 7e 59 3d 37 b1 9b bc
       -0.27375773 0.22124714 0.053099476 -0.019005401
000060 15 04 a5 3e 30 68 09 3e d4 56 ce 3d 0b 15 1b 3e
       0.32229677 0.1341865 0.10075155 0.15144746
000070 ef 43 73 3e 61 0e 69 3e 31 5e a4 3d c6 16 75 3e
       0.23756383 0.22759391 0.08025778 0.23934469
000080 75 9a 8b be 90 99 9e be f7 1a 1e 3e c2 1e 47 be
       -0.2726628 -0.30976534 0.15439974 -0.19445327
000090 90 8b c2 3e b6 d9 7a bc 0f 60 33 3e a8 9e 15 3e
       0.37997103 -0.015310695 0.17517112 0.14611304
0000a0 54 01 3b 3d 73 a3 e9 3d 3a 5a aa 3d 6c a1 55 3e
       0.045655563 0.114081286 0.083179906 0.20862359
0000b0 28 6c 18 3e 6e ca 83 3e 3b 0d 6e 3e ef c1 8f bc
       0.14885008 0.2574038 0.23247235 -0.01754853
0000c0 f7 4f 24 3e 59 26 24 3e b3 18 a5 be f9 ce 86 3e
       0.16046129 0.16030253 -0.32245407 0.26329783
0000d0 bc d3 a1 be 29 d6 66 3e 69 99 88 be fe 0a 24 3e
       -0.31606853 0.22542633 -0.26679543 0.16019818
0000e0 de ac 82 3d e0 85 b7 3d e6 63 a4 be 69 46 33 bc
       0.06380628 0.089610815 -0.32107466 -0.01094208
0000f0 c4 6e 03 3e 7b b8 27 3e a3 e9 b7 3e 19 b5 53 3e
       0.12835222 0.16378967 0.35920438 0.20674552
000100 f8 3a 99 3d 95 9f b0 3f b2 e7 a1 3e 2c 98 84 3d
       0.074819505 1.37987 0.31622082 0.06474337
000110 73 11 b3 3d da 66 6c 3d b8 36 8a 3e 95 6d 8f be
       0.087435625 0.057715274 0.26994872 -0.28013292
000120 a2 88 04 3e 0c a5 d1 3d 65 38 10 bf 9b f8 8d 3e
       0.12942746 0.10236558 -0.5633605 0.27728733
000130 43 67 d1 3e d3 c3 83 3f 6f bb 57 3e e1 f7 68 3e
       0.40899095 1.0294136 0.21067594 0.22750808
000140 1f 6d 91 be 80 bd 15 3e 77 9c 7c be 45 c8 8e 3d
       -0.28403565 0.1462307 -0.24669062 0.06971792
000150 ca de c3 3d 43 30 2c 3d 1e de 4d 3d 7d 8f a9 3d
       0.09563978 0.042038213 0.050260656 0.08279321
000160 2f 82 b5 3d 81 28 08 3f a7 83 26 3e 7b a6 36 3e
       0.08862721 0.53186804 0.16261159 0.17836945
000170 0f 49 dc 3c 98 ea af 3f f6 a7 98 3e e5 e9 98 3d
       0.026890306 1.3743467 0.29815644 0.07466487
000180 c0 c4 0a 3d 81 27 a2 3e 51 6d a6 3e d4 07 65 3e
       0.03387904 0.31670764 0.32505277 0.22366267
000190 e2 18 51 be 59 71 8a 3d 1d 40 af 3e 89 1f 46 be
       -0.20419648 0.067599006 0.34228602 -0.19347967
0001a0 ad f5 be 3d 78 3c b2 3e 8e 84 4b 3e c8 39 60 3e
       0.09324203 0.3481176 0.19874784 0.21897042
0001b0 e0 8b 66 3e 76 3e c1 3d 2a 0a d1 3e b0 96 84 3d
       0.22514296 0.094357416 0.40828067 0.06474054
0001c0 84 92 45 3d 22 8f 96 3d 08 14 e9 3d 52 27 29 bc
       0.04823543 0.07351519 0.11380774 -0.010324316
0001d0 76 62 57 3c 8c 16 a8 be cb 65 b7 be 23 34 35 be
       0.0131460335 -0.32829702 -0.3581985 -0.1769567
0001e0 a5 95 9c 3e 5e 54 34 3e f8 80 70 be 03 55 29 3e
       0.3058292 0.17610309 -0.23486698 0.16536336
0001f0 f2 e6 ac 3e cf 84 50 3e 5c 8b 2a 3d 12 24 d7 3d
       0.33769947 0.20363162 0.04163681 0.10504927
000200 75 f1 0d 3e bf 12 1d 3e 72 b0 e2 3d 74 a2 77 3e
       0.1386164 0.15339182 0.110688105 0.24183065
000210 2d d1 d1 3c 8c 53 41 3e dd 70 60 3e 81 a7 2d 3d
       0.025612438 0.18879527 0.21918054 0.042396072
000220 e5 14 e5 3e 41 00 ff 3d a1 c5 dd 3d 7c 43 1c 3e
       0.44742504 0.1245122 0.1082871 0.15260118
000230 d8 06 8d 3e 65 42 7a 3e 9c b1 32 3e 98 9b 53 3e
       0.27544284 0.2443939 0.17450565 0.20664823
000240 de 09 7a 3d 83 d1 65 3e 6f 39 8b be f8 2d 12 be
       0.061044566 0.22443204 -0.27192256 -0.14275348
000250 2b d5 9e 3e d0 54 65 3e e2 b6 d4 3e 15 26 08 3c
       0.3102201 0.22395635 0.4154578 0.008309861
000260 54 14 b7 3d 44 df 0c 3e f2 f5 93 3c 32 96 c5 3d
       0.08939424 0.13757044 0.018061612 0.09647788
000270 6b 57 89 3e 8c a7 cc 3d c2 44 5f 3e 9e 78 fc 3d
       0.26824507 0.099928945 0.21803573 0.123276934
000280 9d 56 63 be 3d 0b 57 3e 46 e0 31 3e 18 ad a2 3e
       -0.22201009 0.21000381 0.1737071 0.31772685
000290 c4 2e 14 3e d8 58 21 3e 89 97 07 be a7 3f 9d 3d
       0.14470965 0.15756547 -0.132414 0.07678156
0002a0 d4 15 36 3e ff 14 a3 be 2f f1 4e 3e e4 13 13 3e
       0.17781764 -0.31851956 0.20209192 0.14363056
0002b0 eb 3f 99 3f 07 88 5d 3e 9a 01 65 3e 89 53 fd 3c
       1.1972631 0.21633922 0.22363892 0.030923622
0002c0 2e 5d 0a 3e e6 33 47 3d 6c b1 45 3e e3 bc 57 3d
       0.13512108 0.04863348 0.19305962 0.05267037
0002d0 7a fd 38 3d 98 b2 52 bd 11 ae 9a 3d 1f 81 18 3e
       0.04516361 -0.05143985 0.07552732 0.14893006
0002e0 d0 d1 58 bd 12 71 0d 3a 2c 55 1e 3f 58 c6 d4 3d
       -0.052934468 0.0005395572 0.6184871 0.103893936
0002f0 98 dd 37 be ba c4 b7 3e f4 ec 9d be 22 0f 03 3e
       -0.17955625 0.35892278 -0.30844843 0.12798741
000300 85 c0 71 3e 03 c4 b1 bf 39 a7 59 3e 6f c1 5a 3e
       0.23608597 -1.3887943 0.21255197 0.21362852
000310 72 59 60 3e 0c d5 83 3e b4 da 4c 3e 4e 5e 17 3e
       0.2190912 0.2574848 0.20005304 0.14782068
000320 ee 7e 36 3e 03 35 ac be 2b e1 45 3e 71 0c 14 3e
       0.17821857 -0.33634195 0.19324176 0.14457871
000330 c6 d5 42 3e f0 a8 2a be 1f b2 8c be 83 08 24 3e
       0.1902686 -0.16666007 -0.27479646 0.16018872
000340 68 ec cc 3d 31 06 de 3d e2 ad 04 3e f8 cd 3f 3e
       0.100060284 0.10841025 0.12956956 0.18730915
000350 9e 50 1c 3e af 79 81 3f 33 60 12 3e 41 a6 0e 3f
       0.15265128 1.011526 0.1429451 0.55722433
000360 2c aa 47 3e b2 04 0f 3e 89 73 53 3e de 61 3c 3e
       0.19498509 0.13966635 0.20649542 0.18396708
000370 7e d3 b1 3d 88 9f 6d 3e c9 ab ee 3d 97 89 8d 3d
       0.08682917 0.23205388 0.11653859 0.06911009
000380 92 af 1e 3e d5 f5 7e 3d 82 5d 68 3e e5 28 44 3d
       0.15496662 0.062246162 0.2269192 0.047890563
000390 c4 11 1e 3e fc 9e ef 3d 67 66 76 be 60 f3 a5 3d
       0.15436465 0.11700246 -0.24062501 0.08103061
0003a0 a3 58 9c 3d 8d 8d 19 3e f2 dd 54 be 8e ba be 3e
       0.076340936 0.14995404 -0.2078779 0.37251705
0003b0 07 79 77 3e 58 10 b4 3d ac c5 10 3e 5f 80 35 3f
       0.24167262 0.0879218 0.14137906 0.70899004
0003c0 94 e2 02 3e 3c f1 b4 3d 20 b7 9a be 45 8e 11 3e
       0.12781745 0.08835074 -0.30217838 0.14214428
0003d0 e7 f9 16 3e e3 25 a4 3e 51 6c 40 3e 4c 5e f3 3d
       0.14743768 0.32060155 0.1879132 0.1188322
0003e0 ec bf de bc 4c af a4 be 16 bb 56 3e 94 a2 3b be
       -0.027191125 -0.3216499 0.20969805 -0.18323737
0003f0 29 3e 21 3e 55 22 ac 3d 0f 83 9a 3e b1 77 dc 3e
       0.15746368 0.08404986 0.30178115 0.43060067

net.4.weight f4 [27, 256]
000000 91 08 3d 3e 99 ee e2 3e e5 b6 e1 3e 52 af c3 3e
       0.18460299 0.4432266 0.4408485 0.38219696
000010 9f 94 c5 3e d6 bb d2 3e e8 4e f5 3e f9 5f db 3e
       0.3858995 0.41158932 0.47911763 0.4284666
000020 7c 7c 86 bf 68 80 f7 3e 9a 0c e9 3e 61 60 d9 3e
       -1.050674 0.48340154 0.45517427 0.42456344
000030 36 af ed 3e 52 6c a5 3e 92 c9 c0 3e 2f bd b7 3e
       0.46422738 0.32309204 0.37653786 0.35886523
000040 30 69 bd 3e cc 1f d0 3e 3f 1b d5 3e 20 ad c7 3e
       0.36994314 0.4064926 0.4162235 0.3899927
000050 9d 08 01 3f 77 e7 8e 3e 38 34 cc 3e f6 7d f8 3e
       0.5040377 0.2791097 0.3988359 0.485336
000060 6e a1 a8 3e 34 44 ca 3e 6f 30 d4 3e b7 db 98 3e
       0.3293566 0.3950516 0.41443202 0.2985513
000070 5c 82 74 3e db ac b4 3e 76 6b d1 3e fa ba a9 3e
       0.23877853 0.35288128 0.409023 0.33150464
000080 eb 1b 00 3f b5 4b d4 3e f0 f2 b6 3e f2 37 c2 3e
       0.500426 0.4146401 0.35732222 0.37933308
000090 86 cd ef 3e 50 84 57 bd 2e 3c c3 3e 37 1c 76 be
       0.4683649 -0.052616417 0.3813185 -0.240342
0000a0 c4 e8 df 3e 4c 67 aa 3e d8 65 dc 3e 73 cc b5 3e
       0.43732274 0.33281934 0.4304645 0.35507545
0000b0 29 75 b3 3e 4d 93 c4 3e 8e a4 9e bb ab 65 cc 3e
       0.35050324 0.38393632 -0.004841394 0.39921317
0000c0 48 26 c1 3e ea b0 b5 3e bf f8 f7 3e 8b 23 cc 3e
       0.3772452 0.35486537 0.48431966 0.39870867
0000d0 b3 c5 f8 3e 9b 11 65 3f a2 b2 ef 3e 73 29 ce 3e
       0.48588333 0.8947999 0.46815974 0.40265998
0000e0 6f 44 a8 3e 7d 01 d1 3e c8 8b ce 3e d0 77 5f 3e
       0.3286471 0.40821448 0.4034102 0.21823049
0000f0 b6 36 be 3e aa 3b c4 3e 5f d6 f0 3e 36 f8 b8 3e
       0.37151116 0.3832677 0.47038552 0.3612687
000100 36 e3 c1 3e 3a 6e 79 bf 67 a1 90 3e dc 81 d9 3e
       0.3786866 -0.9743382 0.2824814 0.42481887
000110 7a 60 a2 3e 2b 0b e3 3e fb be a7 3e 6c c1 c2 3e
       0.3171423 0.44344458 0.32762894 0.38038194
000120 85 42 cd 3e 8d 4c 94 3e e4 6f f7 3e fe 5e d9 3e
       0.40089813 0.28964654 0.48327553 0.42455286
000130 b9 14 1a 3e eb dc a5 be 4d a0 a4 3e 05 7f 9c 3e
       0.15046968 -0.3239511 0.3215355 0.30565658
000140 73 10 eb 3e 95 8e 92 3e 33 34 e9 3e a7 3c ac 3e
       0.45910987 0.28624406 0.45547637 0.33640024
000150 ef 3a a6 3e 32 6b a9 3e a5 67 d1 3e 7d 2d cb 3e
       0.32466838 0.33089596 0.40899387 0.39683142
000160 6f 3a c8 3e a6 11 1e bf 08 0f f5 3e d0 44 79 3e
       0.3910708 -0.6174568 0.4786303 0.24342656
000170 02 47 cb 3e 0a 7b 72 bf a8 af f4 3d 45 41 07 3e
       0.39702612 -0.9471899 0.11947566 0.13208492
000180 f7 b0 e2 3e 70 60 dd 3d 93 23 e5 3c fd 0f b0 3e
       0.44275638 0.108094096 0.027971065 0.34387198
000190 1f 05 c2 3e 23 2c 87 3e 14 7f e1 3e 7d 8a c1 3e
       0.37894532 0.2640086 0.44042265 0.3780097
0001a0 31 fa b3 3e fe e5 6b 3e 92 df c4 3e b1 bf b0 3e
       0.35151818 0.23036954 0.3845182 0.3452125
0001b0 8c 78 c4 3e 9f e1 c6 3e 84 88 50 bc e5 65 ce 3e
       0.3837322 0.3884401 -0.01272786 0.40312114
0001c0 c2 ef ae 3e 6d e1 ee 3e 77 da e2 3e f8 0f 58 bc
       0.34167296 0.4665636 0.443073 -0.013187401
0001d0 1a 5b c1 3e e4 a7 c8 3e a1 9e 06 3f 1d c9 d0 3e
       0.37764817 0.3919059 0.525858 0.40778437
0001e0 72 09 a2 bd 0c a3 2c 3e 71 7d fd 3e 49 f2 aa 3e
       -0.07911958 0.16859072 0.49509767 0.33387974
0001f0 df 03 ac 3e 58 8f 9c 3e 10 0e d6 3e 1e 5b bd 3e
       0.33596703 0.30578113 0.41807604 0.3698358
000200 4c e8 a5 3e 9b df a9 3e c2 cc 90 3e f5 aa c2 3e
       0.3240379 0.3317841 0.28281218 0.38021055
000210 f9 a2 bd 3e c0 77 d6 3e 57 49 4d 3e 86 97 9a 3e
       0.370384 0.41888237 0.20047508 0.30193728
000220 24 9d 53 3e f2 61 e4 3e 04 09 d8 3e 1f 37 cc 3e
       0.20665413 0.44605976 0.42194378 0.39885804
000230 92 95 bc 3e 8e c9 f5 3d 80 04 99 3e 8f b8 b7 3e
       0.36832863 0.12001334 0.29886246 0.35882995
000240 b0 3d d3 3e d2 74 ef 3e e7 1d dc 3e 3a c9 72 3e
       0.41258 0.46768814 0.42991564 0.23709574
000250 dc 00 00 3f c9 78 b7 3e 30 7c 28 3f 35 ea 97 3e
       0.5000131 0.3583434 0.65814495 0.29670873
000260 bc c3 9a 3e 32 0a b5 3e 00 a2 a2 3e 0b ce c7 3e
       0.30227458 0.3535934 0.3176422 0.39024386
000270 de 9d c2 3e 24 99 dd 3e 54 c9 a7 3e e5 6a a8 3e
       0.38011068 0.432809 0.3277079 0.32894054
000280 39 d8 e8 3e a3 38 a8 3e 9f 90 9c 3e da 13 a7 3e
       0.45477465 0.3285571 0.30579087 0.32632333
000290 13 eb b9 3e 9f 9f cf 3e 4d 92 f7 3e 11 da de 3e
       0.3631216 0.4055147 0.48353806 0.43525746
0002a0 4e 9a d4 3e 73 98 c3 3e 7a 51 b2 3e 7e 54 d9 3e
       0.41523975 0.38202247 0.34827787 0.42447275
0002b0 02 9c 8c bf da 5f 78 3f ed 1c a3 3e 13 eb 8b 3f
       -1.098511 0.9702126 0.31858006 1.0931114
0002c0 fb 66 c6 3e 7c 6c e2 3e 72 fb b6 3e d2 f1 c6 3e
       0.38750443 0.44223392 0.35738713 0.3885637
0002d0 d6 a7 c4 3e 59 bf 9b 3f 3e de c0 3e 6b 9d 9c 3e
       0.384093 1.216777 0.37669557 0.3058885
0002e0 d4 7b c8 3e c9 96 aa 3e 4a 5c 50 bf f6 5d c2 3e
       0.39156973 0.33318165 -0.8139082 0.37962312
0002f0 e5 e7 ce 3e bf 9d fe 3d 2c 8c f0 3e 19 5d d9 3e
       0.40411296 0.124324314 0.46981943 0.4245384
000300 d7 fe 99 3e 85 1f b8 3d c4 57 aa 3e b3 d3 45 3e
       0.3007724 0.08990387 0.33270085 0.19319038
000310 9b f3 d0 3e b9 3e cd 3e 47 2d c6 3e 5e 4b c7 3e
       0.40810856 0.40086916 0.3870642 0.38924688
000320 84 8f c1 3e 4e 95 ed 3e be bc bd 3e 00 34 d9 3e
       0.37804806 0.46402973 0.3705806 0.42422485
000330 7f a0 d5 3e c7 50 d1 3e b2 d0 bc 3e f0 b5 e0 3e
       0.4172401 0.4088194 0.36877972 0.43888807
000340 e1 66 a4 3e e5 8a a2 3e 5e 98 c6 3e 51 23 c4 3e
       0.3210974 0.31746593 0.38788122 0.38308194
000350 21 e7 c8 3e d1 cc 04 bf 1b 5f b7 3e fb 8b 3e bd
       0.39238837 -0.51875025 0.35814747 -0.046520215
000360 f9 67 be 3e 78 6b c1 3e 24 bd 93 3e 69 fe a9 3e
       0.371887 0.37777305 0.2885524 0.33201912
000370 07 fb b1 3e 8d 26 a5 3e a7 84 e1 3e 25 14 c4 3e
       0.3476183 0.32255974 0.44046518 0.3829662
000380 18 8c 91 3e b5 8b e2 3e 42 73 ad 3e 22 57 92 3f
       0.28427196 0.44247213 0.33876997 1.1432841
000390 43 d7 79 3e 0c c5 cf 3e 79 a1 df 3e 04 8d e2 3e
       0.24398522 0.40580022 0.4367788 0.4424821
0003a0 31 70 ae 3e cd 57 c4 3e 6c 25 c7 3e bb 98 82 3e
       0.3406997 0.38348237 0.38895738 0.2550715
0003b0 63 25 a5 3e 48 88 ad 3e 66 b6 b1 3e 7e 6b c3 bd
       0.32255086 0.33893037 0.3470947 -0.09541987
0003c0 9a 39 a7 3e 58 93 e7 3e 21 7c 04 3f c0 6d a6 3e
       0.32661134 0.45229602 0.51751906 0.32505608
0003d0 49 54 b3 3e cf 9a 97 3e 00 52 d0 3e cd 3b a1 3e
       0.35025242 0.29610297 0.4068756 0.31490937
0003e0 a2 b5 66 3f 6b f2 f4 3e 8d 3c ab 3e ef 87 d3 3e
       0.901209 0.478412 0.33444634 0.41314647
0003f0 60 92 bf 3e b2 dc c9 3e 5d 04 c7 3e 2d 5f b8 bd
       0.37416363 0.3942619 0.38870516 -0.09002528

net.4.bias f4 [27]
000000 52 c3 6f bd 35 05 a6 3d 1c b8 6b bd 01 e7 bd bb
       -0.05853588 0.08106462 -0.057548627 -0.00579536
000010 88 34 af bc 98 5f 33 3d 11 17 dc bc 09 fe 57 3e
       -0.021387354 0.043792337 -0.026866468 0.21093
000020 32 07 96 bd 1b 74 96 3e 7b cd 9d 3d 99 a8 f9 3d
       -0.07325591 0.29385456 0.07705208 0.121903606
000030 7d 25 f4 bc bd 69 c2 3d 8b 00 15 3d d0 35 1b 3d
       -0.029803032 0.09492824 0.03637747 0.037893116
000040 06 e6 22 bd 1f 71 9e bd 4f 0d 73 3e c1 5a bc 3e
       -0.03977015 -0.0773642 0.23735546 0.3678799
000050 e3 6d d4 3e 4d 86 11 bd 2d 51 f3 3c 55 f7 27 3e
       0.41490087 -0.03552847 0.029701794 0.16402943
000060 4e 4d b9 bc 7f 12 d8 3d 51 ee 4b 3d
       -0.02261987 0.10550403 0.049787823
