model/dqn_policy_net_episode_2280.pt (torch, 334295 bytes, 6 tensors)

net.0.weight f4 [128, 336]
000000 66 58 a0 3d 90 6e 64 be bc 49 c9 3d 1f 8b 58 3d
       0.07829361 -0.22307801 0.09828517 0.05286705
000010 a0 77 9a be 73 aa 10 be 7d 23 e8 bc d0 75 c5 3c
       -0.30169392 -0.14127521 -0.028337235 0.024104029
000020 a2 d2 fd 3d 5c ff 41 3c 89 37 85 be ba f2 07 bd
       0.12393691 0.011840668 -0.26018932 -0.033190466
000030 35 3b 17 3e 12 e3 3d be 45 28 20 3d e7 cd 73 3d
       0.1476868 -0.18543652 0.039100904 0.059522536
000040 16 6b 13 be c1 d6 7f bd 8f 12 a8 bd ab ab ac bd
       -0.14396319 -0.062460665 -0.08206665 -0.084311806
000050 e3 f3 34 be 9f 15 78 3e 40 70 51 be 10 b8 a4 3d
       -0.1767116 0.24226998 -0.20452976 0.0804292
000060 1e 7d 08 be 85 ce 12 be bb e4 ae bc 85 9e 9f bd
       -0.13328978 -0.14336593 -0.021349302 -0.07793907
000070 18 b4 45 bc 50 20 62 bd 43 87 74 3d 66 96 ab 3d
       -0.0120668635 -0.055206597 0.059699308 0.083782956
000080 96 f5 2d be 93 76 3c 3d fa 0e 0b bb a2 31 2c be
       -0.16988215 0.04601152 -0.0021218644 -0.16815808
000090 71 d3 f5 bc ec 9e ff bd 67 5e b3 bc d7 9d 18 3b
       -0.03000805 -0.12481484 -0.0218956 0.002328744
0000a0 52 19 65 3d c9 79 8b be 60 11 05 3e 25 e9 04 be
       0.05593235 -0.27241352 0.1299491 -0.12979563
0000b0 5c fc d2 3d 77 cb 76 be ac 9f 74 3d 1f b7 a0 3c
       0.1030204 -0.24101053 0.059722587 0.019618569
0000c0 a9 9a 75 3c 0d a9 6b bc c4 73 f9 bc 4d 3e ad bd
       0.014990487 -0.014383567 -0.03045071 -0.084591486
0000d0 af 70 90 bd 25 32 8b 3d 84 e0 61 bd 0f f0 30 3e
       -0.07052743 0.06796674 -0.055145755 0.17279075
0000e0 64 0f 58 3e c0 35 e0 be 5f 9a 60 be 18 fa 69 bd
       0.21099621 -0.43791008 -0.21933888 -0.057123274
0000f0 a4 cd ea 3d a4 fa ea bc da 97 4b bd 04 37 cf bd
       0.11465004 -0.028683968 -0.049705364 -0.10117915
000100 18 6f cf bd 67 93 c4 bc de 52 7e be 65 a5 ac 3b
       -0.10128611 -0.023996068 -0.24836299 0.00526874
000110 17 47 8a bd 72 60 e5 3d 93 0b 47 be 7d 93 25 3d
       -0.067518406 0.11200036 -0.19438009 0.04042386
000120 4c 82 49 be de 91 c5 bb d5 13 31 bd ec 2c 44 3e
       -0.1967861 -0.0060293516 -0.043231804 0.19157761
000130 78 d3 56 bd 41 5d bb 3c 7b d1 57 bd ed e1 85 3d
       -0.052447766 0.022871615 -0.05269001 0.065372325
000140 d4 c0 1a 3e ee dc 15 bd 50 91 cd 3d 9c a6 ea bc
       0.1511262 -0.036587648 0.10037482 -0.028643899
000150 28 df 4f be 8e 54 03 bd e5 d2 0f be d6 b2 6d 3d
       -0.20299971 -0.03206306 -0.14045294 0.05803188
000160 20 88 01 bd ca 8a e4 bd cd 81 4c 3d f1 00 d8 3d
       -0.03162396 -0.111592844 0.049928475 0.105470546
000170 de 55 0d be 43 a6 35 be 59 d5 5f 3c b4 0f 1c 3c
       -0.13802287 -0.17739205 0.013661706 0.009525228
000180 f8 cc 84 3e 0a a0 ae bd 8e 54 d2 3d ac ec b0 bd
       0.2593763 -0.08526619 0.10270034 -0.086388916
000190 89 d7 d2 3b c3 87 02 be 07 f0 69 3d 3d a5 1c 3d
       0.006434385 -0.12747101 0.057113674 0.03824352
0001a0 42 e9 4e bf 2b 9d 92 3d a6 46 30 3e 07 f1 57 3e
       -0.80824673 0.07158884 0.1721445 0.21088038
0001b0 61 f1 99 3e fe 76 9d 3d 0a 1a a8 be 16 76 df 3d
       0.3006697 0.076887116 -0.32832366 0.10911195
0001c0 cc d5 9a 3d da 20 87 3a df 36 ca bd 4c 96 58 bd
       0.0756031 0.0010309473 -0.09873747 -0.05287771
0001d0 dc 0d dd bc 17 f5 c0 3c 00 f8 f5 bc eb 9c 18 bd
       -0.026984148 0.023554368 -0.030025482 -0.037259024
0001e0 60 fb 5c bf 25 ab 36 3d e7 57 26 be c1 5d 48 be
       -0.8632107 0.04459681 -0.1624447 -0.19567014
0001f0 43 5f 05 bd 49 b6 cf 3d d7 3c bf bd 3e f7 71 bd
       -0.03256155 0.1014219 -0.09337776 -0.05907368
000200 d2 9c a0 3e 3c 7d 9c be d7 d2 b3 3c 03 0e c0 bd
       0.31369644 -0.30564296 0.021951122 -0.093776725
000210 91 e4 a8 bd f3 59 3b be b8 4c 3f be 82 d3 b2 bd
       -0.082467206 -0.18296032 -0.1868161 -0.08731748
000220 17 2a ed be 0f be ac 3d 2f d8 36 3d 2a 8e 23 3d
       -0.46321175 0.08434688 0.044639762 0.0399305
000230 dd 5a 18 be 38 da b2 3d cc 17 18 bd 90 ff f8 3d
       -0.14878412 0.08733028 -0.03713207 0.1215812
000240 0c 02 d2 3e 3d 37 65 be b1 32 a2 bd e2 99 70 be
       0.41017187 -0.22384353 -0.07919825 -0.23496202
000250 fb 22 ce bb 5a a6 ae bc a6 29 f2 3c e5 de 2a be
       -0.006290791 -0.021319557 0.029560875 -0.1668659
000260 db 81 94 3d 98 a0 c0 3c 16 aa d7 3d a0 1e 6c 3d
       0.072513305 0.023514077 0.10530488 0.057646394
000270 24 c6 1e be 94 62 a5 3d 0a f9 a0 be f6 97 90 bc
       -0.15505272 0.08075443 -0.31440002 -0.017650586
000280 cb 26 de 3c 3c 7a 49 be be 17 a4 3d 7a 93 84 3d
       0.027118107 -0.19675535 0.08012341 0.064734414
000290 d6 60 e6 ba 1e 87 74 bc 40 1f f2 bd 47 ba 50 3d
       -0.0017576467 -0.014924793 -0.11822367 0.050958898
0002a0 d7 c6 19 3f 73 23 49 be 62 9a ac 3d 1d 8b a6 bd
       0.6006903 -0.19642429 0.08427884 -0.081320025
0002b0 77 83 39 be f3 3b 99 be c7 e5 b1 be 29 5f d1 bd
       -0.18116556 -0.2992855 -0.3474562 -0.102232285
0002c0 8d 38 09 3f af ca 04 3e 40 01 83 3d 15 4a 56 be
       0.53601915 0.12967943 0.06396723 -0.20926698
0002d0 3e 57 ff bd 2a ca a3 be 1f 1a 11 bd 7d de 37 be
       -0.12467812 -0.31990176 -0.0354253 -0.17955966
0002e0 86 28 4f 3f cd 42 47 bd d9 b9 0f bc 81 b5 7c be
       0.8092121 -0.04864769 -0.008772337 -0.24678613
0002f0 97 7f d3 bd 0e 75 4f 3c fb 14 08 3e 8e 1e c6 3d
       -0.1032707 0.012662185 0.13289253 0.096737966
000300 2a 07 33 bf 68 57 d7 3c 79 b8 c1 3d e7 a9 24 3e
       -0.69932806 0.026286796 0.094590135 0.16080438
000310 2a d0 05 3e 0a ed 91 3e bd 03 63 3d 2d 27 86 3e
       0.1306769 0.2850116 0.055423487 0.26201764
000320 e1 47 12 3f 41 b9 56 3d 1d 69 0c 3b 1f 53 0d be
       0.5714093 0.052422766 0.0021424957 -0.1380124
000330 30 eb 2f 3e 0d 35 be bc e6 e7 36 bd e3 71 83 3e
       0.1717956 -0.023218656 -0.04465475 0.25672826
000340 77 0e e4 bf 33 02 aa 3e e3 0d e4 3e 52 cb a5 3e
       -1.7816914 0.33204803 0.44541845 0.32381684
000350 b5 8c 5a 3e e6 33 a5 3e 93 18 31 3e c1 83 84 3e
       0.21342738 0.32266158 0.1729453 0.2588177
000360 d1 a1 06 3f 4f 07 63 3d 4c 1b c0 3d fa 9e be bc
       0.5259066 0.055426892 0.093802065 -0.023269165
000370 f6 0b 9a 3c b7 38 8d 3c f3 d6 9c bd 81 22 06 3d
       0.018804532 0.017238958 -0.07658186 0.03274775
000380 aa 09 3f bf 7d 77 04 3f ec bd 8a 3e d0 8d 90 3e
       -0.7462412 0.51744825 0.27098024 0.28233194
000390 9e 3f 80 bd 4d 2e 34 3e 4e d1 e8 bd 7b b8 b8 3e
       -0.06262134 0.17595787 -0.11368047 0.36078247
0003a0 87 19 3b 3f b8 ac 5d bd 42 a9 62 bc c9 44 09 be
       0.73085827 -0.054119796 -0.0138342995 -0.13405146
0003b0 6e cf a9 bc 00 d2 11 be 06 b0 c7 3d b5 8f 5b be
       -0.020728793 -0.14240265 0.09750371 -0.21441539
0003c0 c9 1a 5e 3f ba 14 88 3e db 9e af bd f4 cc 30 be
       0.8675962 0.26578313 -0.08575221 -0.17265683
0003d0 04 c0 19 be be 1e 4f be 46 1c 68 3d ea f1 c8 be
       -0.15014654 -0.20226571 0.05666759 -0.39247066
0003e0 8b df 4d bf 90 53 25 3e 59 c8 90 3e 54 a1 5c 3e
       -0.80419225 0.16145158 0.28277853 0.21545917
0003f0 e9 88 59 3e d5 06 da 3e 15 ee ca bd ac 39 dc 3e
       0.21243633 0.42583337 -0.09908692 0.4301275

net.0.bias f4 [128]
000000 1e 55 02 3e 5a 1b 18 3e 36 69 fd 3d f0 37 1c 3e
       0.12727782 0.14854184 0.12373583 0.15255713
000010 ad cc aa 3e 89 c4 07 3e 48 86 14 3f 6d bc 79 3e
       0.3335928 0.13258566 0.58017397 0.24388285
000020 de 9f a7 3c fc dc 66 3e 53 1b 1f 3e d1 fd cd 3d
       0.020461973 0.22545236 0.15537767 0.10058177
000030 a1 0f 43 3e e3 d2 0c 3e 25 e4 37 3e 72 e1 14 3e
       0.1904893 0.13752322 0.17958124 0.14539126
000040 d0 a9 06 3e 12 03 55 3e 29 c4 43 3e 20 91 a2 3d
       0.13150716 0.20801952 0.19117798 0.07937837
000050 2a e3 04 3e 4d a9 bb 3d 62 60 ce 3e 0d 7c 39 3e
       0.12977281 0.09163151 0.4030791 0.18113728
000060 1c dd 6f 3e 48 b5 28 3e 0f 0e 5d 3e eb 80 92 3e
       0.2342419 0.16475403 0.21587394 0.28613982
000070 75 69 13 3e 52 a5 02 3f e1 d9 97 3e a0 dd 2e 3e
       0.14395697 0.5103351 0.29658416 0.1707673
000080 13 44 77 3e 47 de d5 3d 8a 04 55 3e c0 6a fa 3d
       0.24147062 0.10442787 0.20802513 0.12227392
000090 21 a4 d3 3d 8f ca 62 3e 98 3f 79 3e ff bc 1d 3e
       0.103340395 0.22147582 0.24340665 0.15404128
0000a0 e6 17 df bd d5 d3 f5 3d 0c 9c 84 3d 63 92 2c 3e
       -0.1089323 0.120032944 0.06475076 0.16852717
0000b0 0a 5d 95 3d 14 7c 74 3e 33 b6 e2 3d c6 34 88 3e
       0.072931364 0.23875457 0.11069908 0.26602763
0000c0 b8 93 29 3e 8d f4 82 3e ff 51 19 3d fe 6e 5a 3e
       0.16560256 0.25577202 0.037431713 0.21331403
0000d0 62 28 ff 3d 57 cc f4 3d ff 33 34 3e 66 21 0a 3e
       0.12458874 0.11953037 0.1759796 0.13489303
0000e0 b8 d2 11 3e 21 5b e5 bd d8 82 a9 3e 2a 3f 27 3e
       0.14240539 -0.11199022 0.33107638 0.16332689
0000f0 05 62 68 3e ee 40 df 3d f2 5f 9b 3d 4e 5e 30 3e
       0.22693641 0.10901056 0.075866595 0.17223474
000100 da 75 54 3e 6c 67 46 3e 23 b6 a0 3e b2 3d eb 3d
       0.20748082 0.1937539 0.3138896 0.11486377
000110 47 26 0a 3e d0 ae c4 3d 75 13 36 3e 5c e0 79 3e
       0.13491164 0.09603655 0.1778086 0.24401993
000120 f4 72 7f 3e a6 1d 0a 3e 3a ef 3e 3e 8a 0c ec 3e
       0.24946195 0.13487872 0.18645945 0.46103317
000130 46 e0 3a 3e f0 de 28 3e 91 d5 4f 3e ba 6d 45 3e
       0.18249616 0.16491294 0.20296313 0.19280139
000140 62 fa 02 3e 49 4e 94 3f 84 64 44 3e f9 18 d3 3e
       0.12790826 1.1586391 0.19178969 0.4122999
000150 3d 95 58 3e 23 22 34 3e e8 27 55 3e dc 45 84 3d
       0.2115068 0.17591147 0.20816004 0.06458637
000160 70 82 f6 3e ee 2e 7f 3e 97 66 3f 3e da b1 d6 3d
       0.4814639 0.24920246 0.18691479 0.10483141
000170 58 58 1f 3e 24 f6 8e 3d 52 a8 c1 3e 73 5a 14 3e
       0.15561044 0.06980541 0.3782373 0.14487629
000180 63 e9 6b 3d 7d 48 68 3e ff 7a 09 3e 66 01 3c 3d
       0.05759562 0.22683902 0.13425826 0.04589977
000190 6c e6 4b 3e 03 f7 d8 3e a8 42 16 3e c3 81 79 3e
       0.19912118 0.42375955 0.14673865 0.24365906
0001a0 e9 c5 c3 3d f6 41 33 3e 5d 3c 5e 3e 94 6d f8 3d
       0.09559233 0.17505631 0.21702714 0.12130275
0001b0 c1 06 5d 3e 01 13 35 3e d8 d8 22 3d 63 d1 97 3e
       0.21584608 0.1768303 0.03975758 0.29651937
0001c0 44 70 a3 3d 03 dd 87 3e 81 87 47 3e 50 5a eb 3d
       0.07980397 0.26535806 0.19485284 0.11491835
0001d0 b2 c6 36 bd df c2 ca 3e d0 84 19 be 1e 9f 70 3e
       -0.044623084 0.396018 -0.1499207 0.23498198
0001e0 e7 4a fd 3d 86 83 40 3e cd 20 a3 3e 2f e3 59 3e
       0.12367802 0.18800172 0.31860963 0.2127807
0001f0 07 ea 1d 3e 37 57 46 3e fc 12 ff 3d 57 23 62 3e
       0.15421306 0.19369207 0.12454793 0.22083794

net.2.weight f4 [256, 128]
000000 06 67 95 3f 68 b9 ad 3b f9 55 21 40 c9 45 b2 3e
       1.1672065 0.005301643 2.5208724 0.34818867
000010 d3 3c 3f 3d aa f0 5a 3f 79 34 52 3f 10 84 bf 3f
       0.046688866 0.85523474 0.82111317 1.4962177
000020 2d 04 2c 40 e8 61 18 3f 40 a8 6d 3f 14 4b b2 3e
       2.6877549 0.59524393 0.92834854 0.34822905
000030 84 ee 2b 3d 23 62 da 3e 1d 50 8c bd d3 a2 93 3f
       0.041975513 0.42652997 -0.06851218 1.1534065
000040 0a de 3c 3f 56 16 9e 3e 32 c0 34 3f d1 84 cb 3f
       0.73776305 0.30876416 0.70605767 1.5899907
000050 b1 3c 89 3f 94 da d6 3f f2 e2 c8 3d c0 c1 82 3f
       1.0721647 1.6785455 0.098089114 1.0215378
000060 c9 2e fa 3e 78 ce e8 3e 1d f4 83 3f fe f0 66 bd
       0.4886382 0.45470023 1.0308872 -0.05638217
000070 c2 2a 3a 3f a0 11 65 3e 22 95 4e 3e f1 e4 2d 3f
       0.72721493 0.22370005 0.20174077 0.6792746
000080 e4 9d 67 3f 4b 41 6c 3f b5 b9 1d 3f be 9c 3b 3f
       0.90475297 0.9228713 0.6161149 0.73286045
000090 16 c6 a1 3e c4 68 d1 3f 6b 35 d1 3f 15 a1 e1 3d
       0.3159644 1.6360097 1.6344427 0.11017052
0000a0 c3 c9 da bf 10 41 d3 3e 9a 1f 02 3e d8 4f a2 3e
       -1.7092823 0.41260576 0.12707368 0.3170154
0000b0 00 e9 06 3f c8 36 38 3f 7b 23 a7 3f d0 46 b5 3f
       0.5269928 0.7195859 1.3057703 1.4162235
0000c0 59 6f 79 3f a7 b6 79 3e 9a 83 4c 3f 19 81 e3 3f
       0.9743553 0.24386083 0.7988831 1.7773772
0000d0 8f 85 6c 3f 76 fa 20 bd e7 4f 58 3f a5 c0 42 be
       0.92391294 -0.03930136 0.8449692 -0.190188
0000e0 77 c9 2a be 87 d9 e0 bf 77 2b a0 3e ea c8 03 40
       -0.16678415 -1.7566384 0.3128316 2.0591378
0000f0 9a 21 49 be c3 ba 27 40 0b db 0b 3f 19 10 45 3f
       -0.19641724 2.620774 0.5463111 0.7697769
000100 a8 cf bc bd 66 7f ef 3e b2 04 96 3f b9 e5 bb 3e
       -0.09219295 0.46776885 1.1720183 0.36698702
000110 a8 59 4e 3f 76 ec 38 3f 8a 45 8f 3e ab 3d ab 3e
       0.80605555 0.7223581 0.27982742 0.33445486
000120 84 3c e9 3e 9b 52 cd 3f 65 f9 e5 3e 0e 3f 6c 3e
       0.45553982 1.6040834 0.44916835 0.23070928
000130 54 ec c5 3e b4 35 a2 be cc 5d 92 3f 0e 29 a8 3e
       0.38656867 -0.31681597 1.1434875 0.32843822
000140 e1 a2 27 3f a6 b4 2e 3f 9c c5 54 bf 14 b8 92 3e
       0.6548291 0.682444 -0.8311403 0.28656065
000150 83 38 29 3f dd fc 4e be 02 f0 2b 3f f4 51 b8 3f
       0.66101855 -0.20213647 0.671631 1.440001
000160 bd 08 78 bd 5f 26 0a 3f 12 fa a0 3f cb 9a 4f 3f
       -0.06055521 0.539648 1.2576315 0.8109557
000170 96 c4 58 3f 73 6a cb 3f a2 04 26 3f 34 b7 0e 3f
       0.84674966 1.5891861 0.6485082 0.55748296
000180 23 c7 c1 3f b1 9f 76 3e 94 7b 3e 3f 54 a2 ba bf
       1.5138897 0.24084355 0.74407315 -1.4580789
000190 2b 4a 33 bc 2a 4a 35 be 97 8d bf 3f 21 d9 b8 3e
       -0.010942976 -0.17704073 1.4965085 0.36103156
0001a0 5b 7b 0d 3f 91 fd 09 3f 7d 27 12 3f 5b be 1b 3e
       0.5526635 0.53902537 0.57091504 0.15209334
0001b0 8a 8d a1 3f 73 50 e1 3f 9a 2a 01 3f b5 9e 2f 3f
       1.2621319 1.7602676 0.5045563 0.6860154
0001c0 88 af 90 3f e7 73 84 3f f8 07 41 3f a3 aa d4 3f
       1.1303568 1.034787 0.75402784 1.6614574
0001d0 51 17 21 40 3f a4 9b 3e bc 4c d4 bf be 47 8c 3f
       2.5170481 0.30398747 -1.6585917 1.0959394
0001e0 33 06 88 3f d0 3a a4 3e ca 4d f8 3e 62 fb 55 3f
       1.0626892 0.3207612 0.48496848 0.83586705
0001f0 1a 8e 29 40 e4 bb a7 3e e1 74 ab 3f 3c fe b3 3f
       2.6492982 0.32760537 1.3395044 1.4061961
000200 03 2e 1d 40 8c 07 86 3e 72 e0 08 3f fb bd 44 3d
       2.4559333 0.26177633 0.53467476 0.048032742
000210 9a 42 0c 3f fa 18 15 3f 2a 34 a1 be 5d d5 9d 3f
       0.54789126 0.58241236 -0.3148511 1.2330738
000220 88 50 af 3e a3 72 c8 3e fd e4 59 bd 90 11 af 3e
       0.34241128 0.3914996 -0.053196896 0.34193087
000230 de cd b4 3e 04 bd 8a 3f c5 4a 55 3f ae 7d 06 40
       0.35313314 1.0838933 0.83317214 2.1014209
000240 58 f7 0c 3f 3a ac 61 3f b5 00 07 3f 8d a7 78 3e
       0.55064917 0.8815342 0.52735454 0.24282666
000250 4d 02 d1 3f 29 a4 82 3f e8 b6 42 3f 52 ee 5f 3f
       1.6328827 1.0206348 0.7606034 0.8747302
000260 89 51 2e 3f 03 4f 34 3f b8 36 82 3f 85 46 02 3f
       0.6809316 0.7043306 1.0172949 0.50888854
000270 aa 82 b2 3e 46 b1 0e 3f 2c 1a 22 3e 84 82 f7 3f
       0.34865314 0.5573925 0.15830296 1.9336705
000280 6a 68 37 3f 7a 1b a2 3f 84 dd 91 3f 59 23 e4 3e
       0.716437 1.2664635 1.1395726 0.44558218
000290 2f 93 a6 3f 4c c2 a8 3f 0c f4 7a 3f 35 c4 23 3f
       1.3013667 1.3184295 0.98028636 0.63971263
0002a0 ea 9a fa bf 5c fd 27 3f 67 ef f1 3e dc 87 40 3f
       -1.9578526 0.6562097 0.47252962 0.75207305
0002b0 ab c7 1f 3f b9 13 3a 3f 8d 2d f3 3f 3e 1a 1d 3f
       0.62414044 0.72686344 1.8998276 0.6136817
0002c0 34 15 ec 3f 6c ed 92 3e bc a5 0f 3e cc 4d a4 3f
       1.8443971 0.28696764 0.14028066 1.2836242
0002d0 79 d8 41 3f a4 ed b9 3e 96 0e 64 3f db f0 00 3f
       0.75720936 0.36314118 0.89084756 0.50367516
0002e0 54 f1 75 3f 89 90 fb bf 96 3c d2 bb 48 b1 ce 3f
       0.9607136 -1.9653484 -0.006415914 1.6147852
0002f0 21 03 92 3d 2f 58 e9 3e ee cf bf 3e 62 e1 02 3f
       0.07129503 0.4557509 0.37463325 0.51125157
000300 7a 85 21 be 87 ac b8 3e 1e 30 da 3f f6 55 e0 3e
       -0.15773574 0.36069128 1.7045934 0.43815583
000310 45 13 fd 3f 88 64 54 be 91 e9 97 3f e4 45 53 3f
       1.9771506 -0.20741475 1.1868154 0.8252852
000320 03 b2 5d 3f c7 cf fa 3e 5b 25 d4 3e b0 a4 f9 3e
       0.8659975 0.48986647 0.4143475 0.4875846
000330 0e dd 6d 3f a9 dc 32 3f 72 73 1f 3f 71 7b 91 3f
       0.9291543 0.6986795 0.6228553 1.1365796
000340 e0 76 8b 3f b1 ce 2b be 1f 10 eb 3e b3 ab c3 3e
       1.0895653 -0.16778065 0.45910737 0.38216934
000350 9a 2b 36 3f e4 9e b9 3e af e7 c2 3e 0d 44 e9 3e
       0.7116028 0.36254036 0.38067386 0.4555973
000360 ed fc 64 3f bf d2 6c 3f 16 49 82 3e f4 7c 4d 3f
       0.89448434 0.92509073 0.25446385 0.8026879
000370 e2 fb 85 3e 40 f5 b3 be c0 54 71 be 42 f6 30 3f
       0.26168734 -0.35148048 -0.23567486 0.6912576
000380 b6 e8 1c 3f ef d9 6c 3f c7 48 86 3f e7 59 a4 3f
       0.6129259 0.9252004 1.049096 1.2839936
000390 e0 a6 7d 3f e4 2d 14 3f 77 eb d0 3f e7 3a 88 3f
       0.99082756 0.57882524 1.6321858 1.0642976
0003a0 2f 48 40 3f 30 33 33 3f ce 45 05 3f 2f d1 30 3f
       0.75110143 0.6999998 0.5205964 0.6906919
0003b0 91 87 a5 3e 5f 9e 6e 3f 45 54 63 3f 99 1a 66 3d
       0.3232999 0.93210405 0.8880046 0.05617771
0003c0 b3 d5 03 3f f1 0d 12 40 42 98 b1 3f ab 7b 54 3e
       0.51497954 2.282101 1.387459 0.207503
0003d0 ce c6 10 bf 41 7e 86 3e 2f 62 f3 bf 29 88 c2 3f
       -0.5655335 0.262682 -1.9014338 1.5197803
0003e0 93 d5 ae 3f 83 83 27 3f 4b 54 e5 3e 19 16 63 3f
       1.3658928 0.65435046 0.44790873 0.88705593
0003f0 67 90 87 be 0d d5 1e 3f 5c 68 16 40 86 a7 ea 3f
       -0.26477358 0.6204384 2.3501196 1.8332374

net.2.bias f4 [256]
000000 ab 55 df 3e c9 df af 3e ff e2 4b 3e fc 85 aa 3e
       0.43620047 0.34350422 0.19910811 0.33305347
000010 0e da ab 3e 12 7d cd 3e e3 04 73 be 3b 80 ab 3e
       0.335648 0.40134484 -0.23732333 0.3349627
000020 71 75 e4 3f 51 90 05 be 20 44 11 be d3 8f c8 3d
       1.784834 -0.13043334 -0.14186144 0.09793057
000030 00 bb b0 3e f5 18 8a 3e 8c 2c 93 3e 15 e3 8e 3e
       0.3451767 0.26972166 0.28744924 0.27907625
000040 f2 67 a9 3e bd db 9b 3e 9a c3 2f be 52 d0 6e 3e
       0.33087116 0.30441085 -0.1716446 0.23321655
000050 8d b3 2d be ff 3a be 3e d5 1f 55 3e 6c 27 03 3e
       -0.16963024 0.37154385 0.20812924 0.12808007
000060 6c 42 be 3e ce b7 8f 3e 87 8d 87 3e 48 4c a0 3e
       0.3716005 0.2806992 0.26475164 0.31308198
000070 38 60 97 3e 9a 89 c7 3e e2 17 79 3e b8 08 d0 3e
       0.29565597 0.3897217 0.24325517 0.40631652
000080 47 07 17 be 9b e3 71 be 0a 47 a2 3e 0b 7c e5 bd
       -0.1474887 -0.23621981 0.31694824 -0.112053
000090 fa 42 14 3f b6 d9 7a bc 18 d7 a8 3e 73 00 82 3e
       0.579147 -0.015310695 0.32976604 0.25390968
0000a0 01 22 48 3e 7d 7b 8a 3e 7f 26 69 3e ae f2 b6 3e
       0.19544221 0.2704734 0.22768591 0.35732025
0000b0 42 f6 9e 3e cd f4 ce 3e a7 3d 97 3e 8e 9d 13 3e
       0.31047255 0.40421143 0.29539225 0.14415571
0000c0 a8 ad a5 3e a6 82 a2 3e 47 d4 4f be 06 1d d4 3e
       0.32359052 0.31740302 -0.20295821 0.41428393
0000d0 48 0a 5a be 6e 95 b3 3e 33 09 06 be 76 58 9a 3e
       -0.21292984 0.35074943 -0.13089447 0.30145615
0000e0 7f a1 65 3e 6f d0 77 3e 49 8e 6c be 53 e3 9c 3d
       0.22424887 0.24200605 -0.23101152 0.07660546
0000f0 9a 6d 8c 3e 8c 13 a5 3e 8c f2 e5 3e dd 16 ba 3e
       0.2742737 0.32241476 0.4491161 0.36345568
000100 40 d9 75 3e 8e d8 db 3f 98 4c f4 3e 4e b8 66 3e
       0.24008656 1.7175462 0.47714686 0.22531244
000110 16 e6 7c 3e d5 9b 55 3e 22 c1 dc 3e 9f 47 29 be
       0.24697146 0.20860226 0.431161 -0.16531228
000120 de 3a 96 3e 68 b5 82 3e b2 9a 2c bf 29 9d dd 3e
       0.29341787 0.25529027 -0.67423546 0.43283966
000130 8a 58 0f 3f b7 cc a3 3f b8 dc bb 3e 61 f4 c4 3e
       0.55994475 1.2796849 0.36691833 0.38467696
000140 2d a5 4e be 33 cb 39 3e 7e cf 1c be 5a 82 6c 3e
       -0.20180197 0.1814392 -0.15313527 0.230966
000150 78 e6 85 3e 61 0e 58 3e 56 f6 45 3e 29 56 74 3e
       0.26152396 0.21099235 0.19332251 0.23860992
000160 19 db 6b 3e f5 12 2a 3f 5f 45 9b 3e 82 5a b9 3e
       0.23032798 0.66435176 0.30326363 0.36201864
000170 aa 80 3a 3e 50 09 dc 3f 8e 34 e6 3e 7c 56 52 3e
       0.18213144 1.7190342 0.4496197 0.20540804
000180 b8 18 30 3e 37 87 d5 3e fc 37 cf 3e e0 3e c2 3e
       0.1719693 0.41704723 0.404724 0.37938595
000190 c5 fd ba bd 97 ee 29 3e cd 65 b2 3e 7d 43 f0 bd
       -0.09130434 0.16594921 0.34843293 -0.11731622
0001a0 03 93 80 3e 10 08 e9 3e e6 22 b8 3e 2a ff b7 3e
       0.2511216 0.45513964 0.35964125 0.35936862
0001b0 c9 79 bd 3e 9d 49 83 3e dc 33 0a 3f 48 91 5d 3e
       0.37006977 0.256421 0.5398538 0.21637452
0001c0 08 f4 52 3e f6 e6 65 3e 16 13 88 3e 52 27 29 bc
       0.20600903 0.22451386 0.2657706 -0.010324316
0001d0 2b aa 30 3e 1d f1 81 be d7 a1 bb be 56 d6 30 bc
       0.17252414 -0.25379267 -0.36646912 -0.010793289
0001e0 ef 58 b4 3e 6a 30 54 3e fe 57 2e be 05 c0 ac 3e
       0.352241 0.20721593 -0.17025754 0.3374025
0001f0 fc ce e9 3e ce 92 b2 3e 9b 9c 50 3e 4e 07 86 3e
       0.4566573 0.34877628 0.2037224 0.26177448
000200 f9 72 94 3e e0 79 a2 3e e0 de 90 3e e7 a6 ce 3e
       0.28993967 0.31733608 0.2829504 0.4036171
000210 b8 84 2b 3e a8 02 a3 3e 90 ea 9b 3e fc 19 4d 3e
       0.16749847 0.31837964 0.30452394 0.20029444
000220 3d 11 fa 3e 33 89 8e 3e e1 33 86 3e 4f d0 95 3e
       0.48841277 0.2783905 0.26211455 0.2926049
000230 8d 43 da 3e b9 f3 91 3e 92 9f a6 3e da ec be 3e
       0.42629662 0.28506258 0.32543617 0.37290078
000240 1b c2 5f 3e a6 1b c3 3e 1a de 2a be 47 79 27 3d
       0.21851389 0.38107032 -0.16686288 0.040887143
000250 9c cb d7 3e 01 c9 c1 3e b8 2a 07 3f dd a2 2a 3e
       0.4214753 0.37848666 0.5279956 0.1666369
000260 f8 a3 72 3e 36 36 97 3e e1 c9 3b 3e 6c 76 7e 3e
       0.23695362 0.29533547 0.1833873 0.24849862
000270 bd 95 d6 3e b7 23 82 3e f4 a7 c0 3e 2c b3 8c 3e
       0.41911116 0.25417873 0.37628138 0.27480447
000280 36 d3 1d be 13 6c c1 3e 44 74 a9 3e fd 26 d1 3e
       -0.15412602 0.37777767 0.33096516 0.40850058
000290 12 35 95 3e 13 88 9c 3e 49 e0 50 bd 67 14 74 3e
       0.29142052 0.30572566 -0.050995145 0.23835908
0002a0 a8 0c a3 3e 85 2a 68 be 98 b6 ba 3e 37 9c 93 3e
       0.31845593 -0.2267247 0.36467433 0.2883012
0002b0 f7 64 c6 3f 22 09 8d 3e 93 b6 c5 3e 37 33 07 3e
       1.5499562 0.2754603 0.38615856 0.1320313
0002c0 2f b6 96 3e bc 92 4e 3e 18 d9 b6 3e 7b cc 4f 3e
       0.2943587 0.20173162 0.35712504 0.20292847
0002d0 bb ed 54 3e 26 51 8d 3c f9 0a 64 3e c0 35 9d 3e
       0.20793812 0.017250609 0.2226981 0.3070507
0002e0 ec fd e5 3d 7a da 2c 3e 45 93 43 3f c0 77 85 3e
       0.112300724 0.16880217 0.7639659 0.26067924
0002f0 27 a8 76 bd 10 b3 c4 3e c2 55 27 be 9f b1 85 3e
       -0.060218956 0.38417864 -0.16341308 0.26112077
000300 b3 20 ce 3e 56 9e c1 bf f7 3e be 3e eb 20 9c 3e
       0.40259323 -1.5126445 0.37157413 0.30493864
000310 94 9a bd 3e 61 b5 ca 3e e4 8d b9 3e 29 68 9b 3e
       0.37031996 0.39591506 0.36241066 0.30352905
000320 53 7c ab 3e f3 f6 52 be 02 5e b6 3e a6 59 94 3e
       0.3349329 -0.20602016 0.35618597 0.28974646
000330 7b cc aa 3e 38 cf a9 bd 1d bf bb be bd f8 9e 3e
       0.3335913 -0.08291477 -0.36669245 0.31049147
000340 e9 6f 89 3e 4d e4 88 3e 0e f0 91 3e 40 75 b2 3e
       0.26843193 0.2673668 0.2850346 0.3485508
000350 67 e2 9f 3e cd 5d 9a 3f c9 3e 9a 3e fe d6 34 3f
       0.3122742 1.2059876 0.30126026 0.7064055
000360 0b 8c ad 3e 8d 02 99 3e 1a 0b bf 3e d6 b0 b7 3e
       0.33895907 0.2988476 0.37313157 0.35877103
000370 c5 2e 70 3e e8 75 c0 3e 9b 62 88 3e 1f fc 6c 3e
       0.23455341 0.37589955 0.2663773 0.23143052
000380 fe 3c 9e 3e 50 87 51 3e 91 de c4 3e 5d 1b 1b 3e
       0.30905908 0.20461774 0.38451055 0.15147157
000390 bd d8 a5 3e 49 73 83 3e 50 1e eb bd 8e 8b 79 3e
       0.3239192 0.25673893 -0.11480391 0.24369642
0003a0 ec 68 70 3e d1 ec 9a 3e 0f 94 07 be fa d8 08 3f
       0.23477525 0.30258802 -0.13240074 0.5345608
0003b0 a4 b9 a3 3e 2d 13 81 3e 83 a8 9e 3e 04 ef 68 3f
       0.3197757 0.25209942 0.3098794 0.9098971
0003c0 d4 4a 8e 3e 1a 4d 73 3e 20 ac 44 be 7b 24 9c 3e
       0.27791464 0.2375988 -0.19206285 0.30496582
0003d0 77 fc 98 3e e9 35 f1 3e 43 cb ac 3e 66 c8 89 3e
       0.29880115 0.47111443 0.33748826 0.26910704
0003e0 5f cd 5b bd dd aa 54 be 8e 7b bd 3e f8 0b df bc
       -0.053662654 -0.20768304 0.37008327 -0.027227387
0003f0 43 6e a8 3e d9 5b 80 3e d8 04 e4 3e 23 37 0a 3f
       0.32896623 0.25070074 0.44534945 0.5399038

net.4.weight f4 [27, 256]
000000 4f 3b 81 3e 8e 94 02 3f 6a e4 05 3f ea 73 e4 3e
       0.2524056 0.51007926 0.5230166 0.44619685
000010 e6 bb ed 3e a7 98 f9 3e 95 7c 14 3f 89 3d 04 3f
       0.46432418 0.48749277 0.580026 0.51656395
000020 23 d9 47 bf 13 0e 16 3f 24 ac 0f 3f 07 19 16 3f
       -0.780657 0.58615226 0.5612204 0.5863194
000030 fc 3d 0b 3f 1e e6 cf 3e cf e5 e9 3e 6f b1 de 3e
       0.54391456 0.40605253 0.45683143 0.43494746
000040 23 bc e8 3e 8d 66 f9 3e 28 55 03 3f f7 8f f0 3e
       0.45456037 0.48711053 0.51301813 0.46984836
000050 f0 ba 1c 3f bd d2 b3 3e 56 8d f7 3e 3a 09 11 3f
       0.61222744 0.35121718 0.48350018 0.56654704
000060 e3 d3 c4 3e 78 d3 f2 3e f2 b2 fb 3e 18 e2 ba 3e
       0.38442907 0.47426963 0.49159962 0.3650062
000070 9f 02 bc 3e 34 f5 d9 3e 07 f6 f8 3e 57 ff c3 3e
       0.3672075 0.42569888 0.48625204 0.38280746
000080 da 76 1b 3f 57 3b 03 3f 04 e6 da 3e 7f 72 f8 3e
       0.6072823 0.5126242 0.42753613 0.48524854
000090 4e aa c7 3e 50 84 57 bd 10 0c e9 3e d1 62 7d 3f
       0.3899712 -0.052616417 0.45517015 0.98978907
0000a0 9a 34 05 3f 03 77 d2 3e 9a b8 03 3f 84 79 df 3e
       0.5203339 0.41106424 0.51453555 0.43647397
0000b0 50 8a db 3e 7b 6b ec 3e 8e bb 40 bc 97 71 fa 3e
       0.42878962 0.4617575 -0.0117634665 0.48914787
0000c0 b3 87 e7 3e ad 52 de 3e a1 8b 15 3f 78 90 f5 3e
       0.45220718 0.43422452 0.5841618 0.47961783
0000d0 03 0a 19 3f 18 94 7c 3f 1b cf 13 3f 9e 22 fa 3e
       0.597809 0.98663473 0.5773789 0.48854536
0000e0 5a 1c cf 3e 8e 1d f9 3e 05 f9 01 3f 26 14 a3 3e
       0.40451318 0.4865536 0.507706 0.3185131
0000f0 68 8a ea 3e 37 f8 e8 3e 8e d1 09 3f c5 68 e3 3e
       0.4580872 0.45501873 0.5383538 0.4441587
000100 b8 63 e9 3e 3d fa 33 bf 8b dc b0 3e 4e cf fd 3e
       0.45583892 -0.7030371 0.3454326 0.49572223
000110 f2 aa c7 3e b7 5f 07 3f 75 37 c8 3e 1d 35 ee 3e
       0.38997608 0.52880424 0.3910481 0.46524897
000120 42 84 ef 3e 5e 73 bb 3e 9b 4b 29 3f e2 50 fc 3e
       0.46780592 0.36611456 0.6613099 0.4928046
000130 ea 1a 17 3e 97 0c 00 bf ac e3 ce 3e 67 53 c4 3e
       0.1475636 -0.5001921 0.40408075 0.3834488
000140 dc 22 11 3f 1a 18 d8 3e c4 66 0e 3f 9f 13 d4 3e
       0.56693816 0.42205888 0.5562556 0.4142122
000150 25 28 c8 3e b4 a5 cf 3e 13 ed fd 3e 18 62 f3 3e
       0.39093128 0.4055611 0.49594936 0.47535777
000160 83 68 f7 3e fc ca 8b bf 47 e1 10 3f 2b 95 a2 3e
       0.48321924 -1.0921321 0.56593746 0.3175443
000170 9b 7a f7 3e 13 49 2d bf 51 ec d8 3e bd 96 33 3e
       0.48335728 -0.6768963 0.42367795 0.17537971
000180 dc 57 0b 3f c1 70 d1 3d db a7 88 3e 6a 04 d8 3e
       0.5443094 0.10226584 0.26690564 0.42190868
000190 46 71 f5 3e 3e fa b7 3e 03 e5 04 3f fd 08 f3 3e
       0.47937983 0.35933107 0.51911944 0.47467795
0001a0 fb ea dd 3e 44 8f 86 3e 6c ce e5 3e 3a fe d9 3e
       0.43343338 0.26281178 0.4488405 0.42576772
0001b0 9d 7b ed 3e 51 bc ec 3e d7 a9 03 be 42 98 f6 3e
       0.46383372 0.46237424 -0.12857758 0.48163038
0001c0 9c d0 da 3e c9 45 0c 3f 80 89 06 3f f8 0f 58 bc
       0.4273728 0.54793984 0.5255356 -0.013187401
0001d0 bb 86 ec 3e 96 c6 f9 3e e4 5d 30 3f 2b 5e 01 3f
       0.4619654 0.48784322 0.68893266 0.50534314
0001e0 da c9 39 be 0b a3 97 3e 03 04 19 3f c7 82 d1 3e
       -0.18143407 0.2961658 0.59771746 0.40920088
0001f0 2f 92 ab 3e aa e3 c4 3e ec dd fc 3e b6 8c e3 3e
       0.33509967 0.38454944 0.49388063 0.4444329
000200 aa 7f cb 3e 7c 0c ce 3e d0 0f b3 3e 4f 7f e4 3e
       0.39745837 0.402439 0.34973 0.4462838
000210 6c ac e8 3e 5b 12 f7 3e 9d a2 84 3e 86 fa c4 3e
       0.45444047 0.48256192 0.25905314 0.38472384
000220 14 ef 8f 3e 86 67 06 3f 48 26 00 3f ff 70 f8 3e
       0.2811209 0.52501714 0.5005841 0.4852371
000230 de 16 e4 3e 20 22 86 3e e8 de be 3e c8 20 db 3e
       0.44548696 0.2619791 0.3727944 0.42798448
000240 20 97 fd 3e 3d 52 0a 3f 75 cb 07 3f 81 d7 b3 3e
       0.49529362 0.54031736 0.53044826 0.35125354
000250 a5 58 07 3f 9b ca e2 3e 98 88 39 3f 7a 51 c3 3e
       0.52869636 0.442952 0.7247405 0.381481
000260 1b 09 c7 3e 3e 6c da 3e cd f4 ca 3e b2 f7 f3 3e
       0.38874134 0.42660707 0.39639893 0.47649914
000270 db f8 e5 3e 11 38 04 3f 42 5c d1 3e c8 5b ce 3e
       0.44916424 0.5164805 0.408907 0.403044
000280 95 0e 0d 3f d5 fe cc 3e fe af bf 3e 53 be ae 3e
       0.55100375 0.4003817 0.3743896 0.3412958
000290 4c a2 e3 3e 2a 1e fa 3e 7e 3b 17 3f b6 89 00 3f
       0.4445976 0.48851138 0.5907515 0.5021013
0002a0 5d 00 fc 3e 6c 04 f7 3e 4e 73 d8 3e 4b 8d 02 3f
       0.49219027 0.4824556 0.4227547 0.50996846
0002b0 b9 01 51 bf 10 e7 b4 3f bf ea cc 3e 4c a4 97 3f
       -0.81643254 1.4133015 0.40022847 1.1847014
0002c0 57 24 ee 3e 1d 25 06 3f c1 e9 de 3e 78 7b f3 3e
       0.465121 0.5240038 0.43537715 0.47555137
0002d0 88 f9 ec 3e 9e b3 a6 3f dd 9a ec 3e 7f 73 c3 3e
       0.46284127 1.3023565 0.462119 0.38174054
0002e0 28 7b f0 3e 06 6f d3 3e a6 e5 5b bf 14 f2 eb 3e
       0.4696896 0.41295642 -0.8589729 0.46083128
0002f0 41 bd 01 3f 49 a7 81 3e b3 cc 14 3f 14 f2 02 3f
       0.50679404 0.2532294 0.58124846 0.5115063
000300 b0 3f bf 3e 5f 40 79 3e 28 8d d1 3e e4 ea 99 3e
       0.37353277 0.24340962 0.40928006 0.3006202
000310 6c ca fc 3e ae 05 fa 3e 1b a7 e8 3e 55 30 f0 3e
       0.49373186 0.48832458 0.4543999 0.46911874
000320 a0 f7 e4 3e c7 d9 13 3f 7b c5 e6 3e c2 52 03 3f
       0.44720173 0.57754177 0.4507254 0.51298153
000330 6b 1c 01 3f 9b 1a 04 3f b1 5e 05 3f 61 4d 06 3f
       0.5043399 0.51603097 0.5209761 0.5246182
000340 f0 08 c8 3e 9d 47 cb 3e 5c b9 ec 3e cc 4b ea 3e
       0.3906932 0.39703074 0.46235168 0.45760953
000350 c6 a1 f0 3e 6c 9d 57 bf 5f ae dc 3e e1 ad 48 be
       0.46998423 -0.8422458 0.43101785 -0.1959758
000360 92 57 e9 3e 5b 16 e9 3e 70 4a b8 3e e8 f5 c0 3e
       0.45574623 0.45524868 0.3599429 0.37687612
000370 ad ca df 3e 0f da c8 3e 60 a9 05 3f 0a 1b eb 3e
       0.43709317 0.39228866 0.5221157 0.45919067
000380 8c 42 b6 3e 6c 6b 07 3f a1 bf d2 3e 40 2a 9c 3f
       0.35597646 0.5289829 0.41161826 1.2200394
000390 be 68 a5 3e c6 80 fa 3e c9 fe 0b 3f c9 e3 04 3f
       0.32306474 0.4892637 0.54685646 0.5191007
0003a0 86 52 d8 3e 5c da eb 3e a1 2b fb 3e 10 bf 24 be
       0.4225046 0.46065032 0.49056724 -0.1608851
0003b0 f7 e2 e7 3e 7d de d0 3e e9 7a d6 3e d2 bc 88 bd
       0.45290348 0.40794745 0.41890648 -0.066766396
0003c0 6f 2d d2 3e 99 29 08 3f fe 0a 20 3f 8f b4 cd 3e
       0.41050288 0.53188473 0.6251677 0.40176818
0003d0 2e 09 de 3e 82 72 bb 3e 1b 40 fa 3e 64 fb cc 3e
       0.4336638 0.366108 0.48877034 0.40035546
0003e0 4e 8e 81 3f b4 3e 17 3f 4b 65 d0 3e b4 0d 00 3f
       1.0121553 0.5908005 0.4070228 0.5002091
0003f0 ad 10 e2 3e 46 86 ef 3e e7 7f ea 3e 10 59 1f be
       0.44153348 0.4678213 0.45800707 -0.15561318

net.4.bias f4 [27]
000000 9b e5 40 bd 15 b2 39 3e be c4 34 bd 71 90 3c 3d
       -0.04709397 0.18134339 -0.04413294 0.046036188
000010 2e d8 99 3d 9a 33 0d 3e 33 de b4 3d b0 cc 40 3e
       0.07511936 0.13789216 0.08831444 0.18828082
000020 83 7b 2f bd 37 77 db 3e bd ee ae 3d 0b 5e 1f 3e
       -0.0428424 0.4286439 0.085416295 0.15563218
000030 75 0c 62 3d d8 fc 5e 3e 08 f7 e1 3d 6a 6f b1 3d
       0.05518766 0.2177614 0.110334456 0.08663829
000040 1b d5 2c bd e3 d4 21 bd 1f 13 86 3e 65 68 03 3f
       -0.04219542 -0.039509665 0.26186463 0.5133117
000050 ec 00 e5 3e 98 fc 7e 3d c1 12 ee 3d 82 ea 18 3e
       0.44727266 0.06225261 0.11624671 0.14933208
000060 49 94 59 3c bc 6b 1f 3e 51 33 5c 3d
       0.013279983 0.15568441 0.053759877
