model/dqn_policy_net_episode_790.pt (torch, 334295 bytes, 6 tensors)

net.0.weight f4 [128, 336]
00000000: 01ad ec3d aec1 38be 0dae 103d d732 563d
00000010: bf94 e0bb 69ab 03be 71bb 123d ab4d e6bd
00000020: 6514 233e ba9e c8bd d320 b1bd 3cf8 68bd
00000030: ebbe 803d 66d8 063c 950a 12bd e23a 20bc
00000040: 3e90 48be 16d7 0ebd c0e4 0d3e 14db 90bd
00000050: f901 603e 3a76 593d 7628 b6bd 26d2 8cbc
00000060: da87 14be b569 cfbd c2ce 8cbd c151 19bc
00000070: 46f1 1c3e dd95 463d aa36 863c 7999 793d
00000080: acfd cebe 44bf a4bd c2ef 8e3d 0d77 3e3d
00000090: 05e2 1b3c 577b 703d 63c2 f53d de6d bfbd
000000a0: fefe 83bd 1289 cebb e73b fdbd 4b30 a03c
000000b0: 4d76 003d 524d 603d 5ef9 7bbd 251a ae3d
000000c0: c52e 8dbd d506 b73d 9ebb db3d bd9c e5bc
000000d0: b472 4bbd cbe8 c63d 4ec5 c13d 5e37 34b9
000000e0: c443 1c3e 5387 913d dca7 a2bd 47d5 d0bd
000000f0: 4a28 213e 9a70 aeb8 18c5 fa3c 3fc1 13bd
00000100: 2a68 c0bc 1228 80bd 4f6f c5bc bac9 f8bc
00000110: e083 3abd b58d 1ebd bff6 1a3d 81da debd
00000120: 63d6 b7bd bb8a 7f3d 9fde 1b3e 073e be3d
00000130: f30a 0bbe 6958 d73d d121 36bd 4340 043e
00000140: eb2d 113e 8b91 ce3c da12 603d ba8f f53c
00000150: d82d a0be 2537 80bd 9907 913d 4d85 1ebe
00000160: c3ca f33d 9aa2 f8bd 1afd 943d 6356 43bd
00000170: f76c 233d c7d0 1abe f36b aa3c 6bfa b2bd
00000180: 08d0 a23e 640a c4bd 442b 1cbc 313c 78bd
00000190: a24c 1dbc 213f dc3c d5b7 aebd a2c9 b9bd
000001a0: 4ad8 20bf e393 793c 8c77 e73d b5d8 773d
000001b0: abd2 9a3e 9c8d 083e ddf0 063c e4cd 1e3d
000001c0: 7eb4 6c3e 767a 99bd a0e6 9cbd 6f7a 9abd
000001d0: d322 e13c 09db a6bd 9e00 debd f104 b2bd
000001e0: f97a 94bf b098 9c3b 2e1d a93d 0d94 f63a
000001f0: 9ce0 193e 4fd1 9c3d d698 b13d fc16 143c
00000200: 9b4e 8b3e d019 cebd baa2 0ebe 3664 bfbd
00000210: 8430 62bc f514 19bc 979e acbd a443 3abd
00000220: 751d a8be 34fe 80bd 8b56 6fbd 5eed 093d
00000230: 6dbe 00be 84a7 e23d 9f13 fe3d f405 893d
00000240: cbf9 b03e 76e5 7e3c d601 adbd b7f0 5fbe
00000250: 5ecb 113e ad3c 19bc 03ae e4bc 81d8 d0bd
00000260: 612a ee3d 4441 6abd 18ba 733c 2cd6 7c3b
00000270: f252 b2bd 97cf b93d 5799 a2bb fe96 b9bd
00000280: 80a5 2f3e 90d7 b8bd 1623 3b3c 79a7 de3b
00000290: ed65 0ebb a0c7 32bd a861 73bd 2099 76bd
000002a0: 5916 063f 43b1 41bd 158c 35be fa55 36bd
000002b0: 2a08 03be 6d7c 66be 1e0f b1bd 87ee 01be
000002c0: 64f0 0d3f eac8 b23d 7d62 ca3c 2eb0 52be
000002d0: 9a38 2bbc ce1a 74be 608d 343d a11b 0abe
000002e0: dd89 723f 7783 633d 104a 17be 6cd4 54be
000002f0: ce72 febc e8aa 08be 213f 1cbd 57af debd
00000300: 6283 3ebf c8df a33d 3bf7 f03d 4264 1e3e
00000310: cd02 483e d2a5 b73e 9aba 543e f4cb 983e
00000320: a29c 573f 23a8 a3bd dd55 17be da8c 37be
00000330: 50e3 443d 953c a2be 4733 a2bd beca 9e3c
00000340: 0cf9 c0bf 85c6 633e 16a0 a13e b7ef ce3e
00000350: 1a3d 5e3e e6d8 5a3e 7ca3 b8bb dcae 903e
00000360: 5551 353f e520 2bbe 0260 2dbe 60f2 333c
00000370: 4cd1 223c fbcc 90be 4aeb febd 3e8c 09bd
00000380: 388b ebbe f49c 623e e59b 5e3e 5e81 753e
00000390: 2209 143e 6fc3 063e bcd8 8cbe c9fd 6b3e
000003a0: c2f6 063f 628e 023e 60c2 11be 3ae5 d73b
000003b0: 3273 3f3e 3572 03be 6b73 b53c 4a99 dbbc
000003c0: 19d6 423f fdb9 8ebc 9baf d03b a60f 7dba
000003d0: ff93 39bd 9f27 17be 1ab2 c4bd 4b99 debd
000003e0: 9fe8 65bf 43de 883e eee7 d83d b91a 983e
000003f0: ee50 1d3e 1f53 8f3e de41 823d d7c6 d73e
0.115564354 -0.18042633 0.035322238 0.05229458 -0.0068536694 -0.12858357 0.03582329 -0.11245283
0.15925749 -0.097959 -0.08648839 -0.05687736 0.06286415 0.008230304 -0.035654623 -0.009779664
-0.19586274 -0.03487309 0.13856792 -0.07073036 0.21875753 0.053091265 -0.08894436 -0.01719005
-0.14504948 -0.10127584 -0.068753734 -0.009357871 0.15326414 0.048482765 0.016383488 0.06093738
-0.4042791 -0.080442935 0.06979324 0.046500254 0.0095143365 0.058711376 0.11999967 -0.093471274
-0.0644512 -0.006302961 -0.12364941 0.019554278 0.03136282 0.05476124 -0.061517112 0.085010804
-0.06893686 0.0893685 0.107291445 -0.02802884 -0.049669936 0.097123705 0.09461461 -0.00017186764
0.15260226 0.07105889 -0.07942173 -0.101969294 0.15738025 -8.31794e-05 0.03061156 -0.036072966
-0.02348717 -0.06257643 -0.024100928 -0.030369628 -0.045535922 -0.03870936 0.03783297 -0.1088152
-0.08976438 0.062388163 0.15221642 0.092891745 -0.13578396 0.1051491 -0.044465844 0.12915139
0.14177673 0.025215885 0.05470548 0.02997576 -0.31284976 -0.06260518 0.07081527 -0.15480538
0.11903908 -0.12140389 0.07274838 -0.047689807 0.03989884 -0.15118705 0.020803427 -0.0873917
0.3179934 -0.09572294 -0.0095318 -0.060604278 -0.00960079 0.026885571 -0.08531157 -0.090716615
-0.6283003 0.015233013 0.11302099 0.060509402 0.30238852 0.1333527 0.008236137 0.03877057
0.23115727 -0.07494061 -0.07661176 -0.075428836 0.027482426 -0.081472464 -0.108399615 -0.08692349
-1.1600028 0.004778944 0.08257519 0.0018812433 0.15027088 0.0765711 0.08671729 0.009038683
0.2720841 -0.10063517 -0.13929263 -0.093452856 -0.013805512 -0.009343375 -0.08428686 -0.045474663
-0.32834974 -0.062984854 -0.058432143 0.033673637 -0.12572642 0.11067107 0.12406086 0.066905886
0.34565577 0.015557637 -0.08447616 -0.21869169 0.14237735 -0.009352845 -0.027915007 -0.10197545
0.11629177 -0.05719115 0.014875911 0.0038579805 -0.08707227 0.09072798 -0.004962127 -0.090620026
0.17152977 -0.0902549 0.011421939 0.0067948666 -0.0021728233 -0.04364741 -0.059419304 -0.060204625
0.5237785 -0.04728819 -0.17729218 -0.044515587 -0.12796083 -0.22508402 -0.086454615 -0.12688647
0.5544493 0.087297276 0.024705166 -0.2057502 -0.010450507 -0.2383835 0.04408014 -0.13487102
0.9474161 0.055545297 -0.14774346 -0.20784158 -0.031060603 -0.13346446 -0.038146142 -0.10873287
-0.74419224 0.08001667 0.117659055 0.15467933 0.19532318 0.35868698 0.20774308 0.29843104
0.8422338 -0.07991054 -0.14778848 -0.17924824 0.048068345 -0.31686845 -0.079199366 0.019383784
-1.5076003 0.22243698 0.31567448 0.40417263 0.21702996 0.21371803 -0.005634723 0.28258407
0.7082723 -0.16711767 -0.16931155 0.01098308 0.009937596 -0.28281388 -0.124472216 -0.03358101
-0.46004653 0.22130185 0.21739157 0.23975131 0.14456609 0.1316049 -0.27509105 0.2304603
0.5272027 0.12749627 -0.14234304 0.006588605 0.18696287 -0.12836535 0.022149762 -0.026806492
0.7610794 -0.01742267 0.00636859 -0.0009653516 -0.045307156 -0.14761208 -0.09604283 -0.10869082
-0.89808077 0.26732072 0.10591112 0.29707888 0.15362903 0.27993104 0.063602194 0.4214389

net.0.bias f4 [128]
00000000: ac89 133e 2bc1 fe3d ea09 9e3d e59e 9e3d
00000010: 477c 083e 805a 4f3d 9955 9f3e 48c8 213e
00000020: c238 f83b 5e23 183e 9ec3 da3d 861f 6d3d
00000030: 9888 b23d 61f8 863d 2992 d43d 6bd3 dd3d
00000040: 2afe 703d fabf 383e 03d1 093e 7471 7c3d
00000050: ecde 823d 1851 383d 2979 353e 554e cd3d
00000060: c4ab 1c3e d66c fe3d 425e c43d 3d39 e43d
00000070: 0a00 c23d 46bc 873e 0610 013e f74b 7e3d
00000080: bb3d d53d 10ee 9d3d 050a 9a3d 49ef 8b3d
00000090: 3247 b13d 6a1f 0e3e 54de 1b3e 3fe9 e73d
000000a0: a981 333c 61e6 ad3d c805 803d 7fd4 f63d
000000b0: 2f5f 773d 7078 183e 6cbb a53d d2ed 223e
000000c0: 029d f13d ce13 d13d b912 bd3c 4260 a73d
000000d0: d4d3 4b3d a2a3 973d 4704 f13d da48 cd3d
000000e0: 245d e83d 6c20 a43c a50a 1f3e a162 ad3d
000000f0: 7f3f 163e 3bc6 f13d 9383 443d db4b c63d
00000100: 5f75 e23d 30a7 103e 9c8a 4e3e 401d b53d
00000110: 1da4 c53d 4251 0d3d 24d0 093e 036d 0f3e
00000120: d24f 173e 47da 133e b653 d83d 794b 603e
00000130: 8a8b ff3d 41cb 0a3e cf05 213e 61df dc3d
00000140: dbef 6b3d 2f46 423f 3ae7 f23d 9eff 4a3e
00000150: db16 f13d 2fde 033e 6ea3 273e 7d02 a73c
00000160: 4a01 833e b348 c13d 1c3a f33d a430 6a3d
00000170: 9345 0b3e d479 1e3d a20e 353e 5616 863d
00000180: 7151 9c3c e289 0f3e 611b a13d 6ebd a33d
00000190: 9579 1f3e df38 573e 3cab 9b3d 098b 1d3e
000001a0: a619 803d 0e15 d03d 8152 c73d 787c 4f3d
000001b0: b1f2 ee3d 89e0 003e 9e52 d33c 2d40 f43d
000001c0: 3a6d 2c3d c3f8 033e c561 ee3d 3ce1 893d
000001d0: 60a6 01bd 8c75 2c3e 8110 e0bb 1dea 283e
000001e0: 74ce d83d 6764 0e3e 0d9a 1f3e 7144 2c3e
000001f0: ffe5 0e3e 141c 973d de7f 593d 9536 863d
0.14407986 0.124391876 0.07716735 0.077451505 0.13328658 0.050623417 0.31119993 0.15799057
0.0075751254 0.14857242 0.10681842 0.05789139 0.087174594 0.06590343 0.1037944 0.108313404
0.05883614 0.18041983 0.13458638 0.061631635 0.06390175 0.044999212 0.17722 0.10024706
0.15299898 0.124231026 0.09588291 0.1114373 0.09472664 0.2651083 0.12603769 0.062084164
0.10412165 0.077114224 0.07521442 0.068327494 0.086561576 0.13879171 0.1522153 0.11323785
0.010956206 0.08491207 0.06251103 0.12052249 0.06039351 0.14889693 0.080923885 0.15911034
0.11797525 0.102088556 0.023080217 0.081726566 0.049762562 0.07404257 0.11768394 0.10023661
0.1134589 0.020034991 0.15531404 0.084660776 0.1467266 0.118053876 0.04797704 0.09682437
0.11057543 0.14126277 0.20170063 0.088434696 0.09650443 0.03450132 0.13458306 0.14006428
0.14776543 0.14438735 0.105628416 0.2190379 0.12477787 0.13554098 0.15724872 0.10784794
0.05760179 0.7588834 0.11860509 0.19824073 0.117719375 0.12877725 0.16370937 0.020386929
0.2558692 0.094376944 0.11876318 0.057175294 0.13600759 0.038690403 0.17681363 0.06547229
0.019081803 0.14017442 0.0786655 0.07995115 0.15573724 0.21017788 0.0760102 0.15385069
0.06254892 0.10160266 0.09732533 0.050655812 0.116673835 0.12585653 0.02579623 0.11926303
0.042096354 0.12887864 0.11639742 0.06732413 -0.03165281 0.16841716 -0.006837905 0.16495557
0.10586253 0.13905488 0.1558611 0.16822983 0.13954924 0.07378402 0.05310046 0.065533794

net.2.weight f4 [256, 128]
00000000: b514 a13f 6b9e d33d 4c24 d93f 271f bb3e
00000010: 47c2 b7bd da97 c83e 4706 243f 4dcf de3f
00000020: b99c 2440 4321 043f c277 543f 8ac9 913e
00000030: 5f57 793d 4f8f ac3d b39a 77be ab00 693f
00000040: 0dc5 f73e efca 4cbd 4d6d f03e ee9c b33f
00000050: 4b91 953f 94e8 e33f fd80 56bd b607 1e3f
00000060: 791d c83e b2f3 073e 72ef 483f ebdd 40be
00000070: 751e d83e cd19 813d dff0 523e 55cd 253f
00000080: aa28 413f 7e53 ef3e 6711 a83e ff3d 293f
00000090: 8276 c3bd 013b 9e3f 6be7 a63f c212 0c3d
000000a0: f52a 3ebf 4456 803e 3f01 fc3d 2b51 f03c
000000b0: d092 6f3e 92da 913e 50b3 7c3f 94cb 883f
000000c0: 259e 433f 8116 3b3e f508 393f e22d c23f
000000d0: e6bd df3e 74c0 023e 61e8 e73e c8f6 38be
000000e0: da39 a9be 329e 3fbf 6d06 ac3e 78ed 8e3f
000000f0: 84bf 8b3d 8c24 fe3f b11c b43e 3cb8 e93e
00000100: 020a fd3d c0da 063f 1a19 883f 95de 113e
00000110: 9da9 903f e7fb d23e e811 45be 2cc8 123e
00000120: 9cbe 993e fc77 803f 6f4a ef3e 4947 e63d
00000130: cd6e 9e3e 504c 90be 9418 e53e a5c2 833e
00000140: c589 1b3f 531f f53e 51a2 debe e40d 023e
00000150: 3586 e33e cce2 6dbe 5f8c 323f 64fe 083f
00000160: b860 74be c82b b23d 4010 2e3f 64f5 f93e
00000170: b5eb 3b3f ab96 ab3f d830 063f dc26 033f
00000180: 109f 5d3f 06a9 6c3d 9741 6f3e c385 5fbf
00000190: b2ad f9bd 74da 83be 68ec bc3f cc33 943e
000001a0: 6cf9 403e bfaf 923e c918 fb3e 5526 d43b
000001b0: 075d 683f 7ef0 ba3f 8a40 283e 769f 103f
000001c0: 23be 133f 5c42 2f3f f04c 0f3f d08c 693f
000001d0: 04d0 e83f 4e74 423e bc4a 52bf c728 283f
000001e0: 3dad 3a3e 48eb 59bc 0879 973e f7da b53e
000001f0: 0b45 0540 cdfa 273d de15 803f 9792 b53f
00000200: 066b 1140 6885 0a3e 68bd 4d3f f897 fcbd
00000210: 8a6e e93e ec67 1f3f 72bd e0be caa2 853f
00000220: 142d d03e ea0d 883e aea6 6ebe fde9 783d
00000230: f351 a53e fc86 353f 5b0e 443f bc5b 403f
00000240: 604d 9d3e 7277 463f 4c80 7f3e d190 413d
00000250: caee c53f c240 843f 0dbb 2a3f 9247 403f
00000260: a19b 0c3f 57fa e63e 6ccb 4d3f 4ab4 d73e
00000270: d49b 363e 3250 e73e be75 8d3d 0349 de3f
00000280: 96f0 d03e d9f7 5d3f dbea 003f 6b6c 1d3e
00000290: 7db0 693f 42cc 963f e57a 6d3f e8d8 153f
000002a0: a96e 83bf 7374 b73e 38bb ae3e 54e5 3d3f
000002b0: dee5 0c3f 2435 273f 20de dc3f 1ec0 243f
000002c0: a166 ce3f 2cb8 5c3e d366 1bbe 0ecb 1b3f
000002d0: 1146 283f daca 733e 337e 1e3f fa0e fb3e
000002e0: a55f 5e3f 319c 76bf d032 b2bd 4434 a13f
000002f0: 258f 0c3d 64ae ba3e 16bc 8d3d 8ff9 ff3e
00000300: b37a 0fbe de9a 653d 6cbf b03f 898f 633e
00000310: 20ff b93f 906d ecbe 9e58 5c3f 8ee2 413f
00000320: fa17 573f daba 3b3e 9be9 403d 83eb c43e
00000330: f6f8 553f a037 193f d517 0d3f 492d 7b3f
00000340: 2053 443f 24b6 9bbe 411e d23e 2c00 913e
00000350: 410b 3e3f 30dd ad3e 5087 7b3d 507d 9b3e
00000360: 12e2 4c3f 4dcf 213f e3d8 6cbd 4db6 3c3e
00000370: 1d2f 85bd ef85 35bf 2aef a5be 6f90 a83e
00000380: 7ddf 06be 76f1 703f 9203 cb3e d8ca 773f
00000390: 960a 633f 431b f63e cabb c53f 1ce0 373f
000003a0: db40 fc3e 84db a73e a8bd 503e 8991 2d3f
000003b0: b36e b6bd a505 643f 4aa9 573f 42c1 00bd
000003c0: c956 dabd d758 c33f 64b9 283f 199f 31be
000003d0: 3092 60bf 8bc7 253e db38 86bf 8a86 803f
000003e0: fe8f 6e3f 54c4 033f f67a ad3e a80f da3e
000003f0: f9e8 4b3e ba4f ec3e 2cb4 0c40 c2ea d43f
1.2584444 0.1033295 1.6964202 0.36547205 -0.08972602 0.39178354 0.6407208 1.7407013
2.5720656 0.51613253 0.82995236 0.28474075 0.06087434 0.084257714 -0.24180107 0.91016644
0.48392525 -0.04999822 0.4695839 1.4032266 1.1684965 1.7805352 -0.052369107 0.61730516
0.39084986 0.13276556 0.78490365 -0.18834655 0.42210737 0.06303749 0.20599698 0.64766437
0.75452673 0.46743387 0.32825777 0.66110224 -0.09544088 1.2361757 1.3039373 0.034197576
-0.742843 0.25065815 0.12304925 0.029335579 0.23395848 0.28487068 0.9871111 1.0687127
0.76413184 0.18270303 0.7227929 1.5170252 0.4369957 0.12768728 0.4529448 -0.1806289
-0.3305195 -0.7485076 0.33598652 1.116622 0.06823638 1.9854903 0.3517814 0.45648372
0.123554245 0.52677536 1.063266 0.14245065 1.1301762 0.4120781 -0.19245112 0.14334172
0.30028236 1.0036616 0.46736476 0.11244065 0.3094391 -0.28183222 0.44745314 0.2573444
0.60757095 0.4787546 -0.43483213 0.12700611 0.4443833 -0.23231047 0.6974544 0.5351317
-0.2386502 0.08699757 0.67993546 0.4882003 0.73406535 1.3405355 0.5241828 0.5123117
0.86570835 0.05777838 0.23364864 -0.8731348 -0.12191333 -0.25752604 1.4759645 0.28945768
0.18845147 0.2864971 0.49042347 0.006474296 0.9076695 1.4604642 0.1643087 0.5649332
0.57712 0.6846063 0.5597677 0.9123049 1.8188481 0.18989679 -0.82145286 0.6568722
0.18230148 -0.013300724 0.29584527 0.3551862 2.082339 0.041010667 1.0006673 1.4185361
2.2721572 0.13527453 0.80367136 -0.12333673 0.45592147 0.6226795 -0.43894535 1.0440304
0.40659392 0.26573116 -0.23305771 0.060770024 0.32289085 0.70909095 0.76584405 0.75139976
0.30723095 0.7752601 0.24951285 0.04725725 1.5463498 1.0332263 0.66691667 0.7510921
0.5492497 0.4511287 0.8038852 0.42129737 0.17832881 0.45178372 0.06907223 1.7366031
0.40808553 0.8670631 0.5035836 0.1537339 0.91284925 1.1781085 0.9276565 0.585341
-1.0268146 0.3583103 0.34127212 0.7417805 0.5503825 0.6531546 1.7255287 0.6435565
1.612507 0.21554631 -0.15175943 0.6085671 0.6573191 0.2380785 0.61911315 0.49034864
0.8686469 -0.9633208 -0.08701098 1.2594075 0.0343162 0.36461174 0.0692064 0.49995086
-0.1401165 0.056055896 1.3808417 0.22222723 1.4530983 -0.4617734 0.8607272 0.7573632
0.8402096 0.18332997 0.047097784 0.3846093 0.8358301 0.598505 0.5511449 0.98115975
0.7668934 -0.304124 0.41038707 0.28320444 0.7423592 0.33957815 0.06140834 0.30369043
0.80032456 0.6320694 -0.057824027 0.18428917 -0.06503127 -0.7090749 -0.3240903 0.32922694
-0.13171192 0.9411844 0.3965116 0.9679389 0.8868803 0.48067674 1.5447934 0.7182634
0.4926823 0.32784665 0.20384848 0.67800194 -0.08907833 0.8907111 0.8424269 -0.031434305
-0.10661084 1.5261487 0.65907884 -0.17345847 -0.87723064 0.16189401 -1.0486101 1.0041058
0.93188465 0.5147145 0.33882874 0.4259007 0.19913091 0.46154577 2.1984968 1.6634142

net.2.bias f4 [256]
00000000: fe90 803e c169 3e3e 4d81 1f3d ce37 133e
00000010: 0947 173e f513 693e 3d85 a7be e566 2d3e
00000020: d979 ad3f 7f63 5bbe b1c5 5abe b333 003d
00000030: fa65 2f3e e43d cb3d 5921 e93d 5e23 ce3d
00000040: 41bb 2b3e b954 f13d 8621 7ebe e997 953d
00000050: 5a16 84be 5235 4c3e 41bc 103d 8c75 18bd
00000060: 6e00 a23e 6770 eb3d eb89 9f3d 8d5c ff3d
00000070: 4598 843e c38a 4c3e 9d34 753d c02a 533e
00000080: daf0 83be b856 97be ee33 043e 8a47 30be
00000090: 5c69 ae3e b6d9 7abc b379 1b3e f7f7 be3d
000000a0: 6ff1 de3c cf4d c43d 6bed 823d 81ae 443e
000000b0: efa1 003e 2706 713e f656 6b3e 0b27 05bd
000000c0: a699 083e 063c 133e 8ec3 9bbe 83d8 723e
000000d0: cf28 97be 3cca 5b3e 81fe 7bbe 4d40 0e3e
000000e0: c9e6 1f3d 5252 893d ff71 9dbe 8322 c83b
000000f0: f840 df3d 0bf4 0c3e 5b3f af3e 155b 3f3e
00000100: d3f1 6e3d 28e3 a63f 7fae 963e 7f6c 263d
00000110: ea68 833d 239e 1a3d 7a16 793e b3a3 83be
00000120: c4b6 d33d 47ea a83d 366b 03bf 6bf2 803e
00000130: 6243 bf3e ac66 843f 1b04 493e 447d 513e
00000140: b3ca 8abe e3f8 1e3e 8c9d 68be efe9 443d
00000150: 272c 8f3d 3cc3 b03c e652 183d e131 7e3d
00000160: c525 973d 972a fb3e b179 1c3e b203 253e
00000170: 6629 4f3c 3e40 a53f e57b a03e 1a45 3c3d
00000180: 2c4c 343d 4a1e 923e 0e95 8d3e 67dd 4b3e
00000190: 6752 3fbe e129 ae3d 8dfa ad3e e5c8 3abe
000001a0: 8a00 923d 3056 a73e 3e7f 2f3e 2551 4d3e
000001b0: 3501 4d3e 824c 8d3d 159f ce3e 5cb2 333d
000001c0: bfce ec3c 2d05 5e3d 8406 c43d 5227 29bc
000001d0: 1d07 dabb 2f3a 9cbe 85fa b6be 2149 41be
000001e0: d2c2 963e 6913 433e 6489 5dbe 2565 143e
000001f0: 304f a23e 314d 3e3e 1a97 883c 29c4 a73d
00000200: 5799 d93d 251f 003e 2659 b63d 7ca6 5b3e
00000210: a46a 1a3b 55b1 283e d482 4e3e 7b50 d43c
00000220: 8d00 dc3e a699 cd3d e8b7 b43d b40a 073e
00000230: 02c6 813e d801 843e 5fe1 183e f18f 363e
00000240: 9247 253d 1997 4c3e 65ef 85be 57fa 0fbe
00000250: 6767 a13e 404f 543e 8e09 c13e 9991 0abc
00000260: f80a a03d 2cba e43d f76f baba b78d a23d
00000270: ca81 773e 74a9 a53d 964e 4d3e d331 cf3d
00000280: 1f6b 4fbe 99c9 3d3e 2c07 183e cb8f 9a3e
00000290: 6c6b 013e 401b 113e 3ec8 f6bd 71f4 543d
000002a0: 923c 203e 8759 9dbe d73e 373e b0c1 fd3d
000002b0: 9898 933f 8e19 5d3e 70cd 513e e8a4 073d
000002c0: 98a1 e73d 2d7d fc3c a3b8 303e 918e 0a3d
000002d0: 6b49 bc3c 4841 3cbd 0cb3 613d c6f2 fe3d
000002e0: 61da 8fbd 8a86 80bc b581 0a3f 2a57 a73d
000002f0: c1d3 29be 5451 bd3e 88e8 90be 11db e53d
00000300: 6197 5a3e 2cae a4bf f5f3 443e c727 693e
00000310: e8f3 503e 16e9 773e 4794 323e 5615 013e
00000320: d499 193e d90b a4be e396 323e 0851 073e
00000330: ebbb 2e3e bbf2 0ebe 3333 5cbe 80b5 113e
00000340: 29f7 a23d 741d b73d dfaa d73d 582a 243e
00000350: 5f01 073e ff20 813f 0dd4 f23d 66f0 133f
00000360: 9765 2e3e 6f75 ec3d d48f 393e 2487 1c3e
00000370: 9203 8d3d 928d 4b3e 40ba c63d e96d 403d
00000380: 0d7b 043e 099f 3f3d 9be9 4b3e b241 613d
00000390: 104d 0b3e 11de ce3d e5d3 68be fa7a 803d
000003a0: e754 6f3d 9a18 053e 6cf0 3fbe e8c0 a93e
000003b0: ebe7 863e 219f 7d3d cca0 f03d a104 2a3f
000003c0: 631d dc3d 5110 8a3d f494 91be d7d6 f83d
000003d0: 0945 033e abe4 963e 69ee 2c3e d4a4 ce3d
000003e0: b598 36bd 2878 9bbe 8725 3d3e 46b2 48be
000003f0: c13c 073e c549 7c3d 1408 8d3e c625 ce3e
0.2511062 0.1859503 0.03894167 0.14376757 0.14773192 0.22761519 -0.3271884 0.16933782
1.355281 -0.21424673 -0.21364476 0.031299304 0.17128745 0.09923914 0.11383314 0.100653395
0.1677065 0.11783738 -0.24817476 0.07304365 -0.25798303 0.19942215 0.035335783 -0.037221476
0.31640953 0.114960484 0.07789978 0.124688245 0.25897422 0.19974808 0.05986463 0.20621777
-0.25769693 -0.2955835 0.12910435 -0.1721479 0.34064758 -0.015310695 0.15183143 0.09324639
0.027214734 0.09585153 0.0639294 0.19207193 0.12561773 0.23537503 0.22982392 -0.032507937
0.13339862 0.14378366 -0.30422634 0.23715405 -0.29523322 0.21463865 -0.24608804 0.13891716
0.039038453 0.067051545 -0.30751035 0.0061076297 0.10901064 0.1376497 0.34228024 0.18687089
0.05833609 1.3038073 0.29430005 0.040630814 0.06416495 0.037748467 0.2432498 -0.2571083
0.10337594 0.0824781 -0.51335466 0.2518495 0.37356097 1.0343833 0.19630472 0.20457941
-0.27107772 0.1552463 -0.2271635 0.04807466 0.06990843 0.02157747 0.037188433 0.062059287
0.07380251 0.4905593 0.15280797 0.16114691 0.0126441475 1.291023 0.31344524 0.045964338
0.044017956 0.28538734 0.27652782 0.19908677 -0.18683778 0.085040815 0.33980218 -0.18240698
0.07129009 0.32682943 0.17138383 0.20050485 0.20019992 0.06899358 0.40355745 0.04387127
0.028907178 0.054204155 0.09571555 -0.010324316 -0.00665368 -0.3051314 -0.35738006 -0.18875553
0.2944551 0.19050373 -0.21634442 0.14491709 0.3170104 0.18584134 0.016673613 0.081917115
0.106249504 0.1251188 0.089037225 0.21450227 0.0023562098 0.16473897 0.20167094 0.025917282
0.4296917 0.10039072 0.0882414 0.13187677 0.2534638 0.25782657 0.14929722 0.17828347
0.040351458 0.19979514 -0.26159206 -0.14060341 0.31524202 0.20733356 0.37702602 -0.008457565
0.07814592 0.11168322 -0.0014224042 0.07937186 0.24170604 0.08088961 0.2004951 0.10116925
-0.20255707 0.18533935 0.14846486 0.3018783 0.12638634 0.14170551 -0.12049912 0.05199093
0.15648106 -0.30732366 0.17895065 0.123904586 1.1530943 0.2159178 0.20488524 0.03311625
0.113101184 0.030821407 0.17257933 0.03382737 0.022984227 -0.045960695 0.055102393 0.12448649
-0.07024074 -0.015689153 0.5410417 0.08170922 -0.16584684 0.3697611 -0.28302407 0.11223424
0.21346809 -1.2865653 0.19233687 0.2276908 0.20405543 0.24210009 0.17439376 0.12605795
0.15000087 -0.3204029 0.17440371 0.13214505 0.17063873 -0.13959782 -0.21503906 0.14229393
0.07957298 0.089411646 0.10530638 0.16031778 0.13184117 1.0088195 0.11856852 0.57788694
0.17030941 0.11545836 0.18121272 0.15285927 0.068854466 0.19878224 0.09703493 0.04697982
0.12937565 0.046782527 0.19913332 0.054994293 0.13603616 0.101009496 -0.22737081 0.06273456
0.05843058 0.12997666 -0.18744057 0.33154988 0.26348814 0.061919335 0.117494196 0.66413313
0.107477926 0.06741393 -0.28433955 0.121503524 0.12819304 0.29471335 0.16887821 0.10090032
-0.044579227 -0.3036511 0.18471347 -0.19599256 0.1320677 0.06159379 0.27545226 0.40263194

net.4.weight f4 [27, 256]
00000000: bf89 323e 508c db3e a642 d83e c238 bf3e
00000010: 1f53 be3e 64cf ca3e 93b1 eb3e dba4 d13e
00000020: 2da8 83bf c5fb ec3e 2961 de3e 6c40 b43e
00000030: 169d e43e 6a6c 9c3e 3b20 ba3e bfeb b03e
00000040: 3acc b43e 4b14 c83e 55f1 cb3e 556f be3e
00000050: 5d2d f63e af3e 883e c22d c33e e2e2 ee3e
00000060: e522 a13e e376 c13e 59d3 cb3e 0d90 933e
00000070: 8813 4c3e 9b6a af3e 2c59 c93e 3728 a73e
00000080: fdc3 f43e 7b3a cb3e b46f b03e 12c9 b83e
00000090: 8355 de3e 5084 57bd 581e bc3e 9ecb 33be
000000a0: a7a0 d63e a373 a13e a329 d33e a48b ac3e
000000b0: 6c35 ac3e 9da6 bb3e daf1 c9bc 8fc9 c23e
000000c0: 48e6 ba3e fb61 ad3e e6ac ed3e a16a c43e
000000d0: e0b8 ea3e 11f6 5d3f 027c e33e 311f c43e
000000e0: 0e94 a13e bd97 c93e 9b89 c43e d2d2 433e
000000f0: e769 b53e 3b44 be3e 561c e63e d571 b13e
00000100: 7cdd b83e de0c 74bf 2111 8b3e e9e3 d13e
00000110: 3c49 9b3e 5585 d93e e228 a33e 20c1 ba3e
00000120: f1d2 c63e 3953 8d3e b1bf d33e 9aa7 d33e
00000130: db42 363e 6d3b 9ebe 2a1c 9c3e 825a 953e
00000140: 2e99 e03e 44cb 723e df26 de3e 211e a43e
00000150: fc57 a13e 7f7b a13e f012 c73e 2c26 c33e
00000160: 05f0 bd3e dd59 09bf 4901 ea3e ee6d 6f3e
00000170: 4706 c13e f108 6dbf 02d0 b83d 273b fd3d
00000180: fbed d03e 4a80 033e c847 16bd 15d5 a93e
00000190: 1588 b83e a375 6b3e 87e5 d03e d3ef b93e
000001a0: c5a6 ac3e fda5 653e b969 bf3e 41d8 a73e
000001b0: 8bf8 bc3e cfab c03e c66b 1abd bb4a c53e
000001c0: 5fa5 a63e 06c7 e53e 32e2 d93e f80f 58bc
000001d0: 0e9c b73e 31a9 bf3e d7a9 ef3e d718 c73e
000001e0: f413 0bbe 0483 e43d 10a9 f33e 0a13 a33e
000001f0: f2fa ac3e 965c 953e 2789 ce3e 54df b63e
00000200: e6ae a03e 2727 a33e a9ac 8a3e ff28 bd3e
00000210: 171b b43e 50c9 ce3e e882 3c3e 6479 923e
00000220: 24b4 393e 9193 dc3e 37de d03e e56f c33e
00000230: f5bc b43e ec3e 8d3d 4a27 923e d908 b33e
00000240: 2cd5 c93e b3c7 e73e 584f d13e e973 663e
00000250: 0f16 fd3e 269d ae3e f3ad 1b3f 500b 903e
00000260: e2e7 913e e7e2 ad3e c24c 9a3e d50f be3e
00000270: ba4a bb3e 6a36 d53e 2bf6 9e3e 3b2a a03e
00000280: 825d e03e 7834 a23e 6e45 963e 381e a53e
00000290: 5743 b13e 549d c63e ecb5 ec3e e613 d83e
000002a0: 6d9c cd3e f1c9 b93e f9ab ab3e 8080 cf3e
000002b0: e1e2 89bf 710b 7c3f d6a0 9a3e d92c 873f
000002c0: 0668 bf3e 451f d93e 6702 af3e 61cb bd3e
000002d0: 91f0 bc3e f3f8 963f b1c9 b83e f687 953e
000002e0: 15bc bf3e cd74 a13e 2d05 4abf a758 ba3e
000002f0: c764 c43e 3d15 a33d a864 e53e c205 cf3e
00000300: b052 933e 3033 b73c 48b6 a13e cecf 203e
00000310: f4d3 c73e ed54 c33e 6b83 c03e 46bc bf3e
00000320: 30f8 bb3e b725 e13e 1df2 b43e 6a6f ce3e
00000330: 8f40 cc3e c0d6 c53e 6b00 9f3e 60f0 d63e
00000340: f007 9d3e ad8e 9a3e 9bb5 bf3e f11b be3e
00000350: 4159 c03e 8bc3 f7be 59e4 b03e ce0b 11bd
00000360: e12f b63e e173 ba3e 49e8 8d3e f61b a93e
00000370: ba45 a83e 8e79 a03e 4d07 d83e c148 bd3e
00000380: da6a 8b3e 319b d93e ea99 a83e 7ea5 8e3f
00000390: 4012 703e 2bc8 c63e 0020 d43e efc3 da3e
000003a0: ec6e a53e 90d3 bb3e 26d3 bd3e 1eda 133e
000003b0: dfc3 903e e9fd a73e e19e ab3e f9bb fe3c
000003c0: 9553 9e3e b4ca de3e 82b1 fd3e b898 9e3e
000003d0: 4ef3 aa3e 9f27 913e 5cf5 c73e 7925 983e
000003e0: 3096 5b3f f81a e83e 08dc a33e a870 c93e
000003f0: d68c b93e cc78 c23e 4d66 c03e 5158 aabd
0.17435358 0.42880487 0.4223835 0.3734799 0.3717279 0.3961135 0.46033916 0.40946087
-1.0285698 0.46285835 0.43433502 0.352054 0.44651097 0.30551463 0.36352715 0.3455486
0.35312063 0.39077982 0.3983256 0.37194315 0.48081484 0.26610324 0.38120848 0.46657473
0.31471935 0.37786016 0.39809683 0.2882084 0.19929326 0.3426102 0.39325845 0.3264787
0.47805777 0.39693055 0.34460223 0.36090904 0.43424615 -0.052616417 0.367419 -0.17558143
0.41919443 0.31533536 0.41242704 0.33700287 0.33634508 0.36650553 -0.024651457 0.38044402
0.36503816 0.33863816 0.46420974 0.383626 0.45844173 0.8670359 0.44430548 0.38305047
0.3155827 0.3937358 0.38386235 0.1912339 0.3543236 0.3716143 0.44943494 0.3465716
0.3610648 -0.95332134 0.27161506 0.40994194 0.3032931 0.42484537 0.3186713 0.36475468
0.3883281 0.27602556 0.41357186 0.41338807 0.17798941 -0.30904713 0.30490237 0.29170614
0.43866867 0.23710352 0.4338903 0.32054237 0.3151244 0.31539533 0.38881636 0.3811506
0.37097183 -0.53652745 0.45704105 0.23381779 0.37700102 -0.9259177 0.09024049 0.12364798
0.40806565 0.12841907 -0.03668955 0.3317038 0.36041322 0.22994094 0.40800115 0.36315784
0.33720985 0.22426601 0.37385347 0.32782176 0.36908373 0.3763108 -0.037700437 0.38533577
0.32548043 0.44878405 0.42555386 -0.013187401 0.35861248 0.3743377 0.46809265 0.3888614
-0.1358183 0.11157802 0.47589922 0.31850463 0.33785206 0.291722 0.40339014 0.3571726
0.31383437 0.31865808 0.27084854 0.3694534 0.35176918 0.40387964 0.18409312 0.2860824
0.18135124 0.43081334 0.40794536 0.38171306 0.35300413 0.06896767 0.285456 0.34967688
0.3942045 0.45269546 0.40880847 0.22505154 0.49430892 0.3410427 0.608123 0.2813363
0.28497225 0.33962175 0.30136687 0.37121454 0.3658045 0.41643077 0.31047186 0.3128222
0.4382134 0.31680655 0.29349846 0.32249618 0.3462169 0.38791907 0.46232545 0.4220268
0.40158406 0.36286882 0.33529642 0.40527725 -1.0772363 0.9845496 0.30200833 1.0560561
0.3738405 0.4240667 0.3418152 0.37069228 0.36902288 1.1794723 0.36091378 0.29205292
0.37448183 0.31534424 -0.7891415 0.3639576 0.38358137 0.07963035 0.44803357 0.4043408
0.28774023 0.022363275 0.31584382 0.15704271 0.39028895 0.3815073 0.37600264 0.3744833
0.3671279 0.43974087 0.35340968 0.40319377 0.39893004 0.38640404 0.31055006 0.41980267
0.30670118 0.30186978 0.3744324 0.37130693 0.37568095 -0.48391375 0.34549215 -0.03541165
0.35583404 0.36416534 0.27716282 0.33029145 0.32865697 0.3134274 0.4219307 0.3696957
0.2722996 0.42501214 0.32929927 1.1144254 0.23444462 0.3882459 0.41430664 0.4272761
0.3231119 0.36684847 0.37075156 0.14438674 0.28274438 0.32810906 0.33519652 0.031095492
0.30923143 0.43514025 0.4954949 0.3097589 0.33388752 0.2835054 0.39054382 0.2971609
0.8577604 0.45333076 0.32003808 0.39343762 0.36240262 0.37982786 0.3757805 -0.08317626

net.4.bias f4 [27]
00000000: c321 72bd b378 843d 85c1 91bd 6a00 31bb
00000010: cb6a 833c 4edb fa3c 2e43 24bd a362 393e
00000020: 9122 96bd f5f7 803e 989e 973d 0314 ca3d
00000030: 8929 2dbd 6a05 a93d 226b 963d 6a55 973c
00000040: 6cee 75bd 3543 84bd 2ca3 6c3e 252f b93e
00000050: a13b d53e 1111 0dbd f9e7 2e3d 618e 263e
00000060: 2a20 83bc 8788 cc3d f07e 2f3d
-0.05911423 0.06468334 -0.07116989 -0.0027008303 0.016042134 0.03062215 -0.04010313 0.18104033
-0.07330812 0.25189176 0.07403296 0.09867098 -0.04227594 0.08252986 0.07344653 0.018473346
-0.06004183 -0.06458131 0.2310912 0.3616878 0.41647056 -0.034440104 0.042701695 0.1626525
-0.016006548 0.09986978 0.042845666
