model/dqn_policy_net_episode_2720.pt (torch, 334295 bytes, 6 tensors)

net.0.weight f4 [128, 336]
000000 ba 4a fb 3d d4 dd 23 be 86 e5 5a 3d 82 ea 96 3d
       0.12270112 -0.1600259 0.053441547 0.073689476
000010 5f f3 ff bd 13 0b a6 be fc 60 fa bc f3 19 30 bd
       -0.12497591 -0.32430324 -0.030563824 -0.042993497
000020 dd 73 f8 3d 9f bf 46 bd 42 6d 74 be 4a bb 95 3d
       0.12131474 -0.048522588 -0.23869804 0.07311113
000030 6a 4b 54 3d a0 4b 82 be 7a 26 21 bd 57 17 0f 3d
       0.051829733 -0.25448322 -0.039343335 0.034934368
000040 93 57 1b be 53 be 0c be 1c 75 94 bc 9b 23 8c bd
       -0.15170126 -0.13744478 -0.018122248 -0.06842729
000050 e9 86 75 3d 1e 43 8a 3d bd 58 de bd 70 83 82 3d
       0.059943113 0.06751083 -0.10856769 0.06372726
000060 0b 1e 21 be 37 ad d6 bd bc 08 1f 3b d0 eb 3e bc
       -0.15734117 -0.10482257 0.002426668 -0.011652902
000070 19 91 24 be b3 60 3a bd fd 5b 99 3d 6b a4 37 3d
       -0.16070975 -0.045502376 0.074882485 0.044834536
000080 60 13 30 be d7 0d 80 bd 59 f8 4e 3d 70 42 d9 bd
       -0.17194891 -0.0625264 0.05052981 -0.10608375
000090 95 0d ef bc 94 a6 30 be e9 94 7b bd 7e a3 ef bc
       -0.029181281 -0.17251045 -0.06142131 -0.029252764
0000a0 9f db c6 3b 76 53 44 be 89 7e 3d 3e 7f 8f 05 be
       0.0060686613 -0.19172463 0.185053 -0.1304302
0000b0 ec 30 6c 3d b8 4d 26 be 31 53 93 3d 86 b4 f5 bc
       0.057663843 -0.16240585 0.07193602 -0.029993307
0000c0 63 e0 f8 bc e0 12 0a 3d 65 5d a6 bd 52 c0 02 39
       -0.030380433 0.033709407 -0.08123282 0.00012469411
0000d0 81 af c5 3d 09 4d 0f be 7d 36 14 bd f0 fa 5c 3e
       0.09652615 -0.1399423 -0.036184777 0.215801
0000e0 39 f1 9e 3d 0a df 9e be 01 08 30 be b4 4a 1a bd
       0.07760853 -0.3102954 -0.17190553 -0.0376689
0000f0 cd ce fd 3d be 0b a6 3d 1a d2 ed 3c 41 4c be bc
       0.1239296 0.081077084 0.029030848 -0.02322972
000100 5c 47 9f bd 6d 7c 56 bc eb b3 81 be 02 1d 4a 3d
       -0.077772826 -0.013091189 -0.2533258 0.04934407
000110 46 9b 49 be 61 ac 6c 3c 52 ea 42 be cc 51 fc 3d
       -0.19688138 0.014445395 -0.19034699 0.12320289
000120 75 d1 53 be cd dc 23 3d 07 78 7d bd 75 d4 21 3e
       -0.2068537 0.040005494 -0.061882045 0.15803702
000130 d0 9e 32 3d 47 2d 16 3d 36 55 c5 bc a4 c5 c4 3d
       0.043608487 0.036664274 -0.024088483 0.096080095
000140 2e f2 e9 3d 55 54 a0 3d 4e f4 9a 3d 85 21 5b bd
       0.11423145 0.07828585 0.07566129 -0.053498764
000150 43 64 8d bd 8d 2e 80 bc 63 f9 c5 bd 95 52 da 3d
       -0.06903889 -0.015647197 -0.09666707 0.106602825
000160 ad ed e8 bc 51 1a d2 bd 90 43 79 3d 71 4a ae 3d
       -0.028433645 -0.10258926 0.06085545 0.08510292
000170 c5 1d 93 3d ab dd 47 be 9b 1d d6 bc d0 91 10 bc
       0.071834125 -0.19518153 -0.026137164 -0.008823827
000180 ac 11 5a 3e 94 13 48 be f0 9f a4 bc a6 3d ed 3c
       0.21295804 -0.19538718 -0.020095795 0.02896006
000190 3b 79 30 3d 51 fc 81 bd e0 4e 01 3c 53 8a 02 3d
       0.043084364 -0.06346954 0.00789234 0.031870198
0001a0 14 82 4c bf 6e 58 b3 3d 97 82 04 3e 13 e0 3a 3e
       -0.79885983 0.08757101 0.12940441 0.1824954
0001b0 fa 0a bb 3e 40 5f 82 bc ae 42 e9 bd 22 5a f0 3d
       0.36531812 -0.01591456 -0.11389671 0.117359415
0001c0 d9 e3 8e 3c a9 e6 3f 3c 60 7f 05 bd b4 71 0b 3d
       0.01744263 0.0117127085 -0.032592177 0.034043983
0001d0 d3 b6 20 be d8 03 74 bd 5d 7c 0c 3d b5 dd 05 3d
       -0.15694742 -0.05957398 0.03429829 0.03268214
0001e0 c4 63 50 bf 8b d9 1f bd 5a 96 a7 bd 5b 93 42 be
       -0.8140223 -0.039025825 -0.08182974 -0.19001524
0001f0 fb ed 14 3d 35 5b f7 3b 7c 71 e2 bd d9 68 6f bd
       0.03635977 0.0075487145 -0.11056802 -0.0584496
000200 e7 e4 87 3e b1 1c 71 be 53 e1 d9 bc ed bc 21 bd
       0.26541826 -0.23546101 -0.0265967 -0.039486814
000210 81 fc 92 be 4e ee 8a bd e4 72 bd bd 81 48 ee bb
       -0.2870827 -0.06783734 -0.09250429 -0.0072718267
000220 f3 bd 09 bf 22 b8 e1 3d b9 48 a4 bc bf e1 ef 3d
       -0.53805465 0.11021449 -0.020054208 0.117129795
000230 63 c6 9b bd ba f6 60 3d 49 14 c4 bc 4c 14 4d 3e
       -0.07606199 0.054922797 -0.023935454 0.20027274
000240 d8 b9 b3 3e 46 0a 21 be 5c 11 3a be 42 6d 23 be
       0.35102725 -0.15726575 -0.18170685 -0.15959647
000250 1e 49 b6 bd af c1 e7 3b cc b9 d8 3d 21 1f e2 bd
       -0.08900665 0.0070726494 0.10582313 -0.110410936
000260 9d 4a 4c 3d 50 ce c7 bc ee ed 68 3d 7d 72 e4 3d
       0.049875844 -0.02439037 0.056867532 0.111546494
000270 55 e3 5b be db 5c c3 3d 53 b0 6f be e1 46 3d 3d
       -0.21473439 0.09539195 -0.23407106 0.046210174
000280 a9 26 4e 3d b8 19 5b 3d 35 14 94 3c 0a 7e b5 bc
       0.050329838 0.053491324 0.018076042 -0.022154827
000290 9c b9 ac 3d d6 ce d3 3d 73 c4 af bd 36 26 15 3d
       0.0843384 0.10342185 -0.085823916 0.036413394
0002a0 41 22 0b 3f d5 b7 6a be 40 e9 5d 3d 90 df fb bd
       0.5434914 -0.22921689 0.054177523 -0.122985005
0002b0 bd c2 7b be 5e 4f 16 be 8d d8 02 be 92 72 0d 3d
       -0.24586006 -0.14678714 -0.1277792 0.03453309
0002c0 1d 5e 07 3f ea 01 94 bb 49 7d 66 3d 82 f5 32 be
       0.5287798 -0.0045168297 0.056271825 -0.17476466
0002d0 3b c4 b5 bd 60 24 76 be 47 ec a5 bd dc 27 99 be
       -0.088753186 -0.24037313 -0.08101707 -0.29913223
0002e0 27 59 4a 3f 28 0e 08 be c4 d3 9c bd 2c ba 23 be
       0.79042286 -0.1328665 -0.076575786 -0.15988988
0002f0 02 bb 4a 3d 3d dc 2e 3d 83 20 fa 3c 21 b2 6d 3d
       0.04949475 0.042690504 0.03053308 0.058031205
000300 69 f3 2b bf a5 a9 0e 3d 71 1e 9e 3d db df f4 3d
       -0.6716829 0.034829754 0.0772065 0.119567595
000310 81 80 2e 3c 05 ad d9 3e fd 63 87 3d 5e e6 18 3e
       0.010650755 0.42514816 0.06610868 0.14931628
000320 f8 0d 13 3f bf e4 87 bd a7 5b ed bd 6b e0 1e bd
       0.5744319 -0.06635427 -0.11589747 -0.03878824
000330 5d 5d 85 3e 37 ee d5 bd 77 e5 25 bd 15 83 4e 3e
       0.26047793 -0.104458265 -0.040502038 0.20167191
000340 5c dc eb bf 0e 82 90 3e 49 1b 04 3f 9a 78 7d 3e
       -1.8426623 0.28224224 0.51604134 0.24753037
000350 2e 92 ac 3e 02 95 07 3f b1 e5 3f 3e 6c a7 64 3e
       0.33705276 0.5296174 0.18739964 0.22329491
000360 97 68 f7 3e f1 6b 0f 3e 9e fc ab bd a7 7d 95 3c
       0.48321983 0.1400602 -0.08397792 0.018248392
000370 09 1b 1b 3d 66 a3 8d 3d d3 3a 1e 3d e3 86 dc bc
       0.03786758 0.069159314 0.038630318 -0.026919788
000380 40 b2 51 bf 7a 2e dc 3e a5 94 b5 3e 3d 56 9b 3e
       -0.8191261 0.4300421 0.3546497 0.30339232
000390 be a0 25 be 12 f7 8c 3e 46 ac 05 bd 5e 8f e3 3e
       -0.161746 0.2753225 -0.032634996 0.44445318
0003a0 05 da 32 3f e2 f0 86 3d 3b 70 54 be ce 07 ff bd
       0.6986392 0.065889135 -0.20745938 -0.124526605
0003b0 50 8f e2 bb cc 11 25 b9 75 80 22 3e 8f d6 93 be
       -0.006914057 -0.00015742256 0.15869315 -0.28874633
0003c0 fa 75 76 3f cd 3a 72 3d af 0a 92 bd 5b 7c 06 be
       0.9627377 0.059138108 -0.07130944 -0.13133375
0003d0 64 27 c5 be c1 e3 7e be 7c 76 f0 3c 48 6e e0 be
       -0.38506615 -0.24891569 0.029353373 -0.43834138
0003e0 aa 25 51 bf a6 38 bd 3e de 8c 70 3e ab c3 28 3e
       -0.81698096 0.36957282 0.23491237 0.16480891
0003f0 01 19 0b 3e 09 1b 03 3f f9 b5 ff 3c 83 a8 f5 3e
       0.13583757 0.5121313 0.031214701 0.47980127

net.0.bias f4 [128]
000000 c6 4d 09 3e f3 c2 2a 3e 89 1b f2 3d 8e 0b 15 3e
       0.13408574 0.1667593 0.11821658 0.14555189
000010 47 63 b5 3e 09 25 16 3e 58 d5 18 3f 4c 1d 7e 3e
       0.35427305 0.14662565 0.59700537 0.24815863
000020 ba 00 67 3c 74 c2 57 3e 4d f4 16 3e 6d df e9 3d
       0.014099294 0.21070272 0.14741631 0.11419568
000030 cf b6 4c 3e fd d0 09 3e 00 7e 37 3e 59 47 0f 3e
       0.19991611 0.13458629 0.17919159 0.1399206
000040 a1 56 08 3e 85 f1 72 3e c4 c9 49 3e e6 65 b5 3d
       0.13314296 0.23724945 0.19705874 0.08857326
000050 b2 4c e7 3d dc b4 85 3d 85 1d db 3e 64 bd 60 3e
       0.11293925 0.06528637 0.4279596 0.21947247
000060 7f 64 6f 3e c1 8f 1b 3e 08 c1 4f 3e 09 b4 9a 3e
       0.2337818 0.15191557 0.2028848 0.3021548
000070 89 c4 15 3e b7 61 08 3f 1b a6 9f 3e a9 fd 31 3e
       0.14625753 0.532741 0.31181416 0.1738192
000080 2e 35 80 3e 37 e9 ec 3d 9a 5f 5f 3e d6 a9 0a 3e
       0.25040573 0.1156792 0.21813813 0.1354135
000090 f2 d6 de 3d 5b 26 65 3e fc 69 78 3e c2 02 3c 3e
       0.10880841 0.22377913 0.2425918 0.18360427
0000a0 b9 29 a4 bd ba 8a 10 3e 77 7e b8 3d 83 32 44 3e
       -0.080157705 0.1411542 0.09008496 0.19159894
0000b0 3a e9 be 3d a8 fe 66 3e b1 bc c7 3d ec 46 81 3e
       0.09321828 0.22558081 0.09752787 0.25249422
0000c0 82 d8 0d 3e 4a 0f 8a 3e e7 2a 26 3d fa a9 58 3e
       0.13852122 0.2696479 0.04056826 0.21158591
0000d0 a4 21 01 3e aa 21 05 3e 03 5a 4f 3e 2a 22 32 3e
       0.12610489 0.13001123 0.2024918 0.17395845
0000e0 dd 9d 2b 3e 67 6b 97 bd ac 64 b1 3e be 63 47 3e
       0.16759439 -0.07393532 0.3464712 0.19471642
0000f0 69 e5 76 3e 0b e7 d8 3d 5c bd bc 3d 54 fc 34 3e
       0.2411095 0.10590943 0.09215805 0.1767438
000100 50 d6 61 3e 54 e2 4d 3e 82 45 a0 3e 28 a2 fb 3d
       0.2205441 0.20105869 0.3130303 0.12286788
000110 4e 3c 0a 3e 37 67 c6 3d 7c be 39 3e 52 4a 87 3e
       0.13499567 0.096876554 0.1813907 0.2642389
000120 72 9b 83 3e 5d 46 07 3e b1 a5 47 3e 19 52 f7 3e
       0.25704533 0.13210435 0.194968 0.48304823
000130 13 3e 44 3e 6a 8c 32 3e f1 b7 61 3e cd 47 43 3e
       0.19164304 0.17436376 0.22042824 0.19070359
000140 5e df f8 3d 42 e3 97 3f c2 ed 5c 3e 07 2a dc 3e
       0.12151979 1.1866229 0.21575072 0.43000814
000150 b6 ca 4f 3e f5 15 44 3e 5a 05 5c 3e 3f dc 83 3d
       0.20292172 0.19149001 0.21486416 0.06438493
000160 7e 9f 02 3f 44 93 82 3e 37 0b 3a 3e a6 87 03 3e
       0.51024616 0.2550298 0.1816834 0.12844715
000170 85 35 3d 3e 5c 48 98 3d c7 d3 c7 3e 4b c8 0a 3e
       0.18477447 0.074356765 0.3902876 0.13552968
000180 75 f0 22 3d b8 7d 71 3e e8 a0 19 3e cc c7 26 3d
       0.0397801 0.23583114 0.15002787 0.040717885
000190 ec cd 50 3e 0c 07 e6 3e 0e 29 0a 3e 74 dd 7b 3e
       0.20391053 0.4492725 0.13492224 0.24596196
0001a0 e6 45 d6 3d dc 9a 29 3e 9a 19 62 3e 5d 37 f0 3d
       0.10462551 0.1656298 0.22080079 0.1172931
0001b0 9b b9 51 3e ba 12 13 3e bd 10 7f 3d 77 f3 9f 3e
       0.20480959 0.14362612 0.062271822 0.31240436
0001c0 e0 0e aa 3d fc f8 81 3e 3a cc 48 3e 14 64 ef 3d
       0.083036184 0.25385273 0.19609156 0.1168901
0001d0 ec e7 86 bd 80 92 d4 3e ce 2c fc bd 92 3c 63 3e
       -0.06587204 0.4151802 -0.12313233 0.22191074
0001e0 2c 81 03 3e f3 68 3f 3e a5 23 a1 3e 25 0f 68 3e
       0.12842244 0.18692379 0.31472507 0.22662027
0001f0 59 78 0d 3e e0 61 60 3e a7 3e ee 3d bf 45 6d 3e
       0.1381544 0.21912336 0.11633044 0.23171137

net.2.weight f4 [256, 128]
000000 f4 46 82 3f b5 b0 8b bb cb f0 2a 40 a4 1b b4 3e
       1.0177903 -0.0042630085 2.6709468 0.35177338
000010 5b f6 95 3d 8e e6 59 3f b9 dd 56 3f fd 72 c6 3f
       0.07322379 0.85117424 0.8393207 1.5503842
000020 a7 36 31 40 8d 0f 10 3f 2c 19 6f 3f 43 02 a4 3e
       2.7689607 0.5627373 0.93397784 0.32032976
000030 76 5a 59 3d fe 3f 04 3f b1 ac 62 bd e8 f3 95 3f
       0.053064786 0.51660144 -0.055340473 1.1715059
000040 09 78 47 3f 79 50 ad 3e 98 b3 44 3f 56 8c d2 3f
       0.77917534 0.33850458 0.7683654 1.6449077
000050 44 7c 89 3f 86 b9 cc 3f ad ce 00 3e 2e 10 8c 3f
       1.0741048 1.5994117 0.1257884 1.0942438
000060 29 80 0f 3f b4 bb 10 3f 94 f1 8b 3f 5f 30 04 bd
       0.5605493 0.5653641 1.0933099 -0.032272693
000070 6f 6f 5d 3f c3 90 82 3e b3 81 58 3e dc 4e 30 3f
       0.8649816 0.2550107 0.21143226 0.6887033
000080 46 e4 74 3f 99 c8 5b 3f 95 c9 2f 3f b6 92 3a 3f
       0.9566082 0.8585296 0.68666965 0.72880113
000090 a1 bb bf 3e 79 b8 d1 3f 17 de cb 3f ca da f7 3d
       0.37447837 1.6384422 1.5927151 0.121022776
0000a0 66 e6 fc bf 25 d6 e7 3e 05 21 e7 3d aa 9d cd 3e
       -1.9757812 0.45280567 0.11285595 0.4015935
0000b0 ef 7d 19 3f 68 21 43 3f 8e 03 b2 3f d3 6e b5 3f
       0.59957784 0.7622285 1.3907335 1.4174446
0000c0 0e fa 7b 3f fa 41 83 3e 5d cf 65 3f e0 35 e2 3f
       0.9842843 0.25636274 0.89769536 1.7672691
0000d0 8d cc 66 3f c5 ce f1 bc 8b e5 57 3f d8 36 35 be
       0.9015587 -0.02951754 0.8433463 -0.17696702
0000e0 09 b1 01 be 5a 6e 02 c0 28 a0 a3 3e 94 e8 03 40
       -0.1266519 -2.0379853 0.31958127 2.0610704
0000f0 f9 f5 57 be 94 4b 31 40 47 76 0e 3f b0 27 48 3f
       -0.21089925 2.770238 0.55649227 0.7818556
000100 da 77 d4 bd f6 76 e0 3e 77 ed 96 3f 7a 15 df 3e
       -0.10374422 0.4384076 1.1791219 0.43571073
000110 36 4c 44 3f cc 82 46 3f 94 9d ca 3e 77 8b 9f 3e
       0.7667879 0.7754333 0.39573348 0.3116109
000120 51 a2 e5 3e 34 7e d6 3f ee a1 e8 3e e7 4e 80 3e
       0.448504 1.6757264 0.45436043 0.25060198
000130 05 f1 dd 3e f4 f1 ac be 84 7f a3 3f 54 ca b2 3e
       0.43347946 -0.33778346 1.277329 0.3491999
000140 3f df 25 3f 8f 50 35 3f 6e 56 5b bf 1e 5b a0 3e
       0.6479377 0.7082605 -0.85678756 0.31319517
000150 8b a7 31 3f 49 f0 6e be 63 3e 2f 3f e2 13 c0 3f
       0.69396275 -0.23333849 0.6845457 1.5006068
000160 55 ca c1 bc b1 9e 1f 3f 26 95 a5 3f a2 72 75 3f
       -0.02365605 0.6235152 1.2936141 0.9587804
000170 e7 99 58 3f 51 43 cb 3f 2e b5 29 3f 54 00 11 3f
       0.84609836 1.5879918 0.66292083 0.56641126
000180 30 99 c7 3f d3 2f 86 3e 1f b7 4b 3f c0 26 de bf
       1.5593624 0.26208362 0.79576296 -1.7355576
000190 5a 56 2f bd b9 a1 1d be ee 34 b9 3f 49 8c bf 3e
       -0.04280696 -0.15393724 1.4469278 0.37411717
0001a0 9a 44 22 3f 65 ab 18 3f a2 69 11 3f 2c a8 36 3e
       0.6338593 0.5963653 0.5680181 0.1783759
0001b0 1d 64 a6 3f 85 5d da 3f 78 2c 14 3f d7 c7 30 3f
       1.2999302 1.705979 0.57880354 0.6905493
0001c0 09 b3 ab 3f 1b a9 91 3f 49 e2 58 3f a1 3a d6 3f
       1.3414012 1.1379732 0.84720284 1.6736642
0001d0 b6 57 23 40 48 c2 a6 3e c9 99 fb bf e5 53 9c 3f
       2.5522285 0.325701 -1.9656307 1.2213103
0001e0 ef 89 94 3f 76 a1 bd 3e cb 36 09 3f 5a b0 61 3f
       1.1604594 0.37037247 0.5359923 0.88159716
0001f0 1e 6b 31 40 51 c3 9c 3e 83 45 ac 3f 5a 0e bd 3f
       2.772163 0.30617765 1.3458713 1.4770005
000200 18 af 21 40 69 6f 81 3e 29 ef f6 3e a5 f6 b3 3d
       2.5263119 0.25280312 0.4822934 0.08787278
000210 d3 5e 0b 3f d5 e0 12 3f 58 dd 9b be 6d 70 99 3f
       0.54441565 0.57374316 -0.3044231 1.1987435
000220 ec a7 ef 3e 11 74 d6 3e d4 61 0b bd e2 d5 a8 3e
       0.46807802 0.41885427 -0.034028843 0.3297568
000230 07 a6 af 3e a9 12 8d 3f a0 59 54 3f ae 0e 0f 40
       0.34306356 1.102132 0.82949257 2.235271
000240 96 6b 11 3f 41 58 5f 3f 85 18 14 3f 8d d8 5e 3e
       0.5680479 0.8724404 0.57849914 0.21762295
000250 14 4c cf 3f de d5 83 3f dd 49 42 3f d3 af 62 3f
       1.6195092 1.0299642 0.75893956 0.88549536
000260 17 7f 36 3f 69 c7 37 3f af 4c 88 3f a0 b8 01 3f
       0.71287674 0.7178865 1.0648402 0.5067234
000270 3e 14 b2 3e cd 8a 0e 3f b9 e8 22 3e 99 d1 fb 3f
       0.3478107 0.55680543 0.15909089 1.9673339
000280 7b 95 40 3f 0a 01 a3 3f c3 ab 98 3f b4 e9 f1 3e
       0.7522809 1.2734692 1.1927418 0.47248614
000290 49 9f b0 3f 2f a3 a6 3f c2 b6 81 3f 4f 75 1f 3f
       1.379861 1.301855 1.0133898 0.62288374
0002a0 ae 80 0e c0 66 17 38 3f 96 9d f4 3e 26 f8 40 3f
       -2.226604 0.71910703 0.4777648 0.75378644
0002b0 9e 78 23 3f d1 cc 3a 3f be 4a f8 3f c6 6e 22 3f
       0.6385592 0.72968775 1.939781 0.63450277
0002c0 07 f6 ee 3f ad 48 93 3e 08 72 31 3e 1c 7e a2 3f
       1.8668832 0.28766385 0.17328656 1.2694736
0002d0 7b a7 4f 3f 2e 06 b8 3e df 04 52 3f 07 d7 fa 3e
       0.8111493 0.35942215 0.8203868 0.48992178
0002e0 40 48 73 3f df 2e 11 c0 3a 03 83 ba 5e 3b d3 3f
       0.9503212 -2.2684858 -0.0009995468 1.6502492
0002f0 96 76 8b 3d 4a a2 00 3f 28 ec df 3e eb f7 02 3f
       0.06809728 0.50247633 0.4373486 0.5115954
000300 21 91 2c be 15 8e d8 3e 76 ee e1 3f b5 78 f4 3e
       -0.16852237 0.422959 1.7650898 0.47748342
000310 b6 60 04 40 ad 16 d1 bd 31 07 aa 3f c5 eb 56 3f
       2.0684028 -0.10209403 1.3283445 0.83953506
000320 98 8f 65 3f d2 0f 12 3f 44 78 f1 3e d8 2a fa 3e
       0.8967223 0.5705539 0.47162068 0.48860812
000330 b8 79 71 3f d4 cf 35 3f 8a fb 1c 3f a1 4d 95 3f
       0.94326353 0.71020246 0.6132132 1.1664315
000340 8e 51 90 3f fe 93 25 be 0a 24 e2 3e 3b b3 c2 3e
       1.1274889 -0.16169736 0.4416812 0.38027367
000350 35 09 39 3f b8 cf af 3e a7 8d d9 3e fe eb f9 3e
       0.72279674 0.34338164 0.42490885 0.4881286
000360 bf 93 63 3f 40 c5 79 3f 69 02 94 3e 98 b4 5f 3f
       0.8889732 0.97566605 0.2890809 0.8738494
000370 74 46 8f 3e 51 94 9b be 80 66 68 be c9 9c 43 3f
       0.2798344 -0.30386594 -0.2269535 0.7641111
000380 5b d2 fb 3e d3 5c 6a 3f 38 02 8f 3f f5 1e b5 3f
       0.49183926 0.9154789 1.1172552 1.4150072
000390 1c 2b 7b 3f 38 b1 13 3f f2 58 d2 3f 18 e2 8c 3f
       0.98112655 0.5769229 1.6433394 1.1006498
0003a0 d6 81 45 3f 9a 03 37 3f 5a 0a 15 3f 0f e7 30 3f
       0.7715124 0.7148987 0.5821892 0.6910257
0003b0 fb 8c aa 3e 01 2d 68 3f 03 d0 55 3f c8 f4 84 3d
       0.33310685 0.9069367 0.83520526 0.06492001
0003c0 ce 5d 23 3f 0b 63 16 40 72 a8 c2 3f 55 de d4 3e
       0.6381501 2.349795 1.5207655 0.41575876
0003d0 90 f8 ec be bc db 86 3e ee e0 0a c0 11 2e cc 3f
       -0.46283388 0.2633952 -2.1699786 1.5951558
0003e0 7e 2c c1 3f 69 ef 30 3f 1e 96 eb 3e 13 f5 68 3f
       1.5091703 0.6911531 0.46012968 0.90998954
0003f0 3f db a8 be 02 a1 26 3f 63 a3 1b 40 90 f0 f0 3f
       -0.32979771 0.6508943 2.4318473 1.8823414

net.2.bias f4 [256]
000000 3f 5c e7 3e d9 2e b6 3e 66 b9 55 3e 2c 47 b2 3e
       0.45187566 0.35582617 0.20871505 0.34819925
000010 48 21 b2 3e ea a7 d2 3e ac 76 62 be d1 59 b1 3e
       0.34791017 0.41143733 -0.22115582 0.34638837
000020 4f 4b ed 3f 81 f7 ef bd 46 84 00 be d4 20 dd 3d
       1.8538607 -0.117171295 -0.12550458 0.10797277
000030 3a 06 b7 3e 51 eb 90 3e 78 ea 98 3e d5 9d 94 3e
       0.35746938 0.28304532 0.29866385 0.29026666
000040 e4 98 ae 3e a9 1e a2 3e 38 c6 1f be 53 29 78 3e
       0.3410102 0.31664017 -0.15602958 0.24234514
000050 ef ac 1f be ad 6c c4 3e c8 7d 5e 3e 9d 4f 0c 3e
       -0.15593313 0.38364163 0.21727669 0.13702245
000060 00 35 c3 3e e4 4c 95 3e d6 dd 8e 3e 89 89 a6 3e
       0.38126373 0.29160225 0.27903622 0.32526806
000070 5c 0f 96 3e 3a 8a cc 3e af 57 83 3e 59 e4 d7 3e
       0.29308593 0.39949208 0.25652835 0.42166403
000080 8a f3 0a be 0e cd 5f be 7c 47 aa 3e ac 46 c4 bd
       -0.13569465 -0.21855566 0.33257663 -0.09583792
000090 87 87 1a 3f b6 d9 7a bc 69 72 af 3e de 45 87 3e
       0.6036305 -0.015310695 0.34266976 0.26420492
0000a0 bb 77 52 3e 1e ae 91 3e 5d 6f 74 3e a2 ed bb 3e
       0.20553486 0.28453153 0.23870607 0.36704737
0000b0 02 32 a6 3e 43 09 d4 3e 79 69 99 3e ba d2 1d 3e
       0.32460028 0.41413316 0.29963282 0.15412417
0000c0 55 9f ab 3e bc f1 a7 3e d7 66 41 be c5 b0 d9 3e
       0.33519998 0.32801616 -0.18886887 0.42517677
0000d0 8d a9 4c be f4 8d b9 3e c4 32 ef bd 9b 66 a0 3e
       -0.19986553 0.36241114 -0.11679605 0.31328282
0000e0 45 c2 74 3e 43 f1 81 3e 85 ac 5d be e6 04 95 3d
       0.23902233 0.2537938 -0.21647842 0.07276325
0000f0 c5 7c 91 3e e4 c4 ab 3e 1b 9f e9 3e 7f 8c be 3e
       0.28415504 0.33548653 0.456292 0.37216565
000100 7c dc 80 3e a2 b1 e4 3f c9 88 fb 3e 0e 4b 73 3e
       0.25168216 1.7866709 0.49127796 0.237591
000110 0e 44 86 3e cc 3e 60 3e f2 08 e3 3e 22 22 13 be
       0.26223797 0.21898955 0.44342762 -0.1436849
000120 6b bb 9d 3e a7 2b 88 3e 64 08 27 bf da 5c e3 3e
       0.3080705 0.26595804 -0.6524718 0.44406778
000130 e4 cb 14 3f 24 1c a4 3f 2b 33 c1 3e 0c 34 cb 3e
       0.5812361 1.2821088 0.3773435 0.39688146
000140 c8 ae 3f be 35 f2 30 3e 88 39 0e be 4a 20 7b 3e
       -0.18719018 0.17279895 -0.13889134 0.24524036
000150 50 71 8d 3e 2e 76 68 3e fc bc 4e 3e 4d f8 7e 3e
       0.27625513 0.22701332 0.2018928 0.24899407
000160 d9 6c 74 3e aa af 2a 3f 01 24 a0 3e d0 ac c0 3e
       0.23869647 0.6667429 0.3127747 0.37631845
000170 7f a6 45 3e d2 5a e4 3f 3e 8e dc 3e 48 e0 68 3e
       0.19301794 1.7840216 0.43077272 0.22741807
000180 95 8e 36 3e 0b 99 d9 3e c0 e3 d2 3e b0 7a c8 3e
       0.17827828 0.42499575 0.41189384 0.39156103
000190 d1 e1 9a bd 97 91 27 3e b4 86 b4 3e 5f cc cc bd
       -0.07562602 0.16364132 0.3525902 -0.09999918
0001a0 51 2c 87 3e 17 ef f2 3e 0a ab be 3e 63 87 bd 3e
       0.26400998 0.47448036 0.37239867 0.37017354
0001b0 d8 1d c2 3e 80 ca 89 3e d2 9b 18 3f f0 52 69 3e
       0.37913394 0.26912308 0.5961276 0.22785544
0001c0 5e 07 5f 3e b4 6f 6e 3e da d0 8d 3e 52 27 29 bc
       0.21780154 0.23284799 0.27698404 -0.010324316
0001d0 73 b0 3e 3e a5 c9 70 be 27 11 b1 be 55 d1 e3 3a
       0.18621998 -0.23514421 -0.345834 0.0017381111
0001e0 18 ff b3 3e 77 a4 4f 3e 89 fe 21 be 66 b4 b3 3e
       0.3515556 0.20277582 -0.15819754 0.3509857
0001f0 a7 2f f4 3e 8a 60 b8 3e 19 45 5f 3e bf 26 8c 3e
       0.47692606 0.36011153 0.21803702 0.2737331
000200 e8 69 9a 3e 1a 4f aa 3e 2f 0f 98 3e c3 79 d5 3e
       0.30158925 0.33263475 0.29699084 0.4169446
000210 e4 de 35 3e 0d a6 a9 3e 52 4f a3 3e e8 0e 58 3e
       0.17760807 0.331345 0.31896454 0.21099436
000220 21 06 00 3f 89 ca 94 3e 08 0f 8b 3e 44 45 9b 3e
       0.5000935 0.29060772 0.27159905 0.30326283
000230 04 f4 e0 3e f0 e4 8e 3e 13 1c ae 3e 49 11 c7 3e
       0.4393617 0.2790904 0.34005794 0.38880375
000240 f9 52 6c 3e 92 5c c9 3e d5 e6 1a be 89 f1 5d 3d
       0.23078527 0.39328438 -0.15127118 0.054185424
000250 0e c0 e0 3e 02 88 c6 3e 97 5b 08 3f 65 a8 37 3e
       0.43896526 0.3877564 0.53264755 0.17935331
000260 4b 36 7d 3e b7 1e 9e 3e 8f 73 49 3e e0 3d 84 3e
       0.24727742 0.3088281 0.19672988 0.25828457
000270 fa d5 dc 3e 1d a0 88 3e 29 62 c7 3e 93 63 93 3e
       0.43132 0.26684657 0.38942078 0.28786907
000280 17 89 0d be 87 08 c9 3e 01 f7 b0 3e 3f 17 da 3e
       -0.13821827 0.39264318 0.3456345 0.4259586
000290 9f a9 9a 3e 23 c9 a1 3e 7a 77 18 bd 5f 68 80 3e
       0.30207536 0.31598768 -0.037223317 0.2507963
0002a0 12 46 a8 3e 48 cc 55 be 34 ac c0 3e a4 9d 9a 3e
       0.3286596 -0.20878708 0.3763138 0.30198395
0002b0 c6 f1 cf 3f df d2 93 3e 50 de cc 3e f7 93 16 3e
       1.6245658 0.2887182 0.4001336 0.14704882
0002c0 3b b9 9d 3e be 10 5a 3e 7e 97 be 3e c5 03 5c 3e
       0.30805382 0.21295449 0.37224954 0.21485813
0002d0 a3 1f 63 3e 77 70 f0 3c f9 78 6f 3e b9 d4 a4 3e
       0.22180037 0.029350502 0.23385991 0.32193545
0002e0 e5 66 fb 3d c5 ef 3b 3e 5f 77 4d 3f af 1a 8c 3e
       0.12275485 0.18353184 0.8026027 0.27364108
0002f0 35 18 38 bd 74 89 bf 3e 8c 3f 18 be 5c af 89 3e
       -0.04494496 0.37409556 -0.14867991 0.268916
000300 71 ef d4 3e 3b c7 c2 bf d9 9d c5 3e 7b 0c 9e 3e
       0.4158893 -1.521705 0.3859699 0.30868897
000310 b6 8e c1 3e 6b b1 cf 3e 39 a7 c0 3e 71 9a a1 3e
       0.37804192 0.40565047 0.3762758 0.31563142
000320 55 16 b2 3e d7 18 46 be 98 e4 bd 3e 7c a6 98 3e
       0.34782663 -0.19345413 0.37088466 0.29814517
000330 26 33 b0 3e c5 0d 89 bd a3 a7 bc be eb d8 a4 3e
       0.34414023 -0.066920795 -0.36846647 0.32196745
000340 e6 c2 8f 3e 05 95 8e 3e 42 3d 98 3e 84 93 ba 3e
       0.28078383 0.27848068 0.29734236 0.3644067
000350 5d 93 a6 3e 8a 23 9e 3f 43 1f a1 3e 23 4e 42 3f
       0.32534304 1.2354596 0.31469163 0.7590048
000360 12 2d b2 3e 76 f0 9f 3e 66 bc c5 3e a0 6a bf 3e
       0.3480001 0.31238145 0.386203 0.37386036
000370 d5 8b 7c 3e b6 17 c6 3e 1b 4b 8e 3e be cd 79 3e
       0.24662717 0.38689965 0.27791676 0.2439489
000380 20 b2 a4 3e d1 d7 5b 3e 61 83 ca 3e 72 70 27 3e
       0.3216715 0.21469046 0.3955336 0.16351488
000390 ab 85 ab 3e d7 ac 87 3e 4e 4e cc bd 8c 1b 83 3e
       0.33500418 0.26499054 -0.09975873 0.25606954
0003a0 f2 d6 7a 3e 16 66 a1 3e 28 a2 eb bd 62 2c 11 3f
       0.24496058 0.31523198 -0.11505538 0.5670835
0003b0 29 33 a4 3e ef d6 88 3e 28 23 a6 3e 14 57 5f 3f
       0.32070282 0.2672648 0.32448697 0.87242246
0003c0 b8 ce 95 3e 61 eb 7e 3e b4 af 35 be e4 2d a2 3e
       0.29259276 0.24894477 -0.17742807 0.31675637
0003d0 91 57 9f 3e 0e 8f f7 3e c4 a9 b1 3e d9 af 8f 3e
       0.31121495 0.4835133 0.34699833 0.2806385
0003e0 2e db 27 bd ed 65 47 be ec 52 c5 3e 7a 15 8c bc
       -0.04098051 -0.19472475 0.38539827 -0.017100085
0003f0 e9 bf af 3e 91 07 87 3e f2 d9 e9 3e a8 59 09 3f
       0.34326103 0.2637296 0.45674092 0.5365243

net.4.weight f4 [27, 256]
000000 70 eb 87 3e 64 dd 05 3f c5 c6 09 3f 84 5c eb 3e
       0.26546812 0.5229094 0.53818923 0.4596902
000010 f4 a7 f5 3e 7c a6 00 3f dc ef 1c 3f 33 b9 08 3f
       0.479797 0.50254035 0.61303496 0.5340759
000020 d5 be 6d bf 9a 56 1e 3f 1b a5 18 3f a0 b0 22 3f
       -0.9286931 0.61850893 0.5962693 0.6355076
000030 ba 5b 0f 3f 74 57 d8 3e cf ca f2 3e 61 f3 e6 3e
       0.5599934 0.4225422 0.47420356 0.45107558
000040 fa 2e f1 3e 68 86 00 3f d2 31 0c 3f 4c ed f7 3e
       0.47106153 0.5020509 0.5476352 0.4842323
000050 66 45 25 3f 3d 22 bb 3e f9 01 00 3f 06 9a 14 3f
       0.6455902 0.3654956 0.5000301 0.5804752
000060 9b a0 c9 3e dc cd fa 3e fd 9d 01 3f 5b ee c0 3e
       0.39380345 0.48985183 0.50631696 0.3768185
000070 72 ac c0 3e 2f 58 e1 3e ab 20 00 3f f0 70 c9 3e
       0.37631565 0.4401259 0.5004985 0.39343977
000080 ed d4 23 3f b6 b7 0c 3f b5 0d e2 3e ec 70 05 3f
       0.63996774 0.5496782 0.44151083 0.5212543
000090 0e 79 f3 3e 50 84 57 bd ed ac f0 3e 31 ee 84 3f
       0.47553295 -0.052616417 0.47006932 1.038519
0000a0 5e 78 09 3f 03 38 da 3e a3 46 08 3f 48 16 e7 3e
       0.5369929 0.4262086 0.53232783 0.45134187
0000b0 90 9e e3 3e a1 6a f3 3e 34 9c 8d 3d 4c de 01 3f
       0.4445691 0.4754229 0.06914559 0.50729823
0000c0 81 19 ef 3e ef 4f e6 3e 3d df 1d 3f 64 a2 fd 3e
       0.46699145 0.4498286 0.6166876 0.49537957
0000d0 7d 34 21 3f e8 9f 81 3f ad 94 1b 3f f1 3f 01 3f
       0.62970716 1.0126925 0.60773736 0.5048819
0000e0 aa 73 d7 3e 6d a4 00 3f f0 9c 0a 3f ca d1 a4 3e
       0.42080432 0.50250894 0.5414572 0.32191306
0000f0 19 7c f3 3e 22 16 f0 3e a8 14 0d 3f 48 eb eb 3e
       0.47555616 0.46891886 0.55109644 0.46077943
000100 e3 e6 f0 3e d3 c6 59 bf 53 ed b6 3e 4d 72 02 3f
       0.47051153 -0.85069007 0.3572794 0.5095566
000110 a2 20 cf 3e 31 92 0b 3f 48 ca ce 3e fe 6f fe 3e
       0.40454584 0.54519945 0.40388703 0.49694818
000120 65 2f f6 3e 13 79 c2 3e 5d 95 31 3f 8e 5a 01 3f
       0.48083034 0.37982997 0.69368535 0.505288
000130 69 1b 0d 3e 9f 78 0e bf 35 b6 d6 3e f8 90 cb 3e
       0.13779987 -0.55652803 0.41935888 0.3975904
000140 06 3f 1a 3f d0 50 d8 3e da df 16 3f ae 42 db 3e
       0.60252416 0.42249155 0.5893532 0.4282431
000150 9d 47 cf 3e 72 3b d7 3e 38 41 03 3f f5 35 fb 3e
       0.40484324 0.4203754 0.5127139 0.49064603
000160 de 5b 00 3f 9c 36 95 bf 02 2f 15 3f 57 fa aa 3e
       0.5014018 -1.165729 0.58274853 0.3339412
000170 66 8f ff 3e 4f 93 52 bf 69 0a e7 3e 58 d9 34 3e
       0.49914092 -0.82256025 0.4512513 0.17661035
000180 93 54 0f 3f ed 94 98 3d 66 f5 99 3e 4e 5b e0 3e
       0.55988425 0.0745028 0.30070037 0.4381966
000190 17 f7 02 3f d1 d2 be 3e 13 95 08 3f 45 21 03 3f
       0.5115828 0.37270215 0.5335247 0.5122264
0001a0 c8 c4 e6 3e ff 88 89 3e 3c bb ec 3e 85 14 e2 3e
       0.45072007 0.26862332 0.46236598 0.4415628
0001b0 72 5e f5 3e c8 d3 f3 3e a8 82 9c be 6a c9 fe 3e
       0.4792362 0.47622514 -0.30568433 0.49763042
0001c0 c1 ae e3 3e 61 12 10 3f 7c a6 0a 3f f8 0f 58 bc
       0.44469264 0.56278044 0.54160285 -0.013187401
0001d0 13 0a f5 3e aa 33 06 3f 86 53 39 3f 67 de 06 3f
       0.4785925 0.52422583 0.7239307 0.5268311
0001e0 87 d8 22 be d3 2f 96 3e 7e 1e 22 3f 00 04 d8 3e
       -0.15902911 0.29333362 0.6332778 0.42190552
0001f0 d3 43 ab 3e 42 c7 cc 3e 2f 52 02 3f ce b7 ea 3e
       0.33450183 0.39995772 0.5090665 0.45843357
000200 88 87 d3 3e bd 9f d5 3e 00 b6 b9 3e 66 b0 eb 3e
       0.4131434 0.41723433 0.36271667 0.4603302
000210 7a 79 f0 3e 39 17 fd 3e db ee 8a 3e 40 ba cc 3e
       0.4696768 0.4943178 0.27135357 0.39985847
000220 1e 6f 97 3e ec 6a 0a 3f c1 e5 03 3f e5 d1 00 3f
       0.29576963 0.540694 0.5152245 0.50320274
000230 8e 20 ec 3e 29 fa 8b 3e ef 32 c6 3e 0c e7 e2 3e
       0.46118587 0.27339295 0.38710734 0.443169
000240 30 be 02 3f 64 d7 0d 3f 52 d2 0f 3f bf 67 bd 3e
       0.51071453 0.55406785 0.561803 0.36993214
000250 73 4c 05 3f 5c 86 eb 3e 3d 38 37 3f 7a 3b cb 3e
       0.5206978 0.46000946 0.7157019 0.39693815
000260 7c 72 cf 3e 95 b4 e1 3e 5d df d2 3e 19 14 fd 3e
       0.40517032 0.44083086 0.41186038 0.49429396
000270 7f 7a ec 3e 4f 58 08 3f d2 2f d9 3e 40 66 d5 3e
       0.46187207 0.5325975 0.42419297 0.41679573
000280 f6 83 16 3f 86 b6 d4 3e 88 c7 c6 3e 71 7c af 3e
       0.58795106 0.41545504 0.38824105 0.3427463
000290 79 2c eb 3e 73 3f 01 3f 6f fb 1f 3f 6d 84 03 3f
       0.45932367 0.5048744 0.6249303 0.5137394
0002a0 b8 36 02 3f 29 ec 03 3f e0 95 df 3e 6f 22 07 3f
       0.50864744 0.51532227 0.43669033 0.52786916
0002b0 b0 95 75 bf 70 3e ad 3f f5 a1 d5 3e ea 1d 9b 3f
       -0.9593153 1.353468 0.41725126 1.2118504
0002c0 8f 3d f6 3e be 15 0a 3f 08 73 e6 3e 31 b1 fc 3e
       0.4809384 0.53939426 0.45009637 0.49353936
0002d0 be b3 f4 3e 99 0e aa 3f 39 c4 f6 3e 9b 75 cb 3e
       0.47793382 1.3285705 0.4819658 0.39738163
0002e0 eb 09 f8 3e 35 a9 db 3e 6f b0 6a bf 29 ab f4 3e
       0.48445067 0.42902532 -0.91675466 0.47786835
0002f0 43 1d 0a 3f a8 9b 82 3e 12 ef 1c 3f e0 04 07 3f
       0.539509 0.2550938 0.6130229 0.52741814
000300 d3 46 c6 3e 77 85 89 3e df 3e d9 3e 48 5b 9c 3e
       0.3872591 0.26859638 0.4243078 0.30538392
000310 2b 91 02 3f 64 5e 01 3f 02 3c ee 3e 47 e3 f7 3e
       0.5100276 0.50534654 0.46530157 0.48415586
000320 04 49 eb 3e 38 be 1b 3f 57 4e ef 3e b6 5d 07 3f
       0.45954144 0.60837126 0.46739456 0.52877367
000330 15 c3 05 3f 00 14 0d 3f 74 ce 0c 3f d2 b2 0a 3f
       0.52250797 0.5510864 0.5500252 0.5417911
000340 66 03 ce 3e b2 1a d3 3e 79 a4 f3 3e 44 47 f2 3e
       0.40236968 0.41231304 0.4758642 0.47319996
000350 4b e7 f7 3e 31 6a 60 bf 07 fc e3 3e 26 35 81 be
       0.4841865 -0.87662035 0.4452822 -0.25235862
000360 7f 96 f1 3e 8c 41 f1 3e 3b 1d bf 3e 6f f4 c5 3e
       0.47185132 0.4712032 0.3732699 0.3866305
000370 1d e9 e8 3e bc 80 d0 3e 04 dd 09 3f f9 ca f2 3e
       0.4549035 0.40723217 0.5385287 0.4742048
000380 49 15 bd 3e 50 18 0c 3f 66 2a da 3e cf 46 9f 3f
       0.36930302 0.547246 0.42610472 1.2443484
000390 90 1d ad 3e 05 12 01 3f db 37 14 3f fd 5a 08 3f
       0.33811617 0.5041812 0.5789773 0.5326384
0003a0 f5 a2 e0 3e 1c 29 f3 3e fd 20 07 3f 15 1d 85 be
       0.43874326 0.474923 0.5278471 -0.2599875
0003b0 d4 8f f1 3e 06 25 d8 3e bb 63 dd 3e c4 ca 27 be
       0.47180045 0.42215747 0.4324015 -0.16385943
0003c0 17 54 db 3e 67 19 0c 3f 2d a9 28 3f 4c 69 d5 3e
       0.42837593 0.5472626 0.6588314 0.41681898
0003d0 c2 c8 e6 3e ae b6 c1 3e 7f 23 01 3f 00 72 d5 3e
       0.4507504 0.37834686 0.5044479 0.41688538
0003e0 d2 e0 86 3f 45 36 1f 3f 00 ab d7 3e a6 06 05 3f
       1.053736 0.62192184 0.4212265 0.5196327
0003f0 c7 e2 e8 3e 18 24 f7 3e da d6 f1 3e 11 eb 86 be
       0.45485517 0.48269725 0.4723423 -0.26351216

net.4.bias f4 [27]
000000 d4 78 77 bd 39 ba 47 3e ca d2 3a bd b1 9f 6a 3d
       -0.060417965 0.19504632 -0.04561118 0.0572812
000010 d1 f0 e5 3d c0 ad 00 3e 4f b4 ca 3d 97 8e 3f 3e
       0.11227573 0.1256628 0.098976724 0.18706737
000020 fe 86 e5 bc 72 3a e3 3e c6 47 93 3d 6d ab 2e 3e
       -0.02801847 0.44380528 0.07191424 0.17057581
000030 74 47 68 3d 0a 99 59 3e 6f 4e f4 3d 0b d4 a8 3d
       0.056708768 0.21249786 0.119290225 0.08243569
000040 27 3c 5e bc 08 a4 df bc 2b ff 93 3e e6 31 08 3f
       -0.013564146 -0.027299896 0.28905615 0.5320114
000050 3c 5c e9 3e 5a 9f 80 3d c2 69 07 3e 9e af 04 3e
       0.45578182 0.06280394 0.13223937 0.12957618
000060 97 3f 97 3d ae fc 0b 3e c6 51 94 3d
       0.07385176 0.13670608 0.072421595
